kevin_nn_2025-02-21_18-55-48.pt (torch, 16609 bytes, 8 tensors)

weight f4 [16, 16]
-0.023584329 -0.67840505 -0.721404 -0.8623809 -0.5394036 -0.49484655 -0.078137785 -0.27846685
-0.28327817 -0.113447696 -0.38401026 -0.1290596 -0.73212 0.26191002 -0.08481009 0.010569722
-0.44244584 -0.9570113 -0.4138406 -0.53822064 -0.885209 -0.48482898 -0.40161526 -0.23084208
-0.31954494 -0.18148255 -0.6548183 -0.24439988 -0.22020654 0.25822937 -0.102787636 -0.012695804
-0.7580425 0.085137874 0.15162942 -0.86779314 -0.008586645 -0.6357778 -0.6806286 -0.9129767
-0.13989621 0.018715054 -0.20122898 -1.0175463 -0.047191113 0.21439192 0.14371473 -1.0165399
-0.1244612 -1.6797742 1.9763021 -1.3957952 -0.6776379 -0.7197861 -1.4688817 0.75676864
-0.8340889 -0.5855064 -2.8644629 0.2673838 -0.6613116 -0.56441253 0.91685843 -0.45077762
-0.3885117 0.2325236 -2.2418842 -0.08223315 -0.47252503 -0.4416456 -0.008505415 -0.099584974
0.24676502 -0.15911804 0.30710167 -0.26643646 0.17335592 -1.189743 -1.3012996 -0.2799277
0.07029054 -0.099937305 -1.5503578 1.6162199 0.5097585 -0.28303722 -0.5692959 1.5871736
0.6127763 -0.8219486 -1.0129129 -1.9617618 -1.32631 0.7021098 -3.4516883 -1.2425594
-0.17318004 -0.19749647 0.0014014536 -0.20600432 -0.26691484 -0.4742651 -0.13739276 -0.52045304
-0.40066862 0.16021915 -0.10058845 -0.10412262 -0.17232436 0.038326174 -0.44777617 -0.15530357
-0.09882444 -0.16757229 0.115273 -0.17215845 -0.07895848 -0.049188495 0.097150445 -0.2345022
0.09735593 0.22274938 0.035009086 -0.23229203 -0.22616047 -0.19925073 -0.2333312 -0.010578811
-0.36963868 -0.62084794 -0.67465115 -0.42104694 0.0159342 -0.6524079 -0.365187 -0.50996894
-0.14604391 -0.39089596 -0.8107251 -0.20642903 -0.14710163 0.019935226 -0.32877085 -0.12452367
0.059128135 -0.15826899 -0.36074644 -0.27166224 -0.31760415 -0.39779845 -0.5224055 -0.25101364
-0.5386834 0.045529474 0.032453757 -0.1312641 -0.017101616 -0.08032896 -0.3841662 -0.32657787
-0.04640601 -0.33450195 0.1160529 0.49579424 -0.15840879 -0.5473796 -1.5586487 2.1148326
0.07364649 0.32048923 0.7256298 -0.30630007 0.00698588 -0.0010589585 1.4157927 2.7547326
-2.9944844 -0.7938185 -0.2428488 -0.6390795 0.7369759 -0.07908132 -1.2868834 -0.51741046
-0.7390137 1.3118756 -0.15062326 -0.7701932 -0.46177533 0.6628813 -3.3999465 -0.015526429
-0.33047268 0.037919097 -0.44702855 0.1599196 -0.08213604 0.018828588 -0.42449635 -0.43996823
-0.51088357 0.6013166 -0.06290895 -0.59710467 -0.043253243 -0.4372625 -0.29590663 -0.36701903
0.11697173 -0.055056844 -0.20437165 -0.42572227 0.48582467 -0.36592606 -0.43010992 -0.02705163
-0.10307929 0.0070382655 0.33068264 -0.45302972 -0.043000758 -0.10840368 -0.077942014 -0.4185722
0.10340965 -0.18590698 -0.5050723 -0.22521749 -0.1643382 0.13257778 0.49068636 -0.014070811
-0.080777876 -0.13674292 -0.4215492 -0.45071465 -0.031118006 0.019597262 -0.14955069 -0.55364984
-0.14566302 -0.2426224 0.11705443 -0.21376011 0.010783434 0.04688269 -0.11171731 -0.24968281
0.0052902997 -0.12729394 0.18601722 -0.12557504 -0.015150428 -0.10328844 -0.060679287 0.0069129467
00000000: ec33 c1bc f4ab 2dbf efad 38bf ffc4 5cbf
00000010: 5b16 0abf 875c fdbe b406 a0bd 3593 8ebe
00000020: d609 91be 4457 e8bd fe9c c4be 3328 04be
00000030: 376c 3bbf 1219 863e eab0 adbd a12c 2d3c
00000040: 4388 e2be b1fe 74bf eae2 d3be d4c8 09bf
00000050: 0f9d 62bf 813b f8be 84a0 cdbe de61 6cbe
00000060: 659b a3be 90d6 39be 2ca2 27bf f643 7abe
00000070: d37d 61be a436 843e 5382 d2bd 1002 50bc
00000080: 130f 42bf c45c ae3d be44 1b3e b127 5ebf
00000090: 00af 0cbc 55c2 22bf ad3d 2ebf d7b8 69bf
000000a0: f440 0fbe 5050 993c f80e 4ebe f53e 82bf
000000b0: 784b 41bd 8e89 5b3e f429 133e fb1d 82bf
000000c0: 83e5 febd d702 d7bf 78f7 fc3f 6ba9 b2bf
000000d0: ad79 2dbf e743 38bf 5104 bcbf 97bb 413f
000000e0: da86 55bf bfe3 15bf 5c53 37c0 88e6 883e
000000f0: b84b 29bf 577d 10bf 3cb7 6a3f 53cc e6be
00000100: 01eb c6be ab1a 6e3e 087b 0fc0 db69 a8bd
00000110: cdee f1be 5f1f e2be 4c5a 0bbc 35f3 cbbd
00000120: f8af 7c3e d7ef 22be 6e3c 9d3e 5c6a 88be
00000130: 3784 313e 8049 98bf fc90 a6bf af52 8fbe
00000140: 7df4 8f3d eeab ccbd 2072 c6bf 4be0 ce3f
00000150: 887f 023f 41ea 90be 60bd 11bf 8128 cb3f
00000160: e8de 1c3f 396b 52bf 21a7 81bf 031b fbbf
00000170: 87c4 a9bf 78bd 333f 76e8 5cc0 300c 9fbf
00000180: 1c56 31be 843c 4abe fbb0 b73a ccf2 52be
00000190: 10a9 88be e0d2 f2be b0b0 0cbe 693c 05bf
000001a0: 7024 cdbe 7d10 243e 5101 cebd 3d3e d5bd
000001b0: cc75 30be e8fb 1c3d eb42 e5be e607 1fbe
000001c0: 7864 cabd 1298 2bbe 4014 ec3d 4e4a 30be
000001d0: fcb4 a1bd e079 49bd d0f6 c63d 5821 70be
000001e0: 8c62 c73d 6a18 643e b065 0f3d f6dd 6dbe
000001f0: 9c96 67be 6208 4cbe 60ee 6ebe c052 2dbc
00000200: 4841 bdbe e4ef 1ebf f0b5 2cbf 7793 d7be
00000210: 7088 823c 3404 27bf caf9 babe 538d 02bf
00000220: 898c 15be 8423 c8be ae8b 4fbf 2262 53be
00000230: cfa1 16be 334f a33c a754 a8be 4406 ffbd
00000240: 5830 723d 4411 22be c2b3 b8be 5017 8bbe
00000250: 039d a2be 3dac cbbe 5ebc 05bf dc84 80be
00000260: 28e7 09bf 1d7d 3a3d 3bee 043d 196a 06be
00000270: b018 8cbc 8383 a4bd 6fb1 c4be 3735 a7be
00000280: 3a14 3ebd d743 abbe 25ad ed3d bed8 fd3e
00000290: ea35 22be 1221 0cbf cd81 c7bf 6b59 0740
000002a0: f9d3 963d 2a17 a43e e0c2 393f 5dd3 9cbe
000002b0: cfe9 e43b c0cc 8aba b238 b53f 8a4d 3040
000002c0: a2a5 3fc0 b037 4bbf 5bad 78be b79a 23bf
000002d0: 74aa 3c3f 63f5 a1bd 98b8 a4bf 0375 04bf
000002e0: 0030 3dbf 8aeb a73f fc3c 1abe 622b 45bf
000002f0: d16d ecbe 97b2 293f b998 59c0 9062 7ebc
00000300: b733 a9be 0e51 1b3d ede0 e4be f7c1 233e
00000310: f136 a8bd 693e 9a3c 9657 d9be 8443 e1be
00000320: 44c9 02bf e2ef 193f 68d6 80bd dadb 18bf
00000330: 502a 31bd dfe0 dfbe 1381 97be ebe9 bbbe
00000340: e08e ef3d 4983 61bd cd46 51be 45f8 d9be
00000350: 03be f83e a95a bbbe 5e37 dcbe 619b ddbc
00000360: 3c1b d3bd 40a1 e63b 3c4f a93e 83f3 e7be
00000370: 9021 30bd c002 debd 10a0 9fbd 184f d6be
00000380: 70c8 d33d 665e 3ebe 6b4c 01bf 6a9f 66be
00000390: 4648 28be 78c2 073e 3e3b fb3e 4289 66bc
000003a0: df6e a5bd 5606 0cbe 4cd5 d7be 12c4 e6be
000003b0: 30eb febc 708a a03c d123 19be ffbb 0dbf
000003c0: b028 15be 0272 78be 3cba ef3d eee3 5abe
000003d0: 00ad 303c 1008 403d 0ccc e4bd daac 7fbe
000003e0: 405a ad3b 5859 02be 4c7b 3e3e be96 00be
000003f0: 8039 78bc e488 d3bd d88a 78bd 0086 e23b

bias f4 [16]
-0.21036133 0.28522938 -0.8961223 0.90202636 -0.09936635 -1.0541016 -0.09610247 0.20212084
-0.2630278 -0.2362448 3.4233787 -1.7336423 -0.39717096 -0.49295375 -0.28552675 -0.18942252
00000000: f668 57be 9609 923e 4568 65bf 33eb 663f
00000010: 9680 cbbd cdec 86bf 5fd1 c4bd c4f8 4e3e
00000020: 94ab 86be 28ea 71be a318 5b40 fee7 ddbf
00000030: fe59 cbbe 6f64 fcbe 9030 92be faf7 41be

weight f4 [32, 16]
0.013440119 -0.60195655 0.01873213 -0.5615583 -0.018731419 0.2965753 -0.16171676 -0.11215708
-0.075666726 -0.07574128 -0.56057364 0.030488387 -0.26191807 0.30009618 -0.17639652 -0.22584847
-0.08175137 0.0043848045 -0.04404995 -0.3344191 -0.23955062 -0.51407653 0.027136782 0.116281986
0.0381614 0.21333525 -0.16519412 -0.355666 -0.5960132 -0.09054747 -0.029638886 -0.004139155
-0.1465904 0.03893814 -0.85435 0.10079169 0.29725072 0.07070976 -0.007182915 -0.047607422
-0.38058093 0.16653898 -0.724214 0.029915394 -0.0572796 -0.28197348 -0.58553976 0.16142046
0.42734683 -0.25181386 0.84393406 -0.46960267 0.21177703 0.20930587 0.2951898 -0.13972399
0.06881649 -0.21895654 -0.43881568 -0.05956258 -0.009891148 0.07513358 0.102213636 -0.017388165
-0.6436096 -0.23128453 -0.21699846 -0.26039293 -0.7794821 0.03151349 -0.515324 -0.13719082
-0.53419656 -0.75211436 -0.28750837 -0.6845015 -0.17032008 -0.14425264 -0.6113291 0.19319898
-0.22190629 -0.7374623 0.0059586763 -0.18301523 -0.021194903 0.097641535 -0.49681658 -0.13760826
-0.5565129 -0.5129924 -0.3635251 -0.09472549 0.120345935 -0.39528248 -0.25917536 0.19328046
0.35036603 -0.2688394 -0.13706687 -0.3857302 -0.04009191 0.07168347 0.289729 0.10532269
0.17832232 0.11944283 -0.30344164 -0.26836464 0.040870335 0.15320522 0.08290712 0.20264009
0.13771957 -0.240655 0.7013227 -0.90287024 0.10162349 -0.022807896 -0.09367278 -0.08820352
-0.13449366 -0.3538926 -0.5153612 -0.05539209 0.37340936 0.38817272 0.5106042 -0.21416312
0.28864583 -0.27973133 -0.07138386 -0.12734862 -0.32416347 0.11731707 0.264376 0.21546435
0.17452939 0.02016166 -0.2569663 -0.29184574 0.10136337 -0.0932466 0.08233264 -0.11545688
-0.47828096 -0.054040108 0.090985686 -0.38992727 -0.16492659 -0.08017421 -0.4906923 0.07449457
0.15775701 -0.079113856 -1.5692154 -1.1761867 -0.029760003 -0.1684424 -0.09132069 -0.038698524
-0.37136084 -0.2421916 0.21761161 -0.2575578 -0.38148886 -0.12617287 0.16677684 0.23014736
-0.32629946 -0.42965242 -0.16054443 -0.021332681 -0.19166103 -0.13241366 -0.15311322 0.17867145
0.09648657 -0.3413612 -0.15802184 -0.18194993 -0.380617 -0.120993316 0.5357924 -0.21044159
-0.18890592 0.30275422 -0.39824146 -0.03642252 -0.09275049 0.031068206 0.07151747 -0.09423816
0.43014473 -0.12523116 -0.18370542 -0.28912735 -0.75705457 -0.011311168 -0.32988715 -0.24632567
-0.46218595 -0.61707366 -0.35978937 -0.22846437 0.2968738 -0.22224146 0.21137151 0.22700283
0.28961188 -0.8183917 0.613754 -1.1995765 0.6065497 0.14100331 -0.33920154 -0.20165896
-0.29949874 -0.48253125 -0.33809683 0.12161371 0.23213339 0.31706458 0.014611326 -0.10367072
0.19597198 -0.31556767 0.65976495 -0.8789965 -0.32047725 0.06937927 0.076503836 0.10719776
-0.16065368 0.15354225 -0.33346766 -0.17687973 0.2749673 0.53807664 0.14752105 0.089399874
0.044524733 -0.16003181 -0.07466 0.004164864 -0.29053596 -0.46766895 0.104879044 -0.18922552
-0.10666407 0.2245395 -0.10573687 -0.23055977 -0.031575553 0.07882527 0.027434133 0.10787597
00000000: f233 5c3c d319 1abf 2074 993c 49c2 0fbf
00000010: a272 99bc b8d8 973e 1499 25be 9cb2 e5bd
00000020: 28f7 9abd 3f1e 9bbd c181 0fbf c8c2 f93c
00000030: 201a 86be 35a6 993e 4aa1 34be d244 67be
00000040: 436d a7bd 68ae 8f3b b86d 34bd fb38 abbe
00000050: c24c 75be 859a 03bf f54d de3c 4025 ee3d
00000060: 214f 1c3d 8e74 5a3e a628 29be db19 b6be
00000070: 5294 18bf f470 b9bd 40cd f2bc c0a1 87bb
00000080: cb1b 16be 997d 1f3d aeb6 5abf e06b ce3d
00000090: 3f31 983e 47d0 903d a95e ebbb 0000 43bd
000000a0: 81db c2be 3289 2a3e 1766 39bf 2111 f53c
000000b0: 049e 6abd d45e 90be efe5 15bf 684b 253e
000000c0: 34cd da3e bfed 80be 100c 583f c36f f0be
000000d0: 14dc 583e 4754 563e 1e23 973e ce13 0fbe
000000e0: a9ef 8c3d 2536 60be 73ac e0be e4f7 73bd
000000f0: 7b0e 22bc a2df 993d 6255 d13d a071 8ebc
00000100: 99c3 24bf dad5 6cbe d834 5ebe 3952 85be
00000110: 248c 47bf 4a14 013d 46ec 03bf c07b 0cbe
00000120: 1bc1 08bf 918a 40bf 4c34 93be 7e3b 2fbf
00000130: 6368 2ebe f7b6 13be 1080 1cbf f4d5 453e
00000140: 673b 63be 54ca 3cbf 0041 c33b 5868 3bbe
00000150: efa0 adbc 49f8 c73d be5e febe 2ee9 0cbe
00000160: a177 0ebf 7853 03bf f61f babe 70ff c1bd
00000170: ee77 f63d 7762 cabe a2b2 84be 50eb 453e
00000180: 2d63 b33e 51a5 89be 425b 0cbe 6e7e c5be
00000190: 6a37 24bd c8ce 923d 5c57 943e 6cb3 d73d
000001a0: 209a 363e 719e f43d b45c 9bbe 1767 89be
000001b0: a767 273d d4e1 1c3e 35cb a93d e280 4f3e
000001c0: 5c06 0d3e 446e 76be e289 333f 8122 67bf
000001d0: fa1f d03d a0d7 babc 84d7 bfbd 0ca4 b4bd
000001e0: b5b8 09be 6931 b5be b6ee 03bf d1e2 62bd
000001f0: 832f bf3e 93be c63e f5b6 023f 944d 5bbe
00000200: 63c9 933e f238 8fbe b431 92bd ad67 02be
00000210: c1f8 a5be ef43 f03d 4b5c 873e b0a2 5c3e
00000220: d5b7 323e 112a a53c 1691 83be ce6c 95be
00000230: 9997 cf3d 13f8 bebd 049e a83d a874 ecbd
00000240: 3ee1 f4be 2959 5dbd b456 ba3d 8ca4 c7be
00000250: 84e2 28be 6032 a4bd 053c fbbe 9c90 983d
00000260: 0e8b 213e 7206 a2bd 0ddc c8bf 498d 96bf
00000270: 40cb f3bc 2a7c 2cbe 5806 bbbd 5882 1ebd
00000280: 0223 bebe 1301 78be 94d5 5e3e 9ede 83be
00000290: 8252 c3be 7633 01be 8cc7 2a3e c0ab 6b3e
000002a0: b910 a7be 67fb dbbe c265 24be e0c1 aebc
000002b0: ca42 44be 7297 07be b6c9 1cbe a6f5 363e
000002c0: c09a c53d e5c6 aebe 7ad0 21be 1551 3abe
000002d0: 3be0 c2be 58cb f7bd b129 093f 007e 57be
000002e0: 8e70 41be 9a02 9b3e 4ee6 cbbe c82f 15bd
000002f0: f8f3 bdbd c082 fe3c c077 923d f0ff c0bd
00000300: ee3b dc3e 993c 00be 461d 3cbe 8008 94be
00000310: 54ce 41bf 7a52 39bc f8e6 a8be cc3c 7cbe
00000320: a3a3 ecbe 8af8 1dbf 5036 b8be 90f2 69be
00000330: d8ff 973e 4493 63be c671 583e 6e73 683e
00000340: 0248 943e 1e82 51bf fb1e 1d3f b98b 99bf
00000350: d746 1b3f 2c63 103e d3ab adbe b07f 4ebe
00000360: e657 99be 560e f7be 071b adbe 9c10 f93d
00000370: 60b4 6d3e 4a56 a23e 5864 6f3c 5051 d4bd
00000380: e1ac 483e 1692 a1be 5be6 283f ea05 61bf
00000390: 9815 a4be b816 8e3d 0bae 9c3d 808a db3d
000003a0: 6682 24be 2e3a 1d3e 46bc aabe f61f 35be
000003b0: 84c8 8c3e 64bf 093f c20f 173e 4817 b73d
000003c0: 915f 363d 61df 23be 58e7 98bd 6979 883b
000003d0: 21c1 94be 4e72 efbe d3ca d63d 56c4 41be
000003e0: b172 dabd afed 653e 928c d8bd dc17 6cbe
000003f0: 5e55 01bd 256f a13d 8cbd e03c 14ee dc3d

bias f4 [32]
-0.09034632 -0.054571584 0.16601266 0.07353188 -1.0737181 -0.26377183 -0.14751919 0.22021334
-0.009027965 -1.6548343 -0.03873114 -0.060615037 -0.42778993 0.116241135 0.031926703 -0.30499324
-0.99754596 0.44895947 0.52128863 0.04429173 -0.22402155 -0.3532501 0.9035972 1.0412976
-0.07800595 0.1514902 -0.5335823 -1.271439 -0.021278605 -0.4736504 -0.31385896 4.219342
00000000: 7e07 b9bd 7486 5fbd 39ff 293e e297 963d
00000010: 986f 89bf 1a0d 87be 450f 17be 9b7f 613e
00000020: 08ea 13bc 9cd1 d3bf 8ba4 1ebd 7947 78bd
00000030: 4807 dbbe d50f ee3d 93c5 023d 1328 9cbe
00000040: 2c5f 7fbf 04de e53e 2c73 053f 3f6b 353d
00000050: e865 65be 32dd b4be 2552 673f 3d49 853f
00000060: 95c1 9fbd 3f20 1b3e da98 08bf 83be a2bf
00000070: 7850 aebc 4e82 f2be 1fb2 a0be da04 8740

weight f4 [64, 32]
0.08898738 0.04629937 0.120153114 -0.35373783 -0.22182956 0.16238384 -0.27116057 -0.30817306
-0.28375325 -0.39021227 0.144468 0.16135426 -0.15853073 -0.026482144 -0.45939347 -0.39467683
0.049286965 -0.18117923 -0.4022927 -0.24780275 -0.28088158 0.4526793 -0.061203144 -0.39189026
0.04598907 -0.38382983 -0.13037038 0.44352576 -0.73800534 0.33286613 0.079602614 -0.111308776
-0.1982487 -0.2718653 -0.4685921 -0.1996172 -0.066351466 -0.25318664 -0.15734982 0.010513763
-0.1842358 -0.057648122 -0.13684571 -0.023749834 -0.45219705 0.018624777 -0.42422548 -0.19069153
0.11410741 -0.43777418 0.16471559 -0.09182862 -0.43033773 -0.19990027 -0.051831942 -0.21621346
-0.16137007 -0.2885884 0.0018404896 -0.33547154 -0.07271853 -0.34267673 -0.4559126 -0.44735283
0.37779248 0.021400226 -0.25426695 -0.39933994 -0.5869994 0.060965564 -0.44150603 -0.15027308
0.052592833 0.20076437 0.24212125 0.6731919 -0.039172918 0.5480952 0.06672744 -0.17380673
-0.13806945 -0.24900003 -0.030458491 -0.27458662 0.025966642 -0.366075 0.04014283 -0.35479456
0.25703624 -0.15309398 -0.042391695 0.3053693 -0.69930893 -0.39866865 0.09424956 -0.65146863
-0.56365204 0.7504007 -0.41129935 -0.2664822 0.13012703 0.032728396 -0.44356656 -0.3407514
-0.33752462 -0.063208975 0.1342465 0.15724891 -0.28922248 -0.94614047 -0.5145264 0.5310116
0.06509633 -0.5792045 -0.2158157 -0.2597724 0.47043464 -0.1485667 -0.13684772 -0.48043644
-0.85108817 -0.44717926 0.33178583 0.0013506168 -0.27882436 -0.0074172975 0.14380485 -0.46928865
-0.38250715 -0.2874807 -0.16922608 -0.47033802 -0.08505291 -0.3999786 -0.16035622 -0.4502408
-0.18389197 0.102009386 0.111540034 -0.39923656 -0.3665513 0.14024235 -0.46125078 -0.20987217
-0.14748023 -0.41564894 -0.40791276 -0.06831351 -0.28601333 -0.4191845 -0.21600674 -0.43804204
0.15825868 -0.09933922 0.08014204 -0.30424708 -0.22662668 -0.22512951 -0.1792146 -0.12378252
-0.051525496 -0.13715468 0.3658849 0.14266336 0.2885031 0.4409166 -0.11904864 0.23899497
0.23750623 -0.2211355 0.366408 0.39552358 0.4668525 0.5510023 0.22477877 -0.16230468
0.16694112 -0.13979597 -0.29420692 0.23973788 0.11153371 0.30416176 0.26643512 0.2415835
0.32673243 0.27832818 0.09091224 0.51790935 -0.2348702 0.30743474 0.29810947 -0.34282148
0.33670273 -0.3148802 -0.17860675 -0.34425122 0.19371966 -0.1545047 -0.36477917 -0.4420542
-0.22125095 -0.16736692 0.15464753 0.07901383 -0.3457322 0.4543786 -0.4594489 -0.28535804
0.15929218 -0.3285076 -0.062033817 -0.18614115 -0.21506044 -0.16234332 0.06215836 -0.46067744
-0.31773543 -0.1723949 -0.41630363 -0.455261 -0.43665674 -0.2385455 -0.19026527 -0.3850491
-0.3329063 -0.21669133 -0.20619757 -0.2037242 -0.44578364 -0.41094482 -0.17187205 -0.7527405
-0.026156634 0.2530465 0.22128949 0.37412566 -0.49462143 -0.4450986 -0.36717173 -0.08045064
-0.16514446 -0.020072779 -0.19095095 -0.45906955 -0.45568332 0.27339795 -0.00784692 -0.34274852
-0.27064538 -0.5657906 -0.43795866 0.24739571 -0.21686716 0.16147995 -0.36476615 -0.1441521
00000000: 043f b63d 68a4 3d3d d612 f63d 201d b5be
00000010: 4a27 63be f347 263e 8fd5 8abe dcc8 9dbe
00000020: 1b48 91be e7c9 c7be 6bef 133e 0d3a 253e
00000030: e155 22be 15f1 d8bc 9f35 ebbe 1513 cabe
00000040: 21e1 493d 0c87 39be 4ff9 cdbe 01c0 7dbe
00000050: b6cf 8fbe 95c5 e73e 26b0 7abd d7a5 c8be
00000060: 095f 3c3d 5885 c4be d07f 05be cf15 e33e
00000070: ebed 3cbf 6e6d aa3e b206 a33d dbf5 e3bd
00000080: b501 4bbe ee31 8bbe 4eeb efbe 7468 4cbe
00000090: 47e3 87bd aea1 81be 5020 21be eb41 2c3c
000000a0: 4fa8 3cbe 7020 6cbd 4821 0cbe 038f c2bc
000000b0: 5f86 e7be fd92 983c 1534 d9be a444 43be
000000c0: 25b1 e93d f023 e0be 34ab 283e a510 bcbd
000000d0: 3a55 dcbe a8b2 4cbe bb4d 54bd 1067 5dbe
000000e0: 323e 25be dcc1 93be 953c f13a edc2 abbe
000000f0: 74ed 94bd 5373 afbe 606d e9be 6e0b e5be
00000100: 046e c13e 874f af3c 472f 82be 4976 ccbe
00000110: 9845 16bf 07b7 793d 140d e2be 30e1 19be
00000120: 956b 573d 2d95 4d3e a2ee 773e 4e56 2c3f
00000130: c873 20bd f84f 0c3f 65a8 883d 64fa 31be
00000140: 1462 0dbe ddf9 7ebe 1684 f9bc 9e96 8cbe
00000150: ffb7 d43c 2f6e bbbe cf6c 243d a2a7 b5be
00000160: 419a 833e abc4 1cbe eaa2 2dbd 5d59 9c3e
00000170: e905 33bf 4c1e ccbe ea05 c13d a6c6 26bf
00000180: 804b 10bf 431a 403f d495 d2be 5b70 88be
00000190: 0540 053e 360e 063d 281b e3be f876 aebe
000001a0: 07d0 acbe b573 81bd ea77 093e dc05 213e
000001b0: f814 94be 4336 72bf 01b8 03bf 60f0 073f
000001c0: 3a51 853d bf46 14bf cafe 5cbe e300 85be
000001d0: cfdc f03e de21 18be cf21 0cbe c4fb f5be
000001e0: eae0 59bf aef4 e4be d5df a93e 2e07 b13a
000001f0: 11c2 8ebe cd0c f3bb 9441 133e 9a46 f0be
00000200: fad7 c3be ac30 93be 9a49 2dbe 25d0 f0be
00000210: 3830 aebd ffc9 ccbe 6c34 24be f685 e6be
00000220: 2d4e 3cbe 4cea d03d 1a6f e43d bc68 ccbe
00000230: 9dac bbbe b19b 0f3e 1029 ecbe bbe8 56be
00000240: 0f05 17be f0cf d4be f1d9 d0be f4e7 8bbd
00000250: 5770 92be 5a9f d6be df30 5dbe 0c47 e0be
00000260: 900e 223e 5c72 cbbd 8321 a43d 46c6 9bbe
00000270: d310 68be 5a88 66be 0884 37be b181 fdbd
00000280: 660c 53bd 4772 0cbe 4455 bb3e 5816 123e
00000290: aeb6 933e d2bf e13e c6cf f3bd 19bb 743e
000002a0: d534 733e 5871 62be d499 bb3e 1182 ca3e
000002b0: 4a07 ef3e 7d0e 0d3f 682c 663e 3333 26be
000002c0: 9df2 2a3e ad26 0fbe 4aa2 96be d97d 753e
000002d0: c96b e43d 17bb 9b3e 2f6a 883e aa61 773e
000002e0: 7949 a73e 0881 8e3e 3230 ba3d b595 043f
000002f0: d081 70be 1668 9d3e cea1 983e 4c86 afbe
00000300: 4d64 ac3e fa37 a1be b0e4 36be b241 b0be
00000310: 725e 463e 7b36 1ebe 56c4 babe ee54 e2be
00000320: 9c8f 62be 3c62 2bbe ec5b 1e3e 01d2 a13d
00000330: d003 b1be 50a4 e83e e33c ebbe 731a 92be
00000340: 7d1d 233e 2632 a8be 2c17 7ebd c99b 3ebe
00000350: ce38 5cbe 543d 26be c499 7e3d eadd ebbe
00000360: 38ae a2be 4a88 30be c025 d5be f817 e9be
00000370: 7991 dfbe 4645 74be e6d4 42be 2825 c5be
00000380: b272 aabe 55e4 5dbe 7525 53be 149d 50be
00000390: c13d e4be 5c67 d2be 3aff 2fbe 9ab3 40bf
000003a0: 7046 d6bc 508f 813e b699 623e 668d bf3e
000003b0: 053f fdbe f7e3 e3be effd bbbe 4ec3 a4bd
000003c0: a11b 29be ab6f a4bc a588 43be 2a0b ebbe
000003d0: 534f e9be d1fa 8b3e 5e90 00bc bc7c afbe
000003e0: 0892 8abe a7d7 10bf 1e3c e0be 4d55 7d3e
000003f0: 6d12 5ebe 005b 253e a1c2 babe 9c9c 13be

bias f4 [64]
-0.23725174 -0.2237131 -0.47062054 -0.75718063 -0.41094851 0.11710607 -0.27210695 -0.14564188
-0.73211163 -0.3120346 0.04962522 -0.34960127 -0.37380743 0.21692526 -0.4141348 -0.56255966
-0.8066035 -0.14036511 -0.32208073 -0.32623452 -0.26757208 -0.71652305 -0.09255663 4.182506
-0.2323477 -0.9590376 -0.23838767 -0.7470277 -0.7390528 -0.00034545644 0.34215474 -0.24248023
-0.5112646 0.042307645 -0.039474174 -0.17108421 0.25532356 0.25308442 -0.8256736 -0.257954
-0.3726914 -0.11511307 -1.2807117 -0.410153 -0.6790923 -0.45083553 -1.402208 -0.53912145
-0.6752594 -0.3841484 0.035426192 0.76639783 -0.71276563 5.996143 0.640589 -0.42109758
-0.16642116 -0.3917744 -0.4049159 0.38897535 -0.7166306 -0.4779706 -0.886721 -0.19456407
00000000: 1ff2 72be 0c15 65be 2df5 f0be 97d6 41bf
00000010: d867 d2be 4fd5 ef3d 9a51 8bbe 2523 15be
00000020: ab6b 3bbf 00c3 9fbe d143 4b3d f0fe b2be
00000030: b063 bfbe a821 5e3e 7a09 d4be e903 10bf
00000040: 917d 4ebf dfbb 0fbe c4e7 a4be 3608 a7be
00000050: 35ff 88be 0e6e 37bf 558e bdbd 17d7 8540
00000060: 8eec 6dbe 7d83 75bf e61b 74be 353d 3fbf
00000070: 9032 3dbf 611e b5b9 e82e af3e bd4c 78be
00000080: 3de2 02bf c84a 2d3d acaf 21bd b330 2fbe
00000090: c5b9 823e 4894 813e 585f 53bf 8c12 84be
000000a0: 68d1 bebe 67c0 ebbd 5cee a3bf 93ff d1be
000000b0: fed8 2dbf ead3 e6be 8d7b b3bf dd03 0abf
000000c0: cddd 2cbf 19af c4be 0e1b 113d a632 443f
000000d0: cf77 36bf 67e0 bf40 a4fd 233f 1a9a d7be
000000e0: 4f6a 2abe a796 c8be 2351 cfbe c727 c73e
000000f0: 1a75 37bf 90b8 f4be 2600 63bf ce3b 47be

weight f4 [4, 64]
-0.11469627 -0.2812513 0.5828319 0.38342124 -0.20610052 0.6416272 -0.18090485 0.039781038
0.13687502 -0.23640972 -0.14439869 0.1094495 -0.26954836 -0.41095853 -0.19122228 -0.51914454
-0.5158256 -0.19357786 0.07548198 -0.18485953 -0.3100443 -1.3144892 0.10860798 -0.41159102
-0.05681439 -0.31445932 0.60489917 -0.0638324 -1.532203 1.3340453 0.20480902 -0.22986035
-0.38188824 0.0044237105 -1.3492483 -0.63736445 0.8000396 0.4354686 0.5489872 -0.27425238
-0.18106131 -0.08361284 0.84369653 -0.14054626 -0.1796291 -0.09516995 1.8906212 0.28839555
-0.30467606 -0.37772265 -1.2631317 0.6241293 -0.33961982 -0.15807629 0.83239335 -0.18083744
0.201878 -0.29050034 -0.11893116 0.8182055 -1.2019187 -0.05942048 -0.50109756 -0.27243954
0.30879796 0.37855777 -0.4858058 0.20441057 0.26724705 -0.13017385 -0.18314642 0.08177722
-0.065274745 -0.2989568 -0.42025304 -0.36666283 -0.19607851 -0.016866162 -0.27256098 -0.31541538
0.12873384 -0.22274816 -1.0593313 -0.37925342 -0.30914727 -0.2030984 -0.2959933 -0.32242143
0.21780053 -0.42165 -0.36227033 0.030223643 0.4555847 0.43583718 -0.020212196 -0.3977457
0.0729145 -0.10980497 0.47448406 0.06299686 0.01928951 -0.29455632 -0.05852419 0.06367472
-0.11101152 -0.066816166 -0.0003186203 0.11152928 -0.32491037 0.23400056 0.033899315 0.34748614
0.36945316 -0.34784612 0.12653822 -0.5359243 0.20023765 0.34008998 -0.26761153 -0.38301563
0.06804964 0.31986797 0.7269283 -1.0069677 0.4809519 0.14417736 0.09583808 -0.17711088
0.090095155 -0.24362838 -0.36370987 -0.16429712 0.35946885 0.16941026 -0.39501363 -0.05693875
-0.04653347 -0.31423384 -0.48018855 0.0058319317 -0.18466108 -1.1254051 -0.3057934 0.5642998
0.20827453 -0.30838585 -0.51701415 -0.35140505 -0.22829252 -0.5324797 -0.7836125 0.56244427
0.3104838 -0.03793874 -0.798184 0.9921035 0.09047688 -1.2653326 -0.46212313 -0.21050009
0.15060194 -0.0778286 0.54365504 0.3557453 0.05385477 -0.10917408 -0.32114005 0.3102058
0.25048473 -0.34120905 0.08848418 -0.4841769 0.008085154 -0.11212413 2.4991589 -0.20679845
-0.09528726 0.27102035 -0.089502275 -0.63191944 0.11210913 -0.3490908 -0.49848902 -0.38320667
-0.31965438 -0.18666841 -0.04978089 -0.7274977 0.15429857 -0.13328718 -0.0014607565 -0.20665969
-0.24992062 -0.23367766 0.03892605 0.23778246 0.32661983 0.0884699 -0.2401194 0.07182094
0.12157684 -0.1905263 0.5001441 -0.07652554 -0.36219227 -0.0036379155 -0.3169427 0.30385888
-0.22951952 -0.40756494 -0.51263165 -0.23427245 -0.34994233 0.65691525 0.16435868 -0.26526886
-0.21578664 -0.06285195 0.05891554 -0.8586126 -0.69384044 -0.73394966 -0.0048966715 -0.28556147
-0.16588147 -0.09999619 -0.28731182 -0.32391337 0.124681 0.48816252 -0.2579726 -0.09501104
0.35854805 0.32503363 -0.081255615 -0.16547728 -0.30029655 -0.060684144 2.0940137 0.027372938
-0.19141531 -0.17853974 -0.09443794 0.18209052 0.15174939 -0.1426433 -0.03290997 -0.41842663
0.19677423 -0.3244569 -0.26500306 0.55541015 -0.55224305 -0.4869684 -0.28656223 -0.2947831
00000000: e1e5 eabd 2c00 90be 7934 153f ca4f c43e
00000010: 040c 53be ae41 243f 1f3f 39be 71f1 223d
00000020: f728 0c3e 6415 72be 40dd 13be 0f27 e03d
00000030: 3e02 8abe 2869 d2be c6cf 43be a8e6 04bf
00000040: 260d 04bf 4639 46be 4c96 9a3d d14b 3dbe
00000050: 20be 9ebe 2f41 a8bf dc6d de3d 0fbc d2be
00000060: 35b6 68bd d000 a1be acda 1a3f 90ba 82bd
00000070: 3a1f c4bf ffc1 aa3f 75b9 513e 8360 6bbe
00000080: db86 c3be c6f4 903b 2bb4 acbf 512a 23bf
00000090: 65cf 4c3f bef5 de3e 6d8a 0c3f cf6a 8cbe
000000a0: 2368 39be 353d abbd 7ffc 573f 5ceb 0fbe
000000b0: b1f0 37be 76e8 c2bd e0ff f13f 95a8 933e
000000c0: 80fe 9bbe dd64 c1be 4dae a1bf f0c6 1f3f
000000d0: a6e2 adbe c0de 21be bb17 553f 732d 39be
000000e0: 1bb9 4e3e 76bc 94be 2e92 f3bd ea75 513f
000000f0: 79d8 99bf e462 73bd ee47 00bf 327d 8bbe
00000100: c41a 9e3e 53d2 c13e 8abb f8be 0151 513e
00000110: 9bd4 883e 4b4c 05be bc8a 3bbe d17a a73d
00000120: c4ae 85bd de10 99be 682b d7be 3bbb bbbe
00000130: cec8 48be e82a 8abc 1d8d 8bbe 207e a1be
00000140: ced2 033e 1818 64be 2b98 87bf 812d c2be
00000150: 8d48 9ebe 07f9 4fbe 6f8c 97be 6c14 a5be
00000160: 1a07 5f3e 82e2 d7be 7f7b b9be 9397 f73c
00000170: 6642 e93e 0d26 df3e 0c94 a5bc 53a5 cbbe
00000180: 3354 953d 6ee1 e0bd 93ef f23e 7f04 813d
00000190: 0905 9e3c 16d0 96be 10b7 6fbd e467 823d
000001a0: 025a e3bd ead6 88bd 7e0c a7b9 7769 e43d
000001b0: a75a a6be d89d 6f3e 02da 0a3d b4e9 b13e
000001c0: f728 bd3e e318 b2be 3c93 013e 5632 09bf
000001d0: 190b 4d3e 4620 ae3e 6104 89be a01a c4be
000001e0: 9c5d 8b3d bcc5 a33e f917 3a3f 51e4 80bf
000001f0: 543f f63e 3ba3 133e c146 c43d 8e5c 35be
00000200: cf83 b83d b879 79be 2e38 babe 813d 28be
00000210: 4d0c b83e e279 2d3e 3a3f cabe 9b38 69bd
00000220: e199 3ebd 42e3 a0be 46db f5be ca19 bf3b
00000230: cb17 3dbe 460d 90bf f490 9cbe f475 103f
00000240: eb45 553e c0e4 9dbe 0a5b 04bf 5deb b3be
00000250: 84c5 69be 9750 08bf d49a 48bf 59fc 0f3f
00000260: bcf7 9e3e a765 1bbd c955 4cbf 7ffa 7d3f
00000270: f14b b93d 6bf6 a1bf 679b ecbe 568d 57be
00000280: 6537 1a3e 9a64 9fbd fa2c 0b3f 3f24 b63e
00000290: d296 5c3d a996 dfbd 786c a4be 4bd3 9e3e
000002a0: 893f 803e f4b2 aebe 3237 b53d 09e6 f7be
000002b0: 9877 043c 56a1 e5bd 38f2 1f40 f9c2 53be
000002c0: f825 c3bd 2ec3 8a3e f84c b7bd 79c5 21bf
000002d0: 7999 e53d 08bc b2be f439 ffbe aa33 c4be
000002e0: bda9 a3be 0126 3fbe 0ce7 4bbd 4a3d 3abf
000002f0: 7200 1e3e 6f7c 08be db76 bfba 999e 53be
00000300: 31eb 7fbe 3249 6fbe ec70 1f3d 3f7d 733e
00000310: b73a a73e b52f b53d dce1 75be db16 933d
00000320: 47fd f83d 5419 43be 7209 003f 6cb9 9cbd
00000330: 4471 b9be 186a 6ebb 5046 a2be 6493 9b3e
00000340: 2a07 6bbe 5aac d0be d43b 03bf 1ee5 6fbe
00000350: a42b b3be 992b 283f a44d 283e 52d1 87be
00000360: 2cf7 5cbe 86b8 80bd 6c51 713d 09ce 5bbf
00000370: 879f 31bf 20e4 3bbf 4274 a0bb 1d35 92be
00000380: d5dc 29be cdca ccbd 891a 93be f9d7 a5be
00000390: c158 ff3d 70f0 f93e fc14 84be 2695 c2bd
000003a0: 9c93 b73e cf6a a63e 5869 a6bd e072 29be
000003b0: 78c0 99be f08f 78bd 5204 0640 363d e03c
000003c0: 6002 44be 1fd3 36be ae68 c1bd f075 3a3e
000003d0: 3164 1b3e 1611 12be 9bcc 06bd 043c d6be
000003e0: 2f7f 493e 371f a6be 7bae 87be 5c2f 0e3f
000003f0: cd5f 0dbf ec53 f9be 49b8 92be cfed 96be

bias f4 [4]
-0.062710024 -1.049579 -1.0277606 -0.4654532
00000000: 1d6e 80bd 9b58 86bf a98d 83bf e24f eebe
