kevin_nn_2025-02-21_18-53-27.pt (torch, 16609 bytes, 8 tensors)

weight f4 [16, 16]
0	0xbf3c4b9d	-0.73552877
1	0xbf0ae82b	-0.5426051
2	0xbfeeb3c5	-1.8648611
3	0xbf682846	-0.9068645
4	0x3f92ff55	1.1484171
5	0x3ee3e1c9	0.44508198
6	0x3eef256b	0.46708235
7	0xbf4d01a5	-0.80080634
8	0xbe811b0d	-0.2521595
9	0xbf1a8666	-0.60361326
10	0xbfc4cb0a	-1.5374463
11	0xbee2d3ba	-0.4430216
12	0xbf6e10c5	-0.9299434
13	0xbeba1aef	-0.36348674
14	0xbf17e8e8	-0.5933976
15	0xbf169341	-0.5881844
16	0xbea67b80	-0.32516098
17	0x3e0850ca	0.13312069
18	0xbf6adecb	-0.91746205
19	0xbe7b248c	-0.2452566
20	0xbdc68a72	-0.09694375
21	0xbf00b774	-0.5027993
22	0xbe72f829	-0.23727478
23	0xbb509da5	-0.0031832245
24	0xbed3721d	-0.41298
25	0xbe0b048e	-0.13575956
26	0xbe397dfe	-0.18114468
27	0xbeab1d13	-0.3342062
28	0xbeb17757	-0.34661362
29	0xbe1fe0d7	-0.15613113
30	0xbf441c64	-0.7660582
31	0xbf0a7243	-0.540806
32	0xbe5d9798	-0.2163986
33	0xbe455dcc	-0.19274062
34	0xbd7c66f0	-0.061621606
35	0xbf0754e4	-0.5286391
36	0x3d67cf68	0.056594282
37	0x3dade35c	0.08490631
38	0xbe34d70a	-0.17660156
39	0xbee733d0	-0.45156717
40	0xbe21e1f2	-0.15808848
41	0xbe199c4a	-0.15001026
42	0x3e4ffd28	0.20311415
43	0xbed98290	-0.42482424
44	0xbe3bed4c	-0.1835224
45	0xbe012cf6	-0.12614807
46	0xbd8aec95	-0.06783406
47	0xbe1f11e4	-0.15534168
48	0xbe6af898	-0.22946393
49	0x3c114ca0	0.0088683665
50	0x3ea1e4e0	0.3161993
51	0xbf206dd4	-0.62667584
52	0x3d8e2568	0.069407284
53	0xbe00a102	-0.1256142
54	0xbe695e57	-0.22789894
55	0xbefa1080	-0.48840714
56	0xbda11e68	-0.07867128
57	0xbda32147	-0.079653315
58	0xbbd55085	-0.006509843
59	0xbe712563	-0.23549418
60	0xbea0fe87	-0.3144419
61	0xbd81a6d4	-0.06330648
62	0xbe8f16c7	-0.27947065
63	0xbe802ce7	-0.25034258
64	0xbcc69920	-0.024242938
65	0xbbb2d880	-0.0054579377
66	0xbe5dcd1a	-0.21660271
67	0xbdd0c858	-0.101944625
68	0xbcfe47e0	-0.031040132
69	0x3be031c0	0.006841868
70	0xbdd46170	-0.10370147
71	0xbd24b190	-0.0402084
72	0xbe306374	-0.17225438
73	0xbd5904f0	-0.052983224
74	0xbe24119c	-0.16022342
75	0xbe248c9e	-0.16069266
76	0xbe233b7e	-0.15940663
77	0xbdbc4184	-0.091921836
78	0xbc3f7a40	-0.0116868615
79	0xbe70c56c	-0.2351281
80	0x3e15510a	0.14581695
81	0xbc2fb9a6	-0.010725414
82	0x3cce924e	0.025216248
83	0xbeb5ead4	-0.35530722
84	0xbe222bd9	-0.15837039
85	0x3d7f46fa	0.062323548
86	0xbec23c53	-0.3793665
87	0xbeaf0928	-0.34186673
88	0xbed36336	-0.4128663
89	0xbec52423	-0.38504133
90	0xbee65cc9	-0.44992664
91	0xbeec67af	-0.46172854
92	0x3e63a35b	0.22230284
93	0xbe8af3ed	-0.27139226
94	0xbf012ff8	-0.5046382
95	0xbe85de77	-0.2614629
96	0xbf1f162c	-0.62143207
97	0xbf332a86	-0.6998676
98	0xbfb23000	-1.3920898
99	0xbf652c8e	-0.8952111
100	0xbf4bcf17	-0.7961287
101	0xbef1b04d	-0.4720482
102	0x3f7051f1	0.9387503
103	0xbee868e5	-0.45392528
104	0x3d7c55cb	0.061605256
105	0x3f714719	0.9424911
106	0xbf8ade25	-1.0849043
107	0xbed1a7e5	-0.40948406
108	0xbcead71b	-0.028667023
109	0xbf11f9f8	-0.5702205
110	0xbfa3fa4b	-1.2810758
111	0xbe3dcdb9	-0.18535508
112	0x3eb27b21	0.34859565
113	0xbc9ffa91	-0.019528659
114	0xc0bac4d8	-5.836529
115	0x3d5080d6	0.050904118
116	0x3e0df767	0.13863908
117	0x3cb526bd	0.022113198
118	0x3ffb8cd1	1.9652349
119	0xbd64b4aa	-0.055836357
120	0xbc96b29e	-0.018395718
121	0xbcbe1078	-0.023201212
122	0x3fbed10b	1.4907545
123	0xbe155adf	-0.14585446
124	0xbe8398b9	-0.25702456
125	0x3eb660ae	0.35620636
126	0xc0427f0f	-3.039005
127	0x3e9f86c3	0.31157503
128	0x3ef5f151	0.48035672
129	0xbe2721b0	-0.16321445
130	0xc0061eee	-2.0956378
131	0xbee9341d	-0.45547572
132	0xbe5b6b76	-0.21427712
133	0xbe6abe9d	-0.22924276
134	0x3a763981	0.0009392724
135	0xbe5d2974	-0.21597844
136	0xbe13e796	-0.14443812
137	0x3d9776a3	0.07395675
138	0x3e1ce414	0.1532138
139	0xbf5ae851	-0.85510737
140	0x3d4361ef	0.04770082
141	0xbf9103cc	-1.1329284
142	0xbea67308	-0.32509637
143	0xbee4e733	-0.4470764
144	0x3f049cc1	0.5180169
145	0x3e352f74	0.17693883
146	0x405e24a1	3.4709857
147	0xbedb5d79	-0.4284475
148	0x3f0f8166	0.5605682
149	0xbe95e9ac	-0.2927984
150	0xc095cf34	-4.6815434
151	0x3f1ba635	0.60800487
152	0xbeca17f6	-0.39471406
153	0x3f818246	1.0117881
154	0xc0063d89	-2.0975058
155	0xbe5f5db5	-0.2181309
156	0xbd1e1277	-0.03859183
157	0xbe3476a8	-0.17623389
158	0xbfe228ac	-1.7668662
159	0x3f8117ca	1.0085385
160	0x3f0f2c8c	0.5592735
161	0xbe7bd2a9	-0.24592079
162	0x3ee0c172	0.43897587
163	0x3f0aad36	0.5417055
164	0xbdf5017c	-0.11963174
165	0x3e93fdf1	0.2890468
166	0xc018e46a	-2.3889413
167	0xbe8d1c7c	-0.27560794
168	0xbe4496ec	-0.19198197
169	0x3e8a9c7d	0.27072516
170	0xc0a739a3	-5.2257857
171	0x3e41f0f8	0.18939579
172	0xbe05746d	-0.13032694
173	0x3e948920	0.29010868
174	0x404975f3	3.147824
175	0xbd821e79	-0.063534684
176	0x3e858992	0.2608152
177	0xbef04cf6	-0.46933717
178	0xbf2bee21	-0.6716023
179	0xbf2f79f3	-0.68545455
180	0xbd4d2f73	-0.05009408
181	0x3d014039	0.031555388
182	0x3dfd7dca	0.12377508
183	0xbe14f774	-0.14547521
184	0x3ef56b12	0.4793325
185	0xbead486c	-0.33844316
186	0xbeadea11	-0.3396764
187	0xbec089b5	-0.37605062
188	0xbd2c0418	-0.04199609
189	0xbe9ce02e	-0.30639786
190	0xbe1b884f	-0.15188716
191	0x3c939a35	0.018017868
192	0xbeaf2749	-0.3420966
193	0xbed0e710	-0.40801287
194	0xbee422a6	-0.44557685
195	0xbd257a5d	-0.040399898
196	0x3e21ea47	0.15812026
197	0xbe849655	-0.25895944
198	0x3c7ea972	0.015543329
199	0xbe0280ca	-0.12744442
200	0xbe5af784	-0.21383482
201	0xbea502f0	-0.32228804
202	0x3e0dc00b	0.1384279
203	0xbee39587	-0.44450018
204	0xbed769b5	-0.42072836
205	0xbda91a25	-0.0825694
206	0xbe85ad22	-0.26108652
207	0xbe916ef5	-0.28404966
208	0x3d831708	0.06400877
209	0x3ed6f524	0.41983902
210	0xbeff9479	-0.49917963
211	0xbea322a5	-0.3186237
212	0xbcd1e500	-0.025621891
213	0xbc3b5760	-0.011434406
214	0xbe115edc	-0.14196342
215	0xbedb9acb	-0.42891535
216	0xbe13e014	-0.14440948
217	0xbe1f32c8	-0.15546715
218	0x3ebe5696	0.37175435
219	0xbe861377	-0.26186725
220	0xbe4c9130	-0.1997726
221	0xbd47c554	-0.04877217
222	0xbec030dc	-0.37537277
223	0xbe84a08b	-0.25903735
224	0x3f5e4498	0.86823416
225	0x3f26a558	0.65096045
226	0xc0a32ce5	-5.0992303
227	0x3e97b7c1	0.2963238
228	0x3e1decd8	0.1542238
229	0x3d5fe0d8	0.054657787
230	0x406d636b	3.709193
231	0xbe672a4e	-0.22574732
232	0x3ead759f	0.338788
233	0x3c8471b1	0.016167494
234	0xc0c08050	-6.015663
235	0x3e9d01f1	0.30665544
236	0xbf299476	-0.6624216
237	0xbf13fdbf	-0.5780906
238	0x3f872e3f	1.0560988
239	0x3e923eb9	0.2856348
240	0xbf0ff6fb	-0.5623624
241	0xbef78743	-0.48345384
242	0xbf094e3e	-0.53635013
243	0x3cfadc88	0.030622736
244	0x3de42217	0.111393146
245	0xbe7267bb	-0.23672383
246	0xbe08a840	-0.13345432
247	0xbe507002	-0.20355228
248	0xbe8cb4c4	-0.27481663
249	0xbefaf340	-0.4901371
250	0x3d4ed217	0.050493326
251	0xbea6f937	-0.3261201
252	0x3e8fbe72	0.28074986
253	0xbe808da6	-0.2510807
254	0xbf3f2852	-0.746709
255	0xbea7ffaf	-0.3281226

bias f4 [16]
0	0xbf0b1a2f	-0.5433683
1	0xbecc0cfd	-0.3985366
2	0xbe5eff14	-0.21776992
3	0xbedde9d4	-0.4334246
4	0xbd3aba38	-0.04558775
5	0xbf073b5d	-0.52824956
6	0xbeef0471	-0.46683076
7	0xbf2e87bd	-0.6817587
8	0xbf272740	-0.65294266
9	0xbf008650	-0.50204945
10	0xbdfd5783	-0.12370207
11	0xbf2c0aaf	-0.672038
12	0x3e001f2a	0.12511888
13	0xbf03acd0	-0.51435566
14	0xbeb83e09	-0.3598483
15	0xbdc298ee	-0.09501825

weight f4 [32, 16]
0	0x3ecf223d	0.4045581
1	0xbdc6e2ba	-0.097112134
2	0xbd6d746a	-0.05797235
3	0xbde574fd	-0.11203954
4	0x3e6a6c5a	0.22892895
5	0x3e5c663c	0.21523374
6	0xbee0c29d	-0.43898478
7	0xbe857457	-0.26065323
8	0xbe15d768	-0.14632952
9	0x3c9c842c	0.019105993
10	0xbe22f2c6	-0.15912923
11	0x3cc19761	0.023631753
12	0x3e25aed7	0.16179977
13	0xbe266b3c	-0.16251844
14	0xbde98691	-0.1140262
15	0x3e00f80d	0.12594624
16	0x3dd5d828	0.10441619
17	0xbe1f6baf	-0.15568422
18	0xbe42014e	-0.1894581
19	0x3b90a5b7	0.004414286
20	0xbe53b7d8	-0.206756
21	0xbd45f797	-0.048331823
22	0xbfaf5c18	-1.369998
23	0xbe32aa9f	-0.174479
24	0xbb475cc7	-0.003042029
25	0xbf1bdcca	-0.6088377
26	0xbc664130	-0.014053628
27	0xbe5a6f12	-0.21331432
28	0xbf098e4f	-0.5373277
29	0x3d9fea33	0.07808342
30	0xbf44a343	-0.7681162
31	0xbed05a22	-0.40693766
32	0xbc7a3280	-0.015270829
33	0xbda32390	-0.079657674
34	0xbba0a5c0	-0.0049025714
35	0xbe56f8a4	-0.20993286
36	0xbd2394c8	-0.03993681
37	0xbeb23d86	-0.34812564
38	0xbe6ec1a6	-0.23316059
39	0xbdef0ce0	-0.116723776
40	0x3dfb1ea4	0.122617036
41	0xbd20ee28	-0.039289623
42	0xbf023b35	-0.5087159
43	0xbf1432d3	-0.5789005
44	0x3e2efb06	0.17087945
45	0x3d99b764	0.07505682
46	0xbe8be2b7	-0.27321407
47	0xbe1def6c	-0.15423363
48	0xbf48f194	-0.7849362
49	0xbea06e36	-0.31334084
50	0xbe01ae01	-0.12664033
51	0x3e6da9e3	0.23209338
52	0x3e3bd040	0.1834116
53	0xbeff3ee6	-0.49852675
54	0xbf4f8390	-0.81060123
55	0xbf8d326c	-1.1031013
56	0xbec1583a	-0.37762624
57	0x3e76f2e2	0.2411609
58	0xbd76fcb8	-0.060299605
59	0x3edac6d9	0.42729834
60	0xbf3ac2b9	-0.72953373
61	0xbe2692d5	-0.1626695
62	0xbeac16f8	-0.33611274
63	0x3e847f66	0.25878447
64	0xbf06cef5	-0.5265954
65	0xbe21430f	-0.15748237
66	0xbe6a3712	-0.2287257
67	0xbec0819a	-0.37598878
68	0xbe608772	-0.21926668
69	0xbf21628a	-0.63040984
70	0xbeacfd36	-0.33786935
71	0xbf1e28b6	-0.6178087
72	0xbe9123ae	-0.28347534
73	0xbedf9cef	-0.43674418
74	0xbe4da0e7	-0.2008091
75	0xbeb13eb7	-0.3461816
76	0xbeae44dc	-0.3403691
77	0x3e126956	0.14297995
78	0xbeff109b	-0.49817356
79	0xbe8a20b6	-0.2697808
80	0x3eb6779c	0.3563813
81	0xbf01435f	-0.50493425
82	0xbe0ea8b6	-0.13931546
83	0x3dc4b394	0.09604564
84	0x3d291980	0.041284084
85	0xbe44df5b	-0.19225828
86	0xbe1e7a24	-0.1547628
87	0xbf89baff	-1.0760192
88	0xbdd230a0	-0.10263181
89	0xbedc00f6	-0.42969483
90	0xbef06b5a	-0.46956903
91	0xbf08b2e2	-0.53397954
92	0x3c7ec973	0.015550959
93	0x3ebffd3c	0.3749789
94	0xbf923140	-1.142128
95	0x3ea5b626	0.3236553
96	0x3da7fd02	0.08202554
97	0x3df9101f	0.12161278
98	0x3e703d23	0.23460822
99	0xbe4c4077	-0.19946466
100	0x3e243cc6	0.16038808
101	0xbc98add8	-0.018637583
102	0xbf0d4497	-0.55182785
103	0xbf536971	-0.82582766
104	0x3ece94c5	0.40347877
105	0xbf320549	-0.69539315
106	0x3fd2c102	1.6465151
107	0xbd6f04a8	-0.05835405
108	0x3e376119	0.17908134
109	0x3e05f81d	0.13082929
110	0x3f375682	0.71616375
111	0x3eb8b856	0.36078137
112	0xbf5b5a88	-0.85685015
113	0xbe8f290b	-0.27961
114	0x3e7b2f98	0.24529874
115	0xbf008d33	-0.5021545
116	0x3e4856fa	0.19564429
117	0xbde9669b	-0.113965236
118	0xbe4ebeec	-0.20190018
119	0xbf3db5a4	-0.74105287
120	0xbf527415	-0.8220838
121	0xbe497699	-0.19674148
122	0xbe61222b	-0.2198569
123	0xbe057071	-0.13031174
124	0x3ea1aab8	0.3157556
125	0xbde98ba7	-0.1140359
126	0xbf22ebcb	-0.6364104
127	0xbe0dc1e5	-0.13843496
128	0xbe7edfa2	-0.24889997
129	0xbe547f86	-0.20751771
130	0x3e202428	0.15638793
131	0x3e354b3e	0.17704484
132	0x3dcf3ed4	0.101194054
133	0xbe3ae2c9	-0.18250574
134	0xbe471756	-0.19442496
135	0xbdfaa74c	-0.122389406
136	0xbe0aef54	-0.13567859
137	0xbbe13b40	-0.006873518
138	0xbf04d3c0	-0.51885605
139	0xbd5f4710	-0.05451113
140	0xbdacd6a0	-0.08439374
141	0x3e2ed4b0	0.17073321
142	0xbdeff7fc	-0.11717221
143	0xbe1260bc	-0.14294714
144	0x3e23e540	0.1600542
145	0x3ba5de00	0.005061865
146	0x3e090a20	0.13382769
147	0xbe7652f0	-0.24055076
148	0x3e64b4b2	0.22334555
149	0xbe8db424	-0.276765
150	0x3f0575aa	0.52132666
151	0xbe9dc7ba	-0.30816442
152	0x3db7dbe4	0.08977488
153	0xbffe349b	-1.9859804
154	0xc0062a31	-2.0963252
155	0xbdef0674	-0.11671153
156	0xbd28dbd0	-0.041225255
157	0xbde11d50	-0.10991919
158	0xbf6c8a29	-0.92398316
159	0xbe51c012	-0.20483425
160	0xbf65fc38	-0.8983798
161	0xbe944d95	-0.2896544
162	0x3e4db2bf	0.20087717
163	0xbebafb33	-0.36519775
164	0x3e313c58	0.17308176
165	0xbe93b651	-0.28850034
166	0xc0478002	-3.117188
167	0xc06f07b2	-3.7348447
168	0xbf4f0e29	-0.8088098
169	0x3cfdc156	0.030975979
170	0xbf9c101a	-1.2192414
171	0xbe2504e4	-0.16115147
172	0xbecfbbb1	-0.40572885
173	0xbf01a702	-0.5064546
174	0x3d892446	0.06696372
175	0xbe567fe2	-0.20947221
176	0x3e66cd0e	0.2253916
177	0x3e779955	0.24179585
178	0x3ec317b3	0.3810402
179	0xbe53d09d	-0.20685048
180	0xbe6cffaa	-0.23144403
181	0xbe89e7c0	-0.26934624
182	0xbea9971a	-0.33123094
183	0x3f4650ea	0.77467215
184	0x3ec49b2e	0.38399643
185	0xbfa8eb3c	-1.3196788
186	0xbf7ba18a	-0.98293364
187	0x3e5b8aa8	0.21439612
188	0xbe7fde69	-0.24987186
189	0x3ed79d1d	0.42112055
190	0x3ebb8590	0.36625338
191	0x3e7f1d43	0.24913506
192	0xbf079232	-0.5295745
193	0x3d8c4a61	0.06850124
194	0xbe70c424	-0.23512322
195	0x3c9f9760	0.01948136
196	0xbe7706d4	-0.24123698
197	0x3e0a92f0	0.13532615
198	0xbf04cac2	-0.51871884
199	0xbe16be18	-0.14720953
200	0xbe9acecc	-0.30235898
201	0xbe2b86a0	-0.16750574
202	0xbeb18910	-0.34674883
203	0xbe823b0e	-0.2543568
204	0xbd75a0cb	-0.059967797
205	0xbf04dff5	-0.5190423
206	0xbd30c0f0	-0.04315275
207	0xbe7f8682	-0.24953654
208	0xbf2b7788	-0.66979265
209	0xbea61313	-0.32436427
210	0x3efe738e	0.49697536
211	0xbedd8530	-0.43265676
212	0x3d718740	0.058966875
213	0xbece327c	-0.40272892
214	0xbe45a3f7	-0.19300829
215	0xbee1aa12	-0.44075066
216	0xbed8f6f7	-0.4237592
217	0xbed7318f	-0.42029998
218	0xbef76a79	-0.4832342
219	0xbdfa8878	-0.122330606
220	0xbe01661f	-0.12636612
221	0xbeff717d	-0.49891272
222	0xbf1775ec	-0.5916431
223	0xbe31c5b8	-0.1736058
224	0xbe509d13	-0.20372419
225	0x3e8733f0	0.26406813
226	0x3d4f3272	0.050585218
227	0x3bbce440	0.005764514
228	0x3c14b640	0.009076655
229	0xbef2e5ac	-0.4744085
230	0x3e0f515c	0.1399588
231	0x3fb466f1	1.4093915
232	0x3e930449	0.28714207
233	0x3e011c26	0.12608394
234	0xbf62f974	-0.88661885
235	0xbec71524	-0.38883317
236	0xbd83474f	-0.064100854
237	0xbeb2bb0d	-0.34908333
238	0xbf687e7d	-0.90818006
239	0xbea61c5e	-0.32443517
240	0xbf042296	-0.51615274
241	0xbe3eab20	-0.18619967
242	0x3e56d780	0.20980644
243	0xbe413b44	-0.18870264
244	0xbe5741ce	-0.21021196
245	0xbe2614fa	-0.1621894
246	0xbe2eedd0	-0.17082906
247	0xbe67029e	-0.22559592
248	0xbe90c635	-0.2827622
249	0xbf06385b	-0.5242974
250	0xbe8efa46	-0.27925318
251	0xbdac25ab	-0.08405622
252	0xbe1cde4b	-0.15319173
253	0x3e12d686	0.14339647
254	0xbdfaf6e0	-0.12254119
255	0xbe9b0c8e	-0.30283016

bias f4 [32]
0	0xbf3cad35	-0.7370179
1	0xbedf4fcb	-0.43615565
2	0xbf0f1648	-0.55893373
3	0x3f7e3943	0.99306124
4	0xbeb3c5b8	-0.35111785
5	0xbf4f7c31	-0.81048876
6	0xbfa1c675	-1.2638689
7	0xbe37b2d2	-0.17939308
8	0xbf09502a	-0.53637946
9	0xbf22fa27	-0.6366295
10	0xc019f931	-2.4058344
11	0xbe827939	-0.2548311
12	0xbf028216	-0.50979745
13	0xbf3dd2c8	-0.7414975
14	0x3f796bf0	0.97430325
15	0xbebcd7c3	-0.36883363
16	0xbf33861f	-0.7012653
17	0xbdb6e768	-0.08930856
18	0xbf907612	-1.1286032
19	0xbf77f54b	-0.9685866
20	0xbf27a312	-0.654832
21	0xbf4e9367	-0.8069367
22	0xbf4170cf	-0.7556276
23	0xbf3b5078	-0.7316966
24	0xbe545c7d	-0.20738406
25	0xbe409971	-0.18808533
26	0xbef1122d	-0.4708418
27	0xbec7662c	-0.38945138
28	0xbd68f022	-0.056869633
29	0xbecc740d	-0.3993229
30	0xbf59f6e7	-0.8514237
31	0xbfab6830	-1.339117

weight f4 [64, 32]
0	0xbeb20637	-0.34770367
1	0xbd83d96c	-0.06437954
2	0xbd19668b	-0.03745131
3	0xbed25d20	-0.41086674
4	0xbe946cc3	-0.2898923
5	0xbd666b71	-0.056254808
6	0xbefea4c4	-0.4973508
7	0xbe34b8c1	-0.17648603
8	0xbe0b19ac	-0.13584012
9	0xbe071dc2	-0.13194945
10	0x3e0c836b	0.13722007
11	0xbecaf2e5	-0.3963844
12	0xbd13a8d3	-0.036049675
13	0xbd11c5d9	-0.035589073
14	0xbf00e7b6	-0.5035356
15	0x3da37eb6	0.079831526
16	0xbe46741e	-0.19380233
17	0xbeba6c85	-0.3641092
18	0xbdf6ae1a	-0.12044926
19	0x3d279639	0.040914748
20	0x3deb63a6	0.11493616
21	0xbdc7bb30	-0.097525
22	0xbe647679	-0.22310819
23	0xbde7bf5a	-0.11315794
24	0x3d8317c3	0.064010166
25	0xbece05b7	-0.40238735
26	0x3c84dcfc	0.016218655
27	0xbe306302	-0.17225268
28	0xbcfa003c	-0.03051769
29	0xbe1199a7	-0.1421877
30	0xbe3c5ddf	-0.18395184
31	0x3d923260	0.071385145
32	0xbea2cc17	-0.31796333
33	0xbf352508	-0.7075963
34	0xbdfe9fe3	-0.1243284
35	0x402eba1e	2.7301097
36	0x3e595d29	0.21226944
37	0xbf051764	-0.51988816
38	0xc03cb925	-2.9488003
39	0xbf2342e5	-0.6377395
40	0x3ddbc60e	0.10731135
41	0x3dc5f394	0.096655995
42	0xbf145aa8	-0.5795083
43	0xbf9dbb1d	-1.2322727
44	0x3c8ba75d	0.017047578
45	0xbe88794d	-0.26655045
46	0x3fd3347f	1.6500396
47	0xbeb68d93	-0.35654888
48	0xbdb91eb6	-0.09039061
49	0xbe483019	-0.19549598
50	0x3fe6ab66	1.8021057
51	0xbf7ea3d1	-0.99468714
52	0xbf0f8b05	-0.560715
53	0x3f18d1c4	0.59695077
54	0xbee455de	-0.4459676
55	0x3f2b924b	0.670201
56	0x3e1e9de4	0.15489918
57	0xbf0a2d3c	-0.5397527
58	0x3e2ff45f	0.17183064
59	0x3e466241	0.19373418
60	0x3e7bc1a3	0.24585585
61	0xbe84b4fb	-0.25919327
62	0x3efbc7b9	0.49175814
63	0x3f13ee88	0.57785845
64	0xbde44b23	-0.11147144
65	0xbc5f5600	-0.013631344
66	0xbc364326	-0.011124408
67	0xbf5f6bbc	-0.87273765
68	0xbd319b41	-0.043360952
69	0x3cd81743	0.02637828
70	0xbf20e60a	-0.6285101
71	0xbda0743b	-0.07834669
72	0xbd91de19	-0.0712244
73	0x3d8f6258	0.070011795
74	0xbdb65c3a	-0.089043096
75	0xbf489ff6	-0.7836908
76	0xbd18de29	-0.037321243
77	0x3c9190ed	0.017769301
78	0xbe15b094	-0.1461814
79	0xbbfa6a4d	-0.0076420666
80	0xbc3572d1	-0.011074738
81	0xbe109af3	-0.14121608
82	0x3d81bc68	0.06334764
83	0xbf358f17	-0.7092146
84	0x3bfd06de	0.007721766
85	0x3be549a4	0.006997304
86	0x3b9537ad	0.004553756
87	0xbf57f800	-0.8436279
88	0xbe16fdad	-0.14745207
89	0x3de8c967	0.113665394
90	0x3dcc6fa5	0.09982232
91	0xbdb7d01c	-0.089752406
92	0x3d141957	0.03615698
93	0x3e150a67	0.1455475
94	0x3c1bf58c	0.009518992
95	0x3dde5b1d	0.10857222
96	0xbf01f8bf	-0.5077018
97	0x3d96f5c5	0.073710956
98	0x3d0f0bab	0.034923237
99	0xbf17e590	-0.5933466
100	0x3e0e057f	0.13869284
101	0xbde51441	-0.11185504
102	0xbee22be0	-0.441741
103	0xbdd692cb	-0.10477217
104	0x3db2b5dd	0.08726094
105	0x3d0b72af	0.034044918
106	0xbcf87436	-0.030328851
107	0xbe6e9827	-0.23300229
108	0x3dc89078	0.0979318
109	0xbde59577	-0.11210149
110	0xbe26f712	-0.16305187
111	0x3e0e0220	0.13867998
112	0xbda127a3	-0.07868888
113	0xbe1b247a	-0.15150633
114	0xbe27001e	-0.16308638
115	0xbd4086e9	-0.04700366
116	0x3e0fd4b9	0.14045991
117	0xbd622286	-0.055208705
118	0xbdd6cb10	-0.1048795
119	0xbf0d280f	-0.5513925
120	0xbe2e43f8	-0.17018116
121	0xbcfdb4f3	-0.030970072
122	0xbde50f70	-0.11184585
123	0x3da57fed	0.080810405
124	0xbcd43ce4	-0.025907941
125	0xbdbfd00c	-0.09365854
126	0xbeadaa3d	-0.33918944
127	0x3cd9e48f	0.026598243
128	0xbecf8a56	-0.4053523
129	0xbe06d7ae	-0.13168213
130	0xbe003b2b	-0.12522571
131	0xbedf5f09	-0.43627194
132	0xbe65c599	-0.22438659
133	0xbe87cc57	-0.26523086
134	0xbead2874	-0.33819926
135	0xbdaf69c7	-0.08565097
136	0xbdd85f11	-0.105650075
137	0xbd401b69	-0.04690114
138	0xbec469ae	-0.38361877
139	0xbf07c662	-0.53037083
140	0xbe07d943	-0.13266473
141	0xbee4adf8	-0.44663978
142	0xbe9ff679	-0.3124273
143	0xbe152cf6	-0.14567932
144	0x3e4027e0	0.18765211
145	0xbe19b041	-0.15008642
146	0x3c384619	0.011247181
147	0xbf3e8b18	-0.7443099
148	0xbd8303a7	-0.06397181
149	0x3dea9a50	0.11455214
150	0xbecf6294	-0.40504897
151	0xbe8c2667	-0.2737305
152	0xbeb87eca	-0.36034232
153	0xbe51c752	-0.20486191
154	0x3e26b9fe	0.16281888
155	0xbec9cfe8	-0.39416432
156	0x3d882088	0.0664683
157	0xbe9b2fbe	-0.30309862
158	0xbe6d73dc	-0.23188728
159	0x3e03ab5f	0.12858342
160	0xbdfbcde5	-0.12295131
161	0xbf43ffb5	-0.7656205
162	0xbd196987	-0.037454154
163	0x3f58191c	0.84413314
164	0xbe303c9c	-0.1721062
165	0x3e8ae536	0.27128
166	0x3fd2cda0	1.6469002
167	0xbe8ee6cd	-0.27910462
168	0xbdbcd3e3	-0.09220102
169	0xbf9b4a5b	-1.2132066
170	0xbf8ea17d	-1.1143032
171	0x3f636e6c	0.88840365
172	0xbd2f922e	-0.042864017
173	0xbcf87184	-0.030327566
174	0x3ff9220b	1.9463514
175	0x3d903a14	0.070423275
176	0xbe51c705	-0.20486076
177	0xbe98ffce	-0.29882663
178	0xbf1c3e99	-0.61033016
179	0x3f82022e	1.0156915
180	0x3f030aef	0.5118856
181	0x3efa653a	0.48905355
182	0xbf2f2fef	-0.68432516
183	0xbf7a8a76	-0.97867525
184	0x3d800d34	0.06252518
185	0xbf68f5f8	-0.9100032
186	0xbcf1e8da	-0.029529978
187	0xbd81a329	-0.063299485
188	0xbf1107e2	-0.56652653
189	0xbe5a9058	-0.21344125
190	0x3ebe8f51	0.37218717
191	0xbd08dcb5	-0.033413608
192	0xbeb17456	-0.3465907
193	0xbe6ec94f	-0.2331898
194	0xbe08acbb	-0.13347141
195	0x3fa5b202	1.2944949
196	0x3eb8b920	0.3607874
197	0x3d84b0fb	0.06479069
198	0xbf629bc2	-0.8851892
199	0xbed27048	-0.4110129
200	0x3e1450e3	0.14483981
201	0xbf453370	-0.7703161
202	0xbffd3035	-1.9780337
203	0xbf796e41	-0.9743386
204	0x3e8772bd	0.26454726
205	0x3f06e4ab	0.5269267
206	0xbef85e1d	-0.48509303
207	0xbdb4c448	-0.088265
208	0x3ee551ba	0.44788915
209	0xbe267a4c	-0.1625759
210	0x3eb2f7db	0.34954724
211	0xbf9433a8	-1.1578264
212	0x3f3b652a	0.7320124
213	0x3f2ed628	0.68295527
214	0xbedfc058	-0.43701434
215	0x3e231168	0.15924609
216	0x3d0793a1	0.033099774
217	0xbec80180	-0.39063644
218	0xbda7012b	-0.0815452
219	0xbe09aca7	-0.13444768
220	0xbf5432e2	-0.8289014
221	0xbf0a377a	-0.539909
222	0xbf1a7440	-0.60333633
223	0x3e8ce2c1	0.2751675
224	0xbe300e38	-0.17192924
225	0xbe857903	-0.26068887
226	0xbe12bd4f	-0.14330028
227	0xbeebc023	-0.46045026
228	0x3dff729a	0.124730304
229	0xbeca8773	-0.39556465
230	0xbe982d72	-0.29722172
231	0xbe0337bf	-0.12814234
232	0xbdf0a815	-0.11750809
233	0xbd3b244c	-0.045688912
234	0x3cc9bbc6	0.02462567
235	0xbee407d8	-0.44537234
236	0xbec7ea78	-0.39046073
237	0xbea07b64	-0.3134414
238	0xbf733969	-0.95009476
239	0xbe5868da	-0.21133748
240	0xbec25731	-0.37957147
241	0xbbdf3322	-0.0068115154
242	0xbb1a5bf4	-0.0023553343
243	0xbeae9bf5	-0.3410336
244	0x3e2a4775	0.16628821
245	0xbde06999	-0.10957641
246	0xbe6ca9b8	-0.23111618
247	0xbe992a90	-0.29915285
248	0xbe8a9400	-0.2706604
249	0x3e0f18f5	0.13974364
250	0xbeb018f5	-0.3439404
251	0x3e286d3d	0.16447921
252	0xbdfc7c39	-0.12328381
253	0x3de0d46d	0.10978017
254	0xbe5181b5	-0.20459636
255	0xbe8d8f36	-0.27648324

bias f4 [64]
0	0xbef25cbc	-0.47336376
1	0x3fe5519b	1.7915529
2	0xbf4c8dbb	-0.79903764
3	0xbee94d0b	-0.45566592
4	0xbef222f1	-0.47292283
5	0x40666c56	3.6003623
6	0xbf38f350	-0.72246265
7	0xbeb62f55	-0.35582986
8	0xbfd0d23d	-1.631416
9	0xbf9edfc8	-1.2412043
10	0xbf2d586d	-0.6771305
11	0x3fcf080d	1.6174332
12	0xc00d33ba	-2.2062821
13	0xbf56ef84	-0.8395922
14	0xbf973c4d	-1.1815277
15	0x402d390b	2.7066066
16	0xbec6ea78	-0.3885076
17	0x3ec92d26	0.39292258
18	0xbed93a72	-0.42427403
19	0xbead4a7c	-0.3384589
20	0xc02ed717	-2.731878
21	0xbe5b944c	-0.2144329
22	0xbeb4df4f	-0.3532662
23	0xbec03370	-0.37539244
24	0xbece45ec	-0.4028772
25	0xbee364e1	-0.44412902
26	0xbf299906	-0.6624912
27	0xbf52c8e2	-0.8233777
28	0xbed95b1d	-0.42452326
29	0xbea58958	-0.32331347
30	0xbf718275	-0.94339687
31	0xbe82ae30	-0.2552352
32	0xbec81b3e	-0.39083284
33	0xbf2b592b	-0.66932935
34	0x3e90befa	0.28270704
35	0xbe29634f	-0.1654179
36	0xbf2683ae	-0.6504468
37	0xbf6683e8	-0.9004502
38	0xbf89b068	-1.075696
39	0x406b5f0a	3.6776757
40	0xbeb080a5	-0.34473148
41	0x3ff795cb	1.9342588
42	0xbf81a2a2	-1.0127757
43	0xbfeb7f20	-1.839817
44	0xbea343c0	-0.31887627
45	0xbed211fc	-0.41029346
46	0xbf0912ff	-0.5354461
47	0xbe03caff	-0.12870406
48	0xbdb801b4	-0.089847
49	0xbee10b12	-0.43953758
50	0xbf54d04a	-0.83130324
51	0xbfc6f85b	-1.5544542
52	0x3f8fee34	1.1244569
53	0x3f03cf2b	0.5148799
54	0xbf7fe9a1	-0.99965864
55	0xbfd700ad	-1.6797081
56	0xbf274a1a	-0.65347445
57	0xbe5cd3fe	-0.21565244
58	0xbf40a448	-0.75250673
59	0xbeff1fc4	-0.49828923
60	0x40128fcd	2.290027
61	0xbf807892	-1.0036795
62	0xbf8106c4	-1.008019
63	0xbed40d71	-0.41416505

weight f4 [4, 64]
0	0xbefee2e4	-0.4978248
1	0xbeccfa60	-0.4003477
2	0xbf303e50	-0.6884508
3	0xbeb5a393	-0.3547636
4	0xbe52970e	-0.20565435
5	0x3f06229d	0.52396566
6	0xc031c005	-2.777345
7	0xbedd41d1	-0.43214276
8	0x3f817cd2	1.0116217
9	0xbf6745f3	-0.9034111
10	0x3dfb438c	0.12268743
11	0xbeed9c32	-0.4640823
12	0x3ffd73e1	1.9800988
13	0xc0417ea2	-3.023354
14	0x3e8f73f7	0.28018162
15	0x3f91f30f	1.1402301
16	0xbe90ea89	-0.28303936
17	0xbf273a5b	-0.6532342
18	0xbe09e8e8	-0.13467753
19	0xbe367995	-0.17819817
20	0xc009d350	-2.1535225
21	0xbfc4a608	-1.5363169
22	0x3da9659a	0.08271332
23	0xbe64371c	-0.22286648
24	0xbfa7bc92	-1.3104422
25	0x3e765c84	0.2405873
26	0xbf4cb81c	-0.7996843
27	0xbfca02a5	-1.5782057
28	0xbeb971fb	-0.36219773
29	0xbe81ce7f	-0.25352857
30	0x3edb7977	0.42866108
31	0xbe170f83	-0.14752011
32	0xbe3a271a	-0.18178979
33	0xbbedd228	-0.0072577186
34	0xc0654509	-3.5823386
35	0x3db1e0a4	0.08685425
36	0x3e365894	0.17807227
37	0xbfaf1870	-1.3679333
38	0x3e6df3f3	0.2323759
39	0xbf0d96db	-0.5530831
40	0x400388ac	2.0552168
41	0xbf819fd8	-1.0126905
42	0xbf060dbe	-0.5236472
43	0x3f38c322	0.7217275
44	0xbe5ab953	-0.21359758
45	0xbe5c385c	-0.21505874
46	0xbeb5e0c7	-0.35523054
47	0x3c9e2478	0.019304499
48	0xbea4df1d	-0.32201472
49	0xbe85bdd1	-0.2612138
50	0xbe484a2c	-0.19559544
51	0xbe348928	-0.17630446
52	0x3fab534a	1.3384793
53	0xbfff63cc	-1.995233
54	0x3fa03643	1.2516559
55	0xbf877bca	-1.0584652
56	0x3ea47171	0.321178
57	0x3e73a016	0.23791537
58	0xbeec33c4	-0.46133244
59	0xbf15655f	-0.58357805
60	0xbf88ad34	-1.0677857
61	0xbf51f473	-0.82013625
62	0x3e6bf263	0.23041682
63	0xc04e959c	-3.2278814
64	0x3ede0be5	0.4336845
65	0xbee1c154	-0.4409281
66	0xbf39c2b3	-0.7256271
67	0xbd55782c	-0.052116558
68	0xbe39196c	-0.18076104
69	0x3ecfb922	0.40570933
70	0x3e92ed1c	0.28696525
71	0xbeb6ee89	-0.35728863
72	0xc01af56f	-2.42123
73	0x3fa61b14	1.2977014
74	0xbe32cc09	-0.17460646
75	0xbf50b184	-0.8152087
76	0xbfa78f9c	-1.3090701
77	0x4019bb3d	2.402053
78	0x3f5b5763	0.85680217
79	0x404476f9	3.0697615
80	0xbe8afed7	-0.27147552
81	0x40072561	2.1116564
82	0xbe909348	-0.28237367
83	0xbe7d9d16	-0.24766955
84	0x3ec23a61	0.37935165
85	0xbe4eb35c	-0.20185608
86	0xbdfd4248	-0.12366158
87	0xbed05eba	-0.4069727
88	0xbeb981ba	-0.36231786
89	0xbea5c316	-0.323754
90	0x3eff1a57	0.49824783
91	0x3ec7bdc0	0.39011955
92	0xbf4c7c28	-0.7987695
93	0xbebae0c2	-0.36499602
94	0x3dc30f14	0.0952436
95	0xbe967f6f	-0.293941
96	0xbea663fd	-0.3249816
97	0x3f549032	0.83032525
98	0x400e9695	2.2279408
99	0x3ecca541	0.3996983
100	0x3c81cc51	0.015844496
101	0xbf0ed987	-0.5580067
102	0xbfac7f20	-1.3476295
103	0x3ea834a3	0.3285266
104	0xc0691f85	-3.6425488
105	0x3fa4978c	1.2858748
106	0x3e98d237	0.2984788
107	0xc026f474	-2.6086702
108	0xbe817298	-0.2528274
109	0xbea1f804	-0.31634533
110	0xbee2ad83	-0.44273004
111	0x3d80bd5a	0.06286116
112	0xbed03a0f	-0.40669295
113	0xbe66f454	-0.22554141
114	0x3e340565	0.17580183
115	0xc090e511	-4.527962
116	0xbe97067b	-0.29497132
117	0x3dd85c36	0.10564463
118	0x3fd34e69	1.6508304
119	0x3f354eaf	0.70823187
120	0xbea9655e	-0.3308515
121	0x3e857d2d	0.26072064
122	0xbe85a351	-0.26101163
123	0xbdadee6d	-0.08492742
124	0xbf9e50e5	-1.2368437
125	0xbf2146ce	-0.62998664
126	0x3dbed630	0.09318197
127	0x3f38f3f9	0.7224727
128	0x3f1bb21a	0.60818636
129	0xbf4a5b0e	-0.7904519
130	0x3f34f85a	0.70691454
131	0x3f221fa8	0.63329554
132	0xbe3ae52d	-0.18251486
133	0xc00a3907	-2.1597307
134	0x403b363d	2.9251854
135	0x3e584290	0.21119142
136	0xbd0e6906	-0.034768127
137	0x3e11d011	0.14239527
138	0x3de5c9ff	0.11220168
139	0x3ed16da8	0.40903974
140	0x3f92fcb2	1.1483366
141	0x40696b1d	3.6471627
142	0x3f86e69d	1.0539128
143	0xc041e642	-3.0296788
144	0xbe60a12a	-0.21936479
145	0x3f600fba	0.87523997
146	0x3d8de80a	0.069290236
147	0xbe8b935a	-0.27260858
148	0x4027c474	2.6213655
149	0x4016c507	2.3557756
150	0xbe24f7be	-0.16110131
151	0xbe61fb78	-0.22068584
152	0x3f35276f	0.70763296
153	0xbc5c1250	-0.0134321
154	0x3f5d8806	0.8653568
155	0x3fe02529	1.751134
156	0xbe2a43c3	-0.16627412
157	0xbe907b4a	-0.28219062
158	0xbeaaa0c6	-0.33325785
159	0xbe876c69	-0.26449898
160	0xbe9f3dc5	-0.31101814
161	0x3e89b5f0	0.2689662
162	0x400f3b29	2.2379858
163	0x3e3d80cb	0.18506162
164	0x3ef8666f	0.4851565
165	0x3fbd18d9	1.4773208
166	0x3d05c680	0.032660007
167	0xbfb69971	-1.4265577
168	0x4001a383	2.025605
169	0xbf3ff87b	-0.74988526
170	0x3eb1aae7	0.347007
171	0x3f1d3f13	0.6142437
172	0xbe8f3da1	-0.27976707
173	0x3ebd7b21	0.37008002
174	0xbbfd0248	-0.007721219
175	0xbdc4dabc	-0.09612033
176	0x3c99350b	0.01870205
177	0xbe56dd06	-0.20982751
178	0xbed892ac	-0.42299402
179	0x40896d77	4.2946124
180	0x3f87940b	1.0592054
181	0x3fbed519	1.4908782
182	0x4051258b	3.2679164
183	0x3fa57da5	1.2928969
184	0xbeb42bb9	-0.35189608
185	0xbe94c383	-0.29055414
186	0x3e18cfc2	0.14923003
187	0xbef8e460	-0.48611736
188	0x3e62f1bd	0.22162528
189	0xbeb06e66	-0.34459227
190	0x3f15dfc1	0.58544546
191	0x4003838c	2.054904
192	0x3e3feb11	0.18742014
193	0x3fe3fd05	1.781159
194	0xbdb639aa	-0.08897717
195	0xbeb602ae	-0.3554892
196	0xbe7c8226	-0.24659023
197	0xbfa4c88b	-1.2873701
198	0x402283d9	2.5392973
199	0x3e400579	0.18752088
200	0x3fe747df	1.8068808
201	0x3f4a0bf9	0.7892452
202	0xbf23afcd	-0.63940126
203	0xbf5e2517	-0.86775345
204	0x4056523f	3.34877
205	0x403e6965	2.9751828
206	0x3eb84c56	0.3599574
207	0x3fb41dbf	1.4071578
208	0xbe66aa76	-0.22525963
209	0x3de354b3	0.111001395
210	0x3bb08b4e	0.0053877
211	0xbe45c43c	-0.19313139
212	0x40728f36	3.789991
213	0x401e7e23	2.4764488
214	0xbd971448	-0.07376915
215	0xbe728260	-0.23682547
216	0x3f69cbe5	0.91326743
217	0xbe6e4740	-0.23269367
218	0x3f0b2973	0.5436012
219	0x40036162	2.0528188
220	0x3d442d76	0.047894917
221	0xbe3ce091	-0.1844504
222	0x3e8a471e	0.27007383
223	0xbecec4b7	-0.40384457
224	0xbe67b6e2	-0.22628358
225	0x3f04d7e4	0.5189192
226	0x4007ce33	2.1219604
227	0xbd34f8bc	-0.044182524
228	0x3e69c69d	0.22829671
229	0x3f029613	0.51010245
230	0xbd75ef55	-0.060042698
231	0xbfc1a792	-1.5129263
232	0x3fd1c2f8	1.6387625
233	0xbf07642a	-0.52887213
234	0x3ef7f40c	0.4842838
235	0x3f2864e3	0.6577894
236	0xbe997af8	-0.2997663
237	0xbe705bf8	-0.23472583
238	0xbe75962c	-0.23983067
239	0xb781e000	-1.5482306e-05
240	0x3d406e2e	0.046980076
241	0xbe914dc3	-0.2837964
242	0x3ea134a8	0.31485486
243	0x40945ea1	4.6365514
244	0xbfd5c6aa	-1.6701252
245	0xbf07b37f	-0.53008264
246	0xbf11e116	-0.5698408
247	0x3e99dff2	0.3005367
248	0xbea27ea1	-0.31737235
249	0xbe41d5de	-0.1892924
250	0xbe35cd1f	-0.17754029
251	0x3dcc07a2	0.09962393
252	0xbf86b293	-1.0523247
253	0xbf1d8543	-0.61531466
254	0x3c2277d0	0.009916261
255	0x401bbf8a	2.4335656

bias f4 [4]
0	0xbf55d0b7	-0.835216
1	0xbe148e7b	-0.14507477
2	0xc0499545	-3.1497357
3	0xc060d015	-3.5127003
