kevin_nn_2025-02-21_19-03-10.pt (torch, 16609 bytes, 8 tensors)

weight f4 [16, 16]
00000000: a605 ddbd c9b2 1fbc b560 133f d3da 8c3e
00000010: 3ddc 87be 5338 80be 7148 913e 151f dd3e
00000020: 889e 47be 9b2f 3cbe fedf 89be af78 963e
00000030: 7cb7 9b3d e444 19bd eb18 31bf e296 50bd
00000040: 4e0e 2cbe b27e 01bf 04b2 93bd 088f 8cbe
00000050: 6979 eebd 0b0b 7439 9dac adbc d920 b43c
00000060: 5939 193c 26ae 223e 0d60 90bf ec2e 153e
00000070: f920 3fbe 2cfe 48bf b8f7 febb 8905 50be
00000080: de65 9d3c aba6 273e c155 4bbf 2bbe e13b
00000090: 67ae 19be 2055 a5bd 7dc2 8b3f d31a ce3e
000000a0: 2f84 84bd a4b7 0fbf b467 1fbe c50c 01be
000000b0: a30d 703e 8653 92bf 8d3e 693e ef19 e2bd
000000c0: c8f9 90bd 177b 383e 0439 1dbf e4a9 e0bc
000000d0: a34c 2fbc a026 393d 27e3 66bf e3cd ba3d
000000e0: a9d8 613e aebe efbe 845b 673f b042 3d3d
000000f0: f0d3 143e 902a 8cbe a42c c23e 2a58 1cbe
00000100: 8640 7c3c 9b58 c0bd caa7 2b3e d894 023d
00000110: 9547 6cbe e923 2abe 531f a13f 6f25 d13c
00000120: e1eb 803d 5111 a2bf da45 78bf c693 373d
00000130: 3212 98be a11d db3e 6247 8ebf 65cd 0f3e
00000140: 01f2 06be 8d51 823c 7a35 2dbf 310b 753e
00000150: 03fe d13c a83f e3bd f9a1 9b3f 6a12 5b3e
00000160: ae34 693e 4776 e0be ab02 d33e 6c11 cdbe
00000170: 1e50 44be 8ea8 533c 5e17 09bf a6dd 0bbc
00000180: 61d6 0dbe 4294 73bd 0219 aabe 9710 a4be
00000190: 3028 96bd 949b 8abe a731 89be 2cd1 07bf
000001a0: d093 32be ad2a c6bd 751c a03e 0d83 3c3c
000001b0: d27b d4bc 141f 8e3d fa48 08be 7291 a03d
000001c0: 92b4 fa3c 5051 88be 38db d23e 94f1 c13d
000001d0: 7714 23be f741 35bf 0e42 8c3f b65d 023e
000001e0: 7573 a4be 9526 b5be 3c1c 9bbe 25fe 84be
000001f0: 1f1e 823e 5862 223f a10f a5bf d915 bd3e
00000200: b036 4e3e 8ee7 5ebe 12f2 57be 3989 b6be
00000210: 3c9b 12be c371 933d e4a3 46be 8717 a1be
00000220: c4ee 6abe 104c a9bd 8efb 42be d442 02bd
00000230: 2c00 8c3d 6876 163d 8890 79be 884f 96be
00000240: 7786 a3be 7f78 d7be df43 a53f b9e0 b93c
00000250: 2049 3fbe 4ba9 61be eb20 1a3f 56d5 7c3e
00000260: eaaa dabd 200d 3d3f 6e7e 0cc0 5c9b d43e
00000270: e2b2 36be 0842 f83d 57cb 76be 7b42 e03e
00000280: 697f 7d3d b8d0 233e c2be 81bd f43f 23be
00000290: cf6d 063c 6759 79bd 9bcf 12bf 505f c43e
000002a0: 0cbe 5bbe 7bcb 95be a0fa d13e db01 b23d
000002b0: 6c84 ecbc ee20 f9be 66a2 40be e7d6 44bf
000002c0: a2f1 3abe b24c 10bf 37af 48be 0094 b03e
000002d0: 1136 b83d 39fc f33c 121d 22bf 986a c2bc
000002e0: 35a3 d9bd 8f62 60bf 8a03 5f3f 1180 043e
000002f0: 0b5d 923c f019 dcbf 449e e8bb dec3 e43d
00000300: b631 98bd 87ad 7b3e 7357 0dbf 33c1 993e
00000310: 25d4 d03d ec6b 00be 1131 2d3f 44c3 b43c
00000320: 8db8 04bd 1909 bcbf d2c3 393f 7f66 fc3b
00000330: e4ff 71bd 87f5 2cbe cb3a edbe ec06 adbc
00000340: 4f60 073e d424 073e 8fe0 e0be 7c46 283d
00000350: 6456 9abe c22a 3ebe da91 0abf d1b4 ee3d
00000360: f716 363e 55cd 43be 1977 063f ca65 7b3c
00000370: 08d1 653d d022 1dbf e77f 0bbe d8ad 1fbe
00000380: ca3b 14bd f954 87be 7184 de3e 514e fbbd
00000390: 7c12 4abe 7d41 f5bd 1e55 39bf 6267 263e
000003a0: 338e 06bd 4f3e cf3e 1eed 96bf 3db1 4e3e
000003b0: 07d5 25be 896e 43bf a7a3 a93f 3bd3 6a3e
000003c0: d0b3 433e 8e31 cc3e 2d88 1cbf b746 5dbd
000003d0: 0b35 0c3e 23ba 92bc cb53 55bf 8219 923d
000003e0: 7bd0 a0bc dfb8 e23d 4ae2 d93f 466f 973e
000003f0: f6af 5b3d b54a f2be a0fc 5e3f 9886 37be
-0.10792093 -0.009747216 0.5756944 0.275107 -0.26535216 -0.25042972 0.2837558 0.43187776
-0.19494069 -0.18377535 -0.26928705 0.2938895 0.07603356 -0.037419215 -0.69178647 -0.050925143
-0.16802332 -0.50583947 -0.07211688 -0.27452874 -0.11644251 0.00023273767 -0.021200472 0.02198832
0.009352052 0.15886745 -1.1279312 0.1456868 -0.18664922 -0.78512836 -0.007780995 -0.20314611
0.019213613 0.16372173 -0.79427725 0.006889125 -0.15007935 -0.08072877 1.0918728 0.4025484
-0.064705245 -0.5613959 -0.15566903 -0.12602527 0.23442702 -1.1431739 0.22777767 -0.11040103
-0.07078892 0.18015705 -0.61415124 -0.02742476 -0.010699424 0.04520285 -0.90190357 0.09121301
0.22055306 -0.46825165 0.90374017 0.046206176 0.14533973 -0.27376223 0.37924683 -0.15268007
0.015396243 -0.093919 0.16763225 0.03188023 -0.23074181 -0.16615261 1.2587684 0.025530545
0.0629499 -1.2661535 -0.96981585 0.044818662 -0.29701382 0.42796043 -1.1115534 0.14043196
-0.13178255 0.015908027 -0.67659724 0.2393005 0.025633818 -0.11096126 1.2158805 0.21393743
0.22774002 -0.43840238 0.41212973 -0.40052354 -0.19171187 0.012918605 -0.5355128 -0.008536732
-0.1385131 -0.05946756 -0.33222204 -0.32043907 -0.07331884 -0.27071822 -0.26795694 -0.53053546
-0.17439198 -0.096761085 0.3127171 0.011505854 -0.025937948 0.069395214 -0.13309088 0.078402415
0.03060368 -0.26624537 0.41182876 0.094699055 -0.15925775 -0.7080378 1.0957658 0.1273106
-0.32119337 -0.35380998 -0.3029498 -0.25975147 0.25413606 0.6343131 -1.2895395 0.3693073
0.20138049 -0.21768019 -0.21088436 -0.35651568 -0.1431703 0.07199433 -0.19398457 -0.31463262
-0.22942644 -0.08266461 -0.19041273 -0.031802014 0.0683597 0.036734015 -0.2437154 -0.29357553
-0.31938526 -0.4208412 1.2911338 0.022690164 -0.18680239 -0.22037236 0.6020648 0.24690756
-0.106771305 0.7384815 -2.1952167 0.4152478 -0.17841676 0.121219695 -0.24101005 0.4380072
0.061889086 0.15997589 -0.06335212 -0.15942365 0.008204891 -0.060876276 -0.5734803 0.38353968
-0.21459216 -0.29256806 0.41011524 0.0869176 -0.028871737 -0.48657936 -0.1881195 -0.76890415
-0.18256238 -0.5636703 -0.19598089 0.34487915 0.08994687 0.029783355 -0.6332561 -0.023732468
-0.106268324 -0.8765039 0.87114775 0.12939478 0.017866632 -1.7195415 -0.007098945 0.11170171
-0.074313566 0.24577914 -0.5521156 0.30030212 0.10196713 -0.12541169 0.67652994 0.022065766
-0.032402564 -1.4690276 0.72564423 0.007702648 -0.059081927 -0.16890536 -0.46333918 -0.021121465
0.13220333 0.13197643 -0.43921325 0.041082844 -0.30144036 -0.18570998 -0.541288 0.11655582
0.17782198 -0.19121297 0.5252548 0.015344093 0.05610755 -0.61381245 -0.1362301 -0.1559366
-0.03618983 -0.26432016 0.4346042 -0.12270797 -0.19733614 -0.119753815 -0.72395504 0.16250375
-0.032850455 0.40477225 -1.1791112 0.20184799 -0.16194545 -0.7634054 1.3253068 0.2293214
0.19111562 0.39881557 -0.6114529 -0.054022517 0.1369211 -0.017911023 -0.8333098 0.071337715
-0.019630661 0.110704176 1.7022183 0.29577082 0.053634606 -0.47322622 0.87104225 -0.17922437

bias f4 [16]
00000000: 7f43 7d3e 0c04 2b3e 4288 223d e1a6 853e
00000010: 1523 373e 392d 963e 7ca5 243e 4075 0e3e
00000020: 706a c43c 5bc9 803e 172a c23c c122 afbc
00000030: 8813 c33d 3861 f7b9 dbdb 523e 46d0 483d
0.24732779 0.16700763 0.039680727 0.2610388 0.17884476 0.29331377 0.16078752 0.13911915
0.023976535 0.25153622 0.02370171 -0.021378877 0.0952521 -0.00047183945 0.2059168 0.04902675

weight f4 [32, 16]
00000000: c212 2b3f 5425 663e c7cd 96be 74b8 43bf
00000010: df2f 263f 642a 6a3e 47bf 693e b4db 483f
00000020: 7a07 3abe f1e7 ef3e 4f68 f0be 74be e9be
00000030: ad63 c43e 5fc4 603d 1bbd 4abe 0f12 a9bf
00000040: bca5 b33d c3f7 1dbe 5b2c 793e 0a51 a03e
00000050: 4544 a9be 0a73 a5bd 95c6 8e3e 984d 0c3e
00000060: fd7c 0abe fa63 fabd f32c 523e 8f75 953e
00000070: 3a35 29be 6080 3f3d fd47 6d3e 307e d53e
00000080: 4608 6abd 9b85 dcbd 74ab d03e 333b 9e3e
00000090: 1d48 323e ec95 a73e 61b9 c4bc 00fa 6f3e
000000a0: b854 4c3e 82a0 31bd ed1d 1b3f 9db0 cdbd
000000b0: 9ee6 ba3e eede a3bd 769c 1cbe 3692 453e
000000c0: 8524 773d 8b6b 9abd 0768 4b3c 6e74 cf3e
000000d0: d5fb c8be 1944 683e a22e af3d db66 d4be
000000e0: 0e86 46bd 5709 f2bd ab4a 093f c434 f63e
000000f0: 0eca 7f3e eb70 a0bd c3e8 0ebe 16d8 e63e
00000100: d997 933e d9ad 303e 6f7e a23d 23ca a33e
00000110: e086 ef3d f02c d7bd bdb1 c33d 13b3 d03d
00000120: eaf7 47be 6331 903e 8973 953e d931 f5be
00000130: 566b 1dbf 2038 4d3e 019e 003f 3fa2 e3bd
00000140: 4d71 6f3e 5bd3 103e 0915 30be 424e 653e
00000150: 115f 4ebe 29e8 dc3d 871a 843e 6379 463d
00000160: d7a8 ab3e 50ba b23d d46b b03d 744c c53e
00000170: efd6 153e b86f 613e 6df8 073e b2d3 093e
00000180: 5bb0 a23e 1559 8a3e b12d 723e 067f 013e
00000190: 813c 45bd 3bae 4abd 327e 02bd 8b82 b7bc
000001a0: 69e6 ac3d b53e 643d 4da0 9f3e beeb 943e
000001b0: f773 183b b175 7ebd f183 6f3e 0ce4 853e
000001c0: 9ed1 71be 0015 a7ba c83a 4a3e c012 9cbd
000001d0: 4ceb 4f3e 0028 5aba 7612 18be 98f5 b7bd
000001e0: 6849 e23d b03c 85bd 00c6 12be 42a9 79be
000001f0: 6417 a1bd 38e6 703e 1caa 99bd aca8 cbbd
00000200: 8872 82bd 0442 b2be b3e2 5e3c 6f4d 9d3e
00000210: 0f26 3bbe cd08 bf3e 0bd7 4c3d 0aab a5bd
00000220: f809 b23d 9149 66be 861a 663c bca4 ccbe
00000230: 81ae 813e 3306 8e3e dc81 a0be 9d28 e73e
00000240: 4477 1f3e 8562 06be 94e1 153f cf8c 163e
00000250: e103 20be ae60 7f3e 4b68 973e a2c4 f23d
00000260: 9da5 823e 36b9 7fbe 85d4 033f c40a a53e
00000270: 2d1b cc3e f095 a33e a0df 51be ebdc 033f
00000280: 5197 403d 9167 ba3d f6be 833f 28a2 f73e
00000290: bcbe 953e 696b cf3e da4c bdbe a3c3 b43e
000002a0: 4eb2 83be 3f55 adbe 3380 0d3f 8fd7 953e
000002b0: 8802 bf3e a95d df3c 3bad c4bd 8032 0c3f
000002c0: 01fa 833e ee37 463e 9d24 e13d 2087 ff3e
000002d0: 757c 93be 3d9c 7a3d 36a2 b23e 453c 52be
000002e0: 3ed3 b93c 45b1 12be 6b8a 013f fe37 383f
000002f0: 0669 443e e62d ebbd 6a6d 3c3e f73b 753c
00000300: 901f ae3b 0337 09be 343d 04be ff7f 73bc
00000310: 2eaf b9be fac5 86be 5786 83be 2eea dabd
00000320: 7a42 1cbe 893a d5bd 3964 6bbe b19b 09be
00000330: 7795 4c3e 569f fb3d 6866 32be e13e 15be
00000340: 3c5c 843e 4c2a 4f3c 6a77 7d3d 2f5d e93e
00000350: 4255 93be 5d1e 9c3c 88e3 9a3e dca5 80bc
00000360: 8bec 05be 5b4c 99be fbb1 173f 4ddc 1b3f
00000370: 18fe 5d3e a1ed db3e 123b 19be 1664 eb3e
00000380: ce62 d1bd 9477 a1bd f490 fe3e e7c9 133f
00000390: 4145 40bd 1ccc 523e 911d 673e 670d 6abd
000003a0: 4055 893e 0c4e b5bd ddb9 043f 553d 213f
000003b0: f0ad 6dbb 947e 26bd 1f4b 2f3e c0a2 333e
000003c0: 40f4 92bd 0406 cd3d 9dc7 053f f2a4 013d
000003d0: 9ba3 9e3c 73de b83e b6b7 aa3e 7814 a43e
000003e0: 21e9 bf3d f267 86be acbf 243f 8a09 a33e
000003f0: 0dc6 233e 1d58 a53e 4bce 4abc ca87 453e
0.668255 0.22475177 -0.2945387 -0.7645333 0.64916795 0.22867733 0.22826873 0.7846024
-0.18166915 0.46856645 -0.4695458 -0.45653117 0.38357297 0.054874774 -0.197987 -1.3208636
0.08771846 -0.15426545 0.24333327 0.31311828 -0.33059898 -0.080785826 0.2788588 0.13701475
-0.13524242 -0.122261 0.2052496 0.29191253 -0.1652421 0.046753287 0.23171993 0.41697836
-0.057136796 -0.10767671 0.40755808 0.3090454 0.17410322 0.3273157 -0.024014177 0.23435211
0.19954193 -0.043365963 0.6059254 -0.10043452 0.36504072 -0.08001505 -0.1529406 0.19294056
0.060337562 -0.075400434 0.012414939 0.40518516 -0.39254633 0.22682227 0.085538164 -0.41484722
-0.04846769 -0.11818188 0.5362956 0.48087132 0.24979421 -0.078340374 -0.13955979 0.45086735
0.28826788 0.17253818 0.079342715 0.31990156 0.11695647 -0.10506618 0.09555385 0.10190406
-0.19528165 0.2816268 0.2918971 -0.47889593 -0.61491907 0.20040941 0.50241095 -0.1111493
0.23383065 0.14143126 -0.17195524 0.22393134 -0.20153452 0.107864685 0.2580149 0.048455607
0.33527252 0.087269425 0.086143166 0.38534892 0.14632772 0.22015274 0.1327836 0.13459662
0.31775174 0.2702109 0.23650242 0.12646112 -0.048153404 -0.049482565 -0.03185863 -0.022401115
0.08442385 0.055723865 0.31176987 0.29086107 0.002326248 -0.062123958 0.23390175 0.26150548
-0.23615119 -0.0012747347 0.19748986 -0.07620764 0.20304602 -0.00083220005 -0.14850792 -0.0898239
0.110491574 -0.06505716 -0.14333344 -0.24380973 -0.078657895 0.23525321 -0.07503149 -0.09944281
-0.06369501 -0.3481599 0.013603854 0.3072314 -0.18276237 0.37311402 0.05000977 -0.08089264
0.08693308 -0.22489001 0.01404441 -0.39969432 0.25328448 0.27739105 -0.31349075 0.45148173
0.1557284 -0.1312352 0.5854733 0.14702152 -0.1562648 0.24939224 0.29571757 0.11853911
0.25516978 -0.24972996 0.51496154 0.32234776 0.39864483 0.3195033 -0.20495462 0.5150897
0.047019307 0.09101785 1.0292652 0.48365903 0.2924708 0.40511635 -0.36972696 0.3530551
-0.25721973 -0.338541 0.5527374 0.2926602 0.3730662 0.02726634 -0.096033536 0.54764557
0.25776675 0.19357273 0.109933116 0.4990778 -0.2880589 0.061184157 0.34889382 -0.20530804
0.022683736 -0.14325435 0.50601834 0.7196044 0.19180688 -0.11483364 0.18401113 0.01496791
0.005313821 -0.13399892 -0.12913972 -0.01486206 -0.36266464 -0.2632292 -0.2568843 -0.106891975
-0.15259734 -0.10411555 -0.2298745 -0.13438298 0.19978891 0.1228625 -0.17421877 -0.14574768
0.2585162 0.012644362 0.06188146 0.45578906 -0.28775984 0.019057447 0.30251718 -0.015704088
-0.13078515 -0.29941067 0.5925595 0.6088303 0.2167896 0.42954734 -0.1496394 0.45974797
-0.102239236 -0.07884136 0.49719965 0.57729954 -0.046941046 0.20585674 0.22569872 -0.057141688
0.26822853 -0.08852777 0.51846105 0.6298421 -0.0036267005 -0.040648058 0.171185 0.17542553
-0.07175493 0.10010913 0.5225771 0.031651445 0.019365123 0.36107215 0.33343285 0.32046866
0.09370638 -0.2625118 0.6435497 0.31843215 0.15993519 0.32293788 -0.012378286 0.1929008

bias f4 [32]
00000000: a895 113f a557 e8bc de00 44bd aa43 26bd
00000010: ee95 eb3d fb59 b33e 8d6d 893e be4b 6ebe
00000020: eeb2 353e d351 9c3e d529 273e 11d8 fbbc
00000030: d762 c1bd 67b1 c73e 6f81 1f3e 1be2 803d
00000040: 9869 a63e 9ac3 5f3e 60a6 503d 8520 8bbc
00000050: 2189 8f3e 6521 553e de66 bd3b ed9d 3d3d
00000060: 5a57 06bd 4459 86bd 8d8e 2ebe a3d6 cc3c
00000070: 86fc a63e 6868 663e 2c42 58bd 852e 9abc
0.5686898 -0.028362105 -0.04785239 -0.040591873 0.11503206 0.35029587 0.26841393 -0.23271081
0.17744038 0.30531177 0.16324551 -0.030742677 -0.0944268 0.39002535 0.15576719 0.06293126
0.32502437 0.2185196 0.050939918 -0.01698328 0.2803431 0.2081352 0.005780085 0.046293188
-0.03279815 -0.06559995 -0.17046566 0.02500469 0.32614535 0.22500765 -0.05279748 -0.01882101

weight f4 [64, 32]
00000000: 6f29 863d 5145 59bc 4457 0c3e d661 5c3e
00000010: dfa2 77be 8223 ed3d 461c 9e3d d3fb cd3d
00000020: ce89 d73d b429 863d 54dc d03e f208 cb3d
00000030: d675 153e 5d54 5c3e 2383 f73d aa9d 4b3e
00000040: 7c93 0fbe b589 b93c 5946 5bbe cdf5 913d
00000050: cce2 993d b134 2b3d 185a ce3c a126 95be
00000060: 4dca 953e 9631 2a3e d4a4 a33e 7147 853d
00000070: 627a 06bf 7e16 053f 065c 213f a0f0 2bbe
00000080: 0e84 5a3f 74e8 39bf 4983 4c3d d192 b6be
00000090: 7923 7f3e caaf ca3d abdc 003b 9690 dc3d
000000a0: dc2d 473e ea3a 1ebf 8d15 d4be e669 9abe
000000b0: 5b61 7cbd a571 55bf ad7e 76bf 4d90 3ebe
000000c0: 4e1f 41bf 1c64 8cbf d02b 763e a251 3a3e
000000d0: 9c3f cebe ac43 41be 20cc ee3d 07b1 6abd
000000e0: eff4 8b3e ce56 30bd 32f1 533e 3ba5 e13d
000000f0: c4d1 083f 435c 5d3d 8118 543e 9b48 8ebd
00000100: b606 243f 313b 41be f8e2 a13d 7794 063d
00000110: 4d3a 643e a39d 083d 3302 f63d c93a 0e3c
00000120: b435 4ebe 3e7d ef3d b563 49be 7cf2 c1bd
00000130: 3589 99bd 46ec 9fbe c40f 163d d3c1 5c3e
00000140: fdd1 973d 2c30 4e3c a9d5 f73c e872 e03d
00000150: 0dfa 7abe 797e 043d 6c83 0b3e b662 8dbd
00000160: 2ee5 d1bd 4592 863d 5de9 b83e f42f ae3d
00000170: fbdd e43e 7751 b33e ddbf ec3e 8f27 a1bd
00000180: 5266 73be b0c4 f1bd 864a ccbb 6dc5 90be
00000190: 6ed2 343e a277 00be deff 01be c65c 8f3d
000001a0: 75a3 21be 2353 433b ca59 56bd 2e72 8fbe
000001b0: b969 f2bc fe1c 32be bb82 78be 7316 a7be
000001c0: 2bdd 54bd 31d7 d4bd 796c 1ebe fca1 7ebd
000001d0: adf2 2fbe c92e 81bd 9d7e ba3d 42f0 03bd
000001e0: 765e 26be c6b0 e7bd cd87 06be 8e98 05be
000001f0: 4f19 d3bd a854 1abe 6b50 2dbe 892d 75be
00000200: 577e 42bf 207d 803e 371e a33e 8a78 0f3f
00000210: ba75 c8be 199e c43e ae8d 973e 4a29 cc3d
00000220: 079a 63be 2294 d43e 4a62 e13e 16f8 e23e
00000230: 0640 913d 448f f23e 76a2 d83e 4e67 793e
00000240: 5876 5b3e d05f 8e3e ee8e 49bd e66f 2f3e
00000250: 40f5 d33e fe7f 1b3e bd5f a4bc 2f7d 903d
00000260: 7b73 253d 14d8 be3d 3306 b6be f60a 3c3e
00000270: 31cf 52be 60db 9bbe e8ba 0bbf 38f4 fa3e
00000280: 98a9 cabd b054 0ebe 3397 2dbe a8d4 a63d
00000290: 3e50 dbbd 0764 b23e 288d ca3c 30b6 af3d
000002a0: bfa0 53be 13ee 86be 02cd 9fbe 6e2d aabd
000002b0: ef64 45be afb1 53bd 3a56 8c3d 1a1e c9be
000002c0: e415 7fbe 7de5 b23d 6ec5 733e 5b4d 19bd
000002d0: c7b3 173e 7739 ad3d e2dc 4a3e 493e 8dbd
000002e0: cb60 00be 5b83 45bd 8b7e 67bc 0b5c ed3e
000002f0: 256e 413f 872d 21bf dbb8 d2be 2721 9b3e
00000300: 8f3f b3bd f2d9 ffbd 942a 6cbe 00c6 01bc
00000310: 989b 133c def7 20bd af3d 643d e2e2 803d
00000320: 1bfc 27be e73f 933d 1ebf 163e fde2 0cbd
00000330: c3cf adbd 847c 11be 8c06 fabd 9cc9 cfbd
00000340: b6b8 183d 8aa6 d2bd 1dab 84be 575b 2e3c
00000350: 83fc 3abe 4fad 03be 9fdf 0abe 4f85 803d
00000360: 3f18 30be 872b 88be 3229 8dbd 1f8e 083d
00000370: d8fa 1abe 43ab 86bd e1c4 fdbc 2a08 29be
00000380: fd74 19be 83a1 6c3e ed46 c8bd 173d b03d
00000390: 7632 3d3f e1b9 7b3d eb6c cd3e 3380 053e
000003a0: ddbe 44bf d49b 41bb efbd 0dbe 39df 8b3e
000003b0: f75f ac3d 19bc 40be 720b c43e 66c9 66be
000003c0: 55cf 8f3e 1064 443e cc41 303f 654c ac3d
000003d0: b4e8 5cbd ac8b f9bc 8607 9a3d 0e71 f03d
000003e0: 3953 b6bd 0f00 cb3c 6aed 7c3d 4e24 4b3f
000003f0: 3fee fe3e 5652 2ebe 6653 893e 7c9e ae3e
0.065508716 -0.013261155 0.13705164 0.21521696 -0.24183224 0.11579038 0.077202365 0.10057797
0.10524331 0.06550923 0.40793097 0.099138156 0.14595732 0.21516557 0.12085559 0.19884363
-0.14021105 0.022648672 -0.21413554 0.07126961 0.07513961 0.041798297 0.025189444 -0.29131034
0.29255906 0.16620478 0.3196169 0.06507767 -0.5253049 0.51987445 0.6303104 -0.1679101
0.8535775 -0.7262032 0.04992989 -0.35658887 0.24915875 0.0989681 0.0019662778 0.10769765
0.19451088 -0.61808646 -0.41422692 -0.3015892 -0.061616283 -0.8337653 -0.9628704 -0.18609734
-0.7543839 -1.0968051 0.2404015 0.18195203 -0.40282905 -0.18873471 0.116600275 -0.057297733
0.27335307 -0.043051533 0.20697477 0.11017843 0.53445077 0.054043066 0.20712472 -0.06947442
0.6407274 -0.18870236 0.07904619 0.03285643 0.22287865 0.03335346 0.12012138 0.008681008
-0.20137674 0.1169381 -0.19666941 -0.09470078 -0.07496873 -0.3123495 0.03663613 0.21558313
0.07413099 0.012584727 0.030253248 0.10959417 -0.2450945 0.032347176 0.13624352 -0.06903593
-0.10248791 0.065708674 0.36115542 0.0850524 0.44700608 0.3502309 0.4624013 -0.07868873
-0.23769501 -0.11805093 -0.00623447 -0.28275624 0.17658398 -0.12545636 -0.12695262 0.07000117
-0.1578501 0.0029804192 -0.052331723 -0.280168 -0.029591428 -0.17393872 -0.2426862 -0.32634315
-0.051968735 -0.10392607 -0.15471067 -0.0621662 -0.17182417 -0.06307752 0.09106181 -0.03221155
-0.16246971 -0.11313014 -0.13137741 -0.13046476 -0.103075616 -0.15071356 -0.16925208 -0.23943152
-0.7597403 0.25095463 0.3185899 0.56043303 -0.39152318 0.3840187 0.2960028 0.09968813
-0.22226726 0.41519266 0.440203 0.443299 0.070922896 0.47374928 0.42311448 0.24355814
0.21431863 0.27807474 -0.049208574 0.1713253 0.41398048 0.15185544 -0.020065183 0.07055127
0.040393334 0.093185574 -0.35551605 0.18363556 -0.2058685 -0.30440807 -0.5458207 0.4901445
-0.09895629 -0.13899493 -0.16952209 0.0814603 -0.10708664 0.3484194 0.024725512 0.085796714
-0.20666789 -0.2635351 -0.31211096 -0.08309446 -0.19276784 -0.051683124 0.06852384 -0.39280778
-0.24910694 0.08735178 0.23805782 -0.037427288 0.14814673 0.08458226 0.19810823 -0.068966456
-0.12536924 -0.048220973 -0.014129291 0.46359286 0.7555869 -0.62960094 -0.4115666 0.3029873
-0.08752357 -0.12492742 -0.23063117 -0.007920742 0.009009264 -0.039298885 0.05572289 0.062932745
-0.16404764 0.07189923 0.14721343 -0.03439616 -0.08486893 -0.14207655 -0.1220828 -0.10145876
0.03728553 -0.10285671 -0.259118 0.010641894 -0.18260388 -0.1285908 -0.13561867 0.062754266
-0.17196749 -0.2659571 -0.06892623 0.033338662 -0.15134752 -0.06575634 -0.030977668 -0.1650702
-0.14986034 0.23108487 -0.09779153 0.08605402 0.7390512 0.061456565 0.4012216 0.13037185
-0.76853734 -0.0029542344 -0.13841985 0.27318743 0.08416741 -0.18821754 0.38289982 -0.22537765
0.2808787 0.19178796 0.688504 0.084130086 -0.05393286 -0.030462109 0.07520966 0.117403135
-0.08902592 0.024780301 0.061749853 0.7935227 0.49791142 -0.17023596 0.2682144 0.3410529

bias f4 [64]
00000000: f917 f03b 81dd 8d3e c23b bc3d 0747 61be
00000010: 3317 aa3d 8d71 aa3d fa9b 8d3c ad32 693e
00000020: 6ae1 f03d a17b 31be af75 69bd 9998 84bd
00000030: 5d09 9c3e 3d05 343e db8a 8cbc 7935 ec3c
00000040: ba1f e03d a61b 25be 267f 943e cf8d 593e
00000050: 0971 bf3d cec4 823e 419c 913e fa8d 5c3e
00000060: 2cde 663e 5839 2b3e fe6a e3bd b83e c33d
00000070: a0d4 b6bc 389d 8f3d 1e59 0bbd e24d acbd
00000080: 2c98 5ebd f2bd 9b3e 2a63 a5bd a84e ad3e
00000090: ff00 9f3e b68f 053d 8c42 1abe 8420 ed3d
000000a0: 126c abbd 79f7 383e a8b6 86be ace2 3d3e
000000b0: a762 053d fd48 1e3e 1c92 3bbe ce92 d1bd
000000c0: 475e f83d 8a96 393e 541f d53d 7bc3 35be
000000d0: 65c5 133d f1f1 f23d ebb5 7b3d ee2f b1bd
000000e0: b582 9ebc 58c4 1ebe 3899 923e 64e2 bc3a
000000f0: 09ff d53c 1ff2 313c 620b 083d cf55 3e3e
0.0073270765 0.27708057 0.091910854 -0.21999751 0.08305206 0.08322439 0.01728629 0.22773238
0.11761744 -0.17332317 -0.056996997 -0.06474418 0.30475894 0.17580123 -0.017156055 0.028834091
0.10943551 -0.16123828 0.29003257 0.21245502 0.093477316 0.25540775 0.28439525 0.21538535
0.2254569 0.16721094 -0.111043915 0.09533447 -0.022318184 0.07012409 -0.034020536 -0.084132925
-0.05434434 0.30418354 -0.08075555 0.33849072 0.31055447 0.032607757 -0.15064448 0.115784675
-0.08370222 0.18063153 -0.2631123 0.185435 0.032564785 0.1545753 -0.18317455 -0.10233079
0.12127357 0.18123832 0.10406366 -0.17750351 0.036076922 0.11862553 0.061452787 -0.0865172
-0.019349435 -0.15504587 0.28632522 0.0014410731 0.026122587 0.010860949 0.03321398 0.18587421

weight f4 [4, 64]
00000000: 4270 d73d 7e6e b5be 3655 303d 3a0d 643d
00000010: 3287 233e 0a8f 92be f10f 713c d721 c73c
00000020: 2c6b c9bb 5a7c 653e c4cf c23d 99a6 5c3d
00000030: ccff c9be f55f 563e f504 e13c 205e 0dbd
00000040: d09d 14be 4b34 413d 404c 09be f05e 8f3d
00000050: 5d9a 81be f833 cd3d 31ee 78be b525 65bd
00000060: 8d06 cdbd 0e3a 5f3e aaae 803e e0d4 303e
00000070: fc8c 3abd 280d c03c fea0 88bc e51f 3f3d
00000080: 511d 723d e921 1bbd 9934 013e 969d 10be
00000090: 42c7 55be c532 b3be f17b bebd 1cb5 d7be
000000a0: 52b1 b53e 1213 273e 6019 9dbb 4679 babd
000000b0: 6931 3a3e b82b 6bbe 3433 e73d b484 243d
000000c0: a5d1 573d 7f1a 6dbd fc84 f4bd b820 edbd
000000d0: 7deb 0c3e f647 413e c4c7 13be cacc 593e
000000e0: 837a e2bd d8ee 763d 96f6 b4bd 6dd0 7ebd
000000f0: bb84 473d 353a efbc a488 843d d52c 1abd
00000100: f245 0dbe 6c88 883e 22cb 8bbe 200c d1bc
00000110: cec6 373e c210 963e abae 89bd 0d28 43bd
00000120: 88c4 733d 23b9 dabe 271d 06be fc5e bebd
00000130: 1e9a 523e 39a4 21be 1039 013d e015 32bc
00000140: 8158 773d 2b3e 9ebc b959 113e 7935 b8be
00000150: b986 ef3d c9cc 11be 9258 a33d ff9f 0ebe
00000160: 5d15 fdbd da7f 57be bcd5 af3c d3ae 0cbd
00000170: 97c9 163d fd1e 64be 5527 36be 167f 873c
00000180: 2681 5e3d 69c0 063e 869b b2be 8f9b e1bd
00000190: a55a 49be cc90 feb9 185a 913d b66d 883e
000001a0: 91d2 11bf dfc9 5b3f 00ba 18bb d81e 043e
000001b0: a246 f3bd 253c bc3e 5c9d 8ebe 740a 34bd
000001c0: b4ed 73be 86c6 0e3e 4b27 9ebd 5cde afbd
000001d0: d2c1 38bf 9140 b63e 595b fdbd 2302 8fbd
000001e0: 7f1e db3c 00a8 8338 a695 6cbe b54a b53c
000001f0: a5c2 3c3c e214 b63e e65a 01be d5b7 703e
00000200: 6c5f 76be 0069 00bf fa55 193e 234a 233d
00000210: 2efa 95ba 35ec df3d fa8b e13a 931e 283e
00000220: feca d1bd 5a55 b73d dd8b 4cbe 5e1a 8bbd
00000230: dc75 833d d992 27be 941a 4e3d 58ef c03d
00000240: e9e9 8cbd 184f cebd 119b 90bd 54a1 d33d
00000250: dbb4 a63d 7873 073e 8f6f 3a3e a39f 103e
00000260: 9319 f0bd 7ee0 52be 54dc c1be d2fc 9abd
00000270: dd2d 91bd 8f45 fa3d 53b2 81bd cdbc 7b3d
00000280: 45d2 86bc 80d7 cbbd 5de3 ab3c 2606 13bd
00000290: 0c97 e13c 76f7 e23d b615 5e3d 2d82 fa3d
000002a0: 700c 8e3d 3ac2 44bd 3c4e 343d 6950 8a3d
000002b0: d7dd febd a114 c73d 2e2e f63d 487a acbc
000002c0: 27e0 183e f83f 8e3d 7e96 16be 00f2 0fbd
000002d0: e6dc 033e 98bd 18bc 3d18 e1bd eec6 40be
000002e0: 68a6 0ebc e0d9 923c 1f2a 14be 251a 37bd
000002f0: a109 f93d 649e 36bd 27ad f63d 3f13 6d3e
00000300: b7c9 7b3d de07 e43e 8d38 f23c 849e cabd
00000310: ebcc 60be 162a 81bd 09e2 0bbd de28 6fbe
00000320: 70e5 c4bd f79e 81bd 8151 4ebd 6482 153d
00000330: bc28 bebc 5c06 63be 6ea8 e93c f61b e2bd
00000340: 285c b23d 9d3d c83c 6876 52be 73b4 2c3e
00000350: 5296 8abc d6f8 33bc d616 93be bebc 03be
00000360: 9b7e 3cbd 0894 9ebd 9e45 4f3c b311 0d3d
00000370: f63a 053a 4685 1b3e 1fea 03bd 9bbd 7a3e
00000380: b5ae 5ebd 99ca 88be 2e48 30bd 963d 593e
00000390: 0ef9 2c3e 178d 6f3e f98e 403d 4cad 0dbd
000003a0: 2361 d43d 8e42 8d3e 79d9 303d 7ef7 ccbd
000003b0: 6472 ebbd ec23 b5bc dd19 833d 3332 03bd
000003c0: 80f6 c93c db59 9ebd 08c1 273d 008d ce3c
000003d0: b11a 96be 111f 1dbe b88a 15bd 9f45 99bd
000003e0: 2b42 033c 25ca 8e3d 12ae a3bd bf62 bb3d
000003f0: 2750 e2bd 2663 42be a228 5dbe 55a9 8fbe
0.10519458 -0.3543586 0.043050013 0.055676676 0.15969542 -0.28624755 0.014713273 0.024308128
-0.006146809 0.22410718 0.095122844 0.053869817 -0.3945297 0.20935042 0.027468184 -0.034513593
-0.14513326 0.04716901 -0.13407993 0.0700053 -0.25313082 0.10019678 -0.24309613 -0.055944163
-0.10011015 0.2179949 0.25133258 0.17268705 -0.04554461 0.023443773 -0.01667833 0.046661276
0.05910999 -0.037874136 0.1261772 -0.14122614 -0.20876792 -0.34999672 -0.09300984 -0.42130363
0.35486847 0.16315868 -0.0047942847 -0.09105162 0.18182911 -0.22965896 0.11289063 0.040165618
0.052690167 -0.057886597 -0.11939427 -0.11578506 0.13761707 0.18875107 -0.14431673 0.21269527
-0.110585235 0.060286373 -0.08836095 -0.06221049 0.048710566 -0.02920256 0.06471375 -0.03764041
-0.13796213 0.26666582 -0.27303416 -0.025518477 0.17946932 0.2930966 -0.067227684 -0.047645617
0.0595136 -0.42719373 -0.13097058 -0.092954606 0.20566604 -0.15785302 0.03154856 -0.010869473
0.06038714 -0.019316753 0.14194383 -0.35978296 0.11695618 -0.14238276 0.07975878 -0.13928221
-0.1235759 -0.21044865 0.021464221 -0.034346413 0.036813345 -0.22277446 -0.17788441 0.016540091
0.054322384 0.13159336 -0.3488428 -0.110159986 -0.19663484 -0.00048554537 0.07097262 0.26646203
-0.56961924 0.85854906 -0.0023304224 0.12902391 -0.118787065 0.36764637 -0.2785443 -0.04395528
-0.23821145 0.13942918 -0.07722338 -0.085873336 -0.72170746 0.35596135 -0.12370939 -0.069828294
0.02674794 6.277859e-05 -0.23103961 0.02213035 0.011521016 0.35562807 -0.12632331 0.23507626
-0.24059838 -0.5016022 0.14974204 0.039865624 -0.0011442357 0.10933725 0.0017207854 0.16417913
-0.10243796 0.089518264 -0.19975229 -0.067921385 0.06418964 -0.16364612 0.050318316 0.09420651
-0.06880552 -0.1007368 -0.070608266 0.10333505 0.08139964 0.13227642 0.18206619 0.14123397
-0.11723628 -0.2059345 -0.3786341 -0.07567753 -0.07088826 0.122202985 -0.06332841 0.06145935
-0.016457686 -0.09953213 0.020982439 -0.035894535 0.027537845 0.11082356 0.054219924 0.1223186
0.06935966 -0.04803679 0.044019923 0.06753618 -0.12444656 0.097207315 0.12020527 -0.021054402
0.14929257 0.06945795 -0.14705846 -0.0351429 0.12877235 -0.009322546 -0.10990951 -0.18825886
-0.0087066665 0.017926157 -0.14469193 -0.044702668 0.1216004 -0.044584647 0.12044745 0.23151873
0.061471667 0.44537252 0.029567981 -0.09893516 -0.2195317 -0.063068554 -0.03415111 -0.23355433
-0.09614074 -0.06329148 -0.050370697 0.036501303 -0.023212783 -0.22170395 0.028522696 -0.110404894
0.08708984 0.024443442 -0.20552981 0.16865711 -0.016917381 -0.01098462 -0.2872836 -0.12864968
-0.046019178 -0.077430785 0.012650875 0.034440707 0.0005082333 0.15187559 -0.032205697 0.24486391
-0.054365832 -0.2671707 -0.043037586 0.212149 0.16891882 0.23393665 0.04701135 -0.034589097
0.1037009 0.2758984 0.043176148 -0.10008143 -0.11496428 -0.022111855 0.064014174 -0.032030296
0.024653673 -0.07731982 0.040955573 0.025213718 -0.2931724 -0.15343882 -0.036509246 -0.07483982
0.008011381 0.0697215 -0.07992186 0.09149694 -0.11050444 -0.18983135 -0.21597531 -0.28058878

bias f4 [4]
00000000: a9cc 1dbe d7e0 f3bd c28e e73b 29f9 713c
-0.15410103 -0.11908119 0.0070665786 0.014768877
