kevin_nn_2025-02-21_19-11-28.pt (torch, 16609 bytes, 8 tensors)

weight f4 [16, 16]
00000000: 5674 d6be 96ce 2f3c e0be 63bf acb7 8f3e
00000010: 757f 863c 5b6a debd 3953 833f 30cf 6e3d
00000020: 2f73 b5bb f5d9 993c 23fc 833f e8c5 05bb
00000030: 73a4 b0bd b938 213c ba89 dbbf f3ed 063e
00000040: 1ced ddbe ea1f f4bb c20f 563e e01b c53e
00000050: aac5 95be 4956 5dbd 82c9 c0bf 661a 563e
00000060: 9a34 cabe 952b 8dbe 131c 0040 92ee b53d
00000070: 1f29 17bd 2885 96bd c9b9 75bf 1e34 2bbe
00000080: f70f 973d a4ea 8dbe 671c cf3f fe95 303e
00000090: 0915 a03c 58cc a63d 5303 b3bf be21 e6bd
000000a0: 6284 3a3e 9037 a4bb 393f 643f 7e11 033e
000000b0: 9699 6dbc 18c8 9c3c f1b7 c1bf bc5a ffbb
000000c0: 9da4 acbd f973 90bc 7acd 71bf bd62 88be
000000d0: 392b a6bd cf0a abbe 09c5 f93e 9883 a03e
000000e0: d187 47be 49d6 40be 5667 68bf b231 c0bc
000000f0: 3c85 fe3c 5e29 4fbf e8ad 16bf 5bc6 ffbe
00000100: be7b a33e 4d51 11bd 4f20 243f 8691 0abe
00000110: 9d2f c0bd 3746 d6be c574 a03e 06dc 3fbe
00000120: ea4f 30be a7e1 633d 135b 4bbf 7d62 fe3d
00000130: 29a0 13be f07a f63e 36da d23e d19f 1c3e
00000140: 394a 0abd 571d 8e3e cdc5 7cbf 6856 e13e
00000150: f297 45bc 7046 bb3d 96d4 8f3f d683 193e
00000160: b183 9ebc 0e3e fbbc 73f5 b7be e9e0 d13c
00000170: e253 9f3d 7943 6dbe 6c99 1b3f eca2 97bd
00000180: 80fa 7fbe 80bc 0f3c ca23 4f3e 495e 0abd
00000190: 982a e33d fc12 aabd 8868 21be b450 87be
000001a0: 2072 4a3d 3007 1a3e 5cb9 833d 5d54 8abe
000001b0: b4f8 033e 0044 e1ba 32c2 00be 0702 62bd
000001c0: 9aef fe3d 302c 4bbd 0f9f 2f3e 452a f5bc
000001d0: 7040 adbc 38d4 083e 2110 6bbe 39c8 12be
000001e0: 5715 18bb 4d1d 98bd 7b39 c5bd ab4a 65be
000001f0: 66a7 423e 44c5 6d3d ad90 88bd c5dd 56be
00000200: aaa8 27be 2d5b ccbc d7a8 9e3d f49f 61bd
00000210: e6fa 863d 3c2a adbd 8e3b b8bd 1411 35be
00000220: 7920 9fbd f27b 0cbd 4db4 90bf 6bbd ce3d
00000230: 16d9 50bd 5bb8 d3bd 4bba 313f f8d7 dd3e
00000240: 211d 88bd 435a db3c 20c3 453f 9816 733e
00000250: 2486 783c 4771 1a3d bac7 823e 8acd b83c
00000260: 999d d13d c06a a1bb e7dc c5bf 23ce 7f3d
00000270: 6a7a 28be 5c5d 803e 883d b4bf 9bc0 7e3d
00000280: d124 dbbc 8909 f1bd 530a b7be 4cfa d43c
00000290: 9280 1cbe d029 e1b9 8345 2c3f cb48 833e
000002a0: a2b7 a6be e538 74bd 081c fbbf ff54 8cbd
000002b0: f111 82bc 739c b9bf 08b9 bc3e eb8d 9bbe
000002c0: 61e5 63bd d758 5cbe fbc1 46be c2ee f8bd
000002d0: c484 903d 120f 26be 3a5c 12bd 6aa8 f0bd
000002e0: 9403 3ebe b64a 31bd bbf4 9e3d 074d 4cbe
000002f0: 6c40 483e cb61 f1bd cc32 233e 1613 83bd
00000300: 8a18 b13d 3810 2abe 59ae b23d dc68 c2bb
00000310: b043 9fbc 7990 063c da05 a6bc 12ad 6bbe
00000320: e166 1a3e 2c51 243e 6bd8 4cbd d02f 36bd
00000330: 0028 fbbb fc7e f4bd 5ca6 5fbd 39a1 50be
00000340: c965 d9bd 1471 b3bf 88fe cb3f 574c 753d
00000350: 867e 4abd e792 2dbd 0fcb e6be ee8c 653d
00000360: cbcf 7fbe ee97 4f3c 9bb8 b5bf ebd7 653e
00000370: a01b 9539 b966 77be 8612 a3bc c776 b0bd
00000380: 658c 3dbe d5c0 0d3d 4927 32be ea6c 0e3e
00000390: a983 21bf 4acc 77bf b86d 9c3e 6ca1 edbe
000003a0: a319 b7be c947 53bf e80e 26be 417a 14bf
000003b0: 779f 8ebe 2950 173d afb8 63bf 4eb1 de3d
000003c0: 25e7 c7bd 5c78 27be fd18 673f 66af a63c
000003d0: 3ccd f7bd 6f24 81bd 1170 533f 85a9 2b3e
000003e0: 170d 9cbe dfd7 dcbc ed35 d6bf 7efc 533c
000003f0: fc30 3ebd 34a7 81bd 4005 d6bf dd8f 313e
-0.41885632 0.010730406 -0.8896313 0.28069818 0.016418198 -0.108601294 1.0259773 0.05830306
-0.0055374126 0.018780688 1.0311321 -0.002041215 -0.08625116 0.009840184 -1.7151406 0.13176708
-0.43344963 -0.0074500935 0.20904449 0.3849783 -0.29252368 -0.054037366 -1.5061495 0.20908508
-0.39493257 -0.27572313 2.0017135 0.08883394 -0.03690445 -0.07349616 -0.9598661 -0.167191
0.07376092 -0.2771808 1.6180543 0.17244717 0.01954128 0.08144444 -1.398539 -0.112369046
0.18214563 -0.0050115064 0.8915897 0.12799641 -0.01450195 0.01913838 -1.513426 -0.007792799
-0.08429835 -0.017633425 -0.9445416 -0.2663783 -0.08113713 -0.33406684 0.48783138 0.31350398
-0.19485404 -0.18831743 -0.9078268 -0.023461197 0.03106939 -0.80922496 -0.5885911 -0.4995602
0.31930345 -0.035477925 0.641118 -0.13532075 -0.093840815 -0.41850445 0.31339088 -0.18736276
-0.17217985 0.05563512 -0.79435843 0.12421129 -0.14416565 0.4814067 0.41182107 0.1529534
-0.03376219 0.2775676 -0.9873932 0.44011235 -0.012060152 0.09144294 1.1236751 0.14991698
-0.019349905 -0.030669238 -0.3592945 0.02561994 0.07779671 -0.2317027 0.6078098 -0.07404122
-0.24997902 0.008772969 0.20228496 -0.033781324 0.110921085 -0.08304402 -0.15762532 -0.2642876
0.049425244 0.15041804 0.06431839 -0.2701749 0.12887841 -0.0017186403 -0.1257408 -0.055177715
0.12448044 -0.049602687 0.1715052 -0.029927382 -0.02114889 0.13362205 -0.22955371 -0.14334191
-0.002320608 -0.07427464 -0.09630104 -0.22391765 0.1900917 0.058049455 -0.0666822 -0.20983036
-0.16372934 -0.02494582 0.077470474 -0.055084184 0.06590824 -0.08455321 -0.08995734 -0.17682296
-0.077698655 -0.03429789 -1.1305023 0.10094722 -0.05098828 -0.103378974 0.69424886 0.43328834
-0.06646181 0.026776439 0.7725086 0.23739088 0.0151687 0.037705686 0.25543004 0.022558946
0.102351375 -0.0049260557 -1.5458039 0.062452447 -0.16452947 0.25071228 -1.4081278 0.0621954
-0.026750954 -0.11769397 -0.35750064 0.025998257 -0.1528342 -0.00042946497 0.67293566 0.25641474
-0.32561976 -0.05962457 -1.961793 -0.06852149 -0.015877696 -1.450087 0.36859918 -0.30381712
-0.055638675 -0.21518265 -0.19409935 -0.121549144 0.07056573 -0.16216686 -0.035732485 -0.117508724
-0.18556052 -0.04328414 0.077615224 -0.19951259 0.19555825 -0.11786231 0.15937346 -0.06400125
0.086472586 -0.1660775 0.087246604 -0.0059329104 -0.019441456 0.008213156 -0.020266462 -0.2301524
0.15078308 0.1604659 -0.05001108 -0.04447919 -0.0076646805 -0.11938283 -0.054602012 -0.20374002
-0.10615117 -1.4018884 1.5937052 0.059887256 -0.04943707 -0.042376425 -0.45076796 0.056042604
-0.2498161 0.0126705 -1.4196962 0.22445647 0.00028440077 -0.2416028 -0.019906294 -0.08616405
-0.18510588 0.034607727 -0.17397799 0.13908735 -0.6309152 -0.96796095 0.3055246 -0.46412218
-0.35761747 -0.8253141 -0.16216624 -0.57999045 -0.27856037 0.03694168 -0.8895368 0.10873662
-0.09760884 -0.16354507 0.90272504 0.020347308 -0.12099692 -0.06305777 0.82592875 0.16763885
-0.30478737 -0.026958404 -1.6735207 0.012938617 -0.046433434 -0.063307196 -1.6720352 0.17340036

bias f4 [16]
00000000: a20f 903d 4861 743e 0036 e13d c8bf 00be
00000010: 770c 2a3c 18be 193c 72ae db3c c593 37bd
00000020: 1817 bd3e d14e 17be 1393 153d 0970 e3bd
00000030: 954e dfbc 1abd 74bc 7d45 893d 46b7 58bd
0.07034232 0.23865235 0.10996628 -0.12573159 0.010378948 0.009383701 0.02681658 -0.04481866
0.36931682 -0.1477616 0.036517214 -0.111053534 -0.02725915 -0.014937663 0.06702707 -0.05290916

weight f4 [32, 16]
00000000: b5e1 343e 5eb3 e33c 6f20 cb3e 6ee5 45be
00000010: 3f46 f83e 3d49 a0bc 1537 69be 7b62 453d
00000020: e77f cd3d ae6d c63c 4631 14be 6c28 51bd
00000030: d6d1 46be e301 053f 31ab 1e3e 45df 943e
00000040: 2432 cf3e e651 1d3f fda8 b6be 9a7b 0c3f
00000050: f2f1 443f 0f77 be3e 11ca c8bd e116 0b3e
00000060: 092c b33e 582e 43bf 6504 4a3e 4f00 673e
00000070: 51a3 43be eb3b fdbe a890 123b 1271 3cbf
00000080: 4d66 7dbd 735b a3be 4f32 07bf 76ea 163f
00000090: a65b 063f 09b0 ab3e 6c9c 98bd 057c 1abe
000000a0: e1de 153f 7314 3e3e d7e5 213f 636d 29be
000000b0: a0c3 283e dd4f 283e e0bf 8b3e 03ca 063f
000000c0: 69e0 ffbe 384c f6be 7419 303e f1b3 ae3e
000000d0: 6bc1 c63e f7e2 9f3e 0027 e1bb 673c 243d
000000e0: 12bd 8b3e e889 10bf b334 563f 00d5 2fbe
000000f0: d5c9 d53d 7862 2e3f 0135 913e 681e 693c
00000100: b1e2 41bf 4865 ab3d d819 b33e 103f de3d
00000110: 4a12 8b3e 1a1c 913d 367b a23b b757 c0bd
00000120: c5f3 e23e 92d7 3e3e 9edb fb3d d7e6 053e
00000130: 61f9 6bbe 810c 3a3f a96d 733e c31a 5ebd
00000140: d9bc c53e fb4d 0c3f 47a7 783d a3de 74be
00000150: 8cc6 6bbe ffc9 14be 46e1 463e 292e 113e
00000160: a3a4 343e 45e5 a6be cab6 0cbf d57b 893a
00000170: 85d2 343e 5a3e 44bf 9c5f ea3e c6d8 e1be
00000180: dbb3 6abd 1c24 453e 2436 983e 9cfd 9d3e
00000190: 4393 333f 9aac d5bd 502a 30be bcb3 2c3e
000001a0: b014 ad3c 8a45 44be 140d a13d f4a2 b7bd
000001b0: 1804 5f3e 7fb4 aa3e 0f9a 0e3e 66a3 81bc
000001c0: db2c 753c b5b5 f5be f66f ecbe 77fb 0c3f
000001d0: 4eb2 5e3e 2e3a a23e 42de 2b3d 5a85 2b3e
000001e0: 33a4 193f d3b6 43bd 3d34 733c 5d52 093e
000001f0: e8ee 2f3e 3309 863d e36e 06be c0a9 7bbc
00000200: 06ba e8be f4f5 113e df8f edbc 67b8 013e
00000210: 92ad a23e 3080 f0ba b8ce 153e b071 c5bd
00000220: 0152 093d fe78 50be f79e 843e 5f41 b1bd
00000230: dcef 313e d586 2c3f df25 81bc e4dc a2be
00000240: a1e5 85be 9cf1 9f3d 1f5d 803e d9e0 1abf
00000250: 0f99 ac3e d01c 0fbf 32c0 8d3e b31b 013e
00000260: a2f9 683e cb79 983e 9be4 1bbe 3bbc 0dbe
00000270: 172a 273e 86dd 833f 5354 59be e28f b93e
00000280: 1c8c 833e 7b8b b43e 41c6 703e f746 02bf
00000290: 4e35 32be 0fb5 ddbd 31d8 a53d a05e 363d
000002a0: dcca 8d3d b831 80be ce87 b8be ef1d 4ebc
000002b0: 8a0e 4c3e c730 4cbf 5d6f 123f 164e d5be
000002c0: ff30 983c 8977 02be 4c6f e33e eebc 4e3e
000002d0: 022e d13b 14f1 d43d e8f8 2fbe 25e1 8b3e
000002e0: 55e4 22be 62fa a73e bf71 bcbe 0ef0 00be
000002f0: 2806 37be db1a 143f a0fe 063f 8229 253f
00000300: d842 e7bc 4ffb 3abd 07b2 56bf 5362 2a3f
00000310: 044a de3d 8039 133f c040 69be 761d 38be
00000320: 11d4 8a3e 4c3c 773e 9b0b 223f c8c3 aebd
00000330: 19d6 5fbe 1bf5 04bd f3fc 75be fd12 55be
00000340: 782d eb3e 7364 98be ed8c 14be f1a1 053e
00000350: 15f3 17be 32ae 913d 48ac ef3d bc21 97be
00000360: 0a4b 98be 9793 0b3f 2895 9abb ada9 85bb
00000370: 0678 0abe fe3b ed3e a21a df3e 4ec1 333f
00000380: dcb6 3d3f 6261 e3bc d10c 693e 37f4 c0bc
00000390: 7166 ba3d 30ed 3f3d 3cf8 7fbe e1de 52be
000003a0: 2a9e 413c bac2 c7bd 0a22 4bbe ea7e 72bd
000003b0: 075e 463e c759 79be 82f9 403f 3cb3 e03e
000003c0: 32e8 7dbd 953f 083e 57b2 79be be03 c23e
000003d0: 1264 2f3f e592 883e 283c 433d 7cbe 72bd
000003e0: 1bc4 473f acce 1f3e 2c91 8e3e 318e 58bd
000003f0: f061 033e b47e 453f 71d8 5d3e e9bb fb3e
0.17664225 0.02779549 0.39673182 -0.19325802 0.48491094 -0.019566173 -0.22774918 0.04818962
0.10034161 0.024222221 -0.14471921 -0.05106394 -0.19415984 0.51956004 0.15494992 0.2907659
0.40467942 0.6145309 -0.35675803 0.548761 0.7693168 0.3720021 -0.09804166 0.13582946
0.34994534 -0.7624259 0.19728239 0.22558711 -0.19105269 -0.49459776 0.0022364054 -0.7361003
-0.06186514 -0.31905708 -0.5281114 0.5895151 0.52483594 0.33532742 -0.0745171 -0.15086372
0.5854321 0.18562488 0.6324133 -0.16545634 0.16480875 0.16436715 0.27294827 0.52651995
-0.499759 -0.48105025 0.1719721 0.3412166 0.3881944 0.31227848 -0.0068711042 0.040096667
0.27292687 -0.5646043 0.8367416 -0.17171097 0.10438887 0.68119 0.2836075 0.014228441
-0.7573653 0.08368927 0.34980655 0.10851872 0.2716239 0.07085438 0.0049585355 -0.0939173
0.44326606 0.18636921 0.12297748 0.1307634 -0.23044349 0.7267533 0.23772301 -0.05422474
0.38620642 0.5480649 0.060706403 -0.23913054 -0.23024958 -0.1453018 0.19421872 0.14177765
0.17640929 -0.32596794 -0.54966414 0.0010489175 0.17658432 -0.7665764 0.4577607 -0.44110698
-0.05730043 0.19252056 0.29728806 0.3085755 0.7014658 -0.10433312 -0.17203641 0.16865438
0.021128029 -0.19167152 0.078638226 -0.08966628 0.21778905 0.33340833 0.13925956 -0.015824985
0.014964308 -0.47990194 -0.4617917 0.55071205 0.21747705 0.31685013 0.04196001 0.16750088
0.60016173 -0.047781777 0.014843998 0.13410325 0.17180979 0.06544723 -0.13128237 -0.015360296
-0.45454425 0.1425398 -0.028999267 0.12668 0.3177305 -0.001834875 0.14629638 -0.09640825
0.03352547 -0.20358655 0.2590253 -0.08655047 0.17376655 0.6739324 -0.015765129 -0.3180915
-0.26151755 0.07809755 0.25071046 -0.6049934 0.33710524 -0.5590334 0.27685696 0.12608223
0.22751477 0.2978042 -0.15223925 -0.13841335 0.1632465 1.0301979 -0.21223573 0.36242586
0.25692832 0.35262665 0.23513128 -0.50889534 -0.17403147 -0.1082555 0.08097876 0.044523835
0.06923458 -0.25037932 -0.3604111 -0.012580379 0.19927421 -0.7976193 0.57201177 -0.41661137
0.01857805 -0.12740912 0.4442085 0.20189258 0.0063836584 0.103975445 -0.17184794 0.2732021
-0.15907414 0.32808214 -0.3680553 -0.12591574 -0.17873442 0.5785348 0.52732277 0.6451646
-0.028230116 -0.045649823 -0.838654 0.6655628 0.10853961 0.57509613 -0.22778606 -0.17979988
0.2711492 0.24144095 0.6329896 -0.08533436 -0.21859016 -0.032460313 -0.24022274 -0.20808025
0.45933127 -0.29764137 -0.14506884 0.13050057 -0.14838822 0.07113303 0.11702782 -0.29517925
-0.2974475 0.5452208 -0.004717488 -0.004079065 -0.13522348 0.46334833 0.43575007 0.70216835
0.74107146 -0.027756397 0.22758795 -0.02355395 0.091015704 0.04685706 -0.24997038 -0.20592834
0.011817494 -0.09753938 -0.19837204 -0.059203066 0.19371806 -0.24350654 0.7538072 0.43886745
-0.061989017 0.13305505 -0.24384438 0.3789348 0.6851207 0.26674572 0.04766479 -0.05926369
0.7803361 0.15606183 0.27845132 -0.05286998 0.12830329 0.7714646 0.21664597 0.49166802

bias f4 [32]
00000000: 905d 883d aca7 643d 4b22 ee3d 93b8 493f
00000010: 2a25 0d3e 52cb bebc ff39 c53e 9cec aa3e
00000020: bc12 6e3e 5f73 adbc 395d 7b3d 2e84 9d3d
00000030: cfa2 8e3e 07c7 2c3e b9cc bb3e e4bf 213d
00000040: dc76 c2bd b617 c33e 36a6 6abe dd25 ff3e
00000050: 37fd d13e 5197 543e 9c33 093f 4a85 73be
00000060: d0b1 5b3d e782 cc3e cc76 133e 3ac2 583e
00000070: 7961 0c3e fde2 cd3e 0046 8cbd a330 4fbe
0.06658471 0.055823967 0.116276346 0.7879726 0.13783708 -0.02329031 0.3852081 0.33383644
0.23249334 -0.021173177 0.0613682 0.07691227 0.27858588 0.16872798 0.36679628 0.03948964
-0.09495327 0.38104028 -0.22914967 0.49833575 0.410135 0.20760848 0.53594375 -0.23781314
0.053636372 0.3994362 0.14400786 0.21167842 0.13709058 0.4021224 -0.06849289 -0.20233397

weight f4 [64, 32]
00000000: 7b6c ff3d ffd4 703e b0b1 c2be f9f6 60bc
00000010: 8946 80be 1752 243f 565c 123e ba73 97bd
00000020: 0503 333d f277 34be f89d df3e 259c 78be
00000030: dbd6 e8be f629 92be 73e5 993e 06b1 62be
00000040: 252a 51be e85b afbe b625 563e 6544 4c3e
00000050: eeba e03c 0e1a 29be c794 363f d29c bc3e
00000060: af06 e33e 8842 0b3e f108 ab3e faf4 343e
00000070: de7d 963e 2af5 b53c 9b20 16be b15c 603d
00000080: 4376 c0bd 09e3 c43d dc9f 8dbd 310c b8bd
00000090: 2cc7 2fbd 2019 5b3d 0a34 8fbc 817c 07be
000000a0: 2e2e 57bd c091 463d e407 fcbd 1c4d 2c3e
000000b0: 0554 cd3c ebc1 4fbd fa56 aa3d 075c 4bbb
000000c0: 0de0 d93b 6711 13be 4853 18be ca64 1ebe
000000d0: 5ff3 b23d 120b 31be 1029 32be 5631 303e
000000e0: be29 34be 3c63 e8bd c931 5bbd d507 053e
000000f0: ee91 91bd 030a 84bd 7835 103d ad97 283b
00000100: 59d5 073e 7c5b a83e 1827 8b3e afd7 6d3f
00000110: fb1e 123f 383f 94bd 1a16 b43e fc5e 403d
00000120: 2ec0 1f3f e6ba a23e 76ff 75bc 93fb abbc
00000130: b1cf 173f ab66 27be a57c b3be e270 2c3e
00000140: 2e96 21be eda7 b73e 3cc7 9f3c 44cc 8c3f
00000150: 12c3 f33e 3c95 0e3f 50bf 903d 3b51 5ebc
00000160: e323 e43d 68f0 aebc 1151 5f3e a5ed 783e
00000170: 7933 9bbe 9258 d83e 3818 fcbd 309a 10bb
00000180: 598c 34be 7820 0abe 23f9 05be 28e4 0abd
00000190: 3e12 2cbe 3842 e0bc 93bf 713c 7964 a9bd
000001a0: a7b3 5abc 7246 783d 09df 2ebe 5b0a e5bd
000001b0: 6911 963d 9acf a43c 36b5 c3bd 8aea 293e
000001c0: 43df 1dbd 6fce 1abe c6dd ab3d d422 1cbe
000001d0: 14b1 3f3d 9bd9 1ebe a4fe 08be 912f 1d3e
000001e0: 1add ffbd 914f f53b a147 26bd 35c6 42bd
000001f0: ba19 27be 249f c4bd cd6c 253c ade4 edbc
00000200: 52cb 29be 47aa c8bd 2ea2 84bd ed34 9fbb
00000210: 4f3f a1bd b17b b0bd afba debd ab37 15be
00000220: 00d8 3fbe b351 8bbd 04a9 37be 9e73 8b3d
00000230: e9cf 57be d7cf bfbd ca15 a73d b8af 883d
00000240: ddc8 183c 965f fbbd 5538 10be 1df3 cabd
00000250: 12b3 71bc b724 10bd 8c5c 2c3d d0e8 42bc
00000260: 9b41 b33d c437 91bd 3de3 58bd 6f57 e5bd
00000270: 7b5c 37be e535 35be 1359 023e 59a6 18be
00000280: f14e bfbd 9c80 c4be ff0d 793f 5381 86bf
00000290: 366e 1cbf 7870 fcbe 8615 17be fef5 7e3d
000002a0: c30b 2c3c e9e1 2abe e9d2 6fbe 8faf 903e
000002b0: b047 df3e 2110 043f 05fb b93e 7545 a83e
000002c0: 1711 0b3f 936d a73e a937 043d 9f6e bebf
000002d0: 1cd2 5fbd d569 80be 68bf dabe f6a7 4fbd
000002e0: 2718 a3bf 1736 37bd fce3 a8bf b50e 5e3e
000002f0: 0181 6a3e cc85 3c3e fd6a 103e 344e b6be
00000300: eaaa 43bc 4071 67bd 4210 a53d ae71 25be
00000310: 784a a63d 116a 13bd d4f1 a0bd 3ab5 b33d
00000320: 7c91 d7bc 1e2f 92bd 21b3 893d 14eb dd3c
00000330: b2ef babd 06c3 25be 2287 5dbd 3b89 943d
00000340: 40d9 2abe 0fab 13be 0177 3b3d dddb 13be
00000350: d66e 033d d55c 523d 8105 263e 5f26 1c3e
00000360: e591 d5bc b98c ddbc 4127 373d bd66 d93c
00000370: 4baa 6dba 2b05 1dbe ed42 edbd 8649 233d
00000380: e268 a2bd 3b99 c2bd 3bc2 1f3e 8b78 2cbd
00000390: bab0 1ebe 6d4f 553d 0d45 203e 648d 6dbc
000003a0: bbed 1f3e 3c34 29be 0432 76bd 3197 c7bd
000003b0: 6080 7ebc 9d89 debd e85a cabc aebf 9ebc
000003c0: dc34 06be f4a8 4a3d 7916 87bc a9d7 e93a
000003d0: cab5 e8bc 083a d6bd e84f 30be 336d 253d
000003e0: e725 7b3d f08d 1cbe 7278 363d 11b3 32bc
000003f0: f5bd bb3d 9e88 2ebd 765a 033e 2747 dfbd
0.12471863 0.23518752 -0.3802619 -0.013730758 -0.25053814 0.6418776 0.14293036 -0.0739512
0.04370405 -0.1762388 0.43675208 -0.24278314 -0.45476422 -0.2854764 0.30057868 -0.22137842
-0.20426233 -0.34249806 0.20912823 0.19947965 0.027432885 -0.16513845 0.71320766 0.36838394
0.44341037 0.13599598 0.3340526 0.17671576 0.29392904 0.02221163 -0.14660875 0.054775897
-0.09397557 0.09613616 -0.069152564 -0.089867 -0.042914554 0.053490758 -0.017480869 -0.13231088
-0.052534275 0.04847884 -0.123061925 0.1682629 0.025064478 -0.050722044 0.08317371 -0.0031030194
0.0066490234 -0.14362107 -0.1487552 -0.15468135 0.087378256 -0.17289379 -0.17398477 0.1720632
-0.17594048 -0.113470525 -0.053514276 0.12991269 -0.07107912 -0.06447222 0.03520724 0.0025725171
0.1326498 0.32882297 0.27178264 0.9290723 0.5707852 -0.072386205 0.35173112 0.046965584
0.6240262 0.31783217 -0.01501452 -0.020993983 0.59301287 -0.16347758 -0.35056034 0.16839936
-0.15779945 0.35870305 0.019504182 1.0999837 0.47609764 0.55696464 0.0706774 -0.013569172
0.11139657 -0.021354869 0.21808268 0.24309404 -0.30312708 0.42255074 -0.12309307 -0.002206456
-0.17631663 -0.13488948 -0.1308332 -0.033908993 -0.16803834 -0.027375326 0.0147551475 -0.08271117
-0.0133484965 0.060614057 -0.17077269 -0.11183616 0.073275395 0.020118523 -0.095560476 0.16593376
-0.038542997 -0.1511781 0.08391909 -0.15247661 0.046799734 -0.15512697 -0.13378388 0.15350176
-0.12493344 0.0074862917 -0.040595654 -0.047552306 -0.16318408 -0.09600666 0.010096741 -0.029039705
-0.16581467 -0.09798103 -0.06476246 -0.004858604 -0.07873403 -0.08617342 -0.10875451 -0.14572017
-0.18734741 -0.06802692 -0.17935568 0.068091616 -0.21075405 -0.09365814 0.08158453 0.06674141
0.009325233 -0.12274091 -0.14083989 -0.099096514 -0.014752166 -0.035191264 0.042080447 -0.011896327
0.087527476 -0.070907146 -0.052951086 -0.11198317 -0.17906372 -0.1769634 0.12729292 -0.14907207
-0.09341229 -0.3837937 0.9728698 -1.0508217 -0.6110567 -0.49304557 -0.14754304 0.062246315
0.010500851 -0.1668774 -0.234203 0.2825894 0.4360938 0.5158711 0.36324325 0.32865492
0.5432295 0.32700786 0.032279644 -1.4877509 -0.054643735 -0.25080743 -0.42724156 -0.05069729
-1.2741746 -0.04472932 -1.3194575 0.21685298 0.22900774 0.18410414 0.14103313 -0.3560654
-0.011942605 -0.056504488 0.080597416 -0.16156647 0.081196725 -0.035989825 -0.07858625 0.087748006
-0.02631449 -0.07137893 0.06723619 0.027089633 -0.091277495 -0.16187677 -0.05408395 0.07252737
-0.16684437 -0.14420722 0.045767788 -0.1443934 0.032088123 0.051358063 0.16213037 0.15249012
-0.026070544 -0.02704464 0.04471517 0.026538247 -0.0009066208 -0.15334003 -0.11585031 0.03986504
-0.07930161 -0.09501883 0.15601437 -0.042107146 -0.15497103 0.0520777 0.15651341 -0.014499042
0.1561803 -0.16523832 -0.060106292 -0.09745634 -0.015533537 -0.108660914 -0.02470155 -0.01937851
-0.13106102 0.049477533 -0.016490208 0.0017840761 -0.028406996 -0.10460287 -0.17217982 0.040387344
0.061315443 -0.1528852 0.04454846 -0.010906951 0.09167091 -0.042610757 0.12827477 -0.10902243

bias f4 [64]
00000000: 21e7 3a3e e713 f1bd e191 953e 592d dabd
00000010: 40af a4bd 54df 413e e592 04be 1700 23be
00000020: 1a2b 503c ddcf c83d bf78 f4bd 0240 b83e
00000030: 3474 a83e 7fbe a0bc 7055 3bbe 30b6 2cbe
00000040: 772e 79be b92e 4c3d 557e 54be 38f2 44be
00000050: cc8f e4bc f64e c53e d812 64be 000f 1e3e
00000060: c7c1 cfbd 8528 ca3e 83fd 91bd a03f ba3d
00000070: 3274 933e 57a0 803e 1a33 c0bd 7fb6 f43d
00000080: 6e4a 643e 7d8b 523e 9c9a 433d dab0 e63c
00000090: 5b6b ad3e 9ffc 4abe dd28 013f d223 7bbe
000000a0: 866a 29bc b41d f83d 4e93 8d3d 7d93 373e
000000b0: d15c c83d 9ec4 2fbe 5877 4a3e c113 cd3e
000000c0: 6d40 413e 82b2 573e 045a 283e 192c ad3e
000000d0: 7c2c d73e beb3 fb3d 27dd 8ebd 597e b4be
000000e0: c60c bcbd f69a d03c 631b e23e 8681 4b3e
000000f0: 84d7 05bd baab 38be 72d5 0b3e ca3b ad3d
0.18252231 -0.11771374 0.2921286 -0.10653181 -0.08041239 0.18932849 -0.12946661 -0.15918003
0.012705589 0.09805272 -0.11937093 0.35986334 0.32901156 -0.019622086 -0.1829431 -0.16866374
-0.24334131 0.049849246 -0.20751317 -0.19233024 -0.027900599 0.38536805 -0.22272813 0.1543541
-0.10144382 0.3948404 -0.07128432 0.09094167 0.28799587 0.2512233 -0.09384747 0.11948871
0.22294018 0.20561023 0.04775487 0.028160501 0.33870968 -0.1982293 0.5045298 -0.24525383
-0.010340339 0.121150404 0.06912862 0.17927356 0.09783328 -0.17164847 0.19772089 0.40054134
0.18872233 0.21064189 0.16440588 0.33822706 0.42026126 0.122901425 -0.06975775 -0.35252646
-0.09182124 0.025464516 0.4416152 0.19873628 -0.032676235 -0.18034258 0.13655642 0.084586695

weight f4 [4, 64]
00000000: b4a3 01be dcbc d13d 2923 15be fabb d53d
00000010: ae8e b3bd 15de d43d 30f4 633d 7c86 99bd
00000020: aa64 87bd f4cc f03c 407a 223b c49a 14be
00000030: cc9d ba3d 2bbc ea3e 869f 753d 3a73 50bd
00000040: 35eb 1d3c 5b10 07be 455d 8cbc f0b7 683d
00000050: 0bb3 bebd 7c87 103f 67e1 9aba 19c2 053e
00000060: 2b51 993d 63c6 07bf 959a b8be 470c d9be
00000070: 4625 1c3e 9d93 de3e f0d8 f3bc 222b cdbe
00000080: 6600 773e 36ef f3bd e83b b33c 699c 81bf
00000090: d29c 99bc 0021 90bd 0938 ab3e aef1 c33d
000000a0: ce1e 05be 81ed 0fbe 26b7 faba fd87 d1be
000000b0: 637b 693e 0f2d 04bd 03c7 ebbd c9c1 873d
000000c0: 7c40 1d3c 2ce9 40bd ebfe 08bf ba69 fabd
000000d0: 7f6e f4bd f643 fbbd a822 72bd 0720 c9bd
000000e0: d2ac 9cbc 235c 863d 13d4 a73e 96c2 3e3e
000000f0: 4ad3 d23d 9a43 f63b a0d5 35bf 0737 93be
00000100: 8ac0 af3d a07f f13c 6a3b d23d a800 e1bc
00000110: f499 ecbd fdb8 91bf f08f dcbd 304b 203d
00000120: 86cf 863d 8f28 84bd 60f2 c33d 5652 11be
00000130: 4b36 003e c4dd 66be 2fb2 8f3a a505 813d
00000140: 8927 8dbd 39c8 9e3d 468c 98bd 28ac b33d
00000150: 5d5e febd 201b 70be c358 0dbe e2f0 e2be
00000160: 0ec5 42bd 79a7 b63e fa85 4abe 6404 0ebe
00000170: 56eb bfbe 0e43 0d3f deb1 933d 12f3 a43d
00000180: cb78 01bf 9253 aebd 86e9 a7bd 16b9 9e3c
00000190: 638b 90be 74bb 39bd c7ca b2be 043a c93d
000001a0: f956 14be 3e41 dd3d 79e7 503d 15ed 3ebe
000001b0: cf93 1b3e 7b01 023d 9178 213d 74b1 003e
000001c0: 2f6a 9cbe 62e5 0f3e 00ed b33c 8c5b 63bf
000001d0: e261 d73d 4e4a 1f3d 2322 833d 9674 b33c
000001e0: b085 8ebd d70b b73d 869d cc3d 9ea2 13bf
000001f0: 6866 e83c 591f fabd 0123 a73d 040a f2bd
00000200: 008e 29bf 9e62 9a3d 75d2 633d 68ea b13c
00000210: 2549 6f3c 9133 993e b4a9 ffbd c8a1 ebbc
00000220: 3478 2e3d d2c4 d5bc 1e56 11bd e97d 59be
00000230: e9de 24bc 6d2f c73e 5de5 1fbd abea f93b
00000240: ff62 3ebd 6828 8bbd 4bbf 403c 0068 dab9
00000250: e442 8cbd b5bf 6d3e e6eb 843d cf05 85be
00000260: 2aa2 aebc cd6d a33e 2178 103f 3839 053e
00000270: 8491 f3be e329 b7bf 8fcc 423d 6135 593f
00000280: 2c2b 9bbe 266a fe3e 6efd cbbd eac0 8d3d
00000290: ec61 a2be cd00 14bd 9ab8 92be 4dca 873c
000002a0: a238 443d 6dbe 2d3e 87f7 f2bc 0fb2 943e
000002b0: abcd 073e 5f44 45bc 1504 c8be a0b0 aebe
000002c0: d907 883e 9268 abbe aeef 1bbe 289a 30be
000002d0: 5476 8ebe 1092 5f3d d3ed 27bd c06f acbd
000002e0: 96af d13c a1ef 373c 985e b2bf 4cc7 60be
000002f0: ce92 d43d 4ad6 413d 07b7 01be 2407 ab3d
00000300: cca2 6e3e 1c23 ac3d ead0 c1be ba37 c7bd
00000310: 5631 e5bd 603e a23e fc56 a63d 92b0 90bd
00000320: c0cd 7ebd b4fb d3bc a36b dfbb 58a8 f0bd
00000330: 6bdb 49bf 6725 3cbf e010 24be ed84 0cbd
00000340: f910 8fbd 1b63 b43d 5c51 6c3d 6e69 87bb
00000350: 227e d0bc 0346 4bbf c834 2f3d 145f 8e3e
00000360: 9003 073d cbdd b1be 90de 703e 5db8 c9bd
00000370: 2b28 d23e 4571 a23e 7af5 d6ba ddf0 1abd
00000380: 359e e93d 9e91 95bd dcde aabd 3cef c33e
00000390: ac70 5a3e b0ae 2b3d f426 cebe 8019 a1bb
000003a0: 4577 18be 331a a5be 6dfd 353d ecc9 533e
000003b0: 548f 55bf 1b63 6cbd 7c4b 8a3d 3332 38be
000003c0: a896 17be 4eaa 0cbe 5d12 9e3e af28 b33e
000003d0: ec1d ecbd 92e2 6f3d 2f44 25bd 8183 9f3d
000003e0: 90da 8d3d 546a acbd 1d5a c43e 7281 1e3f
000003f0: 10eb 77bc 6c88 b2bd b4a5 b43e 31fc 83bd
-0.12660104 0.102411 -0.14564194 0.10436244 -0.08767448 0.10393921 0.055652797 -0.07496354
-0.06610997 0.029394604 0.0024792105 -0.14512163 0.091121286 0.45846686 0.059966587 -0.05089114
0.009638597 -0.13189833 -0.017134318 0.05681604 -0.093114935 0.5645673 -0.0011816443 0.13062324
0.07486185 -0.5303709 -0.36055437 -0.4239218 0.15248594 0.43471995 -0.02976653 -0.4007197
0.24121246 -0.1191086 0.021879151 -1.0125858 -0.018751536 -0.07037544 0.3344119 0.09567581
-0.13000032 -0.14055444 -0.0019128069 -0.40924063 0.22800975 -0.032269534 -0.11512568 0.066287585
0.009597894 -0.04709737 -0.53513974 -0.12227197 -0.11935138 -0.12268822 -0.059115082 -0.09820562
-0.019125376 0.065605424 0.32778987 0.18628916 0.102942064 0.007515383 -0.7102909 -0.2875292
0.08581646 0.029479802 0.102652386 -0.027466133 -0.11552802 -1.1384579 -0.107696414 0.039134204
0.06582551 -0.064530484 0.09567714 -0.14191565 0.12520711 -0.22545534 0.0010963137 0.06299905
-0.06892306 0.07753033 -0.0744863 0.087730706 -0.12420342 -0.23447847 -0.13803391 -0.44324404
-0.047551207 0.35674646 -0.1977767 -0.13868862 -0.37484235 0.5518044 0.0721166 0.080541745
-0.5057494 -0.085120335 -0.08198838 0.019375365 -0.28231344 -0.045344785 -0.34920332 0.09825519
-0.14486302 0.108034596 0.051002 -0.18645127 0.15193103 0.031739693 0.03942162 0.12567693
-0.30549762 0.14052346 0.021963596 -0.88811564 0.105167165 0.03888922 0.064029954 0.021906178
-0.069590926 0.08937805 0.09990983 -0.5767001 0.028369144 -0.1221301 0.08160973 -0.118183166
-0.662323 0.07538341 0.05562063 0.021718219 0.014604841 0.29922155 -0.1248354 -0.028763667
0.042595103 -0.026094828 -0.03548252 -0.21239437 -0.010062912 0.3890337 -0.039037097 0.0076268516
-0.04648113 -0.06794816 0.011764358 -0.00041657686 -0.06848696 0.23217662 0.064903066 -0.25980994
-0.02131756 0.3191971 0.564333 0.13010108 -0.47571957 -1.4309658 0.047558364 0.84847075
-0.30306375 0.4969036 -0.09960447 0.06921561 -0.31715333 -0.036133576 -0.28656465 0.016575957
0.04790557 0.16967173 -0.029659046 0.29042098 0.1326205 -0.012040227 -0.39065614 -0.3411913
0.26568487 -0.33478218 -0.1522815 -0.17246306 -0.27824652 0.054582655 -0.04099829 -0.08419752
0.025596421 0.011226566 -1.3935118 -0.21951026 0.10379563 0.047323503 -0.12667476 0.08350971
0.2330429 0.08405134 -0.378547 -0.09727426 -0.11191051 0.31688213 0.0812206 -0.07064928
-0.062207937 -0.025876857 -0.006818251 -0.11750859 -0.7885043 -0.7349457 -0.16022062 -0.034306455
-0.06985659 0.08807965 0.057694778 -0.0041324412 -0.02545077 -0.79403704 0.042774945 0.27806914
0.03296238 -0.34739527 0.23522401 -0.09849618 0.4104627 0.31727043 -0.0016400062 -0.03782736
0.11407129 -0.07303165 -0.08343288 0.3826846 0.21332043 0.04191464 -0.40264094 -0.00491637
-0.14889248 -0.3224655 0.04443114 0.20682496 -0.83421826 -0.0577117 0.06752679 -0.179879
-0.14803565 -0.13736841 0.30873385 0.34991977 -0.11529145 0.058565684 -0.040348228 0.07788754
0.06926453 -0.08418718 0.3835 0.6191627 -0.015131727 -0.08717427 0.3528267 -0.06444586

bias f4 [4]
00000000: ef5f 78bc b7f3 cabd 86f2 1fbe 8e37 30be
-0.015159591 -0.09909766 -0.15619859 -0.17208692
