kevin_nn_2025-02-21_18-52-12.pt (torch, 16609 bytes, 8 tensors)

weight f4 [16, 16]
00000000: 8251 c9bd 482b 55bf 0e28 a7bd a263 88bf
00000010: c0cd e3be 659d 4ebf 4c71 d8be 6c99 e1be
00000020: 90eb 16bf f541 1c3f 5d4b 03be 4aa6 2bbf
00000030: 9d3c c93e 0a4e 6f3f 974e 94be 935e e6be
00000040: 8cc2 fc3d f19b fabd f911 5dbe 6428 e1be
00000050: a463 7e3e 782d 1a3e ace9 70be f9a2 8ebe
00000060: 270b 9fbe 8898 fbbe 9a24 883e 8eb8 3fbe
00000070: 5577 bb3e 99da af3e 7db1 09bf eaa7 a5be
00000080: e527 fb3e 8852 4a3e 723b d53f 3f01 31be
00000090: 6284 26bf 7fb3 14be ee9c 2040 4969 95be
000000a0: 586c 57bf dbdf 803e 134d b9c0 56c3 5d3f
000000b0: 7d0a c5be 81a2 ebbe 4071 91c0 0458 cc3e
000000c0: 5d31 eb3e 3525 9ebf a219 d4bf 2e7c fdbe
000000d0: 11a4 cabe 51fc edbd 02d8 6e3e e27f bbbe
000000e0: 5339 9a3c ee43 603e 456b 69be 5e2a bbbd
000000f0: 7d7c a4be b298 463e 2657 8bbe d0e4 cfbe
00000100: 07b6 603e 72c5 c23c 6d95 cc40 f073 d1be
00000110: 0258 69be 881b 883e e584 9fc0 3750 433e
00000120: ba2c 9dbd 4734 b8bd 3438 9240 a64b 62be
00000130: 11e9 01be daa3 42bd 414c 81c0 b59b 7b3e
00000140: be9b 15be 5614 c3be 84ea 53be b3ea a3be
00000150: e696 76be 0d3e d6bd 9252 25bf 5ff6 8cbe
00000160: 4400 96be 6428 493e 7824 2f3e b065 b9be
00000170: 4038 f9bd ada2 533e f4e7 22bf 726b 9fbe
00000180: fcb9 23bf e37a 33be 5d35 62c0 b764 8abe
00000190: b98a 98be 162f 9abd 0d39 bc3f 163b 23be
000001a0: e82a e7bf c502 eebd 1497 2dc0 8789 49bd
000001b0: fb62 65bf 629e e3bf 9976 f2bf b81c 43bf
000001c0: 563f 763e fa01 6abf aaef 57bf b1f2 bebe
000001d0: b5de 04bf 04fb 9cbe 4750 973e ea32 9ebd
000001e0: a5ca 44bf a946 c3bd e7f8 d2bd aefb a1be
000001f0: 24e9 dcbe e3c4 22bf 4c5e 70bf 5091 6dbd
00000200: 9c0d 71be f120 babd 3ce8 26bf 4327 b0be
00000210: 7a7e 883c d829 f1be a28d e03d 39d1 04bf
00000220: 17e4 adbe 77ed b3be 80d3 e4be ee6a 0dbf
00000230: ac68 cb3d 0c4a 4a3f 057b 55bf 21be babe
00000240: e8ed 25be d025 e3be ca32 033f f4d5 fbbe
00000250: 488d 633d da76 153e 6c97 91be 2599 b7bd
00000260: 813c 71be 4208 17be 9c82 8e3e 1892 acbe
00000270: 7085 54be d175 6dbe d715 00bf 978b 3abe
00000280: a40f 113e 680f b0be 75dc edbe 4c65 06bf
00000290: a0db e73d b07e 8d3c bbce 23be d88d 77be
000002a0: 1a6a 00be 8a32 a5be d613 843e 6b78 8abe
000002b0: 5423 87bd 4e79 19be eaca bebe a004 82be
000002c0: 1099 22bf 4976 f2bd 2d8e 9dbe 3c7a 46bf
000002d0: 64d8 bdbe d3bb 38bf 26ef 46bf ce94 d6bd
000002e0: 811e 913e fb52 37be 52cd 1fbf 0580 833a
000002f0: 1105 cfbd 13ec af3e 9712 d4be d2ce f9be
00000300: 565f 1d3e e202 ce3c dbb1 f0c0 2d64 7b3e
00000310: 0a04 f6be 53c5 9bbe 2300 2440 0a99 5a3e
00000320: 9816 a63e 79ea 513e 50a8 0040 2c3b 4fbe
00000330: e2c0 96be 5a70 b7bd b782 7dc0 a7b3 273e
00000340: c2e9 87be 2a5a 09bf a99c 8e3f a7f8 e1be
00000350: 2035 90bf d236 11be 6aec eabe c786 29bf
00000360: 2113 1ebe 118a 2c3e 0e12 d1bf 0d48 9dbe
00000370: e66b f9be 7e21 20bd c48f 80bf fe01 8c3c
00000380: 097e 60bf 0a64 efbd 2cc5 7c3f 57bf 993d
00000390: 31cc 023e 9ac4 aabe a1cc 22c0 6107 58be
000003a0: e2b3 8bbf d256 8bbf 4aed 9bbf 56e2 6dbe
000003b0: eebc 1ebf bc66 0abf 07e8 92bf 1628 92be
000003c0: e069 c23c 4003 a13b 2f90 babe e495 debe
000003d0: 390a 2fbe c047 5f3c f44b 7dbe 2805 22bf
000003e0: 444c 1abe 0860 21be 7e81 0c3e ca98 ddbe
000003f0: a63c 2fbe c8ef 27bd 2ce3 403e d96c 14bf
-0.098299995 -0.83269167 -0.08161937 -1.0655406 -0.44492912 -0.80708915 -0.4227394 -0.44062364
-0.5895319 0.6103814 -0.12821718 -0.6705061 0.39304057 0.93478453 -0.2896621 -0.4499403
0.12341794 -0.12236775 -0.21588887 -0.43976128 0.24842697 0.15056407 -0.23526639 -0.27858713
-0.31063196 -0.4913981 0.26590425 -0.18722746 0.3661448 0.34346464 -0.5378645 -0.3235467
0.49053875 0.19758046 1.6658766 -0.17285632 -0.6504575 -0.14521597 2.5095782 -0.2918189
-0.84149694 0.25170788 -5.7906585 0.86626184 -0.38484564 -0.46022418 -4.5450745 0.399109
0.459361 -1.2355105 -1.6570323 -0.49508804 -0.39578298 -0.11620391 0.23324588 -0.36621004
0.018826162 0.21900913 -0.22794826 -0.0913894 -0.32126227 0.19394186 -0.27214926 -0.40604258
0.21944438 0.02377579 6.3932405 -0.40908766 -0.22787479 0.26583505 -4.9849725 0.19073568
-0.076745465 -0.08994346 4.5693607 -0.2209917 -0.12686564 -0.047519542 -4.0405583 0.24571116
-0.14610192 -0.38101453 -0.2069493 -0.32015 -0.24081 -0.10461054 -0.6457912 -0.27531716
-0.29297078 0.19644314 0.17103755 -0.36210394 -0.12168932 0.20667525 -0.6363518 -0.31136662
-0.63955665 -0.17527346 -3.534507 -0.27029964 -0.29793337 -0.07528512 1.470491 -0.15940508
-1.8059969 -0.11621622 -2.712346 -0.049203422 -0.8960416 -1.778271 -1.8942443 -0.76215696
0.24047598 -0.91409266 -0.84350073 -0.37294534 -0.51902324 -0.3066026 0.29553434 -0.07724555
-0.7687171 -0.09534962 -0.103013806 -0.3163733 -0.43146622 -0.63581675 -0.93893886 -0.05799991
-0.23540348 -0.09088314 -0.6519811 -0.34404954 0.016661871 -0.47102237 0.10964514 -0.5188175
-0.3396308 -0.3514211 -0.44692612 -0.55241287 0.09932074 0.79019237 -0.8339084 -0.36473182
-0.16204035 -0.44364786 0.5124937 -0.4918667 0.05555466 0.1459612 -0.28435838 -0.08964757
-0.23558237 -0.14749244 0.27834022 -0.3370521 -0.20754027 -0.23189475 -0.50033325 -0.18217312
0.14166123 -0.34386754 -0.46457258 -0.52498317 0.11321187 0.017272323 -0.1599683 -0.24175203
-0.12540475 -0.3226512 0.25796384 -0.27044997 -0.06598535 -0.1498768 -0.37264186 -0.25394154
-0.63514805 -0.11838967 -0.30772534 -0.77530265 -0.37079155 -0.72161597 -0.7770866 -0.10477601
0.28343585 -0.17902748 -0.6242267 0.001003266 -0.10108388 0.34359798 -0.41420433 -0.48790604
0.15368399 0.025147859 -7.521711 0.24549933 -0.48049957 -0.30423984 2.5625083 0.21347442
0.32439113 0.204996 2.010273 -0.20237416 -0.29444033 -0.08956976 -3.9611032 0.16377126
-0.2654553 -0.53653204 1.1141559 -0.4413502 -1.1266212 -0.14181069 -0.45883495 -0.6622128
-0.15436985 0.16849543 -1.6333635 -0.30719033 -0.48715132 -0.03909444 -1.0043874 0.017090794
-0.87692314 -0.11689003 0.9873836 0.07507198 0.12773205 -0.3335312 -2.5437396 -0.21096565
-1.0914271 -1.088587 -1.218179 -0.23230872 -0.62007034 -0.5406301 -1.1477059 -0.28546208
0.023732126 0.0049137175 -0.36438128 -0.43473732 -0.17093743 0.013627946 -0.24736005 -0.6328912
-0.15068156 -0.1575929 0.13721272 -0.4328063 -0.1711298 -0.041000158 0.18836659 -0.5797859

bias f4 [16]
00000000: 19d3 26bf d918 70bd 830e c93e cc84 dcbe
00000010: a092 3dbf c483 1ebf e4cc a7bd 9da9 c9be
00000020: 5e39 fbbe 7d99 e8be c9a3 2cbe 23af 98be
00000030: 5c02 6f3d 2eeb c6be 0974 463d fd5e c8be
-0.6516586 -0.058617447 0.39268884 -0.43070066 -0.74051857 -0.6191981 -0.08193377 -0.39387217
-0.49067205 -0.45429602 -0.16859354 -0.2982112 0.05835186 -0.38851303 0.048450503 -0.3913497

weight f4 [32, 16]
00000000: 82e2 81bc b86b 86bd 9226 80bd 1ad6 efbe
00000010: 5ebd dbbe ea11 423d f6db 04be 9c90 ebbd
00000020: e821 19bf c236 4cbe 7021 55be 3036 afbe
00000030: 37ad 2dbf 2de5 ddbc 662a 24bf 1a76 0f3e
00000040: cb50 503e adb0 923e ee49 c1bd 8151 58bd
00000050: cb9c 2ebf de29 eb3e e21d ebbd b690 00bf
00000060: 378a c4be 574b af3d 684a 803e 6992 04be
00000070: cc73 44bf e995 52be 46f5 21be 4277 253e
00000080: e638 d6bd 549b d3be b280 0cbf 22ab c9be
00000090: beb2 09bf 040a cf3e 07c0 90bf df99 c8be
000000a0: a43c d2be 8abc 5dbd 0cd3 b7be 48c0 04bf
000000b0: a6da 16bf 5a9e 4ebe c485 7abe 74cb 96bd
000000c0: e36d 73bf c3f4 d7be bec8 38bf fffe fdbe
000000d0: 5666 c8be 7b67 c9bd 200e 933d 8854 283d
000000e0: 3e3c 14be 109c 0bbe d4dc babd 2839 1cbe
000000f0: fcd5 eebe eedc 4ebf 3213 b0be 8a08 08be
00000100: 70fa 623e 7f0f ad3e e124 9fbe 989a 63be
00000110: 07f5 5cbf f15b 00be 3993 d9be 23aa 8ebe
00000120: 77c2 cfbd c458 10be b058 05bf 26a3 c2bd
00000130: 04e6 a3bf 9c45 d03d 99d1 bb3c 001e ffbb
00000140: 168e 5abe 96c3 a1bd 95b9 06bf afd4 32be
00000150: 7061 47be 85f4 c0bd 4ba4 84be d652 0cbf
00000160: 0a7b b7be 5632 09be 79be d0bd d253 9abe
00000170: 8daa a6be 46e5 edbe 18ca d7bd 4874 a2bd
00000180: 9e01 88bf 28bc dabd bd97 febe fb3a 51be
00000190: 6eca ddbe b741 e93e ab0f d93c cef7 dabd
000001a0: 05ba 0c3e 95aa bdbe 4915 75bd e2e6 6ebe
000001b0: d1c3 fdbe 1f2e 5fbe 734b b5bf f83e adbd
000001c0: a327 92be bfa4 0cbe 730e e5be 820b 4dbe
000001d0: 66e3 bfbf 7a98 c5be 6d7a a2bd e579 bdbe
000001e0: b43f 46be e0b8 c0be 175f b7be 1169 d2be
000001f0: a525 c3bf 8e72 b13d 1247 0ebf 78a1 0b3e
00000200: ea07 19bf 0405 d03d 13c7 ecbd 6064 a2be
00000210: d0e0 5ebf e84a 1dbe 0bbb 6bbd 2ac1 0d3d
00000220: 9ca0 8a3e 9c6e 94bd a01e 593c 309a f5bd
00000230: fd98 40bd f785 7bbe cc2e 6cbe 1c8f 9d3d
00000240: d192 c23e 6b3b d93e ff36 af3e bdf0 803f
00000250: a35b 99bf 9a2a da3e 0143 9e3e dd82 193e
00000260: b988 8b3e 2486 6f3e c3fc f43e 45e0 b2be
00000270: ac09 a43f 7061 ddbc 13c6 abbd 85f9 25bf
00000280: 0ab0 d1be 52c6 a1be 3a5e cbbe a4e6 fbbe
00000290: 20f5 fabc 9600 5abe 6443 cfbe 03ad abbe
000002a0: 544c a7be 10f3 5abe ae28 d1bd 7896 67be
000002b0: dab5 4abe b4c9 7abe 9221 d3be e64b 5fbe
000002c0: ffd1 66bf 70fd b73e 8486 3cbc d3d0 ad3b
000002d0: 8b81 4bbf a864 b33e 3071 14be d204 6fbd
000002e0: 22d1 14be c896 a73e edd9 0a3f bf5f 76bd
000002f0: 23da 03be 94e1 3ebe a491 0fbf 6d37 29be
00000300: 8c96 c53d 4852 96be 885b c4be 514d e33d
00000310: d025 3cbf a322 f53e 8bb8 1bbf f1bb d9be
00000320: 9ef9 d8be 28b3 063e 32b3 653e 252d d43d
00000330: 4186 90be 9495 11be a44c 2d3e 8067 ef3c
00000340: ce38 d0be 5066 4fbd 36fa d3be 87cf 21be
00000350: 4a57 263e b81c 71be 9479 52bc 5378 67bd
00000360: c794 563e 70ab 35bd 88f5 14bd 0c73 b4bf
00000370: c68d b13f 1647 bebe 10cc a0be 7974 dcbe
00000380: fe4e a3bd aef8 0b3f 9665 963c 7c77 c33c
00000390: b3b0 86bf 0fec c83e 73ef c8be c617 a1be
000003a0: 24c1 a4be e011 c73d 3712 fe3e 772d db3b
000003b0: 9a5b b3bd 5781 64be 1765 933e aa15 1cbe
000003c0: 663d cd3e 9abb 62be c55c 79bf 607e 6ebc
000003d0: c8e0 81bf 52c2 28be 2d92 4fbe a848 26be
000003e0: eca8 1d3e 0008 5cba 2860 cd3d d8d8 5fbe
000003f0: 5619 26bf 7153 963d a85c 0fbf 98ca 7bbd
-0.015855078 -0.065635145 -0.06257357 -0.46843034 -0.42917913 0.047380365 -0.12974533 -0.115021914
-0.5981736 -0.19942763 -0.20813537 -0.3422103 -0.6784243 -0.027086819 -0.64127195 0.14009896
0.2034332 0.28650418 -0.09437929 -0.052812103 -0.68208 0.4593038 -0.11480309 -0.5022081
-0.383867 0.08559292 0.25056767 -0.12946476 -0.7673919 -0.20564999 -0.1581622 0.16158774
-0.10460071 -0.41329443 -0.54883873 -0.39388376 -0.53788364 0.4043733 -1.1308602 -0.39179894
-0.4106189 -0.054134883 -0.35903203 -0.518559 -0.5892738 -0.20177594 -0.2446509 -0.07363024
-0.9508955 -0.42178926 -0.7218131 -0.4960861 -0.39140576 -0.098341905 0.071804285 0.04109624
-0.14476106 -0.13633752 -0.09124151 -0.15256178 -0.46647632 -0.8080586 -0.34389645 -0.13284507
0.22165847 0.33800885 -0.31082824 -0.22226942 -0.8631138 -0.12535073 -0.42495134 -0.2786418
-0.10144513 -0.14096361 -0.5208845 -0.09503774 -1.280457 0.10169527 0.022927092 -0.0077855587
-0.21343264 -0.07898633 -0.52626926 -0.17463945 -0.19470763 -0.094216384 -0.25906596 -0.548139
-0.3583606 -0.13398108 -0.1019258 -0.30142075 -0.32551995 -0.46463984 -0.10536593 -0.07932335
-1.0625494 -0.10680419 -0.49725142 -0.20432656 -0.43318504 0.4555795 0.026496729 -0.10691796
0.13742836 -0.37044206 -0.059834752 -0.23330262 -0.4956346 -0.21794938 -1.416365 -0.08459276
-0.28545865 -0.1373472 -0.44737586 -0.20023921 -1.4991271 -0.38592893 -0.07933507 -0.3700706
-0.19360238 -0.37641048 -0.35814735 -0.41095784 -1.5245863 0.08664428 -0.55577195 0.13635814
-0.597777 0.10157207 -0.11561408 -0.31717205 -0.87061787 -0.15360606 -0.057551425 0.034608044
0.2707566 -0.072476596 0.0132519305 -0.119922996 -0.0470209 -0.24562822 -0.23064727 0.076933116
0.38002637 0.42428145 0.34221646 1.0073467 -1.198109 0.42610627 0.30910495 0.14991327
0.2725275 0.23391014 0.47849092 -0.3493673 1.2815452 -0.027024 -0.08387389 -0.6483386
-0.4095462 -0.3159662 -0.39720327 -0.49199402 -0.030634463 -0.21289286 -0.40481102 -0.33530435
-0.3267542 -0.21381783 -0.10212837 -0.22615993 -0.19795933 -0.24491006 -0.4123655 -0.21806297
-0.9016418 0.35935545 -0.01150668 0.005304435 -0.7949454 0.35037732 -0.14496303 -0.058354206
-0.14532903 0.32732224 0.5423878 -0.060149904 -0.12876181 -0.18640739 -0.56081605 -0.1652505
0.09647855 -0.2935965 -0.38351083 0.11098731 -0.734952 0.47877988 -0.60828465 -0.425262
-0.42377943 0.1315428 0.22431639 0.10360173 -0.28227428 -0.14217216 0.16923767 0.029224157
-0.4066834 -0.050634682 -0.41401833 -0.15801822 0.16244236 -0.23546112 -0.012846369 -0.056511234
0.20955192 -0.04435295 -0.03636697 -1.409761 1.3871391 -0.3716361 -0.31405687 -0.43057612
-0.07974051 0.5467633 0.018358987 0.023860686 -1.0522674 0.39242598 -0.39245185 -0.3146345
-0.32178605 0.09720206 0.49623272 0.0066887694 -0.08757706 -0.22314964 0.28788063 -0.15242639
0.40085906 -0.22141877 -0.9740718 -0.014556497 -1.0146723 -0.16480377 -0.20270605 -0.16238654
0.1539647 -0.0008393526 0.10028106 -0.21860063 -0.6488241 0.07340134 -0.5600076 -0.061472505

bias f4 [32]
00000000: 4def 3abe bb64 b7bc b713 1abf 6f42 3cbf
00000010: ec3e 52be e722 40be f369 8dbf 60de 65be
00000020: 2e53 0e40 18cb 7b3f 9311 1fbe fb8e 76be
00000030: 098a 9fbe a000 5a3f f968 3240 c543 79bf
00000040: f220 94be 4cb6 a7bf 9e0d 28be 7546 6cbf
00000050: f2cb 05be 9bd1 a8bd 2757 35bf c52a 8cbf
00000060: 2e5b bdbe 6257 09bf 7cde 583f 91b0 32be
00000070: 64ae 77be 5509 d7be 55f9 5dbf 9573 f8be
-0.18255349 -0.0223869 -0.6018633 -0.7353887 -0.20531815 -0.18763314 -1.1047958 -0.2244811
2.223827 0.9835677 -0.15534048 -0.2407798 -0.3116 0.85157204 2.787657 -0.97369033
-0.28931385 -1.3102508 -0.16411445 -0.9229501 -0.1306608 -0.08243104 -0.7083611 -1.0950552
-0.36983627 -0.5364896 0.84714484 -0.17450167 -0.24187618 -0.41999307 -0.86708575 -0.48525682

weight f4 [64, 32]
00000000: d941 db3d 7703 7d3d 13eb 30bd abde eabd
00000010: b66d 08be 42f5 2abe 7904 02be 3990 113e
00000020: 4d4c 073e 562e 27bf 9d0a 27bd cf65 02be
00000030: 5e0a 453d b393 07bf 97cb dfbd 504b b63d
00000040: 9b79 383d ce27 e2bd d61d 00bf d067 a03b
00000050: 3067 e6be 9079 bebd 8508 fcbd 159c 0fbe
00000060: cb17 92bd efa3 943c a4c8 bcbe 65b1 18bf
00000070: 1b69 e9bd 7566 2abe f7e1 93bd db6a 643d
00000080: 3b02 13be fb3c df3d e567 493e 3a32 d9be
00000090: 7151 413f a165 973e 7159 bcbe 32c8 0a3d
000000a0: ca45 9440 e4fd 883e b23b c43e be53 9fbe
000000b0: 44c3 123e e03e a2bf e8e8 6640 a962 b13e
000000c0: ae47 b13e cc0f 3dbe 27a9 b63c 5252 2a3f
000000d0: 6c7e 293f 7eec de3b 5c0c e4be 023d cebd
000000e0: 6ff0 0d3f 428d 7ebd 6d12 bb3f 87fc 50bf
000000f0: 290b 81bd f649 ab3f 1cc2 3cbe 8c48 acbe
00000100: e037 aebe 2cc5 83be 0b30 c6be 67b9 3dbf
00000110: 2492 e3bb c509 91be fdad dc3f dd2f 87bf
00000120: 5515 8b3f bb24 36c0 3dee a6be 08cc 2c3e
00000130: 388e 95be 1a67 c93d 363a 8fbf 792f d43e
00000140: 37eb 09be 1e9d 3bbf e3b4 eebd 729f 18be
00000150: 10ce 663e b45c b6be c3d5 29be 13d9 3e3e
00000160: b727 843e f5a4 24c0 d1e0 1a3f 1eee 39c0
00000170: 62ac 86bf 6a31 e33e 1d42 60bf 7403 33be
00000180: 309f 283f a255 073f 9915 adbd 9d7e 193e
00000190: eb06 903e 888d 13be 0fc1 993e 6154 ad3e
000001a0: fd7c ab40 cae7 f9be 6f9c 98bd c2d8 d73e
000001b0: c530 163f 406f bdbf 23b6 0440 baf9 2fbd
000001c0: 09a3 6b3d cd45 00bf 12f0 053f 73e6 573e
000001d0: 8d8f 74bd bd5b 1b3f 39e4 1bbd 20c6 4e3e
000001e0: b1e8 66bd 93db 44be 7010 3ebd 0605 25bf
000001f0: 96ea 9f3e 1d6e 563e fda4 223e 8173 e43e
00000200: a453 1ebd 2fe1 c33c c97b ac3e 1c44 3fbf
00000210: 6c3c 413e ee08 d73e 09fc e8be de58 59be
00000220: 0b47 35be 8dbb 83be 97b8 1a3e 0f71 25bd
00000230: f501 e03d 907f e5be 7d98 d7bd 329b 57bf
00000240: 2d10 6b3e 5618 b73e e572 4a3e eec9 983e
00000250: a1db 05bf e1b1 e3bd b76d e8be a2e3 683e
00000260: cb20 043f 6471 64bd 9f47 b63c be89 47bf
00000270: 4c38 7bbe c085 863f 9034 893d 60c1 ddbe
00000280: 2afa abbd 69ae 18be 157e c73e d83f cd3e
00000290: 3663 e1be 4ab6 b6bc 6906 483e 2306 a6be
000002a0: 40cd f13d a6f3 ddbd f79d 323e 184b bebc
000002b0: fac7 93bd 7168 66bf 8265 96be 23a1 cf3d
000002c0: 973d 063c 770b 1abe 48e8 60bf 6bb2 af3e
000002d0: de77 8cbe 62c6 873d fd5a ee3e 72f1 a4bd
000002e0: f179 2f3e afe1 bdbd ded3 01bf be97 16be
000002f0: a75f 3cbf 4215 dcbd 9cfe acbe 96a4 963e
00000300: de26 d5be b8a3 97bd 4e5c a63e a50f fbbe
00000310: 46f7 87bd c415 ac3e c9a0 10bf 03da f3bd
00000320: 9c35 913c 69d4 2f3d dc11 253e 7976 023e
00000330: 8664 0b3e 48cf 41be 857b 743c 23aa a0bd
00000340: e962 f7bd b06d 7a39 91a7 3b3e 406f 2f3e
00000350: e8c8 8ebd 2224 a13d 8d0a a8bf cbfb 08bc
00000360: 17ae 113e 6e4f 2c3d 1acb b7be db43 d6be
00000370: bf21 dabe 6cf4 223f 3a56 be3e a24c fdbd
00000380: 65d0 aa3d ae21 973d 8c02 423e 81b3 8bbe
00000390: 9e08 1c3f 237f e53e 663e 933e 9cbb f83f
000003a0: 9d73 0d40 1adf 4e3f c399 223e d101 483e
000003b0: e53b c23d 3aac 27bf 9e78 3b40 a5c7 593f
000003c0: 2c32 2b3e 1f37 80be 3d83 6d3e 6b31 3d3f
000003d0: d1ed f53e 5599 ea3e 29b6 22bf 12d0 2b3f
000003e0: 4aa6 e13e de52 26bf 6438 dd3e 5257 47bf
000003f0: 865c bdbe 2469 c83e 4609 193e 08a0 5bbe
0.10705919 0.061770882 -0.043192934 -0.11468252 -0.13323101 -0.16695121 -0.12697019 0.14215173
0.132127 -0.6530508 -0.040781606 -0.1273415 0.04810559 -0.52959746 -0.109275036 0.089010835
0.045037847 -0.110427484 -0.50045526 0.004895188 -0.450006 -0.0930053 -0.123063125 -0.14024384
-0.071334444 0.018144576 -0.36871827 -0.5964568 -0.113970004 -0.16640647 -0.07220834 0.055765968
-0.1435632 0.10900303 0.19668539 -0.42421132 0.75514895 0.29569724 -0.36786988 0.033882327
4.633519 0.26756203 0.38326794 -0.31118578 0.143323 -1.2675438 3.6079655 0.34645584
0.34625 -0.18463057 0.022297455 0.6653186 0.6620853 0.0068030944 -0.4454068 -0.1007023
0.55445 -0.062146433 1.4614998 -0.81635326 -0.06300957 1.3381946 -0.18433422 -0.336491
-0.34027004 -0.25736368 -0.3870853 -0.74111027 -0.0069449116 -0.28327766 1.7240597 -1.0561482
1.0865885 -2.8459918 -0.32603636 0.16874707 -0.29210067 0.09834118 -1.118964 0.4144247
-0.13468634 -0.73286617 -0.11655595 -0.14904574 0.22539544 -0.35617602 -0.1658545 0.18637495
0.2581155 -2.5725682 0.6049929 -2.9051585 -1.0521357 0.44373637 -0.8760088 -0.17481786
0.658679 0.5286504 -0.08451385 0.14989705 0.28130278 -0.14409459 0.30030105 0.33853438
5.3590074 -0.48809654 -0.07451712 0.4215756 0.58668166 -1.4799576 2.0736167 -0.042962767
0.05752853 -0.5010651 0.52319443 0.21084003 -0.059707213 0.60686857 -0.038059447 0.20192766
-0.056374256 -0.19224386 -0.046402395 -0.6446079 0.31233662 0.20940442 0.1588325 0.44619372
-0.038653985 0.023911087 0.3368819 -0.747133 0.18870705 0.41999 -0.45504788 -0.21225306
-0.17702882 -0.25729027 0.15109478 -0.040391024 0.10937873 -0.44823885 -0.10527132 -0.84221184
0.2295539 0.35760754 0.19770391 0.2984156 -0.5228825 -0.11117912 -0.45396206 0.22743085
0.5161254 -0.0557722 0.022250948 -0.7794455 -0.24533194 1.0509567 0.066994786 -0.43311596
-0.083973244 -0.14910282 0.3896338 0.4008777 -0.44021004 -0.02230372 0.19533695 -0.32426557
0.118067265 -0.10837488 0.17443071 -0.023229167 -0.07215877 -0.90003115 -0.2937432 0.10138156
0.008193395 -0.15043436 -0.87854433 0.3431581 -0.274352 0.066296354 0.46553794 -0.080538645
0.1713636 -0.09271561 -0.5071391 -0.14706323 -0.73583454 -0.10746242 -0.33788002 0.29422444
-0.41631216 -0.07404274 0.32492298 -0.49035373 -0.066389605 0.33610356 -0.5649534 -0.11906817
0.017725758 0.04292718 0.16120094 0.12740506 0.13612565 -0.18926728 0.0149220275 -0.07844951
-0.120794125 0.0002388272 0.1832564 0.17132282 -0.069719136 0.0786822 -1.312822 -0.008360813
0.14226566 0.042067938 -0.35897142 -0.41848645 -0.4260387 0.6365421 0.3717516 -0.12368132
0.08340529 0.07379471 0.18946284 -0.27285388 0.6095065 0.4482356 0.28758544 1.9432254
2.2101815 0.80809176 0.15878968 0.19531943 0.0948408 -0.6549717 2.929237 0.8507026
0.16718358 -0.25042054 0.23194595 0.7390353 0.48033002 0.45820108 -0.63559204 0.67114365
0.4407218 -0.64970195 0.43207085 -0.77867615 -0.36984652 0.39142716 0.14944944 -0.21447766

bias f4 [64]
00000000: 7100 febe 5635 df3e 548a 0abe 2de9 4abf
00000010: 8c8a 61bf fcbb 57be d6f7 53bf 511d 0340
00000020: 6a1b 66be b1ec 90bf 6b37 a4bf f78c 02bf
00000030: 4a2f 4840 d3bb a8bf 74bf c03d 7a4e 8e3e
00000040: 08c3 5dbf 8faa b3be 06ca 9fbe ec10 a1be
00000050: 5639 5dbe a4a9 5e40 d135 cdbe bc4f 36bf
00000060: cef3 b1bd fcc2 65bf 0372 e1be cd83 77be
00000070: 0ee0 31bf af87 2dbe 61b4 a23e c6c6 58be
00000080: e6de 71be c743 b23f 3343 813f 1680 a1bf
00000090: 873a 9bbf dcf6 89bf d66f dcbf 9aa2 283f
000000a0: e0bf a140 34a6 f6be 952d 1dbf 3a73 ecbd
000000b0: 75ad babe c214 4dbf 142f 1140 211c dbbe
000000c0: 8f81 7fbe 57e4 13bf 2534 12bf e541 a13c
000000d0: d111 b6bd 82d6 1240 0c5c b23f 4880 3fbf
000000e0: 2d06 1440 b945 08be 0710 f03e 5ac5 7bbe
000000f0: 1102 973f 7645 98be 6e22 4e3f 10fa 97be
-0.49609712 0.4359538 -0.1352933 -0.7926205 -0.8810203 -0.21067804 -0.8280004 2.0486643
-0.22471395 -1.1322232 -1.2829412 -0.50996345 3.1278863 -1.3182319 0.09411517 0.27794248
-0.8662572 -0.35091063 -0.3120882 -0.31458223 -0.21603903 3.479104 -0.4008012 -0.71215415
-0.0868908 -0.8975065 -0.44032297 -0.24171372 -0.69482505 -0.1694629 0.31778243 -0.21169576
-0.23620185 1.3926934 1.0098633 -1.2617214 -1.2127236 -1.077846 -1.722163 0.6587311
5.0546722 -0.48173678 -0.6139768 -0.11545415 -0.36460462 -0.801098 2.2684984 -0.42794898
-0.24951766 -0.57770294 -0.57110816 0.019684741 -0.08890117 2.2943425 1.393434 -0.74805117
2.312877 -0.13307847 0.46887228 -0.24587002 1.1797506 -0.29740494 0.80521286 -0.2968297

weight f4 [4, 64]
00000000: a8b0 fd3c be43 5b3f 5410 94be 4bcc 933f
00000010: ff61 89bf 1d1d 223f 78ca 243e 6a5b 473f
00000020: a48c e93d 6b22 2c3f b274 48bf 4d1b 2fbe
00000030: 5253 4a3f 2748 1140 0723 4e40 3f94 a53d
00000040: 8196 243e 15e8 60bf 35c4 b93e 0fe7 793e
00000050: e22a 80be 82dd 6a3f 64e2 543d 8fda 933e
00000060: 1195 dabe 93c4 98bd 5453 8bbe f0e7 873e
00000070: eef7 0e3f 63e0 f53d b1a0 2d3f 0fca 02c0
00000080: 94d9 943d e4b3 303f fc1d b23e 935b 0bbf
00000090: b786 a93e 3127 17c0 f4a8 26bf bfa7 39bf
000000a0: f6c9 1840 b0a8 5dbd d66d 3e3f 11cf eebe
000000b0: ba04 35be 5b33 e2be 78e2 453f c043 f9b8
000000c0: 62e1 29bf 7edd 8e3d d9f4 713e 580b ca3f
000000d0: 359e 2b3e 06c2 0440 99f0 dbbf b980 9ebe
000000e0: cbdd 79bf 797f 8cbd 7209 05c0 7090 b2bd
000000f0: 401e 30bf b1ad 94be 8e60 03be 154f d8be
00000100: 2a74 8ebd ec6a ce3f ee3a 373e 9e58 2e3e
00000110: acb0 053f 04d7 33be 9129 413d 44fd 043f
00000120: 1d2a 29be c4f6 ef3e a8bf 49bf ece2 1abe
00000130: 324b f23f a6be 04c0 57d7 c33f 53ca c9be
00000140: bb8d e8be adb6 ec3e ee17 5ebe 9103 41be
00000150: e0bd 67be c6d2 2140 14a7 08bd cd2e 363e
00000160: b9a5 69bc d042 34be 1ef4 71be 3830 6c3e
00000170: 3e27 8d3f c288 3fbe 19db 863e baa2 ff3f
00000180: c4fe ecbd 71e0 643f 847b 14c0 b3fd 173e
00000190: f0f1 24bf dc6a 8240 d15c a2bf 9bbd 3d3f
000001a0: 6982 a03d 304b cebc 736e 883d 5cd7 0bbe
000001b0: 52f9 96be 16bd ccbd 9b90 5b3e 2209 a2be
000001c0: 63ec 8bbe 2c73 30be 3b1b 29bf 50a6 e4bf
000001d0: 105f 99be 63ae d03f ca1e e33f 1a40 bebe
000001e0: 4b2a 623f b467 f1bd 98b8 2340 58a9 91bc
000001f0: d088 2dbf 97c9 a7be 615b 1a40 032f 84be
00000200: 9f9c b8be 7028 de3f 1e52 09bf 3a81 d73f
00000210: 8eca d83f 474a 6e3d 5ab1 993e a725 133f
00000220: 0eff 563e b88e 24bc d11c 38be 3316 ddbd
00000230: e8f3 cb3e 70e7 d73f ba41 13c0 62bf 1840
00000240: 4e0f ee3e 19a3 973e ac0b 87be 8ee0 66be
00000250: d480 58be 67bb 483f c416 ffbd 9c9f 023e
00000260: 181f 39bd 2fb1 183d e59a 33be c405 50be
00000270: 7128 c1bf 04b6 28be db7e 413f b6a4 3340
00000280: 3e12 513e c814 a83f 4b01 483f 5954 4e3f
00000290: d8aa 7f3e f6e7 5440 315d cc3f 9e87 b3bd
000002a0: 5bd3 3abe 70f6 ea3d 9ce8 e7be a41a 8d3e
000002b0: 47e1 8dbe e3dc a03f 6db1 f13f fa3f 99be
000002c0: 0f2a 80be 2195 b43e 29f4 2dbe 9279 b93f
000002d0: c7e2 bc3c 9555 14c0 9fd3 b03e 678a 203f
000002e0: d1b9 083f 310f 423e a1d4 ca3f 09f9 243e
000002f0: e793 833f 0acd 06bf 979f efbf f8ee 713e
00000300: a698 fdbd ac61 8bbf 23c7 8f3f 9e2b b6be
00000310: 45ce 213f 4084 653e b790 ac3d 53ca 8dbf
00000320: 3d24 173c 7ec0 003f 8ca6 07bf ef00 46be
00000330: 7e17 f3bf 5fd3 0340 29ab fd3f ac94 81bf
00000340: cfea 613e 521a a33d ad9d 80be 1268 8ebe
00000350: b2bc aebe f1cc 44c0 c511 a63e ca0f b53e
00000360: 1e45 3a3e 9539 2abe 4f5a bcbd bd6c 673e
00000370: 6886 3c40 57f0 543a 5c15 b03f 1b25 7740
00000380: 3f17 aabe ca28 2bbf f055 fb3f a748 e63e
00000390: 519e 4cbf 7e51 9640 23e9 bb3f 1a16 a73f
000003a0: 7157 31bf 6ca4 a43e 879b 6a3e 1fe4 a3be
000003b0: 2ca1 93be fb05 da3f 103e 093f 60fa 5fbe
000003c0: b647 153c c800 3e3c 80a9 9b3b c9ba 0b40
000003d0: 2897 3a3d 7026 aa3f e6bc 413f a246 3f3e
000003e0: 468c 75bf 5e9d 203e e4b3 2340 e867 68bd
000003f0: 91bf 60bf 2b79 c8be 24a1 c43f 75b1 3dbe
0.030968025 0.8565024 -0.28918707 1.154672 -1.0733031 0.63325673 0.1609286 0.7787386
0.11403778 0.6724002 -0.7830306 -0.17100258 0.79033387 2.2700288 3.220888 0.08084916
0.16073038 -0.8785413 0.36282507 0.24404548 -0.25032717 0.91744244 0.051973715 0.28877684
-0.42691854 -0.074593686 -0.27212012 0.26544142 0.5584706 0.12005689 0.6782332 -2.0435827
0.07268062 0.6902449 0.347885 -0.54436606 0.33110592 -2.361767 -0.6510155 -0.72521585
2.3873267 -0.05411595 0.74386346 -0.46642354 -0.17677584 -0.44179806 0.7729869 -0.00011885865
-0.6635953 0.0697584 0.23628558 1.5784712 0.1675957 2.0743423 -1.71828 -0.30957583
-0.97604054 -0.06860251 -2.0787015 -0.087189555 -0.6879616 -0.29038766 -0.12829801 -0.42247835
-0.0695575 1.612638 0.17893574 0.17025992 0.52222705 -0.1756249 0.04715878 0.5194895
-0.16519971 0.46867955 -0.7880807 -0.15125626 1.8929198 -2.0741363 1.5300092 -0.39412174
-0.45420632 0.4623312 -0.21688816 -0.18849017 -0.22631025 2.5284896 -0.033362463 0.1779129
-0.014260703 -0.17603612 -0.2362828 0.23065269 1.1027601 -0.18704513 0.26339033 1.9971535
-0.1157203 0.8940497 -2.3200388 0.14842872 -0.6443167 4.0755444 -1.2684575 0.7411744
0.07837374 -0.025182337 0.066616915 -0.13656372 -0.2948709 -0.09997003 0.21441881 -0.31647593
-0.27328786 -0.17231435 -0.66057175 -1.7863255 -0.2995534 1.6303219 1.7743771 -0.3715828
0.88345784 -0.11787358 2.5581417 -0.017780945 -0.67786884 -0.32770988 2.4118273 -0.25817117
-0.36056992 1.735609 -0.53640926 1.6836312 1.6936815 0.058176305 0.3001812 0.5747933
0.20995733 -0.010043792 -0.17979743 -0.1079525 0.39834523 1.6867504 -2.3008866 2.386681
0.46496052 0.2961662 -0.26376092 -0.22546598 -0.21142894 0.78410953 -0.12455514 0.12756199
-0.04519567 0.03727835 -0.17539556 -0.203147 -1.5090467 -0.16475683 0.7558419 2.8069282
0.20417115 1.3131342 0.7812697 0.80597454 0.24967515 3.3266578 1.596594 -0.08766101
-0.18244688 0.114727855 -0.45294654 0.27559388 -0.27710935 1.2567409 1.8882271 -0.29931623
-0.25032088 0.35270026 -0.16987671 1.4490225 0.023057355 -2.3177235 0.34536454 0.62711185
0.53408533 0.18951108 1.5846139 0.16110624 1.0279511 -0.52656615 -1.8720578 0.23626316
-0.12382631 -1.0889182 1.1232647 -0.35580152 0.6320537 0.2241373 0.0842604 -1.107737
0.0092249485 0.5029372 -0.52988505 -0.19336294 -1.8991544 2.059776 1.9817859 -1.0123496
0.22062229 0.079640046 -0.25120297 -0.27813774 -0.34128338 -3.0750086 0.32435432 0.3536361
0.18190429 -0.16623528 -0.091969125 0.22600074 2.9457035 0.00081229716 1.3756518 3.8616397
-0.3322086 -0.66859114 1.9635601 0.44977304 -0.7992907 4.697448 1.4680523 1.305362
-0.6927405 0.32156694 0.22910891 -0.3200998 -0.28833902 1.7033075 0.53610325 -0.21872854
0.0091113355 0.011596866 0.0047504306 2.1832755 0.04555431 1.329298 0.7567886 0.18679288
-0.95917165 0.15685031 2.5578547 -0.056739718 -0.8779231 -0.39154944 1.5361676 -0.18524726

bias f4 [4]
00000000: 3410 dd3d 2947 dfbe af78 02c0 c64f 54c0
0.10794106 -0.43608978 -2.038616 -3.317369
