kevin_nn_2025-02-21_19-07-49.pt (torch, 16609 bytes, 8 tensors)

weight f4 [16, 16]
0	0x3d4bd5e6	0.049764536
1	0xbe8201ed	-0.25392094
2	0x3dca4fb6	0.09878485
3	0xbe556477	-0.20839106
4	0xbeb39740	-0.35076332
5	0xbc655bee	-0.0139989685
6	0xbe1eb447	-0.15498458
7	0x3e85b136	0.26111764
8	0xbd55803b	-0.052124243
9	0x3dd6dbf8	0.104911745
10	0x3ea37490	0.31924868
11	0x3e476e8a	0.19475761
12	0xbe36653a	-0.17812052
13	0xbe1e8646	-0.15480909
14	0x3f0aade3	0.5417158
15	0x3e60cd59	0.21953334
16	0xbc86d167	-0.016457273
17	0xbdd9e88a	-0.106400564
18	0x3e88c168	0.26710057
19	0x3d342e6b	0.04398958
20	0x3e367348	0.17817414
21	0x3e2df177	0.16986643
22	0x3f393339	0.72343785
23	0xbea1727a	-0.3153265
24	0xbd5199a5	-0.051171917
25	0x3e302c20	0.17204332
26	0x3f6cb5ff	0.92465204
27	0x3e8fc221	0.28077796
28	0x3d355e87	0.0442796
29	0x3d77cbca	0.060497083
30	0xbf4e27df	-0.8052959
31	0x3dfa8226	0.12231855
32	0x3cc0fb90	0.023557454
33	0x3dce1228	0.10062057
34	0xbd2b9c90	-0.041897357
35	0xbe4350ac	-0.19073743
36	0x3d8a78e0	0.06761336
37	0x3de22342	0.11041881
38	0xbe2bb62f	-0.16768716
39	0xbe07ccb8	-0.13261688
40	0xbe733476	-0.23750481
41	0x3de6d24d	0.112705804
42	0x3e2b2cae	0.16716263
43	0xbdc9e486	-0.098580405
44	0xbe7f2de2	-0.24919847
45	0xbdd23dbc	-0.10265681
46	0xbe1deccc	-0.15422362
47	0x3b9e044d	0.00482229
48	0xbdc10259	-0.09424276
49	0xbef093c2	-0.4698773
50	0xbe41b1ff	-0.18915556
51	0x3db08cdf	0.08620619
52	0x3de297f3	0.11064138
53	0xbebaf3a7	-0.36514017
54	0x3dd83947	0.105578
55	0x3e2bf757	0.16793571
56	0xbf083775	-0.5320962
57	0x3d6a2488	0.057163745
58	0xbfa7281a	-1.3059113
59	0xbe382093	-0.17981176
60	0xbf0b5d5e	-0.5443934
61	0xbf11697c	-0.5680158
62	0xbe8e5c1b	-0.27804646
63	0xbf2daf63	-0.67845744
64	0x3d20c764	0.039252654
65	0x3e9890aa	0.2979787
66	0x3fdacafd	1.7093197
67	0x3ddbf931	0.10740889
68	0x3e34ba81	0.1764927
69	0xbe0b30e7	-0.13592874
70	0xbed2ff47	-0.41210386
71	0x3cee5d77	0.029097302
72	0xbe069cce	-0.13145754
73	0x3d9ebd5e	0.07750963
74	0xbfa1fb3b	-1.2654794
75	0x3d7c231e	0.061556928
76	0xbdc8a76d	-0.09797559
77	0x3d949921	0.072557695
78	0xbfca4592	-1.5802481
79	0x3d0208d5	0.031746704
80	0x3dbb8a1c	0.09157202
81	0x3ea77bfd	0.32711783
82	0xbfc3b4a5	-1.5289503
83	0x3d25339d	0.040332425
84	0xbd62d55f	-0.055379268
85	0x3e904632	0.28178555
86	0x3f83a1a9	1.028371
87	0x3d986b5c	0.07442352
88	0x3dcc0bfa	0.09963222
89	0x3d9804f5	0.074228205
90	0xbfbb2425	-1.4620405
91	0x3dfe2f9a	0.12411423
92	0xbcd84536	-0.02640019
93	0xbd37dfb8	-0.04489109
94	0x3f403398	0.75078726
95	0xbd0acd0b	-0.03388695
96	0x3dba7e45	0.09106115
97	0xbf3040ce	-0.68848884
98	0x3e151c23	0.14561515
99	0x3c9aa257	0.018876238
100	0xbe7f9df7	-0.24962603
101	0xbecc189d	-0.39862528
102	0x3f3c2de8	0.7350755
103	0xbda4a499	-0.08039207
104	0x3a68daac	0.00088826823
105	0xbdb4b10e	-0.08822833
106	0xc00298d6	-2.0405784
107	0x3e941275	0.28920332
108	0xbe7cd863	-0.2469192
109	0xbe16944e	-0.14705011
110	0x3f15cb29	0.5851312
111	0x3e97f203	0.29676828
112	0x3de9caa5	0.114156045
113	0xbef6e2e5	-0.48219982
114	0xbc937dfd	-0.018004412
115	0xbd45d59b	-0.048299413
116	0x3d811ae5	0.06303958
117	0x3e88acc9	0.26694325
118	0xbe383711	-0.17989756
119	0x3eb425cf	0.35185096
120	0x3dbeba74	0.09312907
121	0xbd2c6c86	-0.042095684
122	0x3f2776ee	0.6541585
123	0x3e40d5de	0.18831584
124	0xbdbd477f	-0.092421524
125	0xbab39ac6	-0.0013702742
126	0x3f0d3372	0.55156624
127	0xbdb1d135	-0.08682481
128	0x3d98ca3d	0.07460449
129	0xbd0a7208	-0.033800155
130	0xbe399521	-0.18123294
131	0x3dc7de26	0.09759168
132	0x3dd08952	0.10182442
133	0xbe47d3c0	-0.1951437
134	0x3f26feef	0.6523275
135	0x3e9571d7	0.29188415
136	0xbdc74d4b	-0.09731539
137	0x3cf672e0	0.030084074
138	0xbfafdbd1	-1.3738958
139	0x3e2d5a83	0.16929059
140	0x3db1af16	0.08675973
141	0x3d6865dd	0.05673777
142	0xbebc1a5a	-0.36738855
143	0xbe9827b6	-0.29717797
144	0x3c8fa691	0.01753548
145	0xbecc4538	-0.3989656
146	0x3f472273	0.7778694
147	0x3e231c22	0.159287
148	0xbe386a13	-0.18009214
149	0xbdb7ea73	-0.089802645
150	0xbe24d927	-0.16098462
151	0x3e956e79	0.29185846
152	0x3e80cba7	0.25155374
153	0xbe8aa6a2	-0.27080256
154	0x3eb17002	0.34655768
155	0x3e7877bd	0.24264427
156	0x3e32cca1	0.17460872
157	0x3cfa10cf	0.030525593
158	0xbeffd5df	-0.49967858
159	0xbdd8c3da	-0.10584231
160	0x3ddfb969	0.10924036
161	0x3ea70d69	0.3262742
162	0x3f9d6900	1.2297668
163	0x3e94d547	0.29068968
164	0x3e2cfcaf	0.16893266
165	0x3e7df48c	0.24800318
166	0xbe44cf15	-0.1921962
167	0x3e041d67	0.12901841
168	0x3e16c476	0.14723381
169	0x3d38da89	0.045130286
170	0x3e0e89ae	0.13919708
171	0xbeb88d01	-0.36045077
172	0x3dc4747a	0.09592529
173	0x3e15f9b6	0.14646038
174	0xbed3f5f4	-0.41398585
175	0x3de8ca10	0.11366665
176	0x3e49fac0	0.1972456
177	0x3ba5ca16	0.005059491
178	0xbdea43c3	-0.11438706
179	0xbe284fbd	-0.16436668
180	0xbc983c2f	-0.018583385
181	0xbce2dc25	-0.027692864
182	0xbe5268d8	-0.20547807
183	0x3ebbec02	0.36703497
184	0x3cbda658	0.023150608
185	0xbe23b6db	-0.15987723
186	0x3f8cd176	1.1001422
187	0xbe1f1c14	-0.15538055
188	0xbe387ea1	-0.18017055
189	0xbd4cae49	-0.0499709
190	0xbfaa2816	-1.3293483
191	0x3dff6287	0.124699645
192	0x3dff30b1	0.12460459
193	0x3cd4192d	0.025890911
194	0xbf12e9ef	-0.57388204
195	0x3e44ae27	0.19207059
196	0xbd282da1	-0.04105914
197	0x3da561b1	0.08075274
198	0x3e27ceae	0.16387436
199	0xbdd40035	-0.10351602
200	0x3d1aae99	0.037764166
201	0xbeaf1bf3	-0.3420101
202	0x3f475015	0.7785657
203	0xbe3908f9	-0.18069829
204	0xbd1500c5	-0.036377687
205	0xbf1317b3	-0.5745804
206	0xbdc6e947	-0.09712463
207	0xbebf229b	-0.3733109
208	0xbde4e16e	-0.1117581
209	0x3e85f720	0.26165104
210	0xbf67097a	-0.90248835
211	0x3eb5aa11	0.35481313
212	0x3dc069d9	0.09395189
213	0xbecfa886	-0.4055826
214	0x3f86a710	1.0519733
215	0x3e8f146b	0.27945265
216	0x3d775709	0.060385738
217	0xbe88c812	-0.26715142
218	0x3f810cc5	1.0082022
219	0xbe00419c	-0.12525028
220	0x3a1e9d28	0.000605064
221	0x3c698dc3	0.01425499
222	0x3e227507	0.15864955
223	0x3e8b5960	0.27216625
224	0xbe4827fd	-0.19546504
225	0xbebf5854	-0.37372077
226	0x3c6c71c4	0.014431421
227	0x3b879475	0.0041375705
228	0xbeb5bb8f	-0.35494658
229	0xbe6c01e2	-0.23047593
230	0xbf076af0	-0.5289755
231	0xbf0d4541	-0.551838
232	0xbe90d7d8	-0.28289676
233	0x3da1fa44	0.079090625
234	0xbfa726bc	-1.3058696
235	0xbdb22829	-0.08699066
236	0xbd6f5abc	-0.05843614
237	0xbf0690c2	-0.5256463
238	0xbe6ae81f	-0.2294011
239	0x3cca25c8	0.024676219
240	0xbd8427e9	-0.06452925
241	0xbed4dc7a	-0.4157446
242	0x3f74d1fb	0.95632905
243	0x3d7f63ec	0.062351152
244	0x3d560507	0.05225089
245	0x3d92bf57	0.071654014
246	0xbb77cf16	-0.0037812642
247	0x3a3bdcae	0.0007166368
248	0xbe6a91c0	-0.22907162
249	0xbdbf3cb4	-0.0933775
250	0xbff35c4f	-1.9012545
251	0x3e5923cf	0.21205066
252	0x3d5c87da	0.053840496
253	0xbc06ac81	-0.008219839
254	0xbef781e5	-0.4834129
255	0x3c6043d4	0.0136880465

bias f4 [16]
0	0x3d6e3455	0.058155376
1	0x3decb1fd	0.11557386
2	0xbe7b5957	-0.24545799
3	0x3d86002a	0.06543
4	0xbdf9dfe6	-0.12200908
5	0x3de601dd	0.11230824
6	0x3e7cd603	0.24691014
7	0xba6ea130	-0.00091029983
8	0xbe173a5d	-0.14768358
9	0x3d8819a7	0.06645518
10	0x3e72df77	0.23718058
11	0x3acc381a	0.0015580684
12	0xbd95c150	-0.07312262
13	0x3d34b9b1	0.0441224
14	0x3e2b77bf	0.16744898
15	0x3e67d5bf	0.22640131

weight f4 [32, 16]
0	0x3eb9352a	0.36173373
1	0x3db49da6	0.088191316
2	0xbcc8315d	-0.0244376
3	0xbe0e2c0b	-0.13883989
4	0xbee7fc0e	-0.4530949
5	0x3f0c0a80	0.5470352
6	0x3d2062b3	0.039156627
7	0x3df3d34a	0.119055346
8	0xbca701a7	-0.02038653
9	0x3ebf3618	0.37345958
10	0xbe1df92a	-0.1542708
11	0x3da592d1	0.08084644
12	0x3f33c30c	0.7021949
13	0x3edf95ad	0.4366888
14	0xbcdefc69	-0.027219968
15	0x3d463a65	0.048395533
16	0x3dbc7628	0.09202224
17	0x3ec00580	0.37504196
18	0x3dc7954b	0.09745272
19	0x3e7c2588	0.24623692
20	0x3ebd0088	0.36914468
21	0x3dd1abac	0.10237822
22	0x3e3681a9	0.17822899
23	0x3ea9678a	0.33086807
24	0x3e85bc3b	0.2612017
25	0x3ed4f9b1	0.4159675
26	0x3e5c0408	0.21485913
27	0x3e5fbb67	0.21848832
28	0x3f81b31b	1.0132784
29	0x3e2150b0	0.15753436
30	0x3dee16e6	0.11625461
31	0xbc080941	-0.008302988
32	0x3e0e8650	0.13918424
33	0x3e5ffbee	0.21873447
34	0xbe1818c4	-0.14853197
35	0xbe4f2857	-0.20230232
36	0xbdf424bd	-0.1192107
37	0xbe9cf38f	-0.3065457
38	0xbe8fdc24	-0.2809764
39	0x3e84fd60	0.2597456
40	0xbf13fdce	-0.5780915
41	0x3d80a7b9	0.062819906
42	0xbd87aef8	-0.066251695
43	0x3e58ab7e	0.21159169
44	0xbe5c9073	-0.21539478
45	0x3e43335a	0.19062558
46	0xbe0a2bea	-0.13493314
47	0xbec3c511	-0.38236287
48	0xbcc5e69e	-0.024157818
49	0x3eaaab82	0.33333975
50	0xbc7e4bc6	-0.0155209955
51	0x3df1e24c	0.11810741
52	0xbe8b158b	-0.27164873
53	0xbf63c0fb	-0.8896634
54	0x3bfaa0d6	0.0076485677
55	0x3d013557	0.03154501
56	0xbe5e844d	-0.21730156
57	0x3e0181a6	0.12647113
58	0x3e68cfc8	0.22735512
59	0x3e804bbc	0.2505778
60	0x3d73873f	0.059455153
61	0x3e088597	0.1333221
62	0x3ede0f55	0.43371072
63	0xbbe11fbe	-0.006870239
64	0x3e7123ba	0.23548785
65	0x3e90c779	0.28277186
66	0x3e581397	0.21101223
67	0x3dc4a191	0.09601129
68	0x3c54af9c	0.012981322
69	0xbe5a18a3	-0.2129846
70	0x3dc13d41	0.094355114
71	0x3b2e6fa5	0.0026616838
72	0x3b90e475	0.0044217655
73	0xbd8a4103	-0.06750681
74	0x3e5d6883	0.216219
75	0x3e81d75e	0.25359625
76	0x3eb9afd4	0.3626696
77	0x3e14b749	0.14523043
78	0x3eb74c72	0.3580051
79	0xbea78098	-0.32715297
80	0xbe21a556	-0.15785727
81	0xbe161644	-0.14656931
82	0x3e17470e	0.14773199
83	0xbd60e430	-0.054905117
84	0xbe4bfafc	-0.19919962
85	0xbd6e1fb0	-0.05813569
86	0x3c43b5e0	0.011945218
87	0xbe77d476	-0.24202141
88	0xbe73219c	-0.2374329
89	0x3d8429e0	0.064532995
90	0xbe2cee00	-0.16887665
91	0x3e0eead2	0.13956764
92	0xbe2a2ef8	-0.1661948
93	0xbc8b2f30	-0.016990274
94	0xbe4e1a76	-0.20127282
95	0xbe6b66ca	-0.2298843
96	0x3e57c264	0.21070248
97	0x3dfdbeeb	0.1238993
98	0xbe709ada	-0.23496571
99	0x3d80de9b	0.062924586
100	0x3e9856e7	0.297538
101	0x3e141211	0.14460017
102	0x3ee168d0	0.44025278
103	0x3d2c5cb8	0.04208061
104	0x3f1b88a8	0.60755396
105	0xbc2cc746	-0.010545557
106	0x3e4d59f4	0.20053846
107	0xbf17dda1	-0.59322554
108	0xbe9236e2	-0.28557497
109	0xbf027799	-0.5096374
110	0x3eb19571	0.34684327
111	0x3ee757ab	0.45184073
112	0xbc024dc0	-0.007953107
113	0xbe777d16	-0.2416881
114	0x3e06d616	0.13167605
115	0x3e243172	0.16034487
116	0xbd96e628	-0.073681176
117	0xbd948a4c	-0.072529405
118	0xbdad7684	-0.08469871
119	0x3e07ce42	0.13262275
120	0xbe3bfe64	-0.18358761
121	0xbe201a7c	-0.15635103
122	0x3d959ec8	0.07305676
123	0xbd6e3428	-0.05815521
124	0xbe5337fe	-0.20626828
125	0xbdaa332c	-0.083105415
126	0xbe20162e	-0.15633461
127	0xbe4881c0	-0.19580746
128	0xbdbc7318	-0.0920164
129	0xbe27ea20	-0.16397905
130	0xbe44c596	-0.19215998
131	0x3e8d1e84	0.27562344
132	0xbe153841	-0.1457224
133	0x3f5c7cab	0.8612773
134	0x3edb1555	0.42789713
135	0x3dcc8f0f	0.09988224
136	0x3ef5ce7b	0.48009095
137	0xbe9b6626	-0.3035137
138	0xbf092b1c	-0.53581405
139	0xbf1d78dc	-0.6151254
140	0x3d2cc166	0.042176627
141	0x3ec23575	0.3793141
142	0x3ee97099	0.45593718
143	0x3c5cc5b2	0.013474869
144	0xbd8a0b66	-0.06740455
145	0x3d688d0c	0.056775138
146	0xbe300f82	-0.17193416
147	0x3f035747	0.5130505
148	0x3e9ac3e4	0.30227578
149	0x3ef4b03d	0.4779071
150	0x3ed4c708	0.415581
151	0x3d1756c7	0.03694799
152	0x3f366e49	0.7126203
153	0xbd812801	-0.06306458
154	0x3e2d633e	0.16932389
155	0xbe6f2638	-0.23354423
156	0xbe7828d1	-0.2423432
157	0xbe62e513	-0.22157697
158	0x3f1a0fe6	0.6018051
159	0x3efe7643	0.49699602
160	0xbe4e1b66	-0.20127639
161	0xbe796c50	-0.24357724
162	0x3e3163e2	0.17323259
163	0x3e05e5ba	0.13075915
164	0x3e06dae6	0.1316944
165	0xbb7f2000	-0.0038928986
166	0x3de72890	0.112870336
167	0x3c790e40	0.015201151
168	0xbe7c2398	-0.24622953
169	0x3e0cca62	0.13749078
170	0xbe0255fe	-0.12728116
171	0xbe7a801a	-0.2446293
172	0x3cc3c840	0.023899198
173	0xbdc6dbb4	-0.09709874
174	0xbddc9228	-0.107700646
175	0xbdf34648	-0.118786395
176	0x3df4336c	0.119238704
177	0x3caf88b9	0.0214275
178	0xbcd1aa3e	-0.025593873
179	0x3e4c9ab7	0.19980894
180	0x3f16ca21	0.58902174
181	0x3f05466a	0.5206057
182	0x3e8b5bd5	0.272185
183	0xbe8af54c	-0.27140272
184	0x3f0a4099	0.5400482
185	0xbda721b5	-0.08160726
186	0x3e88ea10	0.26741076
187	0xbebd198f	-0.36933562
188	0xbed4e5f1	-0.4158168
189	0x3d9bde94	0.07610813
190	0x3f237999	0.6385742
191	0x3ede5ce2	0.4343024
192	0x3e7604e8	0.24025309
193	0xbe89a167	-0.26880953
194	0xbdc82dee	-0.097743854
195	0x3e9b08f0	0.30280256
196	0xbf1003e3	-0.5625593
197	0x3f54867d	0.8301771
198	0x3e5aa5bf	0.2135229
199	0xbe4dd3b4	-0.2010029
200	0x3efc7e9a	0.4931534
201	0xbdd7a330	-0.105291724
202	0xbf3e3a52	-0.7430774
203	0xbeceaf5b	-0.4036816
204	0x3e1d0143	0.15332513
205	0x3ea4cfeb	0.3218988
206	0x3e3243f5	0.17408736
207	0xbe66bba5	-0.22532518
208	0xbd199180	-0.037492275
209	0x3ed34ef2	0.41271168
210	0xbe771c36	-0.24131855
211	0xbe076ab8	-0.13224304
212	0x3ef6a63d	0.48173705
213	0x3e65b48d	0.22432156
214	0xbe4f3640	-0.20235538
215	0xbb5f64e4	-0.0034087235
216	0x3dc92ddc	0.098232
217	0xbe40c40e	-0.18824789
218	0xbde019a6	-0.10942392
219	0x3f17e5af	0.59334844
220	0xbc7869b1	-0.015161918
221	0x3e8bb2b2	0.2728477
222	0x3e9c25f4	0.30497706
223	0xbcf15e54	-0.029463924
224	0x3e4af147	0.19818603
225	0xbe6b8640	-0.23000431
226	0x3d187f92	0.037231036
227	0x3e37ab6a	0.17936483
228	0x3f152054	0.58252454
229	0xbf624318	-0.88383627
230	0x3e812a74	0.25227702
231	0x3ea9eb4e	0.33187336
232	0xbdfbb845	-0.12291006
233	0x3ebb3de9	0.3657067
234	0x3f2675b5	0.65023357
235	0x3dce89e8	0.10084897
236	0xbed9eaef	-0.42562053
237	0xbf26c833	-0.6514923
238	0xbca3305e	-0.019920524
239	0x3f043f7f	0.5165939
240	0x3e0f61bb	0.14002125
241	0x3ed6a1db	0.4192036
242	0x3e0ec034	0.13940507
243	0x3e97258c	0.29520833
244	0x3e78bebd	0.24291511
245	0x3ea883c1	0.3291302
246	0x3ec96364	0.39333642
247	0x3c17a2ac	0.009255093
248	0x3e6cd2ed	0.23127337
249	0xbe26e776	-0.16299233
250	0xbc9c9223	-0.019112652
251	0x3cc9688c	0.024585985
252	0x3f1f03ae	0.6211499
253	0x3eeb2b3d	0.45931426
254	0x3f29f8e7	0.6639542
255	0x3e762a8e	0.24039671

bias f4 [32]
0	0x3ecbfc9d	0.39841166
1	0x3e288670	0.16457534
2	0x3e0dd6f0	0.13851523
3	0x3c4052c1	0.01173848
4	0x3e8746c9	0.26421192
5	0xbdfd1a28	-0.123585045
6	0xbe2cdde7	-0.16881524
7	0xbdb17d78	-0.086665094
8	0x3ee1a64a	0.4407218
9	0x3e5b43e6	0.2141262
10	0xbd08aee0	-0.0333699
11	0x3e09f6c4	0.1347304
12	0x3e6a95fb	0.22908776
13	0xbd79e7a2	-0.061011918
14	0xbd8c3a67	-0.06847077
15	0x3d9e79d6	0.07738082
16	0xbe015ce1	-0.12633087
17	0xba595f44	-0.0008292089
18	0xbdf9b78a	-0.121932104
19	0x3daa49f6	0.08314888
20	0xbe07b212	-0.13251522
21	0x3cdd719b	0.02703171
22	0xbf032c3c	-0.5123937
23	0x3b91df20	0.0044516474
24	0x3e868888	0.2627604
25	0xbda43fb1	-0.08019961
26	0x3d8b82f7	0.06812089
27	0x3cf43016	0.029808085
28	0xbe153113	-0.14569502
29	0x3ef1ca4c	0.47224653
30	0x3d9c0273	0.07617655
31	0x3e54ef1e	0.20794341

weight f4 [64, 32]
0	0x3e98fa6c	0.29878557
1	0x3eab43b0	0.3345008
2	0x3f20232d	0.62553674
3	0x3e45e92c	0.1932723
4	0x3e6a30a4	0.22870117
5	0x3cc61399	0.024179267
6	0x3e393002	0.1808472
7	0xbe17dca0	-0.14830256
8	0x3e880c68	0.26571965
9	0x3d6fdc26	0.05855956
10	0x3dc45274	0.09586039
11	0xbd4c0e63	-0.049818408
12	0x3e9a0fae	0.30090088
13	0x3db79cd6	0.08965461
14	0x3e00a942	0.12564567
15	0x3e938de5	0.28819194
16	0xbc07a4e3	-0.008279058
17	0x3d287a09	0.041132007
18	0x3e83488a	0.2564128
19	0x3ee91577	0.4552419
20	0x3ee6229f	0.4494829
21	0x3db98844	0.09059194
22	0x3e6edab5	0.23325618
23	0x3e4e0d9f	0.20122384
24	0x3f051f92	0.520013
25	0x3e3a64da	0.18202534
26	0x3f043f26	0.51658857
27	0xbe6b05c1	-0.22951414
28	0x3eb18d69	0.346782
29	0x3eb5a795	0.35479417
30	0x3ea395c4	0.319502
31	0x3ef7cdca	0.48399192
32	0xbe2e17f3	-0.17001323
33	0xbca5e26d	-0.02024957
34	0xbe5c6e6d	-0.21526499
35	0x3d288bd9	0.041148994
36	0xbe1f86c9	-0.1557876
37	0xbe2ea891	-0.1705649
38	0xbe546040	-0.20739841
39	0x3be3f9c4	0.0069572646
40	0x3da3d80a	0.080001906
41	0x3c9c0c15	0.01904873
42	0x3d8d8930	0.06910932
43	0xbdb71873	-0.0894021
44	0x3d96190e	0.073289976
45	0xbd7009c8	-0.058603078
46	0x3d98bc85	0.07457832
47	0x3d120a0c	0.035654113
48	0xbdc2e470	-0.09516227
49	0x3e096ead	0.13421126
50	0x3d2c6c13	0.042095255
51	0xbe0fce8d	-0.14043637
52	0x3e024d93	0.12724905
53	0x3c85e5c3	0.01634491
54	0xbdec5e35	-0.11541406
55	0x3b47e1c6	0.0030499562
56	0x3d97801e	0.07397483
57	0xbd025ce7	-0.03182688
58	0xbe2e0630	-0.16994548
59	0xbd94ae2d	-0.07259784
60	0xbe14d4e9	-0.14534344
61	0xbdfea0d5	-0.1243302
62	0x3d98f92d	0.074694015
63	0x3d8d9fda	0.06915255
64	0xbd5e3aa8	-0.054255158
65	0xbe58b4bc	-0.21162695
66	0xbe9d7d22	-0.3075953
67	0xbead26fa	-0.338188
68	0x3d23598a	0.039880313
69	0xbd76136a	-0.06007711
70	0x3d305095	0.0430456
71	0x3de3aa56	0.111164734
72	0x3e8ba80c	0.27276647
73	0x3e0b8682	0.1362553
74	0xbd94e880	-0.07270908
75	0x3f40cfbc	0.7531698
76	0x3e93f7f8	0.28900123
77	0x3e7d0c95	0.24711831
78	0xbf85ac88	-1.0443277
79	0x3e8232c2	0.2542935
80	0xbbd1619e	-0.0063898107
81	0xbf5eb0ff	-0.86988825
82	0x3e0a5091	0.13507296
83	0x3e86bd5a	0.2631634
84	0xbdbc8ae0	-0.09206176
85	0xbefa9e6f	-0.48949
86	0xbdeba97e	-0.115069374
87	0x3e7f776c	0.249479
88	0xbe7cb8c0	-0.24679852
89	0x3d8577a7	0.065169625
90	0xbdccad40	-0.09993982
91	0xbda5296a	-0.0806454
92	0x3c56b8e4	0.013105605
93	0xbe8078e4	-0.25092232
94	0x3e363c05	0.17796333
95	0xbf0d5260	-0.5520382
96	0x3de7d63c	0.11320159
97	0x3cba4a92	0.022740636
98	0xbd6b2c94	-0.05741556
99	0xbd6da4d1	-0.05801851
100	0x3d8e4667	0.06947022
101	0xbd31022a	-0.043214954
102	0xbe3e5601	-0.18587495
103	0x3dfc313f	0.123140804
104	0xbdc11a18	-0.09428805
105	0xbd6a3dc9	-0.05718783
106	0xbc1bd877	-0.009512058
107	0xbe1ae7a7	-0.15127431
108	0xbdffdeb4	-0.12493649
109	0xbd36b957	-0.044610348
110	0x3c800ccf	0.015631108
111	0xbdf5c42b	-0.12000307
112	0x3e48ad61	0.19597389
113	0xbe24bbc0	-0.16087246
114	0xbc9ab12b	-0.018883308
115	0xbe8647ee	-0.26226753
116	0xbdec7d35	-0.11547319
117	0x3c045f05	0.008079295
118	0xbd81615f	-0.063174
119	0x3e1f871b	0.15578882
120	0x3d365e4f	0.044523533
121	0xbe2eff91	-0.17089678
122	0xbd1e103e	-0.03858971
123	0x3e137ed5	0.14403851
124	0xbe3470af	-0.1762111
125	0xbd8978c3	-0.067124866
126	0xbda9e522	-0.08295657
127	0x3d95cec1	0.07314826
128	0x3ebba89e	0.36652082
129	0x3e2d31cd	0.16913529
130	0xbdc0f362	-0.094214216
131	0xbd1494ca	-0.03627471
132	0x3d625ae6	0.05526247
133	0x3de5d888	0.11222941
134	0x3e814335	0.25246587
135	0xbc088fe4	-0.008335087
136	0x3ea60ddf	0.32432458
137	0x3dd55c06	0.10417943
138	0xbdaf501f	-0.08560204
139	0x3d14d6bb	0.036337595
140	0x3f0ce325	0.55034095
141	0xbf818ef3	-1.012175
142	0x3f11850a	0.56843626
143	0xbd0acfcf	-0.033889588
144	0xbe375ad5	-0.17905743
145	0x3f1aa3bc	0.6040609
146	0x3e14f53a	0.14546672
147	0x3f8514f2	1.0397017
148	0x3dc31145	0.09524778
149	0xbe711e81	-0.23546793
150	0x3dcfb779	0.101424165
151	0xbf2c3986	-0.67275274
152	0x3f1a4819	0.6026626
153	0x3e3f39a8	0.18674338
154	0x3e9f13dd	0.31069842
155	0x3db28efc	0.08718678
156	0xbe84cb32	-0.25936276
157	0x3e7e855e	0.24855563
158	0xbed82fbe	-0.42223924
159	0x3e0a1418	0.13484228
160	0x3e4cae1b	0.19988291
161	0x3db968a0	0.09053159
162	0xbea738e0	-0.3266058
163	0xbe0e4e2d	-0.13897009
164	0x3e998e56	0.29991406
165	0xbd5815d9	-0.05275521
166	0x3eeef421	0.4667063
167	0x3dbb304e	0.09140073
168	0x3eeb4776	0.45952958
169	0x3f2b0b1d	0.6681383
170	0xbe25fc62	-0.16209558
171	0x3f97c6d9	1.1857558
172	0x3e84a784	0.25909054
173	0x3e5b467c	0.21413606
174	0x3de4b2fa	0.111669496
175	0x3e8798e7	0.26483843
176	0x3cea46d1	0.028598221
177	0x3d586d33	0.052838515
178	0x3d681925	0.056664605
179	0x3eadd68a	0.33952743
180	0x3e8421e1	0.25807098
181	0x3e2faedc	0.17156547
182	0x3ee1250c	0.43973577
183	0x3ef35cfa	0.47531873
184	0xbe49886e	-0.1968095
185	0xbcb3cc7b	-0.02194809
186	0x3e2e7a7f	0.17038916
187	0xbe88ef2f	-0.26744983
188	0x3d06d306	0.03291609
189	0xbec63982	-0.3871575
190	0x3d7e1a62	0.06203688
191	0xbea18297	-0.31544945
192	0x3e880215	0.26564088
193	0x3e12bf1b	0.14330713
194	0x3e04bedc	0.12963432
195	0x3e9ec109	0.3100665
196	0x3eb64288	0.35597634
197	0x3e0f5e1b	0.14000742
198	0xbea07a55	-0.31343332
199	0xbdfac24a	-0.12244089
200	0xbee9cbf9	-0.4566343
201	0xbf02546d	-0.50910074
202	0x3d8524b9	0.06501145
203	0xbee28fad	-0.4425024
204	0xbe8a28cb	-0.26984248
205	0x3ed06081	0.40698627
206	0x3d9a0126	0.0751975
207	0x3e5f4684	0.21804243
208	0xbdd310c7	-0.103059344
209	0xbec05c97	-0.3757064
210	0x3e2412c9	0.16022791
211	0xbeef8333	-0.46779785
212	0x3de20099	0.1103527
213	0x3dd28e72	0.102810755
214	0xbeb80ff5	-0.35949674
215	0xbd5938f6	-0.053032838
216	0x3e9b1a54	0.30293524
217	0xbdb64488	-0.0889979
218	0xbce663a7	-0.02812369
219	0x3d01be38	0.031675547
220	0x3e543bbc	0.20725912
221	0x3ebd9174	0.37025034
222	0x3e0005ff	0.12502287
223	0x3f137650	0.57602406
224	0xbe8488f5	-0.2588574
225	0xbd1534ee	-0.03642743
226	0x3eab14fc	0.33414447
227	0x3f1cd9b7	0.61269706
228	0x3e9c4437	0.30520794
229	0x3bd4dca7	0.0064960304
230	0x3dc1b3ae	0.09458099
231	0x3e17aa2c	0.14811009
232	0xbf1e0107	-0.6172032
233	0xbbce112b	-0.0062886677
234	0x3dd81bc2	0.105521694
235	0xbe3a8b3c	-0.18217176
236	0xbef1e783	-0.47246942
237	0x3e9800b4	0.29688036
238	0x3f2f465d	0.6846674
239	0x3e86c9e4	0.26325905
240	0xbd85c81f	-0.06532311
241	0x3ed8b7a1	0.42327598
242	0x3e7677f1	0.24069192
243	0xbe8567c6	-0.26055735
244	0x3e4eb284	0.20185286
245	0x3ecc20aa	0.3986867
246	0x3e57603b	0.21032803
247	0x3ef949ea	0.48689204
248	0xbc4752e1	-0.012165756
249	0xbd9f777f	-0.07786464
250	0xbe172404	-0.14759833
251	0x3d9f04de	0.077646
252	0x3e020e8c	0.12700862
253	0xbf0becb5	-0.5465806
254	0xbd85e0e8	-0.06537038
255	0x3e99360c	0.29924047

bias f4 [64]
0	0x3f0d6b67	0.5524201
1	0x3d855df7	0.06512063
2	0x3d4fa5ab	0.050695103
3	0x3c9d5358	0.01920478
4	0x3ebb4ea8	0.36583447
5	0x3dbf74c7	0.093484454
6	0x3e71ff92	0.23632649
7	0xbcacde2d	-0.021102035
8	0x3d70713a	0.05870173
9	0x3e9597bc	0.29217327
10	0xbeb26a36	-0.34846658
11	0xbd8e801b	-0.06958028
12	0x3eb0213d	0.3440036
13	0x3ef01e24	0.46897995
14	0xbe4d47a6	-0.20046863
15	0xbe08fa60	-0.1337676
16	0x3f0976b1	0.53696734
17	0xbd7a0e7f	-0.06104898
18	0xbebd259f	-0.36942765
19	0x3d37cb7c	0.044871792
20	0x3de02b06	0.10945706
21	0xbe568d59	-0.20952357
22	0x3ecffc9b	0.4062241
23	0x3dc1e0f8	0.094667375
24	0x3e54cdc7	0.20781623
25	0x3c4227a3	0.01185027
26	0xbdabd5b2	-0.083903685
27	0xbec24349	-0.3794196
28	0xbe192c7c	-0.14958376
29	0xbe02640e	-0.1273348
30	0x3e4dcc3e	0.20097443
31	0xbde26320	-0.11054063
32	0x3cf51707	0.029918207
33	0x3ea8fb06	0.33004016
34	0x3edfd1df	0.43714806
35	0x3df1276e	0.11775099
36	0xbdb33729	-0.08750755
37	0xbd8e5ba2	-0.06951071
38	0x3df46e61	0.119351156
39	0xbe28912c	-0.16461629
40	0x3dd159fa	0.1022224
41	0x3ece4526	0.4028713
42	0x3e4c621e	0.19959304
43	0xbdbe391d	-0.09288237
44	0x3e97b375	0.29629102
45	0xbe8c0f94	-0.27355635
46	0x3ec5dba0	0.38644123
47	0x3d8c87f8	0.068618715
48	0xbe3f0c96	-0.18657145
49	0x3e23a6ad	0.1598155
50	0xbdcda375	-0.100409426
51	0x3eb9fa73	0.3632389
52	0x3e253b87	0.16135989
53	0xbbb1a2ab	-0.005421003
54	0xbe7195e1	-0.2359233
55	0x3d47c697	0.048773374
56	0xbe265541	-0.1624346
57	0xbc1acbe6	-0.009448027
58	0xbcdb2e9c	-0.026755624
59	0x3ef9fed9	0.48827246
60	0xbd813afe	-0.0631008
61	0xbe99f125	-0.3006679
62	0x3e1894b8	0.14900482
63	0xbed682a2	-0.4189654

weight f4 [4, 64]
0	0x3c215804	0.009847645
1	0x3c2b8ac3	0.010470095
2	0x3e8173b8	0.252836
3	0xbc864c7e	-0.016393896
4	0x3cb6903b	0.022285571
5	0x3c42df4a	0.011894057
6	0xbcae88b7	-0.021305425
7	0xbf358439	-0.7090488
8	0x3d5f5700	0.05452633
9	0xbe99d015	-0.30041566
10	0xbf91ff41	-1.1406022
11	0xbfa48ae2	-1.2854884
12	0xbe1a41fe	-0.15064237
13	0xbd291e63	-0.041288745
14	0xbf0d11fb	-0.5510556
15	0xbf3eec85	-0.7457965
16	0x3e608575	0.2192591
17	0xbe4bfc3f	-0.19920443
18	0xbea15982	-0.31513602
19	0xbdc13bbb	-0.09435221
20	0xbe76d8c2	-0.24106124
21	0xbe045ea6	-0.1292673
22	0x3e1d996e	0.1539056
23	0xbe53a65e	-0.20668933
24	0x3ea93703	0.33049783
25	0xbea946ff	-0.33061978
26	0x3dbaa651	0.091137536
27	0xbea743f3	-0.3266903
28	0x3dbbec5f	0.091759436
29	0xbd2e7262	-0.042589553
30	0xbde1a53e	-0.110178456
31	0xbe83a815	-0.25714174
32	0x3c84fa1d	0.016232545
33	0x3efa9278	0.48939872
34	0xbd86270a	-0.06550415
35	0xbd97c32f	-0.07410275
36	0x3d2813e9	0.041034613
37	0x3db75f64	0.08953741
38	0x3e226540	0.15858936
39	0xbb847620	-0.004042402
40	0x3da444d6	0.08020942
41	0xbd6506bc	-0.055914626
42	0x3e435106	0.19073877
43	0xbe50e125	-0.20398386
44	0xbf486a8b	-0.7828757
45	0xbbd9b260	-0.0066435784
46	0x3f1a2efa	0.6022793
47	0xbe77abe8	-0.24186671
48	0xbdb3e032	-0.08782996
49	0x3d94d612	0.07267393
50	0x3d887d09	0.066644736
51	0xbbfb98b2	-0.007678115
52	0xbe0ae1a5	-0.13562639
53	0xbd59e0cf	-0.05319291
54	0xbf3c7903	-0.7362215
55	0xbe875bf5	-0.26437345
56	0x3cc4d8e0	0.024029195
57	0x3e48bdaf	0.19603609
58	0xbe39592f	-0.18100427
59	0xbe2b96df	-0.16756772
60	0xbd1c25ae	-0.03812187
61	0xbf87ad54	-1.059977
62	0x3ebc9c8d	0.3683819
63	0xbe972620	-0.29521275
64	0x3cf807d8	0.030277178
65	0x3d49e193	0.04928739
66	0xbf31cc56	-0.69452417
67	0xbe0b2e8b	-0.13591973
68	0x3ecacf49	0.3961127
69	0xbe88cea9	-0.2672017
70	0x3ea4492d	0.3208708
71	0x3ef58396	0.47951955
72	0x39929dcf	0.00027964867
73	0x3ebb86ed	0.36626378
74	0x3e8da960	0.27668285
75	0x3f0c00c4	0.5468867
76	0x3bfad3c9	0.0076546413
77	0xbdb2c29a	-0.087285236
78	0xbcc231e3	-0.023705428
79	0x3e79b804	0.24386603
80	0xbe76a316	-0.2408565
81	0xbdb3e123	-0.08783176
82	0xbe86538b	-0.26235613
83	0xbdf5c41f	-0.12000298
84	0x3f0328f5	0.5123437
85	0x3e0be66d	0.13662119
86	0xbdb231c4	-0.08700898
87	0xbe122a08	-0.14273846
88	0xbf3e1fb0	-0.742671
89	0xbc641368	-0.013920642
90	0x3dc651f6	0.096836016
91	0xbe4076fa	-0.18795386
92	0x3d9bf419	0.07614917
93	0xbd21c883	-0.039497864
94	0xbd9a6847	-0.075394206
95	0x3e90d5a4	0.28287995
96	0xbe45e57e	-0.19325826
97	0xbe8327f1	-0.2561641
98	0xbca3f73a	-0.020015348
99	0xbd94b397	-0.072608165
100	0x3cfa04c2	0.030519847
101	0xbd84af10	-0.06478703
102	0xbefc35b5	-0.49259725
103	0x3dd50f3d	0.10403297
104	0x3da2820b	0.0793496
105	0x3d8de23c	0.069279164
106	0xbef22edf	-0.47301385
107	0x3e36a3f9	0.17835988
108	0x3f07b628	0.53012323
109	0x3d630f7c	0.05543469
110	0xbec61e99	-0.3869522
111	0xbb93e39c	-0.004513217
112	0xbcfe9b88	-0.031080022
113	0xbe474b99	-0.19462432
114	0xba8498d9	-0.0010116353
115	0x3ddb273f	0.10700845
116	0xbdb5763a	-0.088604406
117	0x3cd02c5a	0.025411773
118	0x3f1db6ef	0.6160726
119	0xbe30626f	-0.1722505
120	0xbd0ada69	-0.0338997
121	0xbf02f9ee	-0.5116261
122	0xbda118a7	-0.0786603
123	0x3ed82f52	0.42223603
124	0xbd5766b8	-0.052588195
125	0x3eadb190	0.33924532
126	0xbf204243	-0.6260111
127	0xbe763b08	-0.24045956
128	0xbe6db3c6	-0.2321311
129	0xbda6c0b7	-0.08142226
130	0x3e5014ac	0.20320386
131	0xbcc5f300	-0.024163723
132	0x3df7ab18	0.120931804
133	0x3f2656a0	0.6497593
134	0xbf9740c6	-1.1816642
135	0xbcc73781	-0.024318459
136	0xbed3d6d9	-0.41374853
137	0xbee26c64	-0.4422332
138	0x3e5e1a45	0.21689709
139	0x3eef0a7b	0.46687683
140	0xbe9e0c86	-0.3086893
141	0xbe863d4d	-0.26218644
142	0x3e5ef164	0.2177177
143	0xbc93f9a3	-0.018063372
144	0xbe87c46b	-0.26517043
145	0x3d8c0484	0.06836799
146	0x3e0f63f9	0.1400298
147	0xbcac4ec7	-0.021033658
148	0xbe35afd6	-0.17742857
149	0x3d1e1e24	0.038602963
150	0xbe70aa2e	-0.23502418
151	0xbd936a88	-0.071980536
152	0x3e5f7b03	0.21824269
153	0x3e6de663	0.23232417
154	0xbd4c1524	-0.04982485
155	0x3e6f5f3b	0.23376171
156	0xbd0dd2e5	-0.034624953
157	0x3d824a43	0.063618205
158	0xbe641b62	-0.2227607
159	0xbe8c33ef	-0.27383372
160	0xbe2ddeca	-0.16979519
161	0xbf25abfa	-0.6471554
162	0xbe81f2db	-0.25380597
163	0x3ed86e68	0.42271733
164	0xbcc6c26e	-0.024262633
165	0x3de6555a	0.11246748
166	0x3e741479	0.23835935
167	0x3d64f920	0.055901647
168	0xbbef7510	-0.007307656
169	0xbe70f6a5	-0.23531587
170	0x3ee9374e	0.45550007
171	0xbf4bee08	-0.7966008
172	0xbc4ab8bd	-0.012373147
173	0xbd565cbb	-0.05233453
174	0xbe97c563	-0.29642782
175	0xbd8a5f15	-0.06756417
176	0x3d888804	0.06666568
177	0xbf1f7e23	-0.62301844
178	0xbe041641	-0.12899114
179	0xbe8145f2	-0.25248677
180	0x3f02058f	0.5078973
181	0xbd782655	-0.06058343
182	0x3e83e1c8	0.25758195
183	0xbdfad41f	-0.1224749
184	0xbdaf9ad9	-0.08574457
185	0x3eca0327	0.3945553
186	0xbdec4914	-0.11537376
187	0xbec3cf4c	-0.38244092
188	0xbd771be3	-0.06032933
189	0x3e6d080c	0.23147601
190	0x3ea4334a	0.3207038
191	0x3e65bc19	0.22435035
192	0xbe504a01	-0.2034073
193	0x3d60a78d	0.05484729
194	0xbd329097	-0.043594923
195	0x3d3cec69	0.046123896
196	0xbe949c0b	-0.290253
197	0xbdca4ef4	-0.0987834
198	0x3f0bd841	0.5462685
199	0x3f30035d	0.6875513
200	0x3ee087f8	0.43853736
201	0x3eb909ff	0.3614044
202	0x3f41c61c	0.75692916
203	0x3ea0aa2a	0.31379825
204	0xbe2929fb	-0.1651992
205	0xbe439bd3	-0.19102411
206	0xbc430700	-0.011903524
207	0x3f093e9e	0.5361117
208	0xbe4399a7	-0.19101582
209	0xbda9d633	-0.082928084
210	0x3e2026b5	0.15639766
211	0x3cd08060	0.025451839
212	0x3d0b281b	0.033973794
213	0x3d1d547a	0.03841064
214	0xbdacc2c3	-0.08435585
215	0xbd96dc64	-0.07366255
216	0xbe68edd9	-0.22746982
217	0xbe2c7161	-0.16840126
218	0xbc496658	-0.012292467
219	0x3de378c4	0.111070186
220	0x3db15f87	0.086607985
221	0x3c1adec1	0.009452523
222	0xbde78bab	-0.113059364
223	0x3da158ef	0.07878291
224	0x3ea90c60	0.33017254
225	0x3eba43d0	0.36379862
226	0xbdde16ea	-0.10844214
227	0xbe77577b	-0.24154465
228	0xbcd5c7fb	-0.026096335
229	0xbc819730	-0.015819162
230	0xbe233380	-0.15937614
231	0xbdb19588	-0.08671099
232	0x3ce40ec6	0.027839076
233	0xbe2d2c2f	-0.16911386
234	0xbde731ed	-0.112888195
235	0x3ef8f21f	0.48622224
236	0x3f2371b0	0.6384535
237	0xbdd33020	-0.103119135
238	0xbd699456	-0.05702623
239	0xbdd04950	-0.10170233
240	0x3b44fdcf	0.0030058508
241	0x3ece1221	0.40248206
242	0xbd6d78c2	-0.05797649
243	0xbdc4183d	-0.095749356
244	0xbe6470a4	-0.22308594
245	0x3dcb2883	0.09919836
246	0x3d95f8b8	0.0732283
247	0xbd5f7e26	-0.054563664
248	0xbd1fb95b	-0.038995128
249	0xbe481211	-0.19538142
250	0x3d69cfdc	0.057082996
251	0xbd4848bd	-0.048897494
252	0xbcb25642	-0.021769647
253	0x3f67e999	0.90590817
254	0xbea7403c	-0.32666194
255	0x3eac2ac1	0.3362637

bias f4 [4]
0	0x3e0bcd3d	0.13652511
1	0x3dcaf0e8	0.099092305
2	0xbed1af2b	-0.40953955
3	0xbea48457	-0.32132217
