kevin_nn_2025-02-21_19-00-03.pt (torch, 16609 bytes, 8 tensors)

weight f4 [16, 16]
0	0xbf94c7f4	-1.1623521
1	0xbec6af4f	-0.38805625
2	0xbf7e11d1	-0.99245936
3	0xbff42cee	-1.9076211
4	0xbdb6eb4d	-0.08931599
5	0xbf64da6d	-0.8939579
6	0x3ee6f804	0.45111096
7	0xbe8ba9e6	-0.2727806
8	0xbf60b9eb	-0.8778369
9	0xbf00d2d0	-0.50321674
10	0x40862bff	4.1928706
11	0xbef92caf	-0.48666903
12	0xbf79f61c	-0.9764116
13	0x3e6f0c87	0.23344623
14	0x400d632c	2.209178
15	0xbe9f929e	-0.31166548
16	0xbd181888	-0.03713277
17	0xbddbd1fc	-0.10733411
18	0xbe87d9bd	-0.2653331
19	0xbedb18bc	-0.42792308
20	0xbe5ac16a	-0.21362844
21	0x3e5b4acc	0.21415251
22	0x3e6d47c8	0.23171914
23	0xbe508f42	-0.20367149
24	0xbe83f63c	-0.257738
25	0xbe845dee	-0.25852913
26	0xbd6e21a3	-0.058137547
27	0xbe950eaa	-0.2911275
28	0xbdf7e36c	-0.12103924
29	0x3e7b70d0	0.24554753
30	0xbe93ab47	-0.28841612
31	0xbe9cd950	-0.30634546
32	0xbf1d9a7a	-0.6156384
33	0xbf545592	-0.8294307
34	0x40020275	2.0314
35	0x3e1c7f42	0.1528292
36	0xbe94a94c	-0.29035413
37	0xbe759295	-0.23981698
38	0x40ad7ede	5.4217367
39	0xbf01f179	-0.50759083
40	0xbf20e429	-0.62848145
41	0xbeb9a6b0	-0.36259985
42	0xc07b5e5c	-3.9276342
43	0x3f66ebb0	0.9020338
44	0xbf55605d	-0.83350164
45	0x3d7aabe6	0.06119909
46	0xc0def328	-6.967182
47	0x3e322235	0.17395861
48	0x3f1179ea	0.5682665
49	0x3da5b80c	0.08091745
50	0xbf7b7a3a	-0.9823338
51	0xbec89380	-0.39175034
52	0xbf69049d	-0.91022664
53	0x3f082230	0.53177166
54	0x3f5c530d	0.86064225
55	0xbe75dfe3	-0.24011187
56	0xbebe6c36	-0.37191933
57	0x3f6a8c89	0.9162069
58	0xbfe7e5fb	-1.811706
59	0xbf8d47e9	-1.103757
60	0x3e5b9aec	0.21445817
61	0xbf8d2d82	-1.1029513
62	0xbdd27074	-0.10275355
63	0xbf9b3c83	-1.2127842
64	0x3e12346d	0.14277811
65	0x3e0ae58a	0.13564125
66	0xbf414a97	-0.7550444
67	0xbf247af3	-0.64250106
68	0xbeb04278	-0.34425712
69	0x3e9673fa	0.29385358
70	0xbf28fb99	-0.6600891
71	0xbdcf6d34	-0.10128251
72	0xbe79ae31	-0.24382855
73	0xbf6ac6f2	-0.91709816
74	0xbf2d482b	-0.67688245
75	0x3afd6d9f	0.0019335038
76	0xbea63127	-0.32459375
77	0xbf6cb4b8	-0.92463255
78	0xbee1a4bd	-0.44070998
79	0xbf123490	-0.57111454
80	0xbfb272d2	-1.394129
81	0xbfdc6708	-1.7218943
82	0xc0b1be0f	-5.5544505
83	0xbf56f200	-0.8396301
84	0xbfb9cddb	-1.4515947
85	0xbfd0314c	-1.6265044
86	0xc071ade1	-3.7762377
87	0xc084f035	-4.154322
88	0xbfadb2e4	-1.3570218
89	0xbfe9eb6d	-1.8274971
90	0xc04a73f6	-3.1633277
91	0xbf340604	-0.7032168
92	0xbeabdfa8	-0.33569074
93	0xbf3ab731	-0.7293578
94	0x3ecec776	0.40386552
95	0x3f7b49e4	0.98159623
96	0x3e805fae	0.25072998
97	0xbf12b2fc	-0.5730436
98	0xc06b1e88	-3.6737385
99	0xbf838175	-1.0273882
100	0xbd350c2f	-0.044201072
101	0x3f0a6424	0.5405905
102	0x4062be8f	3.5428808
103	0x3f4d9234	0.80301213
104	0xbf78f363	-0.9724638
105	0xbc2bcef0	-0.010486349
106	0xbfa18b0a	-1.2620556
107	0xbf9e4293	-1.2364067
108	0x3f8369bf	1.0266646
109	0xc08ee95a	-4.4659853
110	0xc0a4d3f4	-5.150873
111	0xc09ff3f6	-4.9985304
112	0xbf30b815	-0.69030887
113	0xbfa649e5	-1.2991301
114	0xbea3ab39	-0.3196657
115	0xbeb11a41	-0.34590343
116	0xbedc17e0	-0.42986965
117	0xbf48275c	-0.7818506
118	0xbf60fd6e	-0.87886703
119	0xbf203da8	-0.6259408
120	0xbea72584	-0.3264581
121	0xbdb4066f	-0.087902896
122	0x3d7f9931	0.062401954
123	0x3c38f5de	0.011289088
124	0x3e160f0f	0.14654182
125	0xbe8e879e	-0.27837843
126	0xbe046f8a	-0.12933174
127	0xbe106105	-0.1409951
128	0xbd87eb88	-0.06636721
129	0xbf59d77f	-0.85094446
130	0x408eb1c0	4.459198
131	0x3ed2c216	0.411637
132	0xbe719267	-0.23591004
133	0xbf01a626	-0.5064415
134	0xc069b0fa	-3.6514268
135	0x3e50fbae	0.20408508
136	0xbd8a7c6a	-0.06762011
137	0x3e3b88e2	0.18313935
138	0xc01d242a	-2.4553323
139	0x3f4be7de	0.79650676
140	0x3f3a0e0c	0.72677684
141	0xbe3d6388	-0.18495
142	0x40a2384d	5.0693727
143	0xbf6929b0	-0.91079235
144	0xbfb0f543	-1.3824848
145	0xbf2a52f7	-0.66532844
146	0xc10cf160	-8.808929
147	0x3f4fcd6c	0.81172824
148	0xbeb9c50c	-0.36283147
149	0xbf08604a	-0.53271925
150	0x40d27a4d	6.5774293
151	0xbed97736	-0.42473763
152	0xbf4147b1	-0.7550002
153	0xbd801cb5	-0.062554754
154	0xc11cea62	-9.807222
155	0x3f53e774	0.82775044
156	0x3e93def9	0.28881052
157	0xbf14e518	-0.5816207
158	0x40e671dd	7.2013993
159	0xbe552474	-0.20814687
160	0xbf5ecd83	-0.87032336
161	0xc047c40b	-3.1213405
162	0xbfe67d18	-1.8006926
163	0x3e8ed274	0.27894938
164	0x3d3796ad	0.04482143
165	0xbf99af52	-1.2006629
166	0xbdad842a	-0.08472474
167	0xbec2fc36	-0.38083047
168	0xbf993172	-1.1968215
169	0xbfa9c8be	-1.3264387
170	0xbf8f5472	-1.1197646
171	0xbf2a117c	-0.6643293
172	0xbf1b3295	-0.6062406
173	0xbf0a7729	-0.54088074
174	0xbfe95eff	-1.8232116
175	0xbf295bf0	-0.6615591
176	0xbe3fe3da	-0.18739262
177	0xbf88dbf7	-1.0692128
178	0xbea18bec	-0.31552064
179	0x3f81f2dc	1.015224
180	0xbee70e5a	-0.45128137
181	0x3f872d99	1.056079
182	0x4040133a	3.0011735
183	0xbfecd3fd	-1.8502194
184	0x3f12d179	0.5735088
185	0xbfbec19c	-1.4902835
186	0xbedbba56	-0.429156
187	0xc05df758	-3.4682217
188	0xbf5b4a49	-0.85660225
189	0xbeceb5d2	-0.40373093
190	0x3f22af84	0.63549066
191	0xbf7b5068	-0.98169565
192	0xbfb3d74f	-1.4050082
193	0xbf057df6	-0.52145326
194	0x3f3ced0b	0.737992
195	0x3dcfc60a	0.10145195
196	0xbfd75a3a	-1.682441
197	0xbfbeba20	-1.4900551
198	0x3fa1705a	1.2612412
199	0xbe183172	-0.14862612
200	0xbec6b591	-0.388104
201	0xbfeb51de	-1.8384359
202	0x3f9e45d2	1.2365057
203	0xbfd86bc8	-1.6907892
204	0xbebe0d60	-0.3711958
205	0xbfba5543	-1.455727
206	0x40025313	2.0363204
207	0xbf63ca2a	-0.8898035
208	0x3e592bed	0.21208163
209	0xbe5044fc	-0.20338815
210	0xc09510dc	-4.658308
211	0x3ee854ea	0.45377284
212	0xbde5ddd4	-0.11223951
213	0xbf0e1194	-0.5549557
214	0xbfccaddb	-1.5990556
215	0x3f48ab72	0.78386605
216	0xbc5ddebe	-0.013541875
217	0xbf3b5bf9	-0.73187214
218	0x4064a69e	3.5726695
219	0xbf5d5d76	-0.86470735
220	0x3d35432b	0.04425351
221	0xbee80c6e	-0.45321983
222	0x407c0bd6	3.9382224
223	0x3ea88863	0.32916555
224	0xbf563b24	-0.8368399
225	0xbe2e1ff4	-0.17004377
226	0xbda00766	-0.07813911
227	0xbdcd9db1	-0.10039843
228	0xbe8c7051	-0.2742944
229	0xbdb59e21	-0.08868051
230	0xbe417848	-0.1889354
231	0xbdb7c406	-0.089729354
232	0xbdff4411	-0.124641545
233	0xbf0f90f3	-0.5608055
234	0xbea5f61f	-0.32414338
235	0xbf07069e	-0.5274447
236	0xbf34f2b6	-0.7068285
237	0xbf9a760f	-1.2067279
238	0xbf2b5825	-0.6693137
239	0xbee4d587	-0.44694158
240	0xbf3f751c	-0.7478807
241	0xbe5772a4	-0.21039826
242	0x3e49fe1b	0.1972584
243	0xbd3f4f66	-0.04670658
244	0xbcc96b78	-0.024587378
245	0xbf41d2a1	-0.7571202
246	0xbf2721c8	-0.6528592
247	0xbe8b8618	-0.27250743
248	0xbe60ecbe	-0.2196531
249	0xbed66a0a	-0.41877776
250	0xbe1da34b	-0.15394323
251	0xbf1482ab	-0.58011883
252	0xbe49dc99	-0.19713058
253	0xbf702d04	-0.9381869
254	0xbe88f9a6	-0.26752967
255	0xbf6038d9	-0.8758674

bias f4 [16]
0	0x3f3e8167	0.744162
1	0xbea8cf42	-0.32970625
2	0x4007e5ae	2.1233935
3	0x3ee08574	0.43851817
4	0xbec03130	-0.37537527
5	0x3f293597	0.66097397
6	0xbe9d73cd	-0.3075241
7	0xbe6a2146	-0.22864255
8	0xbcb885bd	-0.022524709
9	0xbeb498fc	-0.35272968
10	0x3f57da22	0.8431722
11	0x3e3e4aaf	0.18583177
12	0x3f315e4e	0.6928452
13	0x403ca51e	2.947578
14	0xbc9e1037	-0.019294841
15	0xbf34db6a	-0.706473

weight f4 [32, 16]
0	0x40420ac9	3.0319083
1	0x3ea8b259	0.32948568
2	0xc0246b67	-2.5690553
3	0x3dc1a34a	0.09454973
4	0xbd7a2f71	-0.0610804
5	0xbfc43ec9	-1.533166
6	0x40079cd8	2.118948
7	0xbe2aad56	-0.16667685
8	0x3ef791cd	0.48353425
9	0x3f99f32d	1.2027336
10	0x3f46b7a5	0.7762397
11	0xbe47c43b	-0.1950845
12	0xbd35a7dd	-0.04434954
13	0xbf2b49e1	-0.66909605
14	0xbe34d5c8	-0.17659676
15	0x3e9caf45	0.3060247
16	0xbf788f80	-0.97093964
17	0xbe1709c4	-0.14749819
18	0xbfa2f3cf	-1.2730654
19	0xbf8083c8	-1.0040216
20	0xbdbfb6a0	-0.09361005
21	0xbe6b1da2	-0.22960523
22	0xbf950662	-1.1642573
23	0x3e1ecf08	0.15508664
24	0xbfa1ccca	-1.2640622
25	0xbde0e0b4	-0.10980359
26	0xbd1ca8d8	-0.03824696
27	0xbfa73c3d	-1.3065258
28	0xbf90b77d	-1.1305996
29	0xbf5761df	-0.84133714
30	0xbd9a9104	-0.07547191
31	0xbe375d96	-0.17906794
32	0xbe136daf	-0.1439731
33	0x3de932cf	0.11386644
34	0xbe1700f6	-0.1474646
35	0xbf757cbe	-0.95893466
36	0xbd735d2e	-0.059415035
37	0xbe1bd21d	-0.1521687
38	0xbec1f09f	-0.37878892
39	0xbea9e73f	-0.3318424
40	0xbec52e6e	-0.38511986
41	0xbea103a4	-0.3144809
42	0xbc54f478	-0.012997739
43	0xbec471f4	-0.3836819
44	0xbf0e910e	-0.55690086
45	0xbe850a63	-0.25984487
46	0xbde80c17	-0.11330431
47	0xbdbdc715	-0.092664875
48	0xbe0f9308	-0.14020932
49	0x3ea13e42	0.3149281
50	0x40170252	2.3595166
51	0x3fda50ca	1.7055905
52	0x3ea41d8e	0.32053798
53	0x3ff63a92	1.9236624
54	0x4005bdd8	2.0897121
55	0xbe065bc2	-0.1312094
56	0x3de10f74	0.109892756
57	0xbe396a16	-0.18106875
58	0x3eb16579	0.3464773
59	0xbfaef9d3	-1.366999
60	0x3e55a822	0.20864919
61	0xbf2e9156	-0.68190515
62	0x3e6cbc59	0.23118724
63	0x3e4ba392	0.19886616
64	0xbeb3d778	-0.35125327
65	0x3e7ccf82	0.24688533
66	0xbf04e2c5	-0.5190852
67	0xbe278a70	-0.16361403
68	0x3e71ed54	0.2362569
69	0xbec65de0	-0.38743496
70	0xbe50a903	-0.20376973
71	0xbefb095a	-0.49030572
72	0x3c84a3e0	0.016191423
73	0xbedf7654	-0.43644965
74	0xbd72ebd0	-0.05930692
75	0xbeb4914c	-0.35267103
76	0xbe2081c9	-0.15674509
77	0xbef68279	-0.48146418
78	0xbe561fb4	-0.20910531
79	0xbe70d65c	-0.23519272
80	0x3ff0dd4a	1.8817532
81	0xbe921456	-0.2853114
82	0xbf31f65b	-0.69516534
83	0x3fbdf371	1.4839917
84	0xbe6b8d6a	-0.23003164
85	0x3e45eb43	0.19328026
86	0x400f7403	2.2414558
87	0xbea3349d	-0.31876078
88	0x403c32c3	2.9405982
89	0xc0442488	-3.0647297
90	0xbf3bf986	-0.7342762
91	0x3f576190	0.84133244
92	0x3fc8d964	1.5691342
93	0x3fec1e36	1.844672
94	0xbc9ed3bd	-0.019388074
95	0x3e473e9e	0.1945748
96	0x3f69bf2e	0.9130734
97	0xbef7f396	-0.4842803
98	0xbf955541	-1.1666642
99	0x3ec2ea37	0.38069317
100	0x3e6bf6af	0.23043321
101	0x3ebc664a	0.3679679
102	0xbf175914	-0.591203
103	0x3e04677f	0.12930106
104	0xc04358a8	-3.0522861
105	0xc0abd5b3	-5.3698363
106	0x3ddcf5d3	0.10789075
107	0x4061a6ea	3.5258126
108	0x3f861c19	1.0477325
109	0xbdbf33d0	-0.09336054
110	0x3d82883a	0.063736394
111	0xbe762cdc	-0.2404055
112	0xbe8473e6	-0.25869673
113	0xbe6f6ae4	-0.2338062
114	0xbf4e221d	-0.805208
115	0x3f23e7bc	0.64025474
116	0xbd759f20	-0.059966207
117	0x3f6c7fc0	0.9238243
118	0x3f15d504	0.5852816
119	0xbe59544f	-0.21223567
120	0xbf8b2a25	-1.0872236
121	0x3dde9983	0.10869124
122	0x3e93111c	0.2872399
123	0x3ef062a1	0.46950248
124	0xbef57bb8	-0.47945952
125	0xbf3aa412	-0.729066
126	0xbe24359c	-0.16036075
127	0xbd2e5eae	-0.042570762
128	0xbec35430	-0.38150167
129	0xbebeda8d	-0.37276116
130	0xbe706463	-0.23475794
131	0x3e396fac	0.18109006
132	0xbed0606a	-0.40698558
133	0xbe93d7ef	-0.28875682
134	0xbec6eb84	-0.3885156
135	0xbec786da	-0.3897007
136	0xbf200fbe	-0.6252402
137	0xbea1f050	-0.31628656
138	0xbe673a6c	-0.2258088
139	0xbeda5504	-0.42642987
140	0xbe8dd3a2	-0.27700526
141	0xbefc1674	-0.4923588
142	0xbea9b264	-0.33143914
143	0xbf0025cf	-0.5005769
144	0x3f77238f	0.96538633
145	0x3e2f1372	0.17097262
146	0xbfc02c59	-1.5013534
147	0x3fa6d6a3	1.3034252
148	0xbd00e8a1	-0.031471852
149	0xbefc3717	-0.4926078
150	0x4003b120	2.0576859
151	0x3e70ae21	0.23503925
152	0xbea9af01	-0.3314133
153	0xbf86db97	-1.0535764
154	0x3e59c018	0.21264684
155	0x3f2a0908	0.6642003
156	0xbd14b17b	-0.03630207
157	0xbf48b356	-0.78398645
158	0xbe5ffdfb	-0.2187423
159	0xbdf3428e	-0.11877929
160	0xbf298b31	-0.66228014
161	0xbe3b9e99	-0.18322219
162	0x400d7a07	2.210573
163	0xbdebc47b	-0.11512085
164	0xbd24a69e	-0.04019796
165	0x402905f6	2.6409888
166	0x3f315406	0.69268835
167	0xbb8db776	-0.0043248488
168	0xbfaddfeb	-1.3583959
169	0x40161b39	2.3454115
170	0x3f12df71	0.57372195
171	0x405c356a	3.4407601
172	0x3fdee85b	1.7414659
173	0x4009254f	2.1429021
174	0x3d2ff47d	0.04295777
175	0xbe66894d	-0.22513314
176	0xbfacc5b5	-1.3497835
177	0x3eae0d71	0.3399463
178	0xbf96d47b	-1.1783594
179	0xbf887d14	-1.0663171
180	0xbee25789	-0.4420741
181	0xbe4ba8aa	-0.19888559
182	0xbee34e4c	-0.44395673
183	0xbea395d4	-0.31950247
184	0xbee594f5	-0.44840208
185	0xbeb07a79	-0.3446844
186	0xbd8610d4	-0.065461785
187	0xbfbd00da	-1.4765885
188	0xbf1a30a8	-0.60230494
189	0xbf2137c2	-0.62975705
190	0x3eda38e8	0.4262154
191	0x3e041162	0.12897256
192	0x3f13abd6	0.57684076
193	0x3ea7f87d	0.3280677
194	0x40131b84	2.2985544
195	0x3f2a8835	0.66614085
196	0xbe6154dd	-0.22005029
197	0x405c25a5	3.4397976
198	0x40685df1	3.6307337
199	0xbc493730	-0.012281224
200	0x404729ea	3.1119332
201	0xbf381417	-0.71905655
202	0x3f663576	0.89925325
203	0x3ee72a2a	0.45149356
204	0x3f9cee60	1.2260246
205	0x3ffc180c	1.9694839
206	0x3e4bf767	0.19918595
207	0x3c1b0ad2	0.009463029
208	0xbf0be593	-0.5464718
209	0xbe7c7c12	-0.24656704
210	0xbf4cf6d7	-0.8006415
211	0xbf224666	-0.6338867
212	0x3c69f400	0.014279366
213	0xbf438aca	-0.7638365
214	0xbe2ba710	-0.16762948
215	0x3e1e2c88	0.15446675
216	0xbf63e1fe	-0.8901671
217	0xbf3012f7	-0.6877894
218	0xbf46a182	-0.7759019
219	0xbf689ffa	-0.90869105
220	0xbdf18e68	-0.1179474
221	0xbf1c9cfc	-0.6117704
222	0xbd3e6c48	-0.046489984
223	0x3c9f9820	0.019481719
224	0x3e11a3c4	0.14222628
225	0xbe3d7ee7	-0.1850544
226	0x3fa3b5d4	1.2789865
227	0x3f685e1c	0.907686
228	0x3d64396d	0.055718828
229	0x3fd7194f	1.6804599
230	0x3f2496f2	0.64292824
231	0xbd2493a4	-0.040179864
232	0xbfed0c94	-1.8519464
233	0xbe888b67	-0.26668856
234	0x3fb00b49	1.3753444
235	0x3fb8a329	1.4424793
236	0x3e6c3663	0.23067622
237	0x3ee9a124	0.45630753
238	0xbe438c1e	-0.19096419
239	0x3dcf3fc8	0.10119587
240	0xbfb2cb10	-1.396822
241	0x3e5ddc88	0.21666157
242	0xbf2c3a68	-0.6727662
243	0x3cbf5730	0.023357004
244	0x3db2f4d8	0.087381065
245	0x3dd919b0	0.106006026
246	0xbd9277e0	-0.071517706
247	0xbdb36af4	-0.08760634
248	0xbe5c0015	-0.21484406
249	0xbf895d6a	-1.0731633
250	0x3ddbb73c	0.107283086
251	0xbe114e88	-0.14190114
252	0xbe2fcfa8	-0.17169058
253	0x3d643a00	0.055719376
254	0x3d04c338	0.032412738
255	0xbc7d7460	-0.0154696405

bias f4 [32]
0	0x3eca27b9	0.3948343
1	0xbf88434d	-1.0645539
2	0xbc99a865	-0.018757055
3	0x4004b18d	2.0733368
4	0xbecfbc9a	-0.4057358
5	0x4010be40	2.261612
6	0x3db201d3	0.08691754
7	0x3e0e0188	0.13867772
8	0xbe83097c	-0.25593174
9	0x3fd5bd7b	1.669845
10	0x4099151b	4.7838264
11	0xbfb2940b	-1.3951429
12	0x40926c0a	4.5756884
13	0xbf43a638	-0.76425505
14	0x40038b98	2.0553951
15	0x400c2887	2.1899736
16	0xbec3f5f6	-0.3827359
17	0xbebbf6a0	-0.36711597
18	0xbddfc1c9	-0.109256335
19	0x3f8f368c	1.1188521
20	0xbee4905a	-0.44641382
21	0xbe868e84	-0.26280606
22	0x4018811d	2.3828804
23	0x3f509087	0.8147053
24	0xbf6c1457	-0.92218536
25	0x401bb64b	2.4330013
26	0xbf5231ce	-0.82107246
27	0x3eedc31a	0.46437913
28	0xbf35bef4	-0.70994496
29	0x3f5ecdc1	0.87032706
30	0xbf4f3cfb	-0.80952424
31	0xbd542f43	-0.051802885

weight f4 [64, 32]
0	0xbea145ad	-0.3149847
1	0x3f9d1d4e	1.2274568
2	0x3d164f61	0.036696795
3	0xbe00d98b	-0.12582986
4	0x3ecb3d0e	0.3969502
5	0xbeb63967	-0.3559067
6	0xbed2f9f6	-0.4120633
7	0xbe036582	-0.12831691
8	0x3ef4dada	0.4782322
9	0xbf2cebf0	-0.6754751
10	0xbed08602	-0.4072724
11	0x3ec1a9ef	0.37824962
12	0xbe2fcc85	-0.17167862
13	0x3f25b3bb	0.6472737
14	0x3b3193ae	0.002709608
15	0x3e205596	0.15657648
16	0x3ef20e86	0.47276706
17	0xbf01a885	-0.50647765
18	0x3e369dfd	0.17833705
19	0xbac2532c	-0.0014825813
20	0xbeab9c78	-0.33517814
21	0xbeade755	-0.33965555
22	0x3d5668db	0.05234609
23	0xbe0c6c70	-0.1371324
24	0x3e127236	0.1430138
25	0xbf4ee261	-0.80814177
26	0x3d4a8900	0.04944706
27	0xbec2a247	-0.38014433
28	0xbee86b52	-0.4539438
29	0xbe029d4e	-0.1275532
30	0xbe868248	-0.26271272
31	0x3e79f1fc	0.24408716
32	0xbe3bcd10	-0.18339944
33	0xbdd57d25	-0.1042426
34	0xbec1287d	-0.37726203
35	0xbeca598d	-0.39521447
36	0xbe541e28	-0.20714629
37	0xbe1209da	-0.1426157
38	0xbea49928	-0.321481
39	0xbe9dc480	-0.3081398
40	0xbe7e3b50	-0.24827313
41	0xbe2b54ba	-0.1673154
42	0xbee05a25	-0.43818775
43	0x3e14df9c	0.14538425
44	0xbe4e6016	-0.20153841
45	0x3db2d029	0.0873111
46	0xbeb2d85f	-0.34930703
47	0xbd2f7821	-0.042839173
48	0xbe9995f3	-0.29997215
49	0xbea8769d	-0.32902995
50	0xbdd408c1	-0.10353232
51	0xbd1fac6e	-0.0389828
52	0xbd13d41c	-0.036090955
53	0xbdf43c67	-0.11925583
54	0xbe66f3d3	-0.22553949
55	0xbd28a02f	-0.041168388
56	0x3d3ed262	0.046587355
57	0xbe08c636	-0.13356861
58	0xbede227d	-0.43385687
59	0x3d89c2aa	0.06726582
60	0xbd988a0a	-0.07448204
61	0xbe165aa0	-0.14683008
62	0xbd217d2d	-0.039426018
63	0xbef1643d	-0.47146788
64	0xbc4da5de	-0.012551753
65	0xbdd83e1b	-0.10558721
66	0x3df365fc	0.11884686
67	0xbfac5a8b	-1.3465132
68	0x3e27b479	0.16377439
69	0xbf8ef867	-1.1169556
70	0xbe26f124	-0.16302925
71	0xbfb15c33	-1.3856262
72	0xbda6288d	-0.08113203
73	0xbf92288a	-1.1418622
74	0xbfb901b0	-1.445364
75	0xbd30a5aa	-0.04312674
76	0xbfae3506	-1.3609931
77	0xbe0812aa	-0.1328837
78	0xbfb5ea9c	-1.4212222
79	0x3ddf7715	0.10911385
80	0xbd35974c	-0.04433374
81	0xbf9506e2	-1.1642725
82	0x3e1de206	0.15418252
83	0xbda1a59f	-0.07892918
84	0xbc6fe92c	-0.014642995
85	0x3b67c1cb	0.0035363312
86	0xbd2a3cc8	-0.04156187
87	0x3e0723bb	0.13197224
88	0x3e11b5cb	0.14229505
89	0xbf9a209a	-1.2041199
90	0xbdf10144	-0.117678195
91	0x3e08ff6d	0.13378687
92	0x3cad6a54	0.021168865
93	0xbfb54eb5	-1.4164644
94	0xbfa91535	-1.3209597
95	0xbe2dcbca	-0.1697227
96	0xbd35c4dd	-0.044377197
97	0x3d337e1e	0.043821447
98	0xbe0f1537	-0.13972937
99	0xbec3af00	-0.38219452
100	0x3d77b3be	0.06047415
101	0xbe8acb72	-0.2710834
102	0xbc608ecf	-0.013705923
103	0xbedb353f	-0.4281406
104	0xbea75352	-0.32680756
105	0xbe60fbbe	-0.21971032
106	0xbedf9442	-0.436678
107	0xbea90628	-0.3301251
108	0xbe95279f	-0.2913179
109	0xbd3837b1	-0.044974986
110	0xbe55e768	-0.20889056
111	0xbd8edd60	-0.06975818
112	0xbee299cb	-0.4425796
113	0xbe82e6eb	-0.255668
114	0xbeaf7810	-0.34271288
115	0xbe2da47e	-0.1695728
116	0xbe3025d3	-0.17201929
117	0x3ee020c7	0.43775007
118	0xbeb0c060	-0.3452177
119	0xbe1cd5fc	-0.15316004
120	0xbe4a0688	-0.19729054
121	0x3e3232f6	0.17402253
122	0xbe813737	-0.25237438
123	0xbe768a42	-0.24076179
124	0xbd90a8a4	-0.07063416
125	0xbe001219	-0.12506904
126	0xbeabebf8	-0.33578467
127	0x3e39d7ad	0.1814868
128	0xbf544105	-0.8291171
129	0xbdd10596	-0.102061436
130	0xbe040f04	-0.12896353
131	0x3e9ccde3	0.3062583
132	0x3e3e9425	0.186112
133	0xbfba9856	-1.4577739
134	0xbf6e8470	-0.93170834
135	0xbc3e26f3	-0.011605966
136	0x3e45e362	0.19325021
137	0xbee4c233	-0.44679412
138	0xbf9ae62a	-1.210149
139	0xbec0051b	-0.37503895
140	0xbee328e1	-0.44367126
141	0x3f01d7f9	0.50720173
142	0x3e0cf62f	0.13765787
143	0xbf7732a9	-0.96561676
144	0x3ecf705e	0.40515417
145	0xbee7c3ff	-0.4526672
146	0xbeb8a873	-0.36066017
147	0xbf5f147e	-0.87140644
148	0xbe97e1ae	-0.29664367
149	0xbf256dc5	-0.6462062
150	0xbe9bd5b9	-0.30436495
151	0xbf41b68d	-0.75669175
152	0xbe29b4cf	-0.16572879
153	0xbf8251fd	-1.0181271
154	0xbd84fad3	-0.064931534
155	0x3e1a4b44	0.15067774
156	0xbf120d78	-0.570518
157	0x3e1fb5c6	0.15596685
158	0xbe8c21ac	-0.2736944
159	0x3e3dc482	0.18531993
160	0xbd7b7cba	-0.061398245
161	0xbdae54c2	-0.0851226
162	0x3e33c4b8	0.17555511
163	0xbe2ed4cd	-0.17073365
164	0x3eba945f	0.36441323
165	0xbf6f9bb1	-0.9359694
166	0xbf239dce	-0.63912666
167	0xbdcda957	-0.10042065
168	0x3ea944ab	0.33060202
169	0xbeddae3c	-0.43296993
170	0xbe02d59e	-0.12776801
171	0x3e1aa08a	0.15100303
172	0xbe5b282b	-0.21402042
173	0x3f04a4dc	0.51814055
174	0xbe2ff584	-0.171835
175	0xbca954d4	-0.020670332
176	0x3ee06d4e	0.43833393
177	0xbe5db8d5	-0.21652539
178	0x3e577816	0.21041903
179	0xbf750f66	-0.9572662
180	0xbe181c90	-0.14854646
181	0xbeadb3d5	-0.33926263
182	0xbe6db0e2	-0.23212007
183	0xbd8e8863	-0.069596075
184	0xbf70afb0	-0.9401808
185	0xbf08a1c8	-0.5337186
186	0x3e45def3	0.1932333
187	0xbeb102c4	-0.34572423
188	0xbf0fa2a1	-0.56107527
189	0x3df0ba5f	0.117542975
190	0xbeae9e1b	-0.34105
191	0x3edba3e0	0.42898464
192	0xbf0cb321	-0.5496083
193	0xbdf95ca9	-0.12175877
194	0xbe2cd6c0	-0.16878796
195	0x3dc14167	0.09436303
196	0x3e8c9014	0.27453673
197	0xbe98ea37	-0.29866192
198	0xbf14732f	-0.57988256
199	0xbdb773f2	-0.08957662
200	0x3ec73a2a	0.38911563
201	0xbe717b10	-0.23582101
202	0xbd829271	-0.06375588
203	0xbea3c7de	-0.31988424
204	0xbe9aea8b	-0.30257067
205	0x3f247ce1	0.6425305
206	0xbd72a6ff	-0.05924129
207	0x3d7e28fb	0.0620508
208	0x3e97ae87	0.2962534
209	0xbec22164	-0.379161
210	0x3e494fd8	0.19659364
211	0xbd7e7f8b	-0.062133353
212	0xbe8bf678	-0.27336478
213	0xbecd67fb	-0.40118393
214	0x3bb2a275	0.0054514953
215	0xbda3b266	-0.07993011
216	0x3eabe228	0.3357098
217	0xbde69d40	-0.11260462
218	0x3e146e58	0.14495218
219	0xbe44e249	-0.19226946
220	0xbf1cb970	-0.61220455
221	0xbe087d6b	-0.13329093
222	0xbeb84ca6	-0.35995978
223	0x3e980813	0.2969366
224	0xbf8fadad	-1.1224877
225	0x3dd00992	0.101580754
226	0xbd59a727	-0.053137925
227	0xbfa1361a	-1.2594635
228	0x3e2dacef	0.169605
229	0xbf85617e	-1.0420377
230	0xbf9a2fc9	-1.2045833
231	0xbf93569b	-1.1510805
232	0xbdf66176	-0.12030308
233	0xbf9e2814	-1.2355981
234	0xbf9a2de4	-1.2045255
235	0x3d3ad94c	0.045617387
236	0xbf9bdc51	-1.217661
237	0x3d80e8b8	0.062943876
238	0xbfa87eaa	-1.3163655
239	0xbdb9b1a9	-0.09067089
240	0xbd4efa24	-0.05053152
241	0xbf873b66	-1.0565002
242	0x3c8f2c7b	0.017477265
243	0xbd931f1d	-0.07183669
244	0xbd86f580	-0.06589794
245	0x3c69c957	0.014269195
246	0xbf8f5b6e	-1.1199777
247	0xbfa241d9	-1.2676345
248	0x3d83487a	0.06410308
249	0xbf80a169	-1.0049258
250	0x3df9c75e	0.121962294
251	0xbfa7af08	-1.310029
252	0xbe2c1ca7	-0.16807805
253	0xbf806efc	-1.003387
254	0xbf99459a	-1.1974366
255	0xbddd5a03	-0.10808184

bias f4 [64]
0	0x3e757b6c	0.23972863
1	0xbe19d23f	-0.15021609
2	0xbfac58ec	-1.3464637
3	0xbeb98e3a	-0.36241323
4	0x3e802f8c	0.25036275
5	0x3d4f6dac	0.0506417
6	0x3ece11a9	0.4024785
7	0xbf998329	-1.1993152
8	0xbe674302	-0.22584155
9	0xbe5713fb	-0.21003716
10	0xbe4f4518	-0.20241201
11	0x3f12a63a	0.5728489
12	0x3f19446d	0.59870034
13	0xbec6d53c	-0.3883456
14	0xbf96bd75	-1.1776568
15	0xbfb46153	-1.4092201
16	0xbe7e70ca	-0.24847713
17	0x3e00330d	0.12519474
18	0x3e9589ba	0.2920664
19	0x3d877a76	0.066151544
20	0xbfd39af7	-1.6531667
21	0x3e74ad25	0.23894174
22	0x3e28ee5a	0.16497174
23	0xbf729443	-0.9475748
24	0xbf4b887e	-0.79505146
25	0xbeaa94d8	-0.33316684
26	0xbf335dbb	-0.70064896
27	0x3ea891f3	0.3292385
28	0xbfd9f961	-1.7029229
29	0xbfacbb46	-1.3494651
30	0x3e4d97ec	0.20077485
31	0xbe8c7889	-0.2743571
32	0xbe9a3ff4	-0.30126917
33	0xbec24ddc	-0.37950027
34	0x405420fb	3.314513
35	0x3ed073fb	0.40713486
36	0x3dbc2c2f	0.09188115
37	0xbe9418cc	-0.2892517
38	0xbe4216d8	-0.18954027
39	0xbe8926ff	-0.26787564
40	0x3e5ce100	0.21570206
41	0xbfaaf7af	-1.3356837
42	0xbe9262c3	-0.28590974
43	0xbe0e7367	-0.1391121
44	0xbf94a0fd	-1.161163
45	0x3f1df9b9	0.6170917
46	0x3eb9c324	0.36281693
47	0xbc31f32c	-0.010861199
48	0xbedb22f2	-0.428001
49	0xbfb508e6	-1.414334
50	0xbebd2d00	-0.36948395
51	0x3fdfa7fa	1.7473137
52	0xbdfe10bb	-0.12405535
53	0x3e7f43dc	0.2492823
54	0x3f042d65	0.51631767
55	0x3e039c3f	0.12852572
56	0x4112be54	9.171467
57	0x3efcfecb	0.49413142
58	0x3e105eb5	0.14098628
59	0x411f6d80	9.964233
60	0xbf169230	-0.58816814
61	0x3eb29dcf	0.34886023
62	0xbeae5166	-0.34046477
63	0xbffcf152	-1.9761145

weight f4 [4, 64]
0	0xbeb48a74	-0.3526188
1	0xbce136b0	-0.027491897
2	0x3bbe6900	0.005810857
3	0xbea619d3	-0.32441577
4	0xbe8ddc67	-0.27707216
5	0x3e84464c	0.25834882
6	0x3dda4f97	0.10659712
7	0x3f88e729	1.0695544
8	0xbe81316a	-0.25233012
9	0x3eb3fc0c	0.35153234
10	0xbe898a8d	-0.26863518
11	0xbdc22802	-0.09480287
12	0xbcd76c04	-0.026296623
13	0x3db92e74	0.09042063
14	0xbe86d8d9	-0.26337317
15	0xc0a37a9f	-5.1087184
16	0xbea5ef9c	-0.3240937
17	0xbdebd983	-0.115160964
18	0x3e946e68	0.28990483
19	0x3cfcba9e	0.030850705
20	0xbe8feb05	-0.28108993
21	0xbedf424c	-0.43605268
22	0xbd8fb231	-0.07016409
23	0xbe4d003e	-0.20019624
24	0xbecb3360	-0.39687634
25	0xbe808115	-0.25098482
26	0xbe58f9b4	-0.21189004
27	0xbefae858	-0.4900539
28	0xbef9f39a	-0.48818666
29	0x3fa0c675	1.2560564
30	0xbe5d69d1	-0.21622397
31	0x3de651c8	0.11246067
32	0x40aab3af	5.334434
33	0xbe3a6ca7	-0.1820551
34	0xbfdd9323	-1.7310528
35	0xbcaf0f60	-0.021369636
36	0xc018b18b	-2.3858364
37	0xbc934ea0	-0.017981827
38	0xbe87874a	-0.26470405
39	0xbe4dd456	-0.20100531
40	0x3e921392	0.28530556
41	0x3ffeeda6	1.9916275
42	0x3cb8f138	0.02257596
43	0xbe875308	-0.26430535
44	0x3d31f34c	0.043444917
45	0x3fb17599	1.3864013
46	0xbd63c3f3	-0.055606794
47	0xbdeacfa0	-0.114653826
48	0xbc7b04b0	-0.015320942
49	0x3f78a96c	0.9713352
50	0xbe48e551	-0.19618727
51	0x3ffcba83	1.9744419
52	0xbf103e18	-0.5634475
53	0x3d9645e0	0.07337546
54	0x3c06e9d8	0.008234464
55	0x3d53659b	0.05161057
56	0xbf553add	-0.83292943
57	0x3d11528e	0.03547912
58	0xbd70a191	-0.05874783
59	0x3f567cbc	0.8378408
60	0xbea1a2a4	-0.31569397
61	0x4051d307	3.278505
62	0x40b6a10a	5.707158
63	0x3e000f73	0.12505893
64	0xbe356c47	-0.17717086
65	0xbe8a9ba7	-0.27071878
66	0x3d95cd42	0.073145404
67	0xbe60c23e	-0.21949098
68	0x3e17a881	0.14810373
69	0xbf859d82	-1.0438693
70	0xbdaacfcd	-0.08340416
71	0xbd7c8088	-0.061646014
72	0xbec827b0	-0.3909278
73	0xbf421669	-0.75815445
74	0xbe691a0e	-0.22763845
75	0xbeef0f17	-0.466912
76	0xbdee4772	-0.11634721
77	0xbe398360	-0.18116522
78	0xbe5d4b2c	-0.21610707
79	0x3ff5391b	1.9158052
80	0xbe4c00c8	-0.19922173
81	0xbea381a3	-0.31934842
82	0xbd31584e	-0.043297105
83	0xbd5eea20	-0.054422498
84	0x3f8975ed	1.0739113
85	0xbe19f95f	-0.15036534
86	0xbe871ec4	-0.2639066
87	0xbf4e23d4	-0.8052342
88	0x3e5d8287	0.21631823
89	0xbe4b8a30	-0.19876933
90	0xbf98ea09	-1.1946422
91	0xbc93e9e0	-0.018055856
92	0xbea26a9f	-0.3172197
93	0x3ca10b28	0.01965864
94	0xbe87eea9	-0.2654927
95	0x3e936b9b	0.28793034
96	0xbf2a4727	-0.6651482
97	0xbe8f20f8	-0.2795484
98	0x3d018c8c	0.031628177
99	0xbe55d06d	-0.2088029
100	0x3f1a15c4	0.6018946
101	0xbcbd5e67	-0.023116304
102	0xbe41273e	-0.18862626
103	0xbe895f32	-0.2683044
104	0xbeef46cb	-0.46733698
105	0xbfa04c4d	-1.2523285
106	0xbe917749	-0.2841132
107	0xbd4f3659	-0.05058894
108	0xbb357280	-0.0027686656
109	0xc053f8eb	-3.3120677
110	0x3ef49b86	0.47774905
111	0xbddb5846	-0.10710196
112	0xbe6a4e8c	-0.22881526
113	0x3feb61ac	1.8389182
114	0x3d98a992	0.07454218
115	0x3f8b3ea0	1.0878487
116	0x3e8ea2e4	0.2785865
117	0xbe22d3e2	-0.1590114
118	0x3c91d441	0.017801406
119	0xbe94696b	-0.28986678
120	0x397968d0	0.00023785536
121	0xbf8c9002	-1.0981448
122	0x3d33cc87	0.043896224
123	0xbe765281	-0.2405491
124	0xbeca5d16	-0.39524144
125	0xc0a7ef9d	-5.2479997
126	0xc08f96d4	-4.4871616
127	0x3fbb14f5	1.461577
128	0x3d853fc6	0.065063044
129	0xbcee4dc0	-0.029089808
130	0xbcdbcae8	-0.026830152
131	0x3eb62e54	0.3558222
132	0x3f022ecb	0.5085265
133	0xbd5c1724	-0.053733006
134	0x3c82e0d4	0.015976347
135	0xbd30e610	-0.043188155
136	0xbe530538	-0.2060746
137	0x3e859081	0.2608681
138	0xbe3edee1	-0.18639709
139	0x3eb1a13f	0.34693334
140	0x3d353bbd	0.044246424
141	0x3dfad50c	0.12247667
142	0xbe81c360	-0.25344372
143	0x40237c14	2.5544481
144	0xbe368ee8	-0.17827952
145	0xbab00f3f	-0.0013432278
146	0x3e471af2	0.19443873
147	0x3c04bb78	0.008101337
148	0xbe491838	-0.19638145
149	0xbe48fae7	-0.19626962
150	0x3bbc3f75	0.0057448694
151	0xbeb4cb70	-0.3531146
152	0x3f8a16c8	1.0788202
153	0xbeb98f8c	-0.3624233
154	0x3ecdd1d2	0.40199143
155	0xbdea29f9	-0.11433787
156	0xbf4b0c94	-0.7931607
157	0xbd7a0cb0	-0.061047256
158	0xbd23e072	-0.04000897
159	0x3d880696	0.06641881
160	0x4035ecf3	2.8425872
161	0xbea05b7c	-0.31319797
162	0x406958ba	3.6460404
163	0xbd38716d	-0.045030046
164	0xbd9c6a20	-0.07637429
165	0xbe51e71c	-0.20498317
166	0xbe478ad0	-0.19486547
167	0xbe7a553a	-0.24446574
168	0xbe91e4dc	-0.28494918
169	0x3f62f14f	0.8864946
170	0x3d58c0a0	0.052918077
171	0x3cfa4ed0	0.030555159
172	0xbf684106	-0.9072422
173	0x3faa319b	1.3296388
174	0xbf03b5fe	-0.51449573
175	0xbe5ace29	-0.21367706
176	0xbddc93c4	-0.107703716
177	0x3f7b6416	0.98199594
178	0x3eafc8cd	0.34332886
179	0xbf6e9fbf	-0.93212503
180	0x3e943240	0.28944588
181	0xbe7a6099	-0.24450912
182	0x3c08f9cc	0.0083603375
183	0x3d780649	0.06055287
184	0xbf04f554	-0.5193684
185	0x3dded221	0.10879923
186	0xbe08f982	-0.1337643
187	0xbfd01e43	-1.6259235
188	0xbea0e142	-0.31421858
189	0x4041ee14	3.0301561
190	0x407775cc	3.8665648
191	0xbf1f53f5	-0.62237483
192	0x3d0f262f	0.034948524
193	0x3dd8a466	0.105782315
194	0xbf95817d	-1.1680142
195	0xbe3dfff7	-0.18554674
196	0xbe62613a	-0.22107401
197	0x3db1b383	0.08676817
198	0x3d8a8286	0.067631766
199	0x3d59dcb0	0.05318898
200	0xbe37c1cc	-0.17945021
201	0x3eaab8db	0.3334416
202	0xbea858c6	-0.3288023
203	0xbedfaa16	-0.43684453
204	0xbdd9feae	-0.106442794
205	0xbdb68dda	-0.08913775
206	0x3f5cdbc7	0.86272854
207	0x403e6e62	2.9754872
208	0xbe9da4ba	-0.3078974
209	0xbdc9516b	-0.09829982
210	0xbe98efff	-0.29870602
211	0x3e1d3434	0.15351945
212	0xbea5c586	-0.3237726
213	0x3d9f83bd	0.07788799
214	0xbdb86b36	-0.09004824
215	0xbebcf06e	-0.36902183
216	0xbf237cc9	-0.6386228
217	0xbe89cbcc	-0.26913297
218	0x3d3de104	0.04635717
219	0xbe591599	-0.21199645
220	0xc0857bb0	-4.1713486
221	0x3dd17948	0.10228211
222	0xbcb266b9	-0.021777498
223	0xbd139ef4	-0.03604026
224	0xc084340b	-4.131353
225	0xbe9759d8	-0.29560733
226	0xbf844e7d	-1.0336453
227	0x3caceaa7	0.021107985
228	0x40513f40	3.2694855
229	0xbea38772	-0.31939274
230	0xbe6ea37c	-0.23304552
231	0xbe99ad05	-0.30014816
232	0x3e0793fa	0.13240042
233	0xbf9a2393	-1.2042106
234	0x3ec66d9a	0.38755494
235	0xbd4a215e	-0.049348228
236	0x3f68fb6d	0.91008645
237	0xbd48b4b2	-0.04900045
238	0x3ec6abee	0.38803047
239	0x3d23040c	0.03979878
240	0xbdf5f112	-0.12008871
241	0x3f21d7a6	0.6321968
242	0xbc665540	-0.014058411
243	0xbf342e9b	-0.70383614
244	0x3ddbfdf1	0.10741795
245	0xbd6eb0bc	-0.058274016
246	0x3e3bf1d4	0.18353969
247	0x3e0b78d7	0.13620315
248	0x3fe5e3b5	1.7960116
249	0x3ea23070	0.3167758
250	0xbd540a9f	-0.05176794
251	0xbf608028	-0.8769555
252	0xbe9bdd3b	-0.30442223
253	0x3ffc2e86	1.9701698
254	0x3f58fdfd	0.84762555
255	0xbfd7a17a	-1.6846154

bias f4 [4]
0	0xc05369e0	-3.303337
1	0xbf88fd8c	-1.0702376
2	0xc0450a6d	-3.0787613
3	0xbf617749	-0.8807264
