kevin_nn_2025-02-21_18-56-54.pt (torch, 16609 bytes, 8 tensors)

weight f4 [16, 16]
0.18922698 0.4243847 0.16437535 0.9097647 0.40979975 -0.025138391 -0.6346808 1.0771804
0.051943287 0.008233506 0.24575621 0.8244071 0.20325303 0.067602836 1.2909313 0.8677327
0.08285409 -0.14822054 0.0073203444 0.064097345 -0.20261565 -0.08335957 0.1082955 -0.18295315
-0.09422296 0.0004939437 0.056301773 -0.08686513 0.012242824 0.066049606 0.2443805 -0.22057638
-0.4828263 -0.069653496 -0.15242404 1.0127075 0.04935943 0.4626264 -0.64528334 0.93457544
-0.044540092 -0.27853972 -0.020205846 1.0538105 0.2189798 -0.606616 0.91196305 0.55317545
-0.3996637 -0.15986389 -0.07689263 -0.28940147 0.076744616 0.3987629 -0.2109603 -0.499712
0.05188048 0.009465665 -0.12716252 -0.5344897 0.04301226 -0.2739249 -0.35555547 -0.18279482
0.06321901 -0.40685347 -1.0565584 -0.7898379 -1.0562687 -0.82178944 -1.0629706 -0.4581365
0.91573566 0.011686035 0.41221115 -0.43506956 -0.16430496 -0.1522061 -0.5075084 -1.121396
-2.374825 -1.0257138 -0.9182475 -0.37715787 -0.19709495 -0.47835588 -0.72950906 0.23065802
-0.79046506 -1.5607767 -0.34840238 -0.30218 -1.2024604 0.32341123 -0.644254 -0.28381053
0.32486528 0.37365392 0.32260865 1.1572335 -0.019627513 -0.29218167 -0.5902455 1.300257
0.47445357 -0.20935838 -0.013814256 1.1159576 0.3617919 -0.1944705 1.3260477 0.8982479
-0.211961 -0.18739237 -0.17428485 -0.14169331 -0.18827608 -0.23781952 0.0030264258 -0.40897763
0.0055612326 0.008495629 -0.22857583 -0.18414514 -0.09754872 -0.05765562 -0.35667747 -0.5054425
0.36200467 0.24896978 0.3157265 1.0063612 -0.054542586 0.46707463 -0.6189449 0.68839586
0.6292216 -0.076588854 0.0013444752 1.5975577 0.109636 0.2474736 1.282499 0.54873985
0.0011613071 -0.31698614 0.1329031 -0.39107645 -0.04895875 0.41807717 -0.44881186 -0.21598302
-0.17920387 0.0025684056 -0.047325954 -0.5490344 0.1724501 -0.066551775 0.048460424 -0.6677774
-0.8108699 -1.1940963 -1.0797102 -0.94516784 -0.102074765 -0.08696987 -0.2220788 0.04199809
-0.496813 -0.632673 -0.93900806 0.08107254 -0.60753053 -0.8782169 -1.3169299 -1.0300839
-0.41293234 -1.097787 -0.8565106 -0.602441 -0.06832058 -0.116171606 -0.59570605 -0.13934027
-0.22429587 0.012664695 -0.19955808 -0.16975303 -0.2724479 -1.0937649 -0.9824966 -0.27889323
0.1733951 -0.06212592 0.1458928 -0.16630809 -0.05509132 -0.1295113 -0.21494079 -0.4502006
-0.09925434 -0.0599877 -0.47748658 -0.33160314 0.043513566 0.058631986 0.115015626 -0.49722943
0.13769054 0.033254445 -0.42764953 -0.715682 0.0091553135 -0.7108734 0.28605843 -0.31700248
-0.6849627 -0.45534688 -0.886691 -0.13825007 -0.47691384 -0.06686177 0.12911063 0.020376537
-1.2808461 -1.3807333 -0.7439863 -0.7264389 -0.28288817 -0.34433204 -0.72522765 -0.10223291
-0.061708894 -0.42402342 -0.41752937 -0.03973344 -0.42674845 -1.0864701 -0.43623012 -0.709433
0.5732395 -0.08382003 0.6477292 1.0536426 0.35765806 0.49796084 -0.5284647 1.2543895
-0.24215958 0.24447748 -0.13817042 0.90485686 -0.110464506 0.251286 1.6737036 0.5475911
00000000: b8c4 413e f448 d93e 0352 283e 57e6 683f
00000010: 46d1 d13e 07ef cdbc 717a 22bf 0ce1 893f
00000020: 7cc2 543d d4e5 063c 84a7 7b3e 580c 533f
00000030: 9021 503e 5b73 8a3d 3d3d a53f bb23 5e3f
00000040: 68af a93d 20c7 17be 80df ef3b 7845 833d
00000050: 7a7a 4fbe 6cb8 aabd 08ca dd3d 1258 3bbe
00000060: f8f7 c0bd 007c 013a b09c 663d 58e6 b1bd
00000070: 2096 483c 0445 873d e23e 7a3e c6de 61be
00000080: 0235 f7be 7ea6 8ebd 0c15 1cbe 66a0 813f
00000090: 1d2d 4a3d 5edd ec3e 4a31 25bf 5640 6f3f
000000a0: ac6f 36bd c29c 8ebe bb86 a5bc 43e3 863f
000000b0: 3e3c 603e 304b 1bbf 6976 693f e89c 0d3f
000000c0: b8a0 ccbe 5cb3 23be e279 9dbd 6e2c 94be
000000d0: 482c 9d3d a72a cc3e fa05 58be 40da ffbe
000000e0: a080 543d e015 1b3c e436 02be 51d4 08bf
000000f0: a02d 303d e23f 8cbe 5e0b b6be 912e 3bbe
00000100: f878 813d 194f d0be 4e3d 87bf d132 4abf
00000110: d033 87bf cb60 52bf 6c0f 88bf de90 eabe
00000120: a76d 6a3f c976 3f3c 570d d33e 70c1 debe
00000130: 8f3f 28be eadb 1bbe 12ec 01bf e789 8fbf
00000140: 22fd 17c0 974a 83bf 4512 6bbf d61a c1be
00000150: 42d3 49be 10eb f4be 1bc1 3abf 9e31 6c3e
00000160: eb5b 4abf 88c7 c7bf cc61 b2be 56b7 9abe
00000170: 39ea 99bf 2896 a53e d5ed 24bf 9d4f 91be
00000180: be54 a63e 914f bf3e f62c a53e 3a20 943f
00000190: e1c9 a0bc d698 95be 541a 17bf d26e a63f
000001a0: 94eb f23e 0b62 56be 3055 62bc b3d7 8e3f
000001b0: ca3c b93e 4623 47be eebb a93f 93f3 653f
000001c0: 4e0c 59be c9e3 3fbe ba77 32be 0d18 11be
000001d0: 72cb 40be f686 73be 0057 463b 8465 d1be
000001e0: 003b b63b 4031 0b3c c80f 6abe 8b90 3cbe
000001f0: a0c7 c7bd 4d28 6cbd 6e9e b6be ae64 01bf
00000200: ad58 b93e eff1 7e3e e7a6 a13e 72d0 803f
00000210: 0c68 5fbd 6824 ef3e 2c73 1ebf b63a 303f
00000220: ab14 213f 9eda 9cbd 1a39 b03a c57c cc3f
00000230: d788 e03d b869 7d3e ed28 a43f 377a 0c3f
00000240: 0037 983a 024c a2be c017 083e 2c3b c8be
00000250: f888 48bd 360e d63e abca e5be a72a 5dbe
00000260: 3881 37be b252 283b dcd8 41bd 858d 0cbf
00000270: c296 303e 4c4c 88bd 707e 463d 76f3 2abf
00000280: 2b95 4fbf 26d8 98bf f233 8abf 85f6 71bf
00000290: 930c d1bd 421d b2bd a068 63be 3006 2c3d
000002a0: 465e febe dcf6 21bf d562 70bf 5c09 a63d
000002b0: 1f87 1bbf d3d2 60bf 2991 a8bf cad9 83bf
000002c0: de6b d3be 4984 8cbf 4744 5bbf 9339 1abf
000002d0: a9eb 8bbd 61eb edbd 3180 18bf 37af 0ebe
000002e0: d1ad 65be 957f 4f3c f458 4cbe bdd3 2dbe
000002f0: 4b7e 8bbe 7d00 8cbf e684 7bbf 18cb 8ebe
00000300: 7c8e 313e c077 7ebd ec64 153e ab4c 2abe
00000310: 70a7 61bd 9c9e 04be 7019 5cbe b180 e6be
00000320: dc45 cbbd aab5 75bd 1f79 f4be e3c7 a9be
00000330: 483b 323d 1828 703d 508d eb3d db94 febe
00000340: c0fe 0c3e d035 083d e1f4 dabe f036 37bf
00000350: 2b00 163c cdfb 35bf 4076 923e 264e a2be
00000360: b759 2fbf 3a23 e9be 2efe 62bf 6d91 0dbe
00000370: 0d2e f4be d3ee 88bd 9435 043e b2ec a63c
00000380: c4f2 a3bf debb b0bf e375 3ebf e6f7 39bf
00000390: b8d6 90be 4a4c b0be 85a8 39bf 7d5f d1bd
000003a0: 77c2 7cbd 9919 d9be 69c6 d5be 88bf 22bd
000003b0: c67e dabe 7411 8bbf 8e59 dfbe 679d 35bf
000003c0: d3bf 123f d6a9 abbd 95d1 253f c3dd 863f
000003d0: f51e b73e b9f4 fe3e 7649 07bf d68f a03f
000003e0: aef8 77be 4e58 7a3e 8c7c 0dbe b3a4 673f
000003f0: 373b e2bd 8fa8 803e eb3b d63f ee2e 0c3f

bias f4 [16]
3.3959944 0.017868936 3.0357835 -0.2544281 -0.5585304 0.30672947 3.4088373 -0.27094167
3.0654895 -0.26370957 -0.40264323 -0.31031868 -0.045179337 -0.47295478 -0.016251085 2.9960556
00000000: f957 5940 e061 923c 474a 4240 6644 82be
00000010: d9fb 0ebf a50b 9d3e 642a 5a40 deb8 8abe
00000020: fb30 4440 f104 87be 4127 cebe 17e2 9ebe
00000030: f80d 39bd 2127 f2be ff20 85bc 60bf 3f40

weight f4 [32, 16]
-0.5172265 0.12899658 -0.16074264 -0.07842768 -0.4823274 0.029756993 -0.19900465 -0.24676201
-0.3996852 0.23670152 -0.32703596 -0.15563841 0.22033289 -0.33669055 0.52165306 -0.24823034
-0.2387572 -0.21839795 -0.29455277 0.08405805 -0.12161909 0.20245516 -0.44947523 -0.06316531
-0.5110674 -0.257174 -0.21683684 -0.4276616 -0.22932735 -0.06310088 -0.18958628 -0.14520827
1.731295 -0.16955131 1.6895849 -0.20916006 -0.073615715 0.02065701 1.4869243 -0.32466117
1.1889098 0.4273219 -0.09812266 -0.039829843 -0.29881367 -0.4750947 0.01574034 0.8956862
-0.025446106 0.10096151 -0.47066393 -0.23640281 -0.051691312 -0.20170641 -0.39027914 -0.16350773
-0.50234205 0.2143009 -0.2702766 -0.23382458 0.102199286 0.07550731 -0.053700928 -0.44384074
-0.84009415 -0.15108466 -1.1251316 -0.21049657 0.062355846 0.06870988 -1.0400175 0.02351147
-1.1920522 -0.2148951 -0.09709239 -0.22402906 0.046910197 -0.17283225 -0.20545545 -1.4069676
-0.11255535 -0.15348172 -0.33985054 0.18452379 -0.256105 -0.23324734 -0.46411237 0.107577056
0.06177939 0.16458988 -0.21466255 -0.16118371 -0.13290334 -0.058853894 0.035737038 -0.19861129
-0.49131787 0.1440506 -0.15636422 0.026011258 -0.13011943 0.04029885 -0.36205995 -0.01584658
-0.47662228 -0.2997918 -0.24638185 -0.46038157 0.23655465 -0.26189548 0.36667368 -0.24507469
0.2099008 -0.2365993 -0.37728077 0.18497708 -0.2873326 0.22000769 -0.54519206 -0.024102896
-0.07783432 -0.07255897 -0.13593721 -0.07616105 0.17527544 -0.46611443 0.1681836 -0.17390326
-0.24241893 -0.09556633 -0.46360344 -0.111795805 -0.47687408 0.024601936 -0.33552355 -0.055026144
-0.49555176 -0.17512333 -0.2992838 0.07467727 -0.030696869 -0.51610905 -0.39764944 -0.43575865
1.9191651 0.05484283 2.0133998 0.24996427 0.7150384 -0.29045245 2.1791987 -0.10717464
2.2501252 -0.31456476 0.1313396 -0.041258253 -0.022402346 -0.16832107 0.29595387 1.6412002
1.6782295 0.2408638 1.2239403 -0.36529562 0.28202882 0.16115431 1.4312991 -0.13320033
1.5667348 -0.18758895 -0.019797262 0.08455376 -0.06851679 -0.05207856 0.32390988 0.24527563
-0.36262512 0.17627844 -0.47502482 -0.1389606 0.17427856 0.13013786 -0.140593 0.21817896
-0.24814764 0.1349237 -0.23260018 -0.17588574 -0.049812734 -0.022306025 -0.21473178 -0.19739628
1.3537786 -0.19589186 2.0855272 0.5158545 0.5377767 -0.016815666 1.8615829 -0.38665205
1.8274608 0.20673163 0.20454638 0.20554622 -0.26102287 -0.095629215 0.088687904 1.8801451
1.8094478 0.22799468 2.5669641 -0.3105696 0.44130424 0.12659177 2.1989079 -0.19814059
2.5056405 0.24579489 -0.11881195 0.09651186 -0.45292905 -0.54705185 0.0286814 1.7204536
-0.27516285 -0.18422788 -0.38287413 -0.017370105 -0.40312815 0.17422226 -0.27748665 0.22417471
-0.22945543 -0.035440117 -0.47632268 0.04812762 0.14156228 -0.21948056 -0.52226955 -0.19473138
-0.2268851 0.14210859 -0.26385984 0.021782666 0.15807146 -0.025253372 -0.30009127 0.00859195
-0.104955606 0.17129564 0.049489528 -0.48139408 0.027354151 -0.08138287 -0.23229082 0.007977637
00000000: f568 04bf ae17 043e b899 24be b19e a0bd
00000010: 9ef3 f6be f0c4 f33c e0c7 4bbe 2eaf 7cbe
00000020: 8aa3 ccbe e261 723e 4271 a7be ad5f 1fbe
00000030: f29e 613e b462 acbe 0e8b 053f 1830 7ebe
00000040: c47c 74be b6a3 5fbe 9fcf 96be a026 ac3d
00000050: 6e13 f9bd 6850 4f3e 9e21 e6be d05c 81bd
00000060: 50d5 02bf 4fac 83be 7a0a 5ebe 76f6 dabe
00000070: cad4 6abe 093b 81bd e822 42be 7ab1 14be
00000080: 139b dd3f dc9e 2dbe 5144 d83f 0e2e 56be
00000090: d6c3 96bd e438 a93c 8953 be3f fd39 a6be
000000a0: 322e 983f f0c9 da3e 88f4 c8bd 9e24 23bd
000000b0: 1bfe 98be 9d3f f3be e3f1 803c b14b 653f
000000c0: 5a74 d0bc e8c4 ce3d ddfa f0be 9413 72be
000000d0: 45ba 53bd 208c 4ebe abd2 c7be 926e 27be
000000e0: 7d99 00bf b271 5b3e b261 8abe b66f 6fbe
000000f0: dc4d d13d 94a3 9a3d 81f5 5bbd 183f e3be
00000100: 6910 57bf f0b5 1abe 5004 90bf 6a8c 57be
00000110: d868 7f3d c4b7 8c3d 4b1f 85bf 209b c03c
00000120: 2b95 98bf 760d 5cbe 60d8 c6bd e067 65be
00000130: e824 403d f0fa 30be ea62 52be 8417 b4bf
00000140: 6b83 e6bd 502a 1dbe e400 aebe cef3 3c3e
00000150: 3220 83be 64d8 6ebe 23a0 edbe 5c51 dc3d
00000160: 630c 7d3d 408a 283e 80d0 5bbe 580d 25be
00000170: d017 08be c810 71bd 0061 123d c260 4bbe
00000180: 048e fbbe 0082 133e f11d 20be 9015 d53c
00000190: 073e 05be 6810 253d ec5f b9be b0d0 81bc
000001a0: d607 f4be 507e 99be 864b 7cbe 22b7 ebbe
000001b0: 623b 723e 2a17 86be a7bc bb3e dcf4 7abe
000001c0: 3cf0 563e 1647 72be f22a c1be a26a 3d3e
000001d0: 421d 93be b249 613e b591 0bbf 7073 c5bc
000001e0: 9a67 9fbd cc99 94bd 2033 0bbe 53fa 9bbd
000001f0: 687b 333e 8da6 eebe 5238 2c3e b213 32be
00000200: ab3c 78be 48b8 c3bd 6e5d edbe 33f5 e4bd
00000210: d728 f4be 008a c93c bec9 abbe 1863 61bd
00000220: f6b8 fdbe 8853 33be ba3b 99be 66f0 983d
00000230: 0078 fbbc b91f 04bf b598 cbbe c21b dfbe
00000240: 34a7 f53f e0a2 603d 8bdb 0040 a2f6 7f3e
00000250: c20c 373f 2fb6 94be fe77 0b40 617e dbbd
00000260: 0d02 1040 a20e a1be e37d 063e 6afe 28bd
00000270: 2085 b7bc 5c5c 2cbe 4487 973e d912 d23f
00000280: 39d0 d63f 00a5 763e 13aa 9c3f 0708 bbbe
00000290: 1566 903e a305 253e cf34 b73f ab65 08be
000002a0: c48a c83f 5117 40be de2d a2bc 862a ad3d
000002b0: 8852 8cbd 5450 55bd 84d7 a53e 8929 7b3e
000002c0: 00aa b9be 5682 343e 7436 f3be b04b 0ebe
000002d0: 1476 323e dc42 053e 9df7 0fbe 4e6a 5f3e
000002e0: 6a1a 7ebe 7029 0a3e be2e 6ebe 641b 34be
000002f0: 7008 4cbd 20bb b6bc a6e2 5bbe 4022 4abe
00000300: 9e48 ad3f e097 48be 4779 0540 0a0f 043f
00000310: bcab 093f 02c1 89bc 5948 ee3f 42f7 c5be
00000320: 3cea e93f 75b1 533e 9b74 513e b57a 523e
00000330: caa4 85be 40d9 c3bd 01a2 b53d 98a8 f03f
00000340: fc9b e73f 7077 693e 2449 2440 fb02 9fbe
00000350: a1f2 e13e 46a1 013e e8ba 0c40 5ee5 4abe
00000360: 6a5c 2040 a8b1 7b3e ae53 f3bd 03a8 c53d
00000370: 51e6 e7be 970b 0cbf 41f5 ea3c d337 dc3f
00000380: 25e2 8cbe 3ca6 3cbe 1408 c4be c04b 8ebc
00000390: d066 cebe 5267 323e bb12 8ebe 0e8e 653e
000003a0: 5df6 6abe a829 11bd 91e0 f3be 7821 453d
000003b0: b4f5 103e 83bf 60be 75b3 05bf aa67 47be
000003c0: 9154 68be ea84 113e a318 87be 9071 b23c
000003d0: 7cdd 213e 29e0 cebc 90a5 99be 40c5 0c3c
000003e0: f7f2 d6bd 2068 2f3e 88b5 4a3d 4979 f6be
000003f0: d015 e03c 10ac a6bd a5dd 6dbe a3b4 023c

bias f4 [32]
-0.5074114 -0.36715448 2.5510893 -0.19487192 -1.1625056 -0.37616572 -0.47841978 -0.338032
-0.24634585 2.9485846 2.846491 -0.35385647 2.3816605 2.667644 -0.08719264 0.018036112
2.5483866 2.887035 -0.2748382 0.16581464 -0.15218967 2.967347 -0.12435919 0.034106366
3.0640802 -0.42594725 1.8509613 2.7420764 3.1520822 -1.1638175 2.9837708 2.7091293
00000000: b7e5 01bf acfb bbbe 0c45 2340 818c 47be
00000010: fccc 94bf cb98 c0be 70f3 f4be 8812 adbe
00000020: 1642 7cbe 9cb5 3c40 e92c 3640 ad2c b5be
00000030: 206d 1840 aeba 2a40 0e92 b2bd 78c0 933c
00000040: c418 2340 2ec5 3840 98b7 8cbe 50cb 293e
00000050: 9cd7 1bbe 03e9 3d40 08b0 febd 1eb3 0b3d
00000060: e419 4440 c215 dabe 4dec ec3f 2e7e 2f40
00000070: b7bb 4940 f9f7 94bf 1af6 3e40 6062 2d40

weight f4 [64, 32]
-0.3911366 -0.16429675 -0.22799113 -0.001221816 0.11542641 0.40180603 -0.3294248 -0.2283933
0.17411505 -0.10698526 -0.46215588 -0.1478292 -0.46934316 -0.19797686 -0.08332008 0.006132261
-0.4744932 -0.13828282 -0.15559863 -0.35615313 -0.054134738 0.44711646 0.018721735 -0.24073628
-0.26476374 -0.25411823 0.09940526 -0.4064018 -0.13678312 0.011346669 -0.14399257 -0.21896061
0.29304343 -0.14907089 -0.23821987 -0.24886078 0.07178512 0.16916388 0.124762885 0.18671463
0.2098678 -0.2537653 -0.038196135 -0.24642728 -0.1693321 -0.08776638 0.452713 -0.00927495
0.032942094 -0.10241862 0.3789744 0.4434415 0.15190649 -0.19633196 0.07330983 0.40940034
-0.22021663 0.23764963 -0.13661875 -0.1606509 -0.031492155 0.017786264 -0.34690666 -0.18922722
0.3546359 -0.036402907 0.055494692 -0.43704513 -0.10940331 -0.09482965 0.3424762 -0.25428137
0.13366553 -0.091149114 -0.06323562 0.32128528 -0.0444705 0.28830317 0.39985487 0.04731417
-0.17491426 -0.16907535 0.31280378 0.13266681 0.10196195 -0.30750042 0.09212652 0.2366389
-0.07968279 0.299851 0.041602984 0.14960499 -0.20255916 -0.10942862 -0.21940796 0.060577378
0.026772752 0.049275335 -0.113498144 0.360299 -0.17366527 0.14250745 -0.090326324 -0.1200275
0.15859127 -0.29710868 -0.19500037 -0.055544782 -0.15022059 -0.3520653 -0.020932337 0.02522236
-0.2363075 -0.14445487 0.049813256 -0.34524 -0.099656284 -0.1317215 0.01641997 -0.029460182
-0.41574568 -0.059082907 -0.036475968 -0.17578979 -0.37706968 -0.09918715 -0.214797 -0.32397136
-0.25618106 0.19077149 -0.19652647 0.0056410604 -0.15301858 0.3176928 -0.28509325 0.44035482
-0.17801993 -0.2251018 -0.31345475 -0.084827825 -0.29171014 -0.21606857 -0.1370985 -0.09102669
-0.1937103 -0.17546698 -0.4299702 0.1721708 -0.23642513 0.20428813 -0.11384873 -0.1299204
-0.22761387 -0.30711222 -0.063315 -0.40180022 -0.36777008 -0.14788052 -0.14530505 -0.34726727
0.23102304 -0.3349465 -0.17826118 -0.2904122 -0.10044637 -0.37082198 0.28255188 0.3606624
0.037937175 -0.22039148 -0.16020781 -0.4355623 -0.017355392 0.12146913 0.1911715 0.08382708
-0.006954596 -0.13073805 0.45673123 0.22037418 0.45570818 -0.5092464 0.07767242 0.45432222
0.061550386 0.23627456 0.0087196985 -0.42716327 -0.00085746724 0.11711252 -0.23636825 -0.027153188
0.16283812 0.3960739 -0.28078818 0.3138811 0.081799954 0.2253479 0.12539111 0.16190225
0.26994157 -0.3364706 -0.115010865 -0.28405967 -0.045432262 -0.3606253 0.18289067 -0.050065484
-0.06551091 -0.21325427 0.37021506 -0.2518219 0.150309 0.11908901 0.052992944 0.2639315
-0.25001732 0.09471294 -0.07197028 0.025249016 -0.004625759 -0.12028038 -0.55134994 -0.23467903
0.34045702 0.47267118 -0.06831651 -0.22985817 0.042588633 -0.25846726 0.15930477 -0.34147152
0.3095807 -0.08192382 -0.689076 -0.3235301 -0.39303285 -0.3430727 0.26186278 0.083073154
-0.063655965 -0.0875457 0.2879603 0.31929728 0.40709186 0.18299697 0.07262834 0.37879926
0.045693364 0.4513891 -0.055334218 -0.47413135 -0.4271603 -0.084159814 -0.07978871 0.08229172
00000000: 0e43 c8be 683d 28be 8276 69be 5825 a0ba
00000010: af64 ec3d 85b9 cd3e 5eaa a8be efdf 69be
00000020: 374b 323e 171b dbbd b29f ecbe 8a60 17be
00000030: bf4d f0be 72ba 4abe b8a3 aabd 22f1 c83b
00000040: c6f0 f2be 039a 0dbe 3f55 1fbe b459 b6be
00000050: 63bc 5dbd 73ec e43e 535e 993c 9283 76be
00000060: 1d8f 87be c91b 82be fc94 cb3d e613 d0be
00000070: e010 0cbe 61e7 393c ca72 13be 3637 60be
00000080: ca09 963e 0aa6 18be e9ef 73be 5cd5 7ebe
00000090: 1404 933d 4c39 2d3e af83 ff3d 1f32 3f3e
000000a0: 96e7 563e 87ed 81be 8d73 1cbd 6f57 7cbe
000000b0: 6565 2dbe dcbe b3bd 00ca e73e f6f5 17bc
000000c0: 4aee 063d dac0 d1bd ef08 c23e c40a e33e
000000d0: 608d 1b3e 3f0b 49be 7723 963d ec9c d13e
000000e0: 7880 61be 6d5a 733e c9e5 0bbe ab81 24be
000000f0: ebfd 00bd 80b4 913c c09d b1be c8c4 41be
00000100: d692 b53e 371b 15bd 674e 633d 61c4 dfbe
00000110: d80e e0bd 0c36 c2bd 0a59 af3e 2b31 82be
00000120: 9edf 083e 63ac babd ad81 81bd 817f a43e
00000130: b326 36bd 799c 933e c7b9 cc3e 81cc 413d
00000140: b91c 33be 1722 2dbe d127 a03e cfd9 073e
00000150: 6dd1 d03d b270 9dbe d4ac bc3d 7851 723e
00000160: bb30 a3bd 1286 993e e467 2a3d 0d32 193e
00000170: ab6b 4fbe 1d1c e0bd 7bac 60be fc1f 783d
00000180: 8852 db3c efd4 493d b771 e8bd 1c79 b83e
00000190: 4fd5 31be 79ed 113e 02fd b8bd fad0 f5bd
000001a0: c065 223e a11e 98be 2dae 47be ed82 63bd
000001b0: 6dd3 19be e741 b4be 4b7a abbc 1f9f ce3c
000001c0: 98fa 71be faeb 13be fc08 4c3d 4cc3 b0be
000001d0: 9818 ccbd 00e2 06be 2c83 863c 7b56 f1bc
000001e0: 9edc d4be eb00 72bd d367 15bd 3d02 34be
000001f0: 470f c1be a222 cbbd bff3 5bbe 93df a5be
00000200: 2a2a 83be 9a59 433e 3c3e 49be a5d8 b83b
00000210: e7b0 1cbe a1a8 a23e bef7 91be 3076 e13e
00000220: db4a 36be 1681 66be 247d a0be 36ba adbd
00000230: 085b 95be 1441 5dbe 8d63 0cbe 346c babd
00000240: fe5b 46be 9ead 33be 0e25 dcbe 8b4d 303e
00000250: 6e19 72be e830 513e 8629 e9bd da09 05be
00000260: 9c13 69be d03d 9dbe 4bab 81bd c2b8 cdbe
00000270: 5c4c bcbe fe6d 17be d9ca 14be 04cd b1be
00000280: 4e91 6c3e 1c7e abbe 198a 36be e8b0 94be
00000290: d4b6 cdbd 61dc bdbe a4aa 903e bea8 b83e
000002a0: 0364 1b3d 4eae 61be 840d 24be 0602 dfbe
000002b0: e52c 8ebc cfc4 f83d 76c2 433e 88ad ab3d
000002c0: 61e3 e3bb 32e0 05be add8 e93e c5a9 613e
000002d0: 9552 e93e f95d 02bf b812 9f3d ec9c e83e
000002e0: 421c 7c3d f5f1 713e 11dd 0e3c 25b5 dabe
000002f0: a7c7 60ba b0d8 ef3d 850a 72be 5d70 debc
00000300: 09bf 263e 33ca ca3e 78c3 8fbe 06b5 a03e
00000310: bc86 a73d 9ac1 663e 8766 003e b4c9 253e
00000320: c835 8a3e e045 acbe d18a ebbd 4570 91be
00000330: 2e17 3abd e1a3 b8be b147 3b3e 7711 4dbd
00000340: 952a 86bd 545f 5abe d48c bd3e cdee 80be
00000350: 9aea 193e f0e4 f33d 210f 593d 0822 873e
00000360: 4502 80be dcf8 c13d 2765 93bd 06d7 ce3c
00000370: ae93 97bb 8f55 f6bd 4525 0dbf b34f 70be
00000380: 6250 ae3e f501 f23e 87e9 8bbd f15f 6bbe
00000390: 6b71 2e3d d255 84be ca20 233e 5bd5 aebe
000003a0: 5d81 9e3e adc7 a7bd 4967 30bf bda5 a5be
000003b0: 9a3b c9be 3aa7 afbe e112 863e 4222 aa3d
000003c0: 0f5e 82bd 294b b3bd 886f 933e ef7a a33e
000003d0: 586e d03e 8f63 3b3e 2bbe 943d faf1 c13e
000003e0: f728 3b3d 791c e73e 22a6 62bd 58c1 f2be
000003f0: c1b4 dabe fb5b acbd 4368 a3bd 9088 a83d

bias f4 [64]
-0.21155599 0.41478533 0.5027849 -0.27774897 -0.2541319 0.043211862 0.06335106 1.0610921
-0.037015658 0.09481281 -0.15744863 -0.073753074 -0.2916297 -0.13343671 -0.19357425 -0.33485937
-1.2446426 0.32190582 -0.27254704 0.2351604 -0.28930435 0.10179604 0.37435162 -0.14722069
0.040728882 -0.3255893 0.11299203 -0.16990632 -0.07719992 0.043663252 -0.3694921 0.6719202
0.6791549 -0.13579358 -0.3377463 0.41385618 -0.13296275 0.48016396 -0.22636425 -0.37738967
-0.090055235 0.15609765 -0.38259465 -0.16385934 0.50800145 0.08696189 0.5273497 -0.37295356
0.13793972 -0.42022958 -0.35666722 -0.35560393 -0.045035593 -0.41257444 6.7578993 0.46802858
-0.026822021 -0.34394357 -0.23697358 -0.48466495 0.510824 -0.31330568 0.41508505 -0.077642545
00000000: 22a2 58be be5e d43e 83b6 003f 1d35 8ebe
00000010: 941d 82be ecfe 303d 33be 813d ded1 873f
00000020: bb9d 17bd 382d c23d 373a 21be da0b 97bd
00000030: 7d50 95be a2a3 08be 5438 46be b072 abbe
00000040: 7350 9fbf d7d0 a43e 498b 8bbe e3cd 703e
00000050: b31f 94be 717a d03d 04ab bf3e 05c1 16be
00000060: 54d3 263d a4b3 a6be 5e68 e73d ecfb 2dbe
00000070: fe1a 9ebd 3dd8 323d 122e bdbe f602 2c3f
00000080: 18dd 2d3f 790d 0bbe 15ed acbe f5e4 d33e
00000090: 6327 08be 0dd8 f53e 08cc 67be 3839 c1be
000000a0: e16e b8bd 10d8 1f3e 72e3 c3be beca 27be
000000b0: 620c 023f 1319 b23d 6400 073f c5f3 bebe
000000c0: 1240 0d3e 5528 d7be 169d b6be b811 b6be
000000d0: 3e77 38bd f53c d3be b640 d840 71a1 ef3e
000000e0: dbb9 dbbc 5f19 b0be 34a9 72be 0126 f8be
000000f0: 5dc5 023f 9a69 a0be 0786 d43e 0e03 9fbd

weight f4 [4, 64]
-0.28350207 -0.21647261 -0.3134221 0.1875503 -0.32660675 -0.3581508 -0.30568293 -0.14037485
-0.001359582 -0.017879093 0.20546904 -0.3231893 -0.123533905 0.012306243 -0.1310973 -0.3385589
0.046614304 -0.020770073 -0.03227073 -0.0030795268 -0.37165105 -0.088372335 -0.4029431 -0.36704493
-0.11621542 -0.1856428 -0.010752238 -0.326981 0.07541761 -2.4017587 0.13842987 -0.28638315
0.08807956 -0.38461167 -0.46791244 -0.16031456 -0.09009029 -0.1762941 -0.22915265 0.16594148
0.08224577 -0.24948873 -0.19104943 0.100226775 -0.26770285 -0.06674649 -0.12965254 0.23303364
0.07888596 0.33228996 -0.27454314 -0.23385489 -0.031540915 0.1735166 -0.05182426 -0.34189522
-0.03700973 -0.20588326 -0.31464756 -0.4568371 -0.10579837 -0.25762254 -0.31568214 -0.073938206
-0.2152741 -0.18826477 -0.21353127 0.26738995 -0.18283956 -0.16128989 -0.22255926 0.008924338
-0.03361687 -0.54751956 -0.4878428 -0.48807076 -0.28921938 0.1077521 -0.32448167 -0.21778214
0.05320452 -0.27949154 -0.0844488 0.0503608 -0.22081172 0.09301056 -0.36384362 -0.2741598
-0.02264823 -0.29047316 0.06270821 -0.2018697 -0.10566777 -0.06360176 0.10366341 -0.25804555
0.019056218 -0.2797239 -0.3199765 -0.39894393 -0.12121716 0.017678173 -0.22252549 -0.16233541
-0.09692362 -0.27236566 -0.31823224 0.013887435 -0.15565446 0.07494873 0.17950115 0.045974188
0.11918664 0.19686732 -0.2377716 -0.25350478 -0.053373083 0.1458841 -0.08779676 -0.15881664
-0.040963233 0.21494648 -0.18883726 -0.020890042 -0.029026374 -0.26559097 -0.20646998 -0.09635882
0.27325287 -0.15764353 -0.45766523 -0.0034200847 0.23440588 -0.059505444 -0.35324085 0.025696732
-0.019181281 -0.35252652 -0.14497776 -0.14511052 -0.43992344 -0.043665513 -0.19739635 0.42457294
1.1491407 -0.18761683 -0.04899563 -0.04987388 0.22044443 -0.07845174 -0.24413714 0.23438226
-0.112947285 0.42203197 -0.43003663 0.27663413 0.103369966 -0.8617595 -0.19844988 0.16057037
0.03937797 0.32115027 -0.075568795 -0.22887066 -0.01420863 -0.2650684 -0.409495 0.21031353
0.043781042 -0.056970634 0.18496242 -0.1084387 0.110233106 -0.10706577 0.13579 -0.38527533
0.073945686 -0.26635736 -0.21260858 0.36575443 0.069109604 0.15461203 -0.05976958 -0.2284904
-0.09223108 0.38049904 0.2506801 0.089273304 -0.14470889 0.3409233 -0.25750786 0.04452926
0.21627301 0.2096526 -0.044224855 0.22532429 -0.38015246 0.05895318 -0.35711244 -0.0060313996
0.03972648 -0.06899269 -0.0063758437 -0.21480921 -0.21269345 -0.09410231 -0.080717385 0.42110243
0.059899002 0.22303821 -0.087184265 0.094408646 -0.41846168 0.08758974 -0.33419517 -0.2722538
0.09368819 -0.23402786 -0.32798135 0.18001178 -0.04541196 0.37245646 0.09145546 -0.10486176
0.032501824 -0.26356927 -0.3932026 0.17538057 0.09835909 -0.057868343 -0.38262662 -0.17241329
-0.024698123 0.062062297 -0.2626357 -0.09774999 0.17219833 -0.10060465 -0.012134223 0.26270416
0.107008606 -0.3680822 -0.22535849 -0.18556575 0.06126535 -0.23404798 -0.034991924 -0.22818406
0.071467444 -0.31870714 -0.3388523 -0.104539365 -0.18916665 -0.38700885 -0.4200206 0.024268672
00000000: 2f27 91be ffaa 5dbe dd78 a0be 300d 403e
00000010: 0039 a7be 8b5f b7be 7982 9cbe 6dbe 0fbe
00000020: 0034 b2ba 2d77 92bc 7a66 523e 1179 a5be
00000030: 58ff fcbd 20a0 493c 5f3e 06be 9857 adbe
00000040: a4ee 3e3d 0026 aabc 502e 04bd e3d1 49bb
00000050: 0c49 bebe 8efc b4bd 8f4e cebe 50ed bbbe
00000060: 5a02 eebd 2519 3ebe 282a 30bc 0e6a a7be
00000070: 8c74 9a3d 6ab6 19c0 8fc0 0d3e d0a0 92be
00000080: 0e63 b43d d2eb c4be 3892 efbe 8029 24be
00000090: 4281 b8bd 7186 34be fea6 6abe 90ec 293e
000000a0: 7870 a83d f979 7fbe 76a2 43be b243 cd3d
000000b0: 5910 89be 62b2 88bd a3c3 04be 5fa0 6e3e
000000c0: f68e a13d e921 aa3e eb90 8cbe a877 6fbe
000000d0: 0c31 01bd 56ae 313e ad45 54bd e40c afbe
000000e0: 8497 17bd 10d3 52be 7c19 a1be 8de6 e9be
000000f0: d1ac d8bd 1ae7 83be 17a1 a1be ea6c 97bd
00000100: d070 5cbe 7bc8 40be f1a7 5abe 56e7 883e
00000110: 4b3a 3bbe 2d29 25be 93e6 63be 6337 123c
00000120: d8b1 09bd 3e2a 0cbf 88c6 f9be 69e4 f9be
00000130: 9014 94be 22ad dc3d 7622 a6be 4802 5fbe
00000140: fcec 593d 8419 8fbe 7ef3 acbd 2047 4e3d
00000150: 781c 62be 527c be3d b649 babe ac5e 8cbe
00000160: c888 b9bc e6b8 94be 296d 803d eeb6 4ebe
00000170: 5868 d8bd a441 82bd 7b4d d43d 8c1e 84be
00000180: c91b 9c3c f937 8fbe f6d3 a3be 6142 ccbe
00000190: b440 f8bd d1d1 903c b9dd 63be 413b 26be
000001a0: e47f c6bd 8373 8bbe 56ef a2be 2088 633c
000001b0: e263 1fbe b87e 993d 26cf 373e 6e4f 3c3d
000001c0: 2018 f43d 9697 493e 667a 73be 61cb 81be
000001d0: bc9d 5abd a462 153e cace b3bd d4a0 22be
000001e0: 10c9 27bd ee1a 5c3e 8e5e 41be 9821 abbc
000001f0: b8c8 edbc 8afb 87be de6c 53be c657 c5bd
00000200: cde7 8b3e 4e6d 21be 1953 eabe 8023 60bb
00000210: 1808 703e fbbb 73bd fcdb b4be f481 d23c
00000220: 1022 9dbc 5b7e b4be 0d75 14be da97 14be
00000230: a53d e1be 9cda 32bd 4522 4abe a061 d93e
00000240: 0b17 933f a01e 40be a4af 48bd 8e48 4cbd
00000250: 2fbc 613e 4eab a0bd 16ff 79be e701 703e
00000260: e850 e7bd 9314 d83e c32d dcbe fda2 8d3e
00000270: a2b3 d33d 459c 5cbf 7236 4bbe 8f6c 243e
00000280: cb4a 213d cf6d a43e d0c3 9abd 125d 6abe
00000290: 50cb 68bc 0cb7 87be 54a9 d1be 6e5c 573e
000002a0: c053 333d 0a5a 69bd ca66 3d3e 1c15 debd
000002b0: e5c1 e13d 4c45 dbbd 890c 0b3e cf42 c5be
000002c0: d670 973d fe5f 88be 10b6 59be 2a44 bb3e
000002d0: 5689 8d3d 9e52 1e3e f2d0 74bd 63f9 69be
000002e0: a6e3 bcbd c5d0 c23e 2459 803e ecd4 b63d
000002f0: 912e 14be 808d ae3e 12d8 83be 5064 363d
00000300: ac76 5d3e 2caf 563e 1f25 35bd 69bb 663e
00000310: 58a3 c2be e478 713d 71d7 b6be 0ca3 c5bb
00000320: 3cb8 223d 0a4c 8dbd 74ec d0bb f2f6 5bbe
00000330: 50cc 59be b6b8 c0bd 284f a5bd bd9a d73e
00000340: a858 753d 2164 643e aa8d b2bd 5259 c13d
00000350: 9c40 d6be 4062 b33d a11b abbe da64 8bbe
00000360: 98df bf3d 00a5 6fbe 2ced a7be 0255 383e
00000370: e401 3abd 9db2 be3e 004d bb3d c3c1 d6bd
00000380: a220 053d 8df2 86be da51 c9be f796 333e
00000390: 7e70 c93d 5b07 6dbd a3e7 c3be 1c8d 30be
000003a0: b853 cabc 0935 7e3d 3078 86be 2631 c8bd
000003b0: c254 303e d009 cebd 9fce 46bc 2981 863e
000003c0: 5427 db3d 4575 bcbe 60c4 66be f304 3ebe
000003d0: 60f1 7a3d 46aa 6fbe b153 0fbd 15a9 69be
000003e0: 865d 923d 952d a3be 0c7e adbe bc18 d6bd
000003f0: e7b4 41be 0626 c6be f10c d7be 18cf c63c

bias f4 [4]
-0.32197696 -0.4364572 -0.8833895 -0.26107335
00000000: 2ada a4be 5177 dfbe d025 62bf 68ab 85be
