kevin_nn_2025-02-21_18-55-15.pt (torch, 16609 bytes, 8 tensors)

weight f4 [16, 16]
0	0xbdf3eeee	-0.119108066
1	0xbd9e0512	-0.07715811
2	0xbda6227a	-0.08112045
3	0xbef47fa6	-0.47753638
4	0xbe00b97a	-0.12570754
5	0x3e9107e9	0.28326347
6	0x3ee65ad3	0.44991168
7	0xbe1bfa92	-0.15232304
8	0xbd835ba4	-0.064139634
9	0x3e006496	0.1253837
10	0xbe09ce78	-0.13457668
11	0xbeed6148	-0.46363282
12	0x3cf66360	0.030076683
13	0x3e68543a	0.2268838
14	0xbea8df4c	-0.32982862
15	0xbee89a2b	-0.4543012
16	0xbecf4297	-0.40480492
17	0xbe157ff7	-0.14599596
18	0xbe7dd056	-0.24786505
19	0xbd324618	-0.043523878
20	0x3e171e09	0.14757551
21	0xbeabeee2	-0.3358069
22	0xbe0198a9	-0.12655891
23	0xbe4aeedc	-0.1981768
24	0xbf20c095	-0.62793857
25	0xbf160744	-0.58604836
26	0xbf3550de	-0.7082652
27	0xbf0435cf	-0.51644605
28	0xbdab6931	-0.08369673
29	0xbe9cf813	-0.30658016
30	0x3d61e628	0.055151135
31	0xbf10ee8c	-0.56613994
32	0xbd9f7bdb	-0.077872954
33	0xbeed1924	-0.46308243
34	0xbfce5c9b	-1.6122011
35	0xbf90bc26	-1.1307418
36	0xbf56cef2	-0.83909523
37	0x3db0da50	0.0863539
38	0xbf19faf0	-0.60148525
39	0xbe0981bf	-0.134284
40	0x3e1a5dad	0.15074797
41	0x3f212db8	0.62960386
42	0xbfa27c32	-1.2694151
43	0xbdd8ebcf	-0.10591852
44	0x3ed2c0e4	0.4116279
45	0xbf8446b3	-1.0334076
46	0x3f99f4f3	1.2027878
47	0xbf6ab2fa	-0.91679347
48	0xbf3b65ba	-0.732021
49	0xbf23f835	-0.6405061
50	0x3fb0e3a2	1.3819468
51	0x3e6a86c5	0.22902973
52	0xbf2244db	-0.63386315
53	0xbea6bb22	-0.32564646
54	0xbf9b66dd	-1.2140766
55	0xbe9ba3fb	-0.30398545
56	0x3efbb4b3	0.491613
57	0xbfc3d23c	-1.5298533
58	0xbfefed21	-1.8744241
59	0xbfbb6780	-1.4640961
60	0xbe8ebb2c	-0.27877176
61	0xbe76fa77	-0.24118982
62	0xbfcccfee	-1.6000955
63	0xbed70c41	-0.42001536
64	0x3f3fa2d4	0.7485783
65	0xbf800139	-1.0000373
66	0xbdd2df98	-0.102965534
67	0xbe8e55b2	-0.27799755
68	0xbf467e88	-0.7753682
69	0xbe9aed58	-0.30259204
70	0xbfd0e215	-1.6318995
71	0xbfc3270f	-1.5246295
72	0x3d197c74	0.037472203
73	0xbf86c6a7	-1.0529374
74	0xc00a9d47	-2.1658494
75	0xbfbcdee4	-1.4755521
76	0x3f419a47	0.75626034
77	0xbf3ecf45	-0.7453502
78	0x3f3b1ac8	0.7308774
79	0xbde67d2d	-0.11254344
80	0x3dc795ec	0.09745392
81	0xbb766380	-0.0037595928
82	0x3d8944e0	0.0670259
83	0xbfb0c066	-1.3808715
84	0xbd34f198	-0.044175714
85	0xbe764452	-0.240495
86	0xbfbcfda2	-1.4764903
87	0xbfa425d1	-1.2824041
88	0xbf9485f4	-1.1603379
89	0xbfa0cd5c	-1.2562671
90	0x3d777b20	0.060420156
91	0xbfb0c901	-1.3811342
92	0x3e602e40	0.21892643
93	0xbe33e074	-0.17566091
94	0xbd233778	-0.03984782
95	0xbfc569ac	-1.5422873
96	0x3e0d6aa0	0.13810205
97	0x3e379d22	0.17931035
98	0xbda95d78	-0.08269781
99	0xbf41b291	-0.75663096
100	0xbe1fc64a	-0.15602985
101	0xbea5213e	-0.32251924
102	0xbeacda86	-0.3376047
103	0xbf32a63e	-0.69784915
104	0xbeb4f8dd	-0.35346118
105	0xbdc76a74	-0.09737101
106	0x3d0062f8	0.031344384
107	0xbf34e31c	-0.7065904
108	0xbe5697b6	-0.2095631
109	0xbe37ba0a	-0.17942062
110	0xbd1892e0	-0.037249446
111	0xbf016af6	-0.50553834
112	0xbed53718	-0.41643596
113	0xbf0226ef	-0.5084066
114	0x3e11897e	0.14212605
115	0xbe3721a3	-0.17883925
116	0x3f1d8dcc	0.6154449
117	0xbec5bd38	-0.38620925
118	0xbec69bd0	-0.3879075
119	0xbed46a2f	-0.41487262
120	0x3d980e24	0.07424572
121	0xbeb10270	-0.34572172
122	0xbf003e38	-0.5009494
123	0x3cc1a297	0.0236371
124	0x3e4ee99f	0.20206307
125	0x3df32adf	0.118734114
126	0xbee07d36	-0.43845528
127	0xbee52e23	-0.44761762
128	0xbe5d1348	-0.21589386
129	0xbe05b68d	-0.13057919
130	0x3d3c9578	0.046040982
131	0xbe86de6d	-0.26341572
132	0xbd74502f	-0.05964678
133	0xbd20a348	-0.039218217
134	0xbe0d6817	-0.13809238
135	0xbf05def5	-0.5229333
136	0x3e3f029c	0.18653339
137	0xbd95055c	-0.07276413
138	0x3c3cd380	0.011525035
139	0xbe330d1e	-0.17485473
140	0xbdd84ec4	-0.10561898
141	0xbe605aae	-0.21909592
142	0xbe5620a8	-0.20910895
143	0xbeabd7fb	-0.33563218
144	0xbf24703d	-0.6423376
145	0xbf2e3456	-0.6804861
146	0xbf38371f	-0.7195911
147	0xbf84641a	-1.0343049
148	0xbf34518a	-0.7043692
149	0xbebb0a65	-0.36531368
150	0xbfb4452f	-1.4083613
151	0x3e539ee2	0.20666078
152	0xbea10d2c	-0.31455362
153	0xbf16b628	-0.588717
154	0xbfe6468c	-1.7990279
155	0xbdd82a67	-0.105549626
156	0xbe86392f	-0.26215503
157	0xbf6cc40c	-0.92486644
158	0x3f0ddcda	0.5541512
159	0xbf683f9e	-0.9072207
160	0xbe39cc43	-0.18144326
161	0xbdb3ed6b	-0.08785518
162	0xc0332a97	-2.7994745
163	0xbf620ece	-0.8830384
164	0xbec11a10	-0.37715197
165	0xbf0137f9	-0.5047603
166	0xbfd20472	-1.6407607
167	0x3f52f157	0.82399505
168	0xbeec9d93	-0.4621397
169	0xbd9d36c2	-0.0767646
170	0xc010b25b	-2.260886
171	0xbf3235d1	-0.6961337
172	0xbe227ed8	-0.158687
173	0xbf993e17	-1.1972073
174	0xbff9eb6d	-1.9524971
175	0xbf0c12d6	-0.5471624
176	0xbdded078	-0.10879606
177	0x3ec3551e	0.38150877
178	0xbe0a5179	-0.13507642
179	0x3f87b6be	1.0602643
180	0xbe82deab	-0.25560507
181	0xbdecd5c1	-0.11564208
182	0xbfd5ca04	-1.6702275
183	0x3fc6ddf9	1.5536491
184	0xbf1af9ca	-0.605374
185	0xbf3eb348	-0.7449231
186	0x3e812bd3	0.25228748
187	0x3befa9d7	0.0073139477
188	0xbf01c3eb	-0.5068957
189	0xbef117f8	-0.470886
190	0x3eb32e0f	0.34996077
191	0xbe120a1f	-0.14261673
192	0xbf0d497a	-0.5519024
193	0x3eae658e	0.34061855
194	0xbf520747	-0.82042354
195	0xbf38240e	-0.71930015
196	0x3e697ce2	0.22801545
197	0xbdeabe5b	-0.11462089
198	0x3e548a6f	0.20755933
199	0xbd5ef3c6	-0.0544317
200	0x3eba8e34	0.36436617
201	0xbeb5f38d	-0.35537377
202	0xbf8830ec	-1.063993
203	0xbf1acf91	-0.6047297
204	0x3c3773c3	0.011197033
205	0xbf18d04b	-0.5969283
206	0x3e4e672b	0.20156543
207	0xbf6a98bc	-0.91639304
208	0x3e22e8d8	0.15909135
209	0x3e36aa9e	0.17838523
210	0x3e58d38e	0.21174452
211	0xbf0cd4bb	-0.550121
212	0x3cb266d0	0.02177754
213	0xbe56b983	-0.20969205
214	0xbe1159af	-0.14194368
215	0xbeae9564	-0.3409835
216	0x3d703498	0.058643907
217	0x3cd5eec0	0.026114821
218	0xbe193680	-0.14962196
219	0xbea59e64	-0.32347405
220	0xbde460c4	-0.11151269
221	0xbe358458	-0.17726266
222	0x3e5ce65c	0.2157225
223	0xbee13d48	-0.43992066
224	0xbe9c788b	-0.30560717
225	0xbf199d33	-0.6000549
226	0x3aba08ae	0.001419326
227	0xbdb49153	-0.08816781
228	0xbed911e4	-0.42396462
229	0xbe0b8795	-0.13625939
230	0x3d1fd09b	0.0390173
231	0x3cd273eb	0.02569004
232	0xbe724e34	-0.23662645
233	0xbeb2c92e	-0.34919113
234	0xbea5c055	-0.323733
235	0xbe83cc83	-0.25741968
236	0x3e54ed0f	0.20793556
237	0x3e21b5eb	0.15792052
238	0xbf756330	-0.95854473
239	0xbe3c7081	-0.18402292
240	0xbdd8ca78	-0.10585493
241	0xbdd56cf2	-0.1042117
242	0xbe174a30	-0.14774394
243	0xbead34c6	-0.33829325
244	0xbe2de098	-0.16980207
245	0xbed5cafe	-0.41756433
246	0x3d6a1af5	0.057154614
247	0xbebbd595	-0.36686388
248	0xbdddaad4	-0.108235985
249	0x3d016ac0	0.031595945
250	0xbdd14efa	-0.10220142
251	0xbe03aeeb	-0.12859695
252	0xbe7fdf64	-0.2498756
253	0xbe49e46d	-0.19716044
254	0xbee3bc63	-0.44479665
255	0xbf05261e	-0.5201129

bias f4 [16]
0	0xbebe8e3c	-0.3721789
1	0xbeb2c0bc	-0.3491267
2	0xbece3947	-0.40278074
3	0xbf22e25f	-0.63626665
4	0xbef409e5	-0.476638
5	0xbf977c22	-1.1834757
6	0xbf313e17	-0.69235367
7	0xbf45a854	-0.77209973
8	0xbee695af	-0.45036075
9	0xbea59489	-0.32339886
10	0x3ecc028d	0.39845696
11	0x400aab1e	2.1666942
12	0xbeecfca4	-0.462865
13	0xbe298d2b	-0.16557758
14	0xbdcc656d	-0.09980283
15	0xbebb143a	-0.3653887

weight f4 [32, 16]
0	0xbd9d13f8	-0.07669824
1	0xbed08bda	-0.40731698
2	0xbf33a1de	-0.70168865
3	0xbe683bd1	-0.22679068
4	0x3db7b941	0.08970881
5	0x3dea7dcc	0.11449775
6	0xbe0c08a6	-0.13675174
7	0xbe7ff7b1	-0.2499683
8	0x3e5b36a2	0.2140756
9	0xbeec2e00	-0.46128845
10	0xbf24bed9	-0.6435371
11	0xbecebcf0	-0.40378523
12	0xbefe6319	-0.4968498
13	0x3e1cbb48	0.15305817
14	0xbd7ccd63	-0.06171931
15	0xbdbab577	-0.09116643
16	0x3ec912c9	0.39272144
17	0x3e9ce0ca	0.3064025
18	0xbf38c7e1	-0.7217999
19	0xbec5f0a2	-0.3866015
20	0xbde160fb	-0.11004826
21	0x3fa69a9b	1.3015932
22	0xbf43fc26	-0.76556623
23	0xbd1587ea	-0.03650657
24	0x3e61c596	0.2204803
25	0xbf17a834	-0.5924103
26	0x3f3cffbc	0.7382772
27	0x3efbdb59	0.49190786
28	0x3e479aa6	0.19492587
29	0xbe3efd83	-0.18651395
30	0xbe0684f8	-0.13136661
31	0x3e2653fc	0.16242975
32	0x3e57a938	0.21060646
33	0xbeacecd9	-0.3377445
34	0xbc27db0e	-0.010245098
35	0x3d06c84c	0.03290586
36	0xbe5aead8	-0.21378648
37	0xbe2dd1b4	-0.16974527
38	0xbe285006	-0.16436777
39	0xbe552d69	-0.20818104
40	0xbd2913d0	-0.04127866
41	0xbe261d07	-0.1622201
42	0xbda89dc1	-0.08233214
43	0xbedb4a77	-0.4283025
44	0xbe803dc8	-0.25047135
45	0x3e4ecf00	0.20196152
46	0xbe85af0d	-0.26110116
47	0xbe67ad82	-0.22624782
48	0xbe6b1524	-0.22957283
49	0xbd2c0f50	-0.04200679
50	0xbe1b7004	-0.1517945
51	0xbf14a77c	-0.5806806
52	0xbf094e31	-0.53634936
53	0xbdb62a58	-0.08894795
54	0x3e1acea8	0.15117896
55	0xbe9764a3	-0.29568967
56	0xbe1bae3a	-0.15203181
57	0xbf162d20	-0.58662605
58	0xbecf079e	-0.404355
59	0xbf14485f	-0.5792293
60	0xbde8a148	-0.11358887
61	0x3e1e9126	0.15485057
62	0xbe5b6304	-0.2142449
63	0x3e775f4c	0.24157447
64	0x3e1fcaae	0.1560466
65	0xbe1c7600	-0.15279388
66	0xbd0d22b8	-0.03445694
67	0xbefce316	-0.49392003
68	0xbf0a163e	-0.5394019
69	0x3db4e630	0.08832967
70	0xbe40adc6	-0.1881629
71	0xbe7fd291	-0.24982668
72	0x3e379664	0.17928463
73	0xbe9fc77a	-0.31206876
74	0xbe9e4b38	-0.30916762
75	0xbe3a4241	-0.18189336
76	0xbead55d5	-0.33854547
77	0xbd9be6a8	-0.076123536
78	0xbef8a2fe	-0.48561853
79	0x3e331f94	0.17492515
80	0x3e909191	0.28236058
81	0x3e9d6bae	0.30746216
82	0xbe9fd451	-0.31216672
83	0xbe48f6a4	-0.19625336
84	0x3d71bd88	0.05901864
85	0x3c70efc0	0.014705598
86	0xbe4ee264	-0.20203549
87	0xbde5ba94	-0.112172276
88	0x3e5b4914	0.21414596
89	0xbee8d374	-0.45473826
90	0xbf04065a	-0.5157219
91	0xbeba3773	-0.3637043
92	0x3e2171bd	0.15766044
93	0x3d7e2b10	0.062052786
94	0xbd3b1439	-0.045673583
95	0xbeb23798	-0.3480804
96	0x3eb4bae4	0.35298836
97	0x3dfd814d	0.12378178
98	0xbeef33cf	-0.46719214
99	0xbf118152	-0.5683795
100	0xbf5311e3	-0.8244917
101	0xbe718e54	-0.2358945
102	0xbe411bae	-0.18858215
103	0xbd5985b8	-0.05310604
104	0x3eac3da2	0.33640772
105	0xbe52f953	-0.20602922
106	0xbdffa2fc	-0.12482259
107	0xbed03ae7	-0.4066994
108	0xbe8842b3	-0.26613387
109	0xbe03f90b	-0.12887971
110	0x3d4dabc8	0.05021265
111	0x3d9739db	0.07384082
112	0x3f00397a	0.500877
113	0xbde27ca4	-0.110589296
114	0xbdf0c9c2	-0.11757232
115	0xbea3543a	-0.31900197
116	0xbe58045f	-0.21095417
117	0x3e5d0366	0.21583328
118	0xbe3aaf32	-0.18230894
119	0xbf10a345	-0.5649913
120	0x3e1d5663	0.15364985
121	0xbe9be359	-0.3044689
122	0xbeb86707	-0.36016104
123	0xbef761c2	-0.4831677
124	0xbdef6bfc	-0.11690518
125	0x3d23fb68	0.04003468
126	0xbe1c3acd	-0.15256806
127	0x3dc99f54	0.098448426
128	0x3ec760b9	0.3894098
129	0xbe709370	-0.23493743
130	0xbed6d540	-0.41959572
131	0xbee931c2	-0.45545775
132	0x3e2802ec	0.16407365
133	0xbde4fd20	-0.11181092
134	0x3e56828e	0.2094824
135	0xbf002b86	-0.5006641
136	0xbd2d93f8	-0.042377442
137	0xbe09b70e	-0.13448736
138	0xbee6d4b8	-0.45084167
139	0xbd65cea9	-0.05610529
140	0xbec37cca	-0.38181144
141	0xbe36153c	-0.17781538
142	0xbd625821	-0.055259828
143	0xbe04a926	-0.1295515
144	0xbe9588ad	-0.29205838
145	0xbe34e7f6	-0.17666611
146	0xbea7cf7f	-0.32775494
147	0xbd9d2aeb	-0.076742016
148	0x3d55246d	0.05203669
149	0x3e3025b4	0.17201883
150	0x3d2f88d8	0.042855114
151	0xbf041aa6	-0.5160316
152	0xbd170180	-0.036866665
153	0xbf1e8329	-0.61918885
154	0xbf062457	-0.523992
155	0xbec6dfa4	-0.388425
156	0xbf0b6830	-0.5445585
157	0x3e22b7b6	0.15890393
158	0xbe406d8b	-0.18791787
159	0xbe6a78a1	-0.22897579
160	0x3e2fb670	0.17159438
161	0xbaac1504	-0.0013128822
162	0xbe9a966b	-0.30192885
163	0xbeafeebe	-0.34361833
164	0xbd97baa8	-0.07408649
165	0x3dbf44e0	0.09339309
166	0x3ddcf88c	0.10789594
167	0x3cab5440	0.020914197
168	0x3c9b5d40	0.018965364
169	0xbe40a9ec	-0.1881482
170	0xbe8dbd5c	-0.27683532
171	0xbef9bc83	-0.48776636
172	0xbed2f59a	-0.41203004
173	0x3e7e36d2	0.248256
174	0xbd955459	-0.07291479
175	0xbe01fde6	-0.12694511
176	0x3d89d794	0.067305714
177	0xbe509513	-0.20369367
178	0xbde88b5c	-0.11354706
179	0xbedfb00e	-0.43689007
180	0xbe9454d3	-0.28970966
181	0x3d2a2388	0.04153779
182	0xbcb71a10	-0.022351295
183	0xbebb5512	-0.3658834
184	0x3eb10495	0.34573808
185	0xbd4b4fc4	-0.049636617
186	0xbed5c7e4	-0.41754067
187	0xbe613f5d	-0.21996827
188	0xbe94d4ca	-0.29068595
189	0xbd875b74	-0.0660924
190	0xbf016932	-0.5055114
191	0xbe27327a	-0.16327849
192	0x3e4ca338	0.19984138
193	0xbf015c0b	-0.5053107
194	0xbee4cabf	-0.44685933
195	0xbea56329	-0.32302216
196	0xbe0b5928	-0.13608229
197	0x3c182c20	0.009287864
198	0x3d63db00	0.055628777
199	0xbe618b7e	-0.22025868
200	0x3d64a368	0.0558199
201	0xbe81d006	-0.25354022
202	0xbd92b681	-0.07163716
203	0xbec9b91a	-0.39399034
204	0xbf0bc333	-0.54594725
205	0xbe4528a8	-0.1925379
206	0xbed337d1	-0.41253522
207	0xbe4c5e81	-0.19957925
208	0xbe02e5e4	-0.12783009
209	0x3e7d2565	0.24721296
210	0xbe32d4bf	-0.17463969
211	0x3f10cdf7	0.5656428
212	0xbf043e90	-0.5165796
213	0x3c9577b0	0.018245548
214	0xbf20d17d	-0.62819654
215	0xbdbdeb04	-0.09273341
216	0x3e19c3af	0.15016054
217	0xbe73f112	-0.2382243
218	0xbf346a7b	-0.70474976
219	0xbf26d3a4	-0.6516669
220	0x3e9fa3ef	0.3117976
221	0xbe5dfbff	-0.2167816
222	0xbe0c5fa8	-0.13708365
223	0xbed081a4	-0.40723908
224	0xbdd66f30	-0.10470426
225	0x3ead9de0	0.33909512
226	0xbf48dbad	-0.784602
227	0xbe9ab3a4	-0.3021518
228	0xbc4bea9c	-0.012446072
229	0xbd92ebe4	-0.07173899
230	0x3e74979c	0.2388596
231	0xbef77442	-0.48330885
232	0x3d292618	0.041296095
233	0xbf0dabc9	-0.5534025
234	0xbf3cbf06	-0.7372898
235	0xbeeafe2f	-0.45897052
236	0x3e56a712	0.2096217
237	0xbe70e3c6	-0.23524389
238	0xbd5b42c0	-0.053530455
239	0xbe84a2e5	-0.2590553
240	0x3e34ad60	0.17644262
241	0xbe32bbb8	-0.17454422
242	0xbd0f1ae8	-0.03493777
243	0xbea8f4af	-0.3299918
244	0xbdf3dea4	-0.119077
245	0xbe4ed642	-0.2019892
246	0xbdb30db0	-0.08742845
247	0xbea7b451	-0.32754758
248	0xbd397ca8	-0.045284897
249	0xbeb2fc63	-0.3495818
250	0xbe997e76	-0.29979295
251	0xbe872ca6	-0.26401252
252	0xbdc87064	-0.09787062
253	0xbdc63614	-0.09678283
254	0xbf055825	-0.5208762
255	0xbe3ea028	-0.18615782

bias f4 [32]
0	0xbee12c84	-0.43979275
1	0x4029b353	2.65157
2	0xbefc8534	-0.49320376
3	0xbe3077a9	-0.17233147
4	0xbe82b6c0	-0.25530052
5	0xbdf9f25e	-0.12204431
6	0xbe881f8f	-0.26586577
7	0xbeed0d74	-0.46299326
8	0xbefaf290	-0.49013186
9	0xbf5cae92	-0.86203873
10	0xbefc82c3	-0.49318513
11	0xbe80744a	-0.25088722
12	0xbe5e65ba	-0.21718493
13	0xbcdde743	-0.027087813
14	0xbe9c5959	-0.30536917
15	0xbcf9dfb8	-0.030502185
16	0xbf5d196d	-0.8636692
17	0xbb3e0cdf	-0.002899937
18	0xbed2ae6b	-0.41148695
19	0xbdfac672	-0.12244882
20	0x3fb93858	1.447032
21	0xbefe8449	-0.497103
22	0xbf3532d0	-0.7078066
23	0xbecadee2	-0.3962317
24	0xbe996e7f	-0.29967114
25	0xbd3aa922	-0.045571454
26	0x40d638ff	6.6944575
27	0xbde189e1	-0.110126264
28	0xbede2b66	-0.43392485
29	0xbe0457b7	-0.12924086
30	0x408247c0	4.0712585
31	0xbeb2b296	-0.34901875

weight f4 [64, 32]
0	0xbed2314d	-0.4105324
1	0xbfdebd30	-1.7401485
2	0x3e16333f	0.14667986
3	0xbdd36827	-0.103226
4	0xbe83dcd9	-0.2575443
5	0xbeb3355b	-0.35001644
6	0xbe9af503	-0.30265054
7	0x3e2c72e0	0.16840696
8	0xbe69ae62	-0.22820428
9	0xbebc80eb	-0.36817107
10	0xbdbdc625	-0.09266309
11	0x3e0bfcf0	0.13670707
12	0x3ecd0309	0.40041378
13	0xbfe62903	-1.7981266
14	0xbdffc8bf	-0.12489461
15	0xbdf3ec66	-0.11910324
16	0xbe7b03db	-0.2451319
17	0x3e156312	0.14588574
18	0xbee0d999	-0.43916014
19	0xbe43d669	-0.1912476
20	0xbe6103e6	-0.21974143
21	0xbe378dfd	-0.17925258
22	0xbcb0bfb8	-0.021575794
23	0x3e439d91	0.19103076
24	0xbee39bfa	-0.44454938
25	0xbe8e4835	-0.27789465
26	0xbe436165	-0.19080122
27	0xbf6680ff	-0.9004058
28	0xbede8873	-0.43463477
29	0x3ea0736d	0.31338063
30	0xbd8bfc5c	-0.06835243
31	0xbeefb158	-0.4681499
32	0xbd08db9e	-0.03341257
33	0xbf47fa66	-0.7811645
34	0x3dca57f5	0.09880058
35	0xbd8cd815	-0.06877152
36	0xbbe23236	-0.0069029583
37	0x3d5d4e96	0.054030024
38	0x3f31199a	0.6917969
39	0x3dbbe96c	0.09175381
40	0x3d4cf451	0.050037686
41	0xbdc75ef2	-0.09734906
42	0xbdc4309d	-0.09579585
43	0x3dee74ce	0.116433725
44	0x3cda17de	0.026622709
45	0xbf131500	-0.5745392
46	0x3e0129c3	0.12613587
47	0xbe2ebfae	-0.17065307
48	0x3e1352b5	0.14387019
49	0x3f2ba7b1	0.6705275
50	0xbe28c116	-0.16479906
51	0xbe2827cb	-0.1642143
52	0x3d46c39a	0.048526384
53	0xbdeeb600	-0.116558075
54	0xbd891136	-0.06692736
55	0x3e20dffe	0.15710446
56	0x3d95f63b	0.07322355
57	0xbc01d084	-0.007923249
58	0x3de420f4	0.11139098
59	0xbe2dd1f4	-0.16974622
60	0xbd9197fc	-0.07109067
61	0x3edb2c3f	0.42807195
62	0xbdbac3ff	-0.091194145
63	0x3cdaace4	0.026693769
64	0xbd654297	-0.05597171
65	0xbfd21b5d	-1.6414601
66	0xbe13b279	-0.1442355
67	0xbce8d3e3	-0.028421348
68	0xbe1b8690	-0.1518805
69	0x3dd45a20	0.103687525
70	0x3eff89ea	0.49909908
71	0xbd0096c8	-0.031393796
72	0xbe0478e5	-0.12936743
73	0xbe2561e3	-0.16150622
74	0xbd909491	-0.07059587
75	0x3e0231e4	0.12714344
76	0x3cbb07f8	0.022830948
77	0xbfe3010a	-1.7734692
78	0x3c704b32	0.014666365
79	0x3da28f4f	0.0793749
80	0x3b89c0a7	0.004203874
81	0x3e90256e	0.28153557
82	0xbd4b077c	-0.049567685
83	0xbeb92a82	-0.36165243
84	0xbf8066b0	-1.0031338
85	0xbe28136b	-0.16413657
86	0x3ea7ef2e	0.32799667
87	0x3e270f0f	0.16314338
88	0xbd80999f	-0.06279301
89	0xbd74531b	-0.059649568
90	0xbfbe3285	-1.4859167
91	0xbf992adb	-1.1966203
92	0x3db9d562	0.09073903
93	0x3f8e2df0	1.1107769
94	0xbf166230	-0.5874357
95	0xbc389fd0	-0.011268571
96	0x3ec65fed	0.3874506
97	0xbef0080a	-0.46881133
98	0x3d7f9349	0.06239632
99	0xbe0fb034	-0.1403206
100	0xbe0087d9	-0.12551822
101	0xbe84b8d7	-0.25922272
102	0xbe1dd4b5	-0.15413173
103	0xbbcc3495	-0.006231854
104	0xbe1b0a57	-0.15140663
105	0x3e8cd9d3	0.27509937
106	0xbd5b92f7	-0.053606953
107	0x3e065300	0.131176
108	0xbd7b2483	-0.061314117
109	0xbf93543d	-1.1510082
110	0xbebeba31	-0.37251428
111	0xbd868a7f	-0.06569385
112	0xbe167878	-0.14694393
113	0xbec2dcb2	-0.38059002
114	0xbe17efc4	-0.14837557
115	0xbeddce78	-0.43321586
116	0xbe916024	-0.28393662
117	0xbebe4085	-0.371586
118	0x3d8d11f1	0.06888188
119	0x3eccdcb0	0.4001212
120	0xbe4bfcb3	-0.19920616
121	0xbeeeddad	-0.466535
122	0xbe884699	-0.26616362
123	0xbf1aed29	-0.6051813
124	0xbee3e3fc	-0.44509876
125	0x3e49e379	0.1971568
126	0xbcae5fc8	-0.021285906
127	0xbe97bec4	-0.2963773
128	0xbec41ce8	-0.38303304
129	0x3fc07c33	1.5037903
130	0x3eb43ed0	0.35204172
131	0xbe34b136	-0.17645726
132	0xbe7a6420	-0.24452257
133	0xbec43a02	-0.38325506
134	0xbe5a5148	-0.21320069
135	0xbeda30c5	-0.42615333
136	0xbe4d4f0d	-0.20049687
137	0xbe32803a	-0.17431727
138	0x3dc63f92	0.09680094
139	0xbe1eb5e3	-0.15499072
140	0xbe911c4e	-0.28341907
141	0x3f7facd0	0.99873066
142	0xbec490fb	-0.3839186
143	0xbb566163	-0.0032711856
144	0x3f768fa9	0.9631296
145	0x3e1855cd	0.1487648
146	0xbe1999e0	-0.15000105
147	0x3f4b6d77	0.79463905
148	0xc016a8b8	-2.3540478
149	0xbe7fa9b4	-0.2496708
150	0x3fe2e84f	1.7727145
151	0x3e4b78e2	0.19870332
152	0xbebb2434	-0.36551058
153	0xbedb533a	-0.42836934
154	0xbf37f659	-0.7186027
155	0x4014a146	2.3223433
156	0xbe15904b	-0.14605825
157	0x3dc0fc24	0.09423092
158	0x3f250c86	0.64472234
159	0xbe2e17d3	-0.17001276
160	0x3ed992b2	0.42494732
161	0x3ff098d6	1.8796642
162	0xbe8cc30b	-0.27492556
163	0xbd303db9	-0.043027613
164	0x3c567069	0.013088324
165	0x3ecf998d	0.40546837
166	0xbc165a20	-0.009176761
167	0xbe935631	-0.28776696
168	0x3eb9e305	0.36306015
169	0x3e87d8c7	0.26532575
170	0xbe883802	-0.2660523
171	0x3ed98afd	0.42488852
172	0x3ee9c61b	0.45658955
173	0x3ff86014	1.9404321
174	0x3e6b8f7a	0.2300395
175	0x3e775a77	0.24155603
176	0xbdbb0b8f	-0.09133064
177	0xbe6aa7bd	-0.2291555
178	0x3ef690d5	0.48157373
179	0x3ce4849f	0.02789527
180	0x4016500f	2.3486364
181	0xbe35409d	-0.1770043
182	0x3ea256e8	0.3170693
183	0xbe14302c	-0.14471501
184	0xbed0b96b	-0.40766463
185	0xbe44a686	-0.19204149
186	0x404760d0	3.115284
187	0x3f717d8c	0.94332194
188	0x3e06b3a1	0.1315446
189	0xbe24399f	-0.16037606
190	0x40821c23	4.0659347
191	0x3ec6f4dd	0.3885869
192	0xbe361f51	-0.17785384
193	0x3ffe252a	1.9855092
194	0xbe025913	-0.12729292
195	0x3e7e8128	0.24853957
196	0x3ee906be	0.45512956
197	0xbe162e09	-0.14665999
198	0xbe90a408	-0.28250146
199	0x3ec9340f	0.3929753
200	0x3ef0f084	0.470585
201	0xbe8809da	-0.26570016
202	0x3e838e61	0.25694564
203	0x3ec0ae32	0.376329
204	0x3e7900ae	0.24316666
205	0x3f19a1fa	0.6001278
206	0xbe2f4f73	-0.17120151
207	0xbebc9750	-0.36834192
208	0x3e659484	0.22419935
209	0x3f645165	0.891867
210	0x3e52eadd	0.20597406
211	0x3fc20330	1.5157223
212	0xbde74d9d	-0.112941004
213	0x3ddab75b	0.106795035
214	0x3ef0d127	0.4703457
215	0xbe86df38	-0.26342177
216	0xbe58623b	-0.21131222
217	0x3e949eaf	0.29027316
218	0x3e0b4381	0.1359997
219	0xbf3e1e59	-0.74265057
220	0x3e037679	0.12838162
221	0x3eaf107b	0.3419226
222	0x3fe89977	1.8171834
223	0x3ec433bf	0.3832073
224	0xbd87d94a	-0.066332415
225	0xbe3cdaaa	-0.18442789
226	0xbd057d0d	-0.03258996
227	0xbdc7a7fa	-0.09748836
228	0x3dfe3c8a	0.12413891
229	0xbe9f824a	-0.3115409
230	0x3d2c82ec	0.042117044
231	0xbe50a2bb	-0.20374577
232	0xbdfd2278	-0.1236009
233	0xbe16c828	-0.14724791
234	0xbdf68c5c	-0.1203849
235	0xbe81ad85	-0.25327697
236	0xbcbfce33	-0.023413753
237	0xc0000e7f	-2.0008848
238	0x3e14b3f0	0.14521766
239	0x3e9f2b48	0.31087708
240	0x3e54c18b	0.20776956
241	0xbdac11c3	-0.08401825
242	0x3dd87d84	0.10570815
243	0xbd6abd94	-0.057309702
244	0x3f11d9a3	0.5697271
245	0xbe8cf663	-0.27531728
246	0x3d44d9ca	0.048059262
247	0x3e75efdb	0.24017279
248	0xbee1442a	-0.43997318
249	0xbe191331	-0.14948727
250	0xbe6ea3c2	-0.23304656
251	0x3c9bbef0	0.019011945
252	0x3e0254ae	0.12727615
253	0x3d8c2071	0.06842125
254	0xbfb0fd6f	-1.3827342
255	0xbd23b54a	-0.039967813

bias f4 [64]
0	0xbfe084f1	-1.754057
1	0xbf4ef71f	-0.80845827
2	0xbf6bcd36	-0.9211
3	0xbefaf020	-0.49011326
4	0x3e48ff36	0.19628605
5	0x40657c94	3.5857286
6	0x3fee7cca	1.8631833
7	0xbfd92593	-1.6964592
8	0xbfe02dc1	-1.7513963
9	0xbf861cbb	-1.0477518
10	0xbf14e21c	-0.58157516
11	0xbf62044a	-0.88287795
12	0xbfb0e256	-1.3819072
13	0x3e9b1b04	0.3029405
14	0xbfdb54b6	-1.7135227
15	0xc0321aa2	-2.7828755
16	0x3f9f166d	1.2428719
17	0xc08d4a1f	-4.415298
18	0xbe963e5b	-0.29344448
19	0xbf02e20d	-0.51126176
20	0xbeaa13c2	-0.332182
21	0xbfe3878e	-1.7775743
22	0xbf2cbcd2	-0.67475617
23	0xbf91464e	-1.134958
24	0xbf014ab9	-0.5050464
25	0xbec91afa	-0.39278394
26	0xbf6946e7	-0.91123813
27	0x3ffad882	1.9597323
28	0xbf7b0d34	-0.9806702
29	0xbf3dbcbd	-0.74116117
30	0xbfb9a27d	-1.4502712
31	0xbeb2f6e6	-0.34953994
32	0xbc328623	-0.0108962385
33	0xbfb4bac1	-1.4119493
34	0xbed099e2	-0.40742403
35	0xbf19c9da	-0.60073626
36	0x3efc3712	0.49260765
37	0xbe7d6fab	-0.24749629
38	0x3ef2b969	0.47407082
39	0xbdfe0327	-0.12402945
40	0xbe5fc5eb	-0.21852843
41	0xbfa5b2d5	-1.29452
42	0x40c7e177	6.2462726
43	0xbee61e54	-0.44945014
44	0xbf3fb511	-0.7488566
45	0xbdc0de54	-0.09417406
46	0xbf4feeac	-0.8122356
47	0xbec8901b	-0.39172444
48	0xbfd9b590	-1.7008533
49	0x3f5c08a5	0.8595069
50	0x3ff3e8ce	1.9055421
51	0xbf1a3acf	-0.60245985
52	0x3f988906	1.1916816
53	0x3ff8d2be	1.9439313
54	0xbf9a7217	-1.2066067
55	0xbe36d483	-0.17854504
56	0xbec01199	-0.37513426
57	0x3d0279ae	0.031854324
58	0xbebf3e6d	-0.37352315
59	0x3cce5ec9	0.025191681
60	0xbf2346b6	-0.6377977
61	0xbf19c299	-0.6006256
62	0xbebed5fa	-0.37272626
63	0xbf68df7a	-0.90966

weight f4 [4, 64]
0	0x3ebfed47	0.37485716
1	0x3c7b5d3b	0.015342052
2	0xbe9383da	-0.28811532
3	0x3eb252e7	0.34828874
4	0x402df24d	2.7179139
5	0xbf8092e7	-1.0044831
6	0xbd92f097	-0.07174795
7	0x3ecd3801	0.4008179
8	0xbe489935	-0.19589694
9	0xbdea39e0	-0.1143682
10	0x3e31cc82	0.1736317
11	0x3d38d1e8	0.045122057
12	0xbeecd118	-0.46253276
13	0x3de5c91b	0.112199984
14	0xbfe0c52f	-1.7560176
15	0x3da6f2ca	0.08151777
16	0xbeb1a001	-0.34692386
17	0x3f3d2d88	0.738976
18	0xbe853b17	-0.26021644
19	0xbe2e6d80	-0.17033958
20	0xbe496010	-0.19665551
21	0x3ee981c4	0.45606816
22	0xbcca3768	-0.024684623
23	0x3e69add9	0.22820224
24	0xbf0be927	-0.5465264
25	0x3e937955	0.28803506
26	0xbed6ddb8	-0.41966033
27	0xbe87d363	-0.26528463
28	0xbe689e4c	-0.22716635
29	0x3e42b83e	0.19015595
30	0x3df3c977	0.11903661
31	0xbe82ac3d	-0.25522032
32	0xbf2875da	-0.6580483
33	0x3f18bfd8	0.5966773
34	0xbf73a05a	-0.9516655
35	0xbe2f035c	-0.17091125
36	0xbe05fee1	-0.1308551
37	0xbe8cc83e	-0.27496523
38	0x3db9a2cb	0.090642534
39	0xbe56ac12	-0.20964077
40	0xbec8b517	-0.3920066
41	0xbebf52ee	-0.37367958
42	0xbecac8b9	-0.39606264
43	0xbe64efc3	-0.22357087
44	0x3f2093e0	0.6272564
45	0xbd65616a	-0.056001104
46	0x3fbd0083	1.4765781
47	0xbe282b59	-0.16422786
48	0xbe6ad9e7	-0.22934686
49	0xbef4e896	-0.478337
50	0x3ecea515	0.40360323
51	0xbdbc7390	-0.09201729
52	0xbebc14d6	-0.36734647
53	0xbf4d2736	-0.80137956
54	0x3eeec4e8	0.46634603
55	0xbe7c12a8	-0.24616492
56	0xbe983057	-0.2972438
57	0xbf5be62e	-0.858981
58	0xbedaa221	-0.4270182
59	0xbdc19ac4	-0.09453347
60	0x3dd70273	0.10498514
61	0xbf2a0354	-0.6641133
62	0xbd658b8a	-0.056041278
63	0x3f6332e1	0.8874951
64	0xbe9a620b	-0.30152926
65	0xbf7e525e	-0.9934443
66	0x3f4f4172	0.80959237
67	0xbe5aa55e	-0.21352145
68	0x3f471516	0.7776655
69	0xbefe9790	-0.49725008
70	0xbea13d2f	-0.31491992
71	0x3e31863e	0.17336366
72	0x3f947073	1.1596817
73	0xbeb47769	-0.35247353
74	0xbe69a160	-0.22815466
75	0xbcc35620	-0.023844779
76	0xbeb7fede	-0.35936636
77	0xbc8c0f5f	-0.017097173
78	0x3f72daf5	0.9486535
79	0xbfa33a06	-1.2752082
80	0xbe14743b	-0.14497463
81	0xbf041aa1	-0.5160313
82	0xbeb46443	-0.35232744
83	0x3e004213	0.12525205
84	0x3d71270c	0.05887513
85	0xbf6d1fa6	-0.92626417
86	0x3eac600b	0.33667025
87	0x3d42b6f4	0.04753776
88	0xbf278a36	-0.6544527
89	0xbd21d4a8	-0.039509445
90	0xbe0709e5	-0.13187368
91	0xbf59726f	-0.84940237
92	0x3e620af0	0.22074485
93	0x3d8defeb	0.06930526
94	0x3ebbabf7	0.36654636
95	0x3ebfd9fe	0.37471002
96	0xbe82e9a1	-0.2556887
97	0xbdcb9e20	-0.09942269
98	0xbf264378	-0.649467
99	0xbf0ec812	-0.55774033
100	0xbd8ea57e	-0.06965159
101	0xbdb26db4	-0.087123305
102	0xbda9755e	-0.08274339
103	0xbe6f2930	-0.23355556
104	0xbe2acb99	-0.16679229
105	0x3f0851e6	0.5324997
106	0xbefa7e80	-0.48924637
107	0xbeef411c	-0.46729362
108	0x3f915cec	1.1356483
109	0xbe68e485	-0.22743423
110	0x3f809cc8	1.0047846
111	0xbea3e47b	-0.32010254
112	0x3f71bae1	0.9442578
113	0x3e700867	0.23440705
114	0x3d50af05	0.05094816
115	0xbf60a3ba	-0.87749827
116	0xbf6addf8	-0.9174495
117	0x3eb9e678	0.36308646
118	0xbf5e9787	-0.8694996
119	0xbdf3bfa7	-0.11901789
120	0xbe7a1b51	-0.24424483
121	0xbeb52b12	-0.35384423
122	0x3ddff4c1	0.10935355
123	0x3e1dbee8	0.15404856
124	0x3ec6042b	0.38675055
125	0xbd655cc0	-0.055996656
126	0xbe700f85	-0.2344342
127	0xbef4eef3	-0.47838554
128	0x3f0bda3a	0.5462986
129	0xbce586a3	-0.028018301
130	0x3fcd0e0e	1.6019914
131	0xbf07187c	-0.52771735
132	0xbfa087e7	-1.2541474
133	0xbea175ac	-0.3153509
134	0xbf2eb8fc	-0.68251014
135	0xbec81cb2	-0.39084393
136	0x3f4622bd	0.77396756
137	0xbf0d133a	-0.5510746
138	0xbec081cc	-0.37599027
139	0xbf5bee35	-0.8591035
140	0x3f926c52	1.1439307
141	0xbc7fc972	-0.015611993
142	0x3eba4e18	0.36387706
143	0xbf7b93dc	-0.9827249
144	0x3e850639	0.2598131
145	0xbe3b42c0	-0.18287182
146	0xbf2f657a	-0.68514216
147	0xbe9bc92b	-0.30426916
148	0xbf6151a9	-0.8801523
149	0xbfe02fe1	-1.7514611
150	0x3ed66443	0.4187337
151	0x3f459641	0.77182394
152	0x3dda8a9b	0.10670968
153	0x3d009d7c	0.03140019
154	0x3ea34a20	0.3189249
155	0x3fc8faf4	1.5701585
156	0x3eed7d02	0.46384436
157	0x3f5d21f9	0.86379963
158	0x3fedd378	1.858016
159	0xbeb785b7	-0.35844204
160	0xbe943a58	-0.28950763
161	0x3f11797f	0.56826013
162	0x3bf9a8a4	0.0076189805
163	0xbcf2d111	-0.029640706
164	0x3bae670c	0.0053223427
165	0x401ec5b4	2.4808168
166	0xbf092f9c	-0.5358827
167	0xbec9ddba	-0.39426976
168	0x3d852fe4	0.06503275
169	0x3f8d78c1	1.1052476
170	0x3da99867	0.082810216
171	0xbc55baf6	-0.013045063
172	0xbe4e9a69	-0.2017609
173	0xbd53a19b	-0.05166779
174	0x3ff23a1b	1.8923982
175	0xbce88068	-0.028381541
176	0x3fc492b4	1.535727
177	0xbc94754d	-0.01812234
178	0xbee4d5fc	-0.44694507
179	0x3e4f7c59	0.20262279
180	0x3de585aa	0.11207135
181	0x3e88d61f	0.2672586
182	0xbe8a15a1	-0.26969627
183	0xbe97e0dd	-0.29663745
184	0x3eea9d87	0.4582331
185	0xbee141db	-0.43995556
186	0x3e2ff64a	0.17183796
187	0x3ea4b04b	0.3216575
188	0xbdfde1ff	-0.12396621
189	0x3d8d326e	0.06894384
190	0x3d3f83b3	0.046756458
191	0x3dd2b733	0.10288849
192	0xbf6e0cbe	-0.92988193
193	0xba66aab0	-0.0008799238
194	0x3ec2471b	0.37944874
195	0x3dee58b4	0.116380125
196	0xbe51d221	-0.20490314
197	0x3f2a0582	0.66414654
198	0xbdb846df	-0.089978926
199	0xbfbf74bf	-1.4957503
200	0x3f5a2fc0	0.8522911
201	0xbdfe95c4	-0.12430909
202	0xbe6ec712	-0.23318127
203	0x3f617274	0.88065267
204	0xbf3f4379	-0.7471233
205	0x3e1f9d1c	0.15587276
206	0x3f8637e0	1.0485802
207	0x3eab9d51	0.3351846
208	0x3c33e3e8	0.01097963
209	0x3e3d3825	0.18478449
210	0xbdd5ce15	-0.10439698
211	0x3ecd0827	0.40045282
212	0x3eac5e8f	0.33665892
213	0x3f67b644	0.9051249
214	0x3e720600	0.23635101
215	0x3daedb24	0.085378915
216	0xbeb3b317	-0.35097572
217	0xbc970da0	-0.018439114
218	0xbe1e9b53	-0.15488939
219	0x3f028692	0.5098659
220	0x3f224201	0.63381964
221	0x3f9c89d8	1.2229567
222	0xbf8bc452	-1.0919287
223	0x3e5fc086	0.21850786
224	0x3ce6a161	0.028153123
225	0xbee5f69d	-0.44914714
226	0xbe4be795	-0.1991256
227	0xbe80a4db	-0.25125775
228	0x3d8b88de	0.06813215
229	0xbf80a9f2	-1.0051863
230	0xbdfbd3b6	-0.1229624
231	0xbe825e87	-0.25462744
232	0xbd2fd7a5	-0.042930264
233	0x3f508260	0.81448936
234	0xbf1d843f	-0.61529917
235	0xbea54a4e	-0.32283252
236	0xbf8c5e32	-1.0966246
237	0xbec56ed9	-0.38561133
238	0xbfe85ee7	-1.8153962
239	0xbdb4798a	-0.08812244
240	0x3f2c8931	0.6739684
241	0x3c293037	0.010326437
242	0xbf206f3a	-0.6266972
243	0xbe96a295	-0.29420915
244	0x3cc0943d	0.023508186
245	0xbf338fd1	-0.7014132
246	0xbd8c2371	-0.068426974
247	0xbe48ddd6	-0.19615874
248	0xbe86ac4e	-0.26303333
249	0x3da3da67	0.08000641
250	0xbd03bf35	-0.03216477
251	0x3c76c31d	0.015061167
252	0xbe4cca89	-0.19999136
253	0x3f0f6c28	0.5602441
254	0x3e13e58b	0.14443032
255	0x3ee7bf22	0.4526301

bias f4 [4]
0	0xbfb9744c	-1.4488616
1	0xbe71d34e	-0.23615763
2	0xbdb80b79	-0.08986563
3	0xbfb24371	-1.3926831
