kevin_nn_2025-02-21_18-52-55.pt (torch, 16609 bytes, 8 tensors)

weight f4 [16, 16]
00000000: 768e cd3c cbb9 e9bd e9c7 43be e78a 86be
00000010: bf30 41bf d87c 9b3e 0761 053e c72c b6bd
00000020: 8f89 2fbf c1ff 5ebf 26d4 0bbf d5ce 02bf
00000030: 254a 16bf 9d28 8d3e 2bfb 03bf 6996 e7bd
00000040: 80f7 68be 106c 213e b8f1 10be 01ba d7bd
00000050: c41e 9ebd f05a 143d b88b b7bd c8b0 00bf
00000060: 609f 5cbd 8ce8 383e c86f 48be 8961 39be
00000070: 08db 143e cc81 ccbd fce5 85bd 15c3 fdbe
00000080: 6a67 d0be 9163 c23c 3be0 1dbf 621c a8be
00000090: 1032 863e 939b b13e f71e 28bf 022d f1be
000000a0: 1a18 ebbd 6c21 41be 4f3a e63e 3784 88be
000000b0: f0b5 cebb 547e 94be 6620 283e 5ed0 1cbe
000000c0: 8664 dabd 74ef 693e 304d b83f 5fe1 643f
000000d0: 84cb a9bb 38ea bbbe ed36 9ec0 2d72 383f
000000e0: 9384 3abe ad00 b13e 7a68 08bf 396c 263f
000000f0: 9231 cbbe 8ce9 a0bd fbaf cf3f 3560 303f
00000100: 6347 82be 524b 42be 7aa9 243f 2379 c83e
00000110: 83e6 0bbf 5a80 efbd e9aa acc0 f586 503f
00000120: fb8d 05bf 45c2 55be a092 b93f f5d3 5c3e
00000130: 93c0 5d3f 1b36 cebe a910 28bf 5f26 4e3e
00000140: e8fb 97bd 7069 d7bc 9af4 99bd c0e5 0fbe
00000150: 0022 49ba 58c3 853d 8c58 253e b3ae dbbe
00000160: 4289 32be 40c3 e7bb 5418 7fbe 4159 e6be
00000170: 760f 073e 9d2d 53bd 546d a2bd 2101 e7be
00000180: eebf 4e3f 9e91 97bd b578 233f 7fa2 7cbe
00000190: 7cfc 3a3e 27ec 9abf 773f 3a40 2c4e a4be
000001a0: ab2a 03bf 0703 233f 4f69 92c0 a951 193f
000001b0: a3c7 0e3e fc01 a53d 5651 2cc0 cc1f c03f
000001c0: b7d8 c6be 1a50 513c a625 04c1 81ea 213f
000001d0: e0ba 45bf db7d 94be 745e dd3f 8f7c de3e
000001e0: 33f8 b3be 2983 1ebf 13af fc3f 13a0 9fbc
000001f0: 383f adbe cfab ca3e c20f 9bbf 39d7 93be
00000200: 8a7e 4dbd 88c2 5fbe e75f 6fbe 2bba bbbd
00000210: 7f82 13bf 9878 0fbe e532 0fbd 9782 84be
00000220: 4653 bebe 6b48 bbbe b0fb 1cbf cd0f 0fbf
00000230: b348 26be fa16 5dbe 9a54 05bf b56b 02be
00000240: e62b 80bf 634b 0abf afdd a2bf 8736 e6be
00000250: 8ff5 af3e 5b49 93bf bd08 93be aa7d ad3d
00000260: 584a 53bd 44df 91be 05d2 66bf 7def a6be
00000270: 11c5 b43e a9a3 bebe 8635 9bbf 997b a0bf
00000280: 5076 863d d8ce 9f3e 8ecb 4c3e 962f cbbe
00000290: 6eba eb3e 821b 70be 046b d5be 8053 fbbe
000002a0: cc94 c9be b45a f83c 2915 193e 0c5d a8be
000002b0: 90e4 a73c 8d00 d1be 26d5 abbe 6d1f fabe
000002c0: 0ce6 efbe 91a0 853e 94dc 813d 91d4 23bf
000002d0: bbcd d63e 4022 df3d ee78 09bf 14ca 1fbf
000002e0: d1f2 a9be 4945 68be 5b36 25bf 2ccd a3be
000002f0: e492 c8be 0635 b53d b09e ee3d 98cf 88be
00000300: 1037 133e 267c 25bf 80a5 2ebe 1bf0 73bd
00000310: 97fa 08bf 3acd ddbe a27b edbe 57f8 a6be
00000320: 6a96 2ebf 2b9d 2d3f f813 00c0 8ade 15bf
00000330: 5482 0abd 2776 273f 5c3d 153d 1ed0 48bf
00000340: a0a6 793e 88fd 3cbd a6c2 17be caf0 52be
00000350: 35c2 86be 96ba 28be 0662 debd debc c6be
00000360: 3053 71be 6e42 1ebe d880 1ebe 7a55 acbe
00000370: 48cf 37be bd13 c33e efad 84be 4b86 88be
00000380: 5211 38bf d1a4 01bf a5f5 31c0 9647 cdbf
00000390: c8ce a3bf 499b 31bf 1922 ee3f bb06 353e
000003a0: c371 84bf 40c2 e5bf bf09 f5bf e86b 45be
000003b0: 89c1 d8bf 000c 2dbf 8e68 a5be 3ef8 ccbf
000003c0: 8096 5abe 00c6 143a 7966 c8be c796 d2be
000003d0: 74ab 573e 5323 16be 22ed 8cbe 98ec 8ebe
000003e0: 15c2 55be 1890 85bd d612 cbbe 76d2 c3be
000003f0: c0e0 80bc 6050 2abd c038 c5bd ed81 6bbe
0.025092345 -0.1141239 -0.19119228 -0.2627785 -0.75465006 0.30368686 0.13025294 -0.08895259
-0.6856927 -0.87109 -0.5462059 -0.5109685 -0.58706886 0.27570048 -0.51555127 -0.11307985
-0.22750664 0.15763879 -0.14154708 -0.10533524 -0.07720712 0.036219537 -0.08962196 -0.50269747
-0.05386293 0.1805746 -0.19573891 -0.18103613 0.14536679 -0.09985694 -0.06538007 -0.49562898
-0.407039 0.023729118 -0.61670274 -0.32834154 0.2621007 0.34689006 -0.6567225 -0.4710465
-0.114792064 -0.18860406 0.4496636 -0.26663372 -0.0063083097 -0.2900263 0.16418609 -0.15313861
-0.106637046 0.2284525 1.4398556 0.8940639 -0.0051817317 -0.36702132 -4.944205 0.7204922
-0.18214636 0.34570828 -0.5328442 0.65008885 -0.39686257 -0.078570455 1.622558 0.688968
-0.2544509 -0.18974045 0.643211 0.3915492 -0.5464861 -0.11694403 -5.395863 0.8145593
-0.5216977 -0.20874889 1.4497871 0.2156523 0.8662197 -0.40275654 -0.6565042 0.20131825
-0.07421094 -0.026295394 -0.07517357 -0.14052486 -0.0007672608 0.065313995 0.16147059 -0.42906722
-0.17435172 -0.007072836 -0.24911624 -0.4498997 0.13189492 -0.051557172 -0.07931009 -0.4511805
0.8076161 -0.07400821 0.6385606 -0.24671362 0.18260378 -1.2103318 2.9101236 -0.3209089
-0.5123698 0.63676494 -4.575355 0.5989023 0.13943343 0.08057019 -2.6924644 1.5009704
-0.38837215 0.012775445 -8.2591915 0.6324845 -0.77238274 -0.2900227 1.729445 0.43454406
-0.35150298 -0.61918885 1.9740928 -0.019485509 -0.33837295 0.39584205 -1.2114184 -0.2887514
-0.050169505 -0.21851552 -0.23376428 -0.09166368 -0.57620996 -0.14010847 -0.034960646 -0.25880882
-0.37172908 -0.36578688 -0.61321545 -0.55883485 -0.1623867 -0.21590796 -0.52082217 -0.127364
-1.0013397 -0.5402128 -1.2723902 -0.44963476 0.34367034 -1.1506761 -0.28717604 0.08471234
-0.05158457 -0.2849065 -0.90164214 -0.3260459 0.353066 -0.37234238 -1.2125709 -1.2537719
0.06565535 0.31212497 0.19999525 -0.39684743 0.46040672 -0.23447993 -0.4168321 -0.49087143
-0.39371336 0.030316688 0.14949478 -0.3288349 0.02049473 -0.40820733 -0.33561057 -0.488521
-0.468552 0.26099065 0.063409 -0.63996226 0.41953835 0.108952045 -0.5370015 -0.6241772
-0.33193067 -0.2268268 -0.64536065 -0.3199247 -0.3917457 0.08848004 0.11651361 -0.2672088
0.14376473 -0.6464256 -0.1705532 -0.059555154 -0.5350737 -0.43320638 -0.46383387 -0.32611343
-0.68198264 0.67817944 -2.0012188 -0.5854269 -0.033815697 0.6541466 0.03643547 -0.7844256
0.24379969 -0.046140224 -0.14820346 -0.20599666 -0.26320043 -0.16477427 -0.1085854 -0.3881597
-0.2356689 -0.15455028 -0.15478837 -0.33658963 -0.17950165 0.38100997 -0.2591395 -0.26664957
-0.7190143 -0.50642115 -2.780618 -1.6037471 -1.279748 -0.6937757 1.8604156 0.17678349
-1.0347217 -1.7949905 -1.9143599 -0.19279444 -1.6934062 -0.67596436 -0.3230633 -1.6013258
-0.21346474 0.0005675256 -0.3914068 -0.4113066 0.21061498 -0.14661913 -0.27524668 -0.27914882
-0.20874818 -0.06521624 -0.39662808 -0.38246506 -0.01573217 -0.041580558 -0.09629965 -0.22998782

bias f4 [16]
00000000: ad07 08be e536 fabe ef13 ddbd 625d d43e
00000010: b631 093f 5809 b7bd 8cce ae3e ce58 8c3f
00000020: 166b 14bf d948 32be 6a92 e7be c75b f6be
00000030: 271d 85bf 0ede debe 9ac5 1dbf 9589 c9be
-0.13284178 -0.48870006 -0.10794818 0.41477495 0.5359148 -0.08937329 0.34141958 1.0964601
-0.579759 -0.17410602 -0.45228893 -0.48116896 -1.0399522 -0.4352879 -0.6162964 -0.3936278

weight f4 [32, 16]
00000000: 8d09 86bd 20cb ebbd 199c 553f 15ae a8bf
00000010: 7b36 97be c4dc a9bd 65d0 c43e 8efc 70be
00000020: bcee a6bd 8f4e 973b 9082 bc3c 0e42 3c3e
00000030: d1d9 c53e 9caf 7c3e 0fe4 ca3f 961b 7abe
00000040: 9094 acbe ab01 a2be 7c1b 253e e6d2 13be
00000050: 45d4 3d3b ca1f 17be 6d37 58be 63ca 30be
00000060: 92af cc3c 3092 25bf 00ee a5be dc6f 79be
00000070: be5a 24bf 48d0 fc3e 9eeb 25bf e6b2 ea3e
00000080: 4cde 2dbe 2d6e f9be f705 b53e c0cc 4dbe
00000090: 7dae 8dbd 08ed 1f3d e3cf f2bd 3d17 02bf
000000a0: 5ca7 f0be f606 ccbe c7df 05be 5e64 05bf
000000b0: 4063 97be 8616 ffbe 3026 bdbe 288e 853e
000000c0: 0ff7 88be 78b7 8cbd 51a7 493f 3c60 02bf
000000d0: fb1e 47bf cbd3 27be 7101 60be 0bf6 1bbe
000000e0: 536b 843e 8201 0c3f 9848 8dbe d5be e63e
000000f0: fb3a 573e e635 6d3e 855b 3abe 8aa8 5c3e
00000100: d0a5 803d f4d1 fcbd c1d9 38be dc91 dbbe
00000110: 85a8 69bd 441f 8dbd 3ba4 bdbe 5c30 8abe
00000120: 9197 c6be 63e4 36be 887e 17be f995 9abe
00000130: 8465 01bf 3e7c 023e 9064 97bc e2d8 213e
00000140: e136 eabe b0e3 533d 10e2 f0be d207 fcbe
00000150: 8258 f3be 585b 87bd 9eb8 86be d299 debe
00000160: c14b e3bd ab10 a3bd a6f3 60be bd89 8dbe
00000170: af66 edbd 8ce1 47be 2e52 bfbe 7d97 e9bd
00000180: c2d8 cdbe 20de 75bd 0eb6 22be 2b81 ccbe
00000190: b6b7 dcbd 2eae 9ebe f364 82be cc12 54be
000001a0: a84f e4be 5693 f2be 5ad4 4cbe 1d1f 91be
000001b0: c93a a3be 8e0a 4f3e 8fc8 b7be e88f 09bd
000001c0: cdff e4be a05a 473c f63d 9bbe 6ab7 8cbe
000001d0: 02fe d7be 4e34 3ebe 21e4 93be 0c6d 26be
000001e0: eaf5 07be 58e0 93be 70f9 60be 759b 00bf
000001f0: 788d 6abe c5f5 39be 42e5 79be da29 ddbe
00000200: 6a0b cfbe 6054 49be 43ed c23c eceb c5bd
00000210: c4f4 53bd e8db 343d 8de3 afbe 14f8 89be
00000220: 0330 4abe c9ed 4abe ec30 f7be 78be aebe
00000230: 9eb9 e1be 579c b6be 1f8e 30bf 7a77 be3e
00000240: 7b99 3ebd be74 113e ec2b aa3d df9b 813e
00000250: c9db 673d f338 87bd ec01 6aba 893d 213e
00000260: 3f41 133e 6085 d63e 5660 053d 9bb9 6dbd
00000270: e1ed 2dbe 402b bf3d 2cd2 033f a33a a7bd
00000280: ed57 8fbe 644e 76be 1dfa bfbd 59db 7cbe
00000290: 9950 7bbe b096 b43c eaee bebe efe3 96be
000002a0: 6e93 1fbf 9790 f7be 3b6c b3be 57b4 d5be
000002b0: 6b56 40be 6e1e ccbe af5a 71be 4728 253e
000002c0: 358d e6be 5e99 3fbe bb34 ccbe 6366 8dbe
000002d0: 1988 46be 9c75 7abe c030 d0be 9659 ddbf
000002e0: 78ad 4fbc c686 e4bc 2f4f 023e 3f99 0cbf
000002f0: 2922 0b3f 2abe d63e 67fb c73e eed5 a3be
00000300: 46f4 9abe cc75 5dbd 92e3 9abd 9f9a 32bf
00000310: 4b58 ddbe 3231 c8bd c49e 503e 67da 483e
00000320: 4b41 bd3d 99b3 803d b705 fdbd f11e 623d
00000330: b08d 693e 4a40 e13e efde c53e f774 5cbd
00000340: ee01 a53d 4827 ca3d 7bc7 b33d 733d 57be
00000350: c6d3 e4bd 2746 bcbd 454b 7ebe e78e 27be
00000360: 6f3e 64be 80d5 38be 0322 08be 5e93 8a3e
00000370: e079 bebe ec9a 003f e1ee 2ebd 9033 db3e
00000380: 0f4e 84be 524a 23be c0b8 213f dbad e2bf
00000390: 9394 6bbf f89b 8a3d 1b29 6c3f 92dd 20bf
000003a0: 8ea8 c33e 3775 c9be d86c 893d 1358 c43e
000003b0: 1f6d 16bf 24ab 133e 76aa b4bd 38e3 6c3e
000003c0: 8928 91be 1daa a73e 929a d33d 7045 f6bd
000003d0: 971a d3be c506 c2be 34a7 30be d823 29bd
000003e0: b1c1 b0bd 4e7a a0be 5d76 cbbe dc85 84be
000003f0: 82f9 82bf a09a 6b3e 8d1d 64bf e9e1 55be
-0.065447904 -0.115133524 0.8344131 -1.3178126 -0.29533753 -0.08294061 0.38440242 -0.23533842
-0.08151004 0.004617519 0.023011476 0.18384573 0.38642743 0.24676365 1.5850848 -0.24424586
-0.33707094 -0.31641898 0.16123766 -0.1443592 0.0028965634 -0.1475822 -0.21114893 -0.17264704
0.024986062 -0.6467619 -0.32408142 -0.24359077 -0.6420096 0.49377656 -0.6481265 0.45839614
-0.16979331 -0.4871687 0.35356113 -0.20097637 -0.069180466 0.03904441 -0.118560575 -0.5081671
-0.47002685 -0.3984906 -0.13073646 -0.52106273 -0.2956791 -0.49821872 -0.36943197 0.2608502
-0.2675099 -0.068709314 0.7877093 -0.5092809 -0.7778165 -0.16389386 -0.2187555 -0.15230577
0.25863132 0.546898 -0.27594447 0.45067468 0.21018593 0.23165092 -0.18198974 0.21548668
0.06281626 -0.12344733 -0.18051817 -0.4288472 -0.05704548 -0.06890729 -0.3703936 -0.2699002
-0.3878751 -0.1786056 -0.14794362 -0.30192545 -0.50545526 0.12742707 -0.01848057 0.1580539
-0.45744994 0.05173081 -0.47047472 -0.49224716 -0.47528464 -0.06609219 -0.26312727 -0.4347673
-0.11098433 -0.079621635 -0.21967945 -0.27644148 -0.11591851 -0.19519633 -0.37367386 -0.11405847
-0.40204436 -0.060026288 -0.15889761 -0.39942297 -0.107772276 -0.30992264 -0.25467643 -0.20710295
-0.44592023 -0.47378033 -0.2000288 -0.2834405 -0.31880787 0.2021887 -0.35895202 -0.033584505
-0.4472641 0.012167603 -0.3032071 -0.27483684 -0.4218598 -0.1857464 -0.28884986 -0.16252536
-0.13277403 -0.28882098 -0.21970153 -0.5023721 -0.22905529 -0.1816016 -0.24403861 -0.43195993
-0.40438396 -0.19661093 0.023794776 -0.09664139 -0.0517471 0.04415503 -0.34353295 -0.2694708
-0.19744878 -0.1981727 -0.48279512 -0.3412969 -0.44086927 -0.35666153 -0.6896686 0.37200528
-0.04653309 0.1420469 0.08309159 0.25314233 0.056606088 -0.06602659 -0.0008926678 0.1574613
0.14380358 0.41898632 0.032562576 -0.058038335 -0.16985275 0.09334421 0.5149257 -0.08165481
-0.2799677 -0.24053341 -0.09373877 -0.2469305 -0.24542464 0.02204451 -0.37291652 -0.29470775
-0.62334335 -0.483525 -0.3504351 -0.4173915 -0.18782966 -0.39866966 -0.2356975 0.16128646
-0.45029607 -0.18710849 -0.3988398 -0.27617177 -0.19387855 -0.24458927 -0.40662193 -1.7292964
-0.0126756355 -0.027896296 0.12725519 -0.54921335 0.54349 0.4194196 0.39058992 -0.31999153
-0.3026449 -0.054067418 -0.07562937 -0.69767183 -0.43231425 -0.09775008 0.20373064 0.19614564
0.09240969 0.062842555 -0.12354606 0.05520529 0.22807956 0.4399436 0.38646647 -0.053822484
0.08057009 0.098707736 0.08778282 -0.21019535 -0.11173205 -0.09193068 -0.248334 -0.16363107
-0.22289442 -0.18050194 -0.13294224 0.27065557 -0.37202358 0.5023639 -0.04270828 0.42812777
-0.25840804 -0.1594632 0.6317253 -1.7709306 -0.9202358 0.0676803 0.9225022 -0.6283809
0.38214535 -0.3934724 0.067102134 0.38348445 -0.58760256 0.14420754 -0.08821575 0.23133552
-0.28351238 0.32746974 0.10332216 -0.12024963 -0.41231224 -0.3789579 -0.17251283 -0.04129395
-0.08630694 -0.3134331 -0.39738742 -0.25883377 -1.0232394 0.23008204 -0.8910759 -0.20886959

bias f4 [32]
00000000: ef40 f8bd aa37 e4be aca1 d9be 9969 08bd
00000010: ee8b 4dbe 307a e0be ab28 86be bb08 08bf
00000020: 4852 06bf 17f2 483f 2286 18bf 06ff 9ebd
00000030: 40f9 513e f76b d2bd c218 a2be e645 bbbe
00000040: 3d32 633f 5162 4e3e a97c 6cbd 2687 74be
00000050: 6bb0 fb3e bd33 8d3f f984 86be 4cff 32be
00000060: 2983 59be b683 43bd 8a1d 95bf 2dbc 03bf
00000070: 0837 913e 638f 1dbe 6352 1fbd 739b da3e
-0.1212176 -0.44573718 -0.42506158 -0.03330383 -0.2007291 -0.43843222 -0.26202902 -0.5313832
-0.524693 0.784944 -0.5957967 -0.077634856 0.20505238 -0.10274499 -0.31659514 -0.36576766
0.8874853 0.20154692 -0.057736073 -0.2387968 0.49158034 1.1031414 -0.26273325 -0.174802
-0.2124144 -0.04773303 -1.164964 -0.5145901 0.28362298 -0.15386729 -0.03889693 0.42696723

weight f4 [64, 32]
00000000: b424 b53d 390f cc3e eaee 813e abf5 cabe
00000010: b7ce 91be 34cc bf3e 959e fb3e 5836 ed3e
00000020: 92df 623d 5162 69be 60ee 8b3d 82e7 523f
00000030: b2ad 91be 617e d13e f831 923e 1584 fcbd
00000040: 046a a2be bdfe 32bd c924 ce3d 65e5 ea3e
00000050: 1134 34bd 9cf6 e3be f085 ce3e 6293 6d3e
00000060: 8941 473e f4e6 c5bd 7e2b 1f3e 4970 53be
00000070: 1928 dd3d b30c ca3d e242 01bf 274c f5be
00000080: 6f1b 453e fccc 3cbe 0c5a 60be 1949 26be
00000090: 6fdc a33d 0fde abbe f74a ce3d 0010 8dbe
000000a0: b513 89be eba5 3dbf f4be c8be efd1 65be
000000b0: c0a3 fabe ec4d adbe 6aab d1bd 92d6 e5be
000000c0: 0573 59bf ecc7 00be d7d7 703e 0311 f33e
000000d0: f46d d6be 1973 8ebf f3aa 23be 427f 9cbe
000000e0: 176e ccbe 533f babe 0027 a43b 3598 863d
000000f0: c722 033e 08f0 a0be f354 8b3d 1f9c 83bd
00000100: a641 573d 7ea0 12be e27a 4e3c 73e2 c4be
00000110: 35ab 003e ccf6 cd3d 9545 923e 1edc fb3c
00000120: 20ea 4b3e 0b8f cebe 6e21 2bbe 0568 16be
00000130: 7c80 bbbe fc94 cdbe 6ae5 243e 6786 c4be
00000140: 50e3 4bbe 5d4a 50be d52e 0dbe e533 1cbe
00000150: ccea 84be 9255 f0bd caa7 11be 4e5f e33d
00000160: d284 22be e845 8dbe 989e 45bd 3f72 09be
00000170: cb48 aebe 8316 0cbe 0a49 01be 6cbe 9ebd
00000180: f8fc 933d 9552 e5be 8464 58be 5e7c 0e3e
00000190: f49a 40bd 550e dcbe 86b3 013e 5362 3abe
000001a0: 3173 69be ee8f 7ebe d3eb c8be 5b6d ecbe
000001b0: 6c22 4cbe 8381 c4be e08f f8bc 7016 a8be
000001c0: 61c8 bebe b568 84be 1f77 b1be c1af a2be
000001d0: c7ae ebbe c5ad 60be c6fd 22be d6bd d0be
000001e0: 9476 b1be e39b cdbe a448 bc3b d0d2 c53e
000001f0: 5eef 62be 475c 80be e7ca 5abe 52be 093e
00000200: 8b3b 8dbf b830 a2be 76ca 35be f7d1 033d
00000210: 81dc 85bd 1dfe 07be 45a3 28be d8a4 79be
00000220: c8c1 46be e41c 8cbf 594d 8fbe 4165 94be
00000230: a8d3 8cbf ef8d b2be d885 973c 0971 3abe
00000240: b8f0 8ebf 5e58 cbbe d38e d0be 0055 9dbe
00000250: 36f8 debe b94d 85bf 33c2 4cbe 3e60 98be
00000260: 0695 f3be a282 92bf f8f5 733d b414 5c3e
00000270: f21e 55be 6c05 7dbe 4ffe 00bf c3a9 6dbf
00000280: a369 c53f 962a 5cbe f614 7e3e 0974 3dbe
00000290: 9b1a 0bbe 96c3 c63e 03b7 753e 9617 cd3e
000002a0: 9f24 463e 503a 14bf 4faa 8a3d 0b1a 5ebf
000002b0: 26d4 e33f e54d 953e 10a1 a03f 4697 513e
000002c0: 8e15 4dbd 63e4 dfbe a87f b1bd f481 d43e
000002d0: 87c6 5dbf 9514 c5be aca5 783e 8a17 cd3e
000002e0: 965b 683e 0270 a53f 2229 90bf 576e db3e
000002f0: c6d2 9d3f c8cf a73d dcf1 603f 6edc 8cbf
00000300: fa0c debe 05a9 7ebe c0d0 503e 89c5 06bf
00000310: 0775 7e3e 8692 be3e a6ba 173d b9b2 ff3d
00000320: 77a3 213e c9b8 25bf 27d7 6e3e 74c0 e6bd
00000330: 3c97 66bf 28fc a03e 5d9d f23e 573b f53d
00000340: c8f1 30bf 8cb9 30be fe2d 45be 82cc 433e
00000350: 085f 23be 4aef 22bf 602b bf3e 093e 113e
00000360: b14c 8d3e b3a5 a7bc 4398 c33d 9167 963e
00000370: 6898 8abe 0238 f83d c8c0 18bf 2e3e 6cbf
00000380: c9d0 ea3d ae3e e53c 5d30 92be 50ad 9abe
00000390: f7e8 98bd 3ed2 17be dfba d33c 9c9d 5fbe
000003a0: ce99 b3be 9b63 25bf 38ed 71be db87 11bf
000003b0: 6fba b9be 29af dfbe b3e1 67bf 6814 c5be
000003c0: 70f0 e4be f611 0ebf 8eeb 0e3e 2212 20be
000003d0: ca6f afbe eb58 2cbf a82e cebe e2da 40be
000003e0: 0636 80be 54f4 b9be df05 c7bc 6589 323e
000003f0: 576b 6dbe e893 40be 7fd8 953e b878 93bd
0.08844891 0.39855364 0.2537759 -0.39640555 -0.28478023 0.37460482 0.49144426 0.46330523
0.055388995 -0.22791411 0.06832576 0.823845 -0.28452832 0.40916732 0.28553748 -0.1232988
-0.31721509 -0.04369997 0.1006561 0.4587814 -0.043994967 -0.44524086 0.4033656 0.23200753
0.19458593 -0.096631914 0.15543935 -0.20648302 0.10798664 0.098657034 -0.5049268 -0.47909662
0.19248746 -0.1843757 -0.2190935 -0.16238822 0.08001029 -0.33567855 0.10072892 -0.2755127
-0.26772848 -0.74081296 -0.39208186 -0.22443365 -0.48953056 -0.33848512 -0.10237773 -0.44890267
-0.8494113 -0.12576264 0.23519836 0.47473916 -0.41880763 -1.1128875 -0.1598318 -0.3056584
-0.39927742 -0.36376438 0.005009532 0.06572 0.12806235 -0.3143313 0.06803312 -0.06426262
0.05255284 -0.14319035 0.01260254 -0.38454017 0.1256531 0.100568384 0.28568712 0.030744608
0.1991353 -0.40343508 -0.16711971 -0.14688118 -0.36621463 -0.4015273 0.1610314 -0.3838379
-0.19910932 -0.20340867 -0.13787396 -0.15254171 -0.25960386 -0.11735071 -0.14224163 0.11102162
-0.1587098 -0.27592397 -0.04824695 -0.13422488 -0.34039912 -0.13680463 -0.12625518 -0.07751164
0.07225984 -0.44789568 -0.21132094 0.1391463 -0.047022775 -0.42979684 0.12666139 -0.1820157
-0.22797848 -0.24859592 -0.3924242 -0.46177182 -0.19935006 -0.3838006 -0.030342042 -0.32829618
-0.37262252 -0.25861135 -0.34661195 -0.31774715 -0.46031782 -0.21941288 -0.1591712 -0.40769833
-0.3466078 -0.40157995 0.005745964 0.386374 -0.22161624 -0.25070402 -0.21366464 0.13451508
-1.1033796 -0.31677794 -0.17753014 0.03218266 -0.065361984 -0.1328053 -0.16468532 -0.24379289
-0.19409859 -1.0946317 -0.279887 -0.289835 -1.1002092 -0.34873912 0.018496439 -0.18207182
-1.1167212 -0.39715856 -0.40733966 -0.30728912 -0.43548745 -1.0414344 -0.19995956 -0.29760927
-0.47574633 -1.1446116 0.059560746 0.21492273 -0.20812586 -0.247091 -0.50388044 -0.9283716
1.5422863 -0.2150062 0.24812683 -0.18501295 -0.13584368 0.38821095 0.23995595 0.40057057
0.19349907 -0.5790148 0.06770765 -0.8675849 1.7799118 0.2916099 1.2549152 0.20467862
-0.050069384 -0.43728933 -0.086669266 0.41505396 -0.86631054 -0.38492265 0.24281949 0.4005702
0.22691187 1.2924807 -1.1262553 0.4285762 1.2329948 0.08193928 0.8786905 -1.100477
-0.43369275 -0.24869163 0.20392132 -0.52645165 0.2484933 0.37221164 0.037043236 0.124852605
0.15785013 -0.64735085 0.23324262 -0.11267176 -0.90074515 0.3144238 0.47385684 0.11974209
-0.6911893 -0.1725828 -0.19255826 0.19120982 -0.1595422 -0.63646376 0.3733778 0.14183821
0.27597573 -0.020464754 0.09550526 0.2937589 -0.27069402 0.12120058 -0.5966916 -0.9228238
0.11465604 0.02798399 -0.28552523 -0.30210352 -0.074663095 -0.14826295 0.025845943 -0.21837467
-0.3507828 -0.6460511 -0.23625648 -0.56847924 -0.3627505 -0.43688324 -0.90578765 -0.3849213
-0.4471469 -0.55496156 0.13957044 -0.15631917 -0.34264976 -0.6732318 -0.4026997 -0.18833497
-0.25041217 -0.3631922 -0.024294792 0.17435224 -0.23185478 -0.18806422 0.29266736 -0.0720076

bias f4 [64]
00000000: 9011 323f b872 7fbf d0fe 27be 5af7 10be
00000010: f9da 6bbf 548a e73d efc6 9abe a6ed 09bf
00000020: a85a dcbd 24dc 42be e116 3ebe 5132 47be
00000030: 2d60 0740 23e4 fdbd 4caf 9bbe b6d7 1dbe
00000040: b8e0 76be ed79 abbd 9566 d9be 972c 093d
00000050: 190c 80be b996 163d 2295 65be e3a6 afbd
00000060: fdf5 92be 0ebb 8dbe 7c95 a73d 88a9 3cbf
00000070: 2348 86be b723 dcbe aabd 8ebb 6338 e5bd
00000080: 3ef8 05bf dc6d 1dbe 792c 3cbf 0024 c4be
00000090: a600 b3be 3e02 75be 9cfc c5be 92da adbe
000000a0: 0f04 b1be 3d71 03bf 7028 89be 5787 1cbe
000000b0: 2757 bbbe 5e21 693d e627 7fbe 5eeb b5be
000000c0: d182 853e 2276 93bf 8a48 ac3f 3244 4440
000000d0: ace5 b9bd 8134 93be 5871 e8be f70b c8ba
000000e0: 8a64 5c3e 940b babe 84cb 68be c0c9 b0bd
000000f0: 8e25 8ebe 987e f3be 9fbf 4abe 2f35 24be
0.6955805 -0.9978442 -0.16405797 -0.14156857 -0.92131 0.11305681 -0.302299 -0.5387825
-0.10759479 -0.1902929 -0.18563415 -0.19452788 2.115245 -0.12397029 -0.30407178 -0.15414318
-0.24109161 -0.08372865 -0.42461076 0.03348979 -0.2500923 0.036764834 -0.22420171 -0.08576753
-0.287033 -0.27681774 0.08182809 -0.73696184 -0.2622691 -0.42995998 -0.004356106 -0.111923955
-0.5233191 -0.1537394 -0.7350536 -0.38308716 -0.34961432 -0.23926637 -0.38669288 -0.33955818
-0.3457341 -0.5134466 -0.26788664 -0.15286003 -0.3658993 0.056916587 -0.24917564 -0.35531133
0.26076367 -1.1520426 1.3459637 3.0666623 -0.090770096 -0.28750995 -0.45398974 -0.0015262355
0.21522728 -0.36336958 -0.22733885 -0.08632231 -0.27763027 -0.4755752 -0.1979966 -0.16035913

weight f4 [4, 64]
00000000: bdc0 e2be 70fe e3bd c08f 23be 8235 aabe
00000010: 5ace d4be 60c9 45c0 9acc 1bbf 831a a9be
00000020: 94be 8ebd 1c85 90be 1248 4cbe feff abbd
00000030: e2d2 d1be c921 90bd c4c1 87be d5a0 96be
00000040: c960 d7be 8878 f7be 52aa 4ebe af17 bfbe
00000050: 75b8 96be 7a93 093d f899 7cbe e3cd 15be
00000060: 7015 6dbe 38b3 a1be 741f e2be 5049 27bc
00000070: 8e08 88be a133 0ebe b111 85be cd0a fabe
00000080: 3c15 9bbe be49 abbe 4073 1340 8e3a 8dbe
00000090: 0a65 52be 5279 8fbe 3719 25be c8a3 d2be
000000a0: eccc f4bd dc65 4d3f 120e 81be fe99 a8be
000000b0: f187 113d 2b5d 2fbc b2c8 dcbd 6ea0 34be
000000c0: fac1 5fbe 60e1 0bbe 4fd9 40c0 8ce1 dfbe
000000d0: a4dc d8be 8cc9 87be 16a8 aa3d ab84 9cbe
000000e0: 6a59 f3be 9e70 93be 7338 8fbe 4408 b5be
000000f0: f464 abbe 4c7f b2be c999 0abf 06c3 bbbd
00000100: d96a 25bd b1d4 15bf dded 8ebe 4ddc 82be
00000110: 1ad4 47be 30c8 f0bd a5ea 16bf fa53 40bf
00000120: b4fc 8ebe ce00 47be ef25 8cbe 07f3 953e
00000130: 13c2 c03c 07d5 9ebe c7bc 8ebe c9e8 82be
00000140: 31c6 943d 93e5 71be caa4 e5be 241f bbbe
00000150: 8461 41be a695 dabe 3d12 c7be 6ec1 9ebe
00000160: 98d0 45be 58dd 33be fda1 f23d 6848 1bbd
00000170: fa88 49be e0c1 5cbe 6b74 11bd 79c4 8fbf
00000180: 1355 a73d 1272 c7be c88f 08c0 2c82 54be
00000190: 44ef b0be f314 40be 74e2 d3be 5429 92be
000001a0: 6022 b2bd 7e49 963d 52e1 70be cb62 8fbe
000001b0: 6ba2 cbbc 373c 623e b515 9bbe 70b9 6cbe
000001c0: eea3 733e d8a5 783e 520b 97bc 4aa5 ca3d
000001d0: 0629 e6bd e8b4 69be 20e0 873b 5a27 6ebd
000001e0: 77fb 9b3e 2031 49be 2882 81be bcc1 123e
000001f0: 960f 69be 1a6a 81be 5db9 77be b229 a83d
00000200: 6197 a43e cb1d 6e3f d6e8 2ebe ee70 ba3e
00000210: cc41 c33e b076 b63f 8486 813f ea76 8c3e
00000220: c7ab a43e f64e 96be 69cc b83e de54 473e
00000230: 051c 63be 1290 55be b985 aebe 51da ce3e
00000240: 7d2b 1c3d 8dd7 73be 241b 3cbe 21a0 debe
00000250: 09df 6f3e 4c97 b93d 72a3 d13e 3d24 a73e
00000260: 4290 853e 9298 eabe ae1f 74bd cb06 0b3f
00000270: bc8e 643e 787e 993e 41aa 673d 5f1d 983e
00000280: 1e60 94be b003 81be a933 1e3f 5cb4 ab3e
00000290: 2b50 b2be 1e48 483e c63b 36be 1bfe 8cbb
000002a0: c77c 8abd 9432 923c 7252 5e3e 1f34 903e
000002b0: 14ef c3be 8050 963e c09c 473e 2c5d c53e
000002c0: 59a4 05be 88b0 293f b0a5 1d3f 54a4 06bf
000002d0: 6d25 eebd 4674 943e ca65 973e d681 cabd
000002e0: 127e 92be 8a71 3e3e 61d9 993e 5463 4bbd
000002f0: 60db d63e 01d9 993e 7b29 babe a861 6abd
00000300: f869 08bf 69cc c1be 7daf 52be 8457 b33e
00000310: 1e78 f4be e665 a7be c94d 533e 46fa 75be
00000320: e8c3 49be aad5 17be 9021 993e d05a b33d
00000330: 68f0 cbbe 9176 9abd b335 77be cede 583e
00000340: c27b 403f 6a40 143a e0d2 1a3e 6415 b1bd
00000350: 9b64 863e 1424 25be 1ba9 7ebd 89ab 6ebe
00000360: 9cd2 813e bd70 38bd e4b4 09bf c9f9 233f
00000370: 9fbb 51be 23a6 fcbe 9a13 5e3e 45c7 033e
00000380: a7a2 a23e 3df3 bf3e 3685 c43f 37c0 a83e
00000390: c96f 1f3e d62b 8f3e 9511 f83d 2d18 ce3d
000003a0: 3082 d9bd abaa a63e 2e76 cbbe 9467 8dbe
000003b0: 3809 723d 62da 593d 212e 853e a6f8 863e
000003c0: e303 c1be b494 493f d012 8d3f a931 b2be
000003d0: 8db9 cabd 2a66 5b3e ac7c e33d 005f d43d
000003e0: 0396 a9be d565 b2be 325c 823e a536 afbe
000003f0: d89e 463e b68f 5b3e b888 d7bd d8bd f23d
-0.44287673 -0.111325145 -0.15972805 -0.33243948 -0.41563684 -3.090416 -0.6085907 -0.3302804
-0.06969944 -0.28226554 -0.19949368 -0.08398436 -0.40981203 -0.07037694 -0.2651502 -0.2941958
-0.4206603 -0.48334146 -0.2018216 -0.37322757 -0.29437605 0.03358791 -0.2466811 -0.14629321
-0.23152709 -0.31582046 -0.44164622 -0.01021035 -0.26569027 -0.13886882 -0.2599006 -0.48836365
-0.30289638 -0.33454698 2.3039093 -0.27583736 -0.20546356 -0.28022248 -0.161229 -0.4114058
-0.11953148 0.8023355 -0.25206047 -0.32929987 0.035530034 -0.010703365 -0.10780467 -0.17639324
-0.2185134 -0.13660192 -3.0132635 -0.43726766 -0.42355835 -0.26520956 0.08332841 -0.30569968
-0.47529155 -0.28796858 -0.27972755 -0.3535787 -0.3347546 -0.34862745 -0.5414091 -0.09168057
-0.0403851 -0.58527666 -0.2791585 -0.255587 -0.19514504 -0.11756933 -0.5895179 -0.7512814
-0.27927172 -0.194339 -0.2737269 0.29286978 0.023530042 -0.31021902 -0.278784 -0.25568226
0.072643645 -0.23622732 -0.44852287 -0.36547196 -0.18884856 -0.42692298 -0.38881102 -0.3100695
-0.19317853 -0.17564905 0.11847303 -0.03791085 -0.19681159 -0.21558332 -0.035511415 -1.1231834
0.081705235 -0.38954216 -2.1337757 -0.20752782 -0.34557545 -0.18757991 -0.41383708 -0.28547156
-0.08697963 0.07338236 -0.23523453 -0.2800506 -0.02485772 0.22093283 -0.3029 -0.23117614
0.23793003 0.24282014 -0.018438015 0.09894808 -0.11238293 -0.22822917 0.004146591 -0.058142997
0.3046529 -0.19647646 -0.25294614 0.14331716 -0.22759852 -0.25276262 -0.24191804 0.08211078
0.32146743 0.9301421 -0.17081007 0.36414284 0.38136137 1.425497 1.0119176 0.27434474
0.32162306 -0.29357117 0.36093453 0.19465968 -0.22178657 -0.2085574 -0.34086397 0.40400937
0.03812741 -0.23812695 -0.18369728 -0.43481544 0.23424925 0.09062061 0.4094501 0.32644835
0.26086622 -0.45819527 -0.059600525 0.5430724 0.22320074 0.299793 0.05655885 0.29709908
-0.28979582 -0.25198126 0.6179758 0.3353604 -0.34826788 0.1955876 -0.1779624 -0.0043027527
-0.06762081 0.017846383 0.21711138 0.28164765 -0.3826834 0.29358292 0.19493389 0.38547647
-0.13050975 0.6628499 0.61580944 -0.52594495 -0.11628232 0.2899496 0.29569846 -0.098880455
-0.2861181 0.18597999 0.3004866 -0.049655274 0.41964245 0.30048373 -0.36359772 -0.05722204
-0.53286695 -0.37851265 -0.20574756 0.35027707 -0.47747892 -0.3269493 0.20635141 -0.24021253
-0.19703639 -0.148276 0.2990842 0.087575555 -0.39831853 -0.07542146 -0.24141578 0.21178743
0.7518884 0.00056553504 0.15119505 -0.08646658 0.2624863 -0.16127044 -0.06217299 -0.23307623
0.25355995 -0.04502939 -0.5379164 0.64053017 -0.20481728 -0.49345502 0.21687165 0.12868984
0.3176472 0.37490264 1.5353153 0.32959148 0.15569986 0.27963132 0.121127285 0.10063205
-0.106205344 0.32552084 -0.397386 -0.27618086 0.059090823 0.05318678 0.26011756 0.2636158
-0.37698278 0.7874253 1.1021366 -0.34803513 -0.09898672 0.21425691 0.11107764 0.10369682
-0.33122262 -0.34843317 0.25460964 -0.34221378 0.19396532 0.2144154 -0.10524124 0.11852616

bias f4 [4]
00000000: b92a 0bc0 b0ff bcbe 15fe 65bf 5e51 6cbf
-2.1744826 -0.36913824 -0.89840823 -0.92311656
