kevin_nn_2025-02-21_18-54-12.pt (torch, 16609 bytes, 8 tensors)

weight f4 [16, 16]
00000000: 84b7 c5bd 40ac 82bc de6e 74be a4a2 7bbe
00000010: 5896 05be e6fc 7dbe a06b 4ebd 6626 33be
00000020: e42b 8b3d 68d4 a43d a8c9 b9bd e0d6 a23d
00000030: 984d 32be c4bb ff3d a41e d83d fc90 57be
00000040: 3a0f ffbe 11da bcbe aeeb b9bf 2bf7 1abf
00000050: 2a11 02bf 51dc 0ebf 53df 483f 121c 2a3d
00000060: 9ee9 42bd 6557 b0be a2c5 cebf d3f0 b8be
00000070: 14fb 85bd 9b11 7cbe 62de e2be 5bdf 87bf
00000080: 0002 d23e 8794 0fbd 0472 8f40 9bd0 f6be
00000090: e795 bfbd fe8c c8bd b9a1 9ac0 096d 343f
000000a0: 1c9c 7d3d 10f6 ed3b 62ea bbbf b766 3ebe
000000b0: 3883 513d aa31 6e3d 101a f8c0 0abf a83e
000000c0: f30c 08be 40bc d2bc 30e0 ecbd c3fb 78be
000000d0: f2c0 6dbe 4002 ce3b e16f a9bd 6d1d 90be
000000e0: b09a e9bd d493 2abe 3e25 1fbe 07b9 cebe
000000f0: 90ca 8dbc e289 583e a6f5 273e 254e c7be
00000100: e6e2 6e3d 996a 0f3f 7077 6bc0 9174 b93d
00000110: bc90 2cbe 1cd6 a93e bd70 d0c0 dd23 4dbe
00000120: 9ab8 3c3f 49ef 463d 7fef e33f 2fd2 9d3d
00000130: 0ec4 023f 6671 6a3e c502 ce40 4e2a a7bd
00000140: c8b5 a43f b1be 0c3f 6ca6 c4bf dfa2 c4bf
00000150: 0401 9abf dde2 e43f 4c81 52c0 a3f5 21bf
00000160: d9b2 983d 11c0 9d3c 8d94 0240 ddfe 50bf
00000170: 16ad d7be d7ce aabf 739d d2be 28cd 81bf
00000180: 22a7 4b3e 3a9c 51be 14c6 d7bd 882d 4cbe
00000190: 1e0f 633e 7270 0dbe 0053 98bb 9496 80bd
000001a0: 00af adbc d463 62be e01d 4ebc 60a4 78be
000001b0: d2d3 273e 64d6 ce3d c0e6 9abd 0005 b8bd
000001c0: 4b05 52be 59ca 7cbf e51b 46c0 a98b b0be
000001d0: bee5 1ebe 0a11 b73e 8c8c 243f 5e4f cabe
000001e0: 84fb fc3b a7e9 afbe 79ff debf 0eef acbe
000001f0: 6535 93be 129b 903d 7585 ab3e cbff 3e3e
00000200: 749f d8bd d437 f73d a833 463d 24bd 07bf
00000210: dcf4 49be 32bb d2be a827 a03e 218f b5be
00000220: bf4e eabd 4cd3 82be 0e68 c4be 03d2 c8bd
00000230: 6850 603d 6d2f d13e 1a39 48be 583f e4be
00000240: 5607 c2be b438 84bd a319 c03e d6ad 8cbe
00000250: 0434 00bf 5b86 32bf 1361 d03e 3383 49be
00000260: aae9 4ebf 65be 01bf 73ac 83bf f386 573d
00000270: 7ac6 93bd 0db5 43bf 5daf aabe 021e 68bf
00000280: b994 e63e aa96 a83d 89d1 bec0 c5d3 3cbd
00000290: 648f 29bf 2f4c b0be 781c 3240 0134 09bf
000002a0: 68bd e7be d99e 13bd 19d9 41c0 9f2c d1bd
000002b0: 91ae 2bbe 4580 903b 97c5 e5bd 1db0 16bf
000002c0: bd93 973e f351 f23d a1a6 cfbf b43e 50bf
000002d0: c70c c73e d90d f6bd 3497 95c0 1046 9dbc
000002e0: 544d c73d 5d55 1ebf 7f66 b440 ccaa f9be
000002f0: 5629 413e a568 8b3e 0768 84c0 7585 863e
00000300: bdab 143f 0289 c7bf eb0a 7fc0 e8d4 dfbd
00000310: c1ba 8abf 605a 77bf 9300 f93f f8f0 3bbf
00000320: 8888 0fbe 49b3 c7be cc4b e5bf 0677 2d3e
00000330: 26c3 73bf 573e 583e ee0d 5540 d4d7 31bf
00000340: 9ff3 e4bd ca6d 84be 03e2 95bf 5bf5 403e
00000350: 9fdc 6ebe e0a6 04bf 5bc6 f83e fe7a d6be
00000360: 625f 023e c020 b8be e462 0ac0 5df2 29bf
00000370: e45b 68bd 093d 30bf b37b 923c 75d8 35bf
00000380: 8f48 c93e 4f7b 25bf 5852 4440 57a4 debe
00000390: 2058 d7bd 16ab b73e 3db3 f4bf 3e6d b0be
000003a0: 047b 903e 4352 acbc db91 b9c0 3e37 b6be
000003b0: d59c 1bbf de1b a9be 0cb1 7940 4fbc 2cbf
000003c0: 9091 01bf a3c9 1b3f 5feb b83e 555e e23e
000003d0: 4cbf b73e 66ca 193f b223 cb40 2f30 c4be
000003e0: b103 413f 2f63 cebe e5d1 acc0 f3d3 2e3e
000003f0: c43f c0bb 19a0 103d bec5 e3bf b00e 1c3e
-0.096541435 -0.015951276 -0.23870417 -0.24573761 -0.13045633 -0.24803504 -0.050395608 -0.17495117
0.06795481 0.08048326 -0.09071666 0.079511404 -0.17412412 0.12486985 0.10552719 -0.21051401
-0.49816304 -0.3688512 -1.4525049 -0.605334 -0.5080744 -0.55804926 0.78465766 0.041530676
-0.047586076 -0.34441677 -1.6154063 -0.36121234 -0.0654203 -0.24616091 -0.4431029 -1.0615038
0.4101715 -0.035053756 4.482668 -0.48206028 -0.093547635 -0.09792517 -4.8322415 0.70478874
0.061916456 0.007261999 -1.4680903 -0.1859387 0.05115053 0.058152832 -7.7531815 0.3295825
-0.1328619 -0.02572453 -0.11566198 -0.2431479 -0.23218134 0.0062868893 -0.08273292 -0.2814745
-0.114064574 -0.16657954 -0.1554155 -0.4037554 -0.017308503 0.21146348 0.16402301 -0.38926807
0.058321856 0.5602203 -3.679165 0.090554364 -0.16852087 0.33171165 -6.513762 -0.20033212
0.7371918 0.048568044 1.7807463 0.07706105 0.51080406 0.2289482 6.437838 -0.08162366
1.2867975 0.5497847 -1.5363288 -1.5362204 -1.203156 1.7881733 -3.2891417 -0.63265437
0.074559875 0.019256623 2.0403168 -0.8163889 -0.42124242 -1.3344373 -0.4113575 -1.0140734
0.19887975 -0.20469752 -0.10535827 -0.19939244 0.22173735 -0.13812426 -0.0046485662 -0.062787205
-0.02120161 -0.22108394 -0.012580365 -0.24281454 0.16389397 0.100994855 -0.07563543 -0.08985329
-0.20509832 -0.9874626 -3.0954525 -0.34481552 -0.15517327 0.35755187 0.6427696 -0.39513677
0.0077204127 -0.3435795 -1.7421714 -0.33776134 -0.28751674 0.07060827 0.33500257 0.18652265
-0.10577288 0.12071195 0.048389107 -0.5302298 -0.19722313 -0.41158444 0.31280255 -0.3546076
-0.11440801 -0.25551832 -0.38360637 -0.098056816 0.05476418 0.40856495 -0.19553033 -0.44579577
-0.37896222 -0.06456128 0.3751956 -0.27476376 -0.5007937 -0.6973626 0.40699062 -0.19678955
-0.80825293 -0.50681144 -1.0287002 0.052618932 -0.07215591 -0.76448137 -0.33336917 -0.9067079
0.4503534 0.08231862 -5.963078 -0.046100397 -0.6623442 -0.34433123 2.7829876 -0.53594977
-0.45261693 -0.03604016 -3.0288756 -0.10213589 -0.1676581 0.004409822 -0.11219328 -0.5886248
0.29604903 0.11832037 -1.6222726 -0.8134568 0.38876936 -0.1201436 -4.6747074 -0.019198447
0.09731546 -0.61849004 5.6375117 -0.4876312 0.18863425 0.27228275 -4.1376987 0.26273695
0.5807455 -1.5588686 -3.9850414 -0.109292805 -1.0838243 -0.96622276 1.94533 -0.73414564
-0.14016926 -0.3900397 -1.7913756 0.16939935 -0.9521965 0.21117531 3.3289752 -0.6946995
-0.111792795 -0.25865012 -1.1709598 0.18843596 -0.23326348 -0.5181713 0.48588833 -0.4189071
0.12731698 -0.35962486 -2.1622858 -0.6638544 -0.05672826 -0.6884313 0.01788125 -0.7103341
0.3931317 -0.6464128 3.0675259 -0.43484756 -0.105148554 0.35872716 -1.9117199 -0.34458345
0.28218853 -0.02103532 -5.7990546 -0.3558902 -0.6078618 -0.33029073 3.901431 -0.67474836
-0.50612736 0.6085455 0.36117074 0.44212595 0.35888135 0.6007446 6.3481073 -0.3831801
0.7539626 -0.40310046 -5.400622 0.1707304 -0.0058669765 0.03530893 -1.7794721 0.15239978

bias f4 [16]
00000000: 40c5 16be 98f9 bdbe 9ed1 b9bf 3fbe 3dbe
00000010: 6496 44bf ae72 5dbf d0e2 033d 33ba 28bf
00000020: 6578 febd 0fec 68be 964a c0bf c456 83bf
00000030: d413 1fbf 0bee dbbe 90e6 053e bc27 70bf
-0.14723682 -0.37104487 -1.4517095 -0.18529604 -0.7679198 -0.8650311 0.032198727 -0.6590912
-0.12425307 -0.22746299 -1.5022762 -1.0260854 -0.6213963 -0.4295505 0.13076234 -0.9381063

weight f4 [32, 16]
00000000: 8c2e a8bd 1ae4 703d b949 38bf fb28 fd3e
00000010: 1966 95be 2679 90be 70a2 44be 92fb e8bd
00000020: fccb 8f3e 6881 aa3c e693 b6be cf9c abbe
00000030: 4828 edbe 114e 04bf d672 b3be dab7 fabd
00000040: 2213 113e d556 a6be 369f 2fbf b6e5 42be
00000050: 968b 95bd 3881 38bd ac97 85bd 7c93 a4be
00000060: d6c0 18be d900 b8be 2286 b4be 643c b2bf
00000070: f639 02be eaf9 67be d89d c2be 8543 28bf
00000080: 886e 553e 045c 15bf 2fd4 38bd e896 11be
00000090: b135 fcbe 0bb4 4abf b0ad 163e 4a90 88be
000000a0: 7dc2 a3be 0a4f 7ebf 0aa8 29bf f219 a7be
000000b0: fe5c 40bf 6160 1a3e 6a54 16bc 7410 7bbf
000000c0: 2ec6 383e 7018 e73d e3df c3be 82a6 cb3c
000000d0: 9fac 83bf c819 73be b0bf 9ebc 7044 bebe
000000e0: 52dd f13e da69 ffbe 03c8 09bf 2d19 39bf
000000f0: 942c 09bf 5882 41be 3409 1abf 2de0 c6be
00000100: ca0f 60be 03ec 8fbd f1fe 2fbe 8426 8d3d
00000110: 0b06 90be 9e9d 6ebe 1c7e 083e 18bf d7be
00000120: 6aa1 c5bd e143 d2be d045 07bf cbc5 fabe
00000130: b84f 56be 68f9 babe 87ca 27be 3c31 73be
00000140: 568e 1ebe d07d eb3c e17b e43c bc91 313c
00000150: 4994 0abf 775c c1be 0637 03be 5f11 7abe
00000160: 7165 db3e 184c bfbe d8fd d4bf 1cff 82bf
00000170: 98eb 32be 7106 e33d 10ca ecbe 4e50 ffbf
00000180: c0da 49bd 0028 69be 11a9 80be 5423 8ebd
00000190: 943a f1bd d21e 5cbe 809c 48bb dc58 b7be
000001a0: 68de 11be 9e30 2dbd 7d16 e9be 2c6e c9be
000001b0: d765 bfbe e291 55bd b8fe 6dbe c06f 1abd
000001c0: f8e4 fdbd 3374 3fbf 4059 233f 1c14 18be
000001d0: f411 8cbf c824 c33e 8cf1 f6bd bf98 a13d
000001e0: 2b3d b4bd 9b41 57bf 7365 8ebf 5bb1 813e
000001f0: 80d6 07be 9bf0 50bf 24e0 523f 901b 143e
00000200: 5cb0 75be c51b 063f 6d47 c8be a0ed b83e
00000210: 4b0b 36c0 27d1 d7be 44ef 163e dfbe 0e3e
00000220: d27f 5ebe f037 4e3e a761 f23e 7387 8b3e
00000230: 26bd 203e 9b3a ef3e f9f6 4bbe ecda ba3c
00000240: 6887 75bd ba43 6fbe 363b 8ebf 00ea 1e3c
00000250: 123c 11bf 949e e13d 8a36 533e a9f9 41be
00000260: 7c4f f0be 35a2 dabd 83e6 6b3f 2906 92be
00000270: f13f 15bf 8822 223d a177 30c0 d800 98bf
00000280: 2875 28be 4fc8 853e 23a9 f1be 6428 3b3e
00000290: 5487 8a3f 8e53 133e 943f 7d3e 28cb dfbd
000002a0: 05d4 1bbe 3e8a 79be 1d5d 463f 8382 00c0
000002b0: e118 363f 17d7 c73e 96c5 4abd d074 4abf
000002c0: 0283 393e 072f 903b 1162 f3bf eba4 6a3e
000002d0: 52b3 72be c10e f6be 9823 8c3d 4eb1 34be
000002e0: 60ef ac3d 64c9 c83e 62f7 32bf 4412 e9bf
000002f0: 7aad 9a3b f296 86bb 8768 f9be 44be ebbf
00000300: fe85 7fbe bdc6 0abe 9714 d6be 0ef7 76be
00000310: 9cdd 9dbe 13c5 e9be 9c58 613e 9a7f d0bd
00000320: 0cb9 a03d b63c e8be ebeb e4be 06ac 28be
00000330: 1cc3 28be b7cf 02be 1266 aebe 0b0a b1be
00000340: c856 75be d0a8 41bf a6f9 57bf b05a 163d
00000350: 54c6 dbbe 4875 c6bd 0028 a2bc 5c0d 9fbe
00000360: a6b9 49be ceb5 fb3e a777 c9be bd40 4fc0
00000370: 2730 1bbf f5aa 06bf 6ffc b4bf bd68 19c0
00000380: 5655 1dbe c017 723e a710 67be fadb ca3d
00000390: 037c fbbd dade 0fbf 58de 1dbe 99a9 28be
000003a0: 36d8 30be 16ae 953e 1f04 1abe 9128 96be
000003b0: 41dd 31be 31e4 17bc 42b8 b5be 1367 98be
000003c0: 0c3e 103e c481 d6be e28d 14c0 a8d9 c53d
000003d0: 0d05 e6be 486c 68be 121e 38be 1f37 b2bd
000003e0: c0fc adbb 3439 82be 8af4 cabf b61e f1bd
000003f0: 2b05 b4be b843 203e 5c29 48c0 3c3f 99bd
-0.08212003 0.058811285 -0.7198749 0.49445328 -0.29179457 -0.2821743 -0.1920259 -0.11376108
0.28085315 0.020813659 -0.35659713 -0.33518073 -0.46319795 -0.5168162 -0.3504855 -0.12242098
0.14167455 -0.32488123 -0.6860231 -0.1903294 -0.073020145 -0.045045108 -0.0652307 -0.32143772
-0.14917311 -0.35938147 -0.35258585 -1.392468 -0.12717423 -0.22653928 -0.3801105 -0.65728027
0.20842946 -0.5834353 -0.04512423 -0.14217722 -0.49259713 -0.79180974 0.14714694 -0.26672584
-0.3198432 -0.99339354 -0.6627203 -0.32636982 -0.75141895 0.15075828 -0.009175399 -0.9807198
0.1804435 0.11283958 -0.3825675 0.02485967 -1.0287055 -0.23740304 -0.019378513 -0.3716159
0.47239166 -0.49885446 -0.5382082 -0.7230404 -0.53583646 -0.18897378 -0.6017029 -0.38842908
-0.21881023 -0.070274375 -0.17187096 0.06892112 -0.2812961 -0.23302314 0.13329357 -0.4213798
-0.09649928 -0.41067412 -0.528409 -0.4897903 -0.20928848 -0.36518407 -0.16385852 -0.2374925
-0.15483984 0.028746516 0.027891101 0.010837968 -0.54132515 -0.37765858 -0.12813959 -0.24420689
0.4285083 -0.37362742 -1.6639967 -1.0234103 -0.17472684 0.11085213 -0.4624791 -1.9946382
-0.049280882 -0.22769165 -0.25128987 -0.06940332 -0.11778751 -0.21496132 -0.003061086 -0.35809982
-0.14244998 -0.042282693 -0.4552497 -0.39341867 -0.37382385 -0.052141078 -0.23241699 -0.03770423
-0.12397188 -0.7478668 0.6380806 -0.14851421 -1.0942979 0.38114 -0.1205779 0.07890462
-0.08800729 -0.8408448 -1.112471 0.25330624 -0.13265419 -0.81617135 0.8237326 0.1446364
-0.23993057 0.5238612 -0.39116994 0.36118793 -2.8444393 -0.42151758 0.1473971 0.13939999
-0.21728447 0.20138526 0.47340128 0.27251777 0.15697154 0.467244 -0.19918431 0.022809468
-0.059943587 -0.2336568 -1.111182 0.009699345 -0.56732285 0.110165745 0.20626274 -0.18942894
-0.46935642 -0.1067547 0.9214861 -0.28520325 -0.5830069 0.039583713 -2.7573016 -1.1875257
-0.16450942 0.26129386 -0.47199354 0.18277127 1.0822549 0.14387342 0.24731284 -0.10927421
-0.15217598 -0.24369141 0.7748583 -2.0079658 0.7113171 0.39031288 -0.04950484 -0.7908449
0.18116382 0.0044001373 -1.9014302 0.22914474 -0.23701218 -0.4805813 0.068427265 -0.17645761
0.08444095 0.3921615 -0.69908726 -1.8208699 0.004720387 -0.0041073496 -0.4871256 -1.841744
-0.24953458 -0.13552375 -0.41812584 -0.24117681 -0.30833137 -0.45658168 0.22006458 -0.10180588
0.07847795 -0.4535882 -0.4471124 -0.16471872 -0.16480678 -0.1277455 -0.34062248 -0.34577975
-0.23958886 -0.7564821 -0.8436531 0.03670758 -0.4292475 -0.096903384 -0.019794464 -0.3106488
-0.19699726 0.49162143 -0.393491 -3.2383263 -0.6062035 -0.5260461 -1.4139537 -2.3970177
-0.15364584 0.23641872 -0.22564946 0.099052384 -0.12279513 -0.5619942 -0.15416849 -0.16470946
-0.17269978 0.2923438 -0.15040635 -0.29327825 -0.17369558 -0.009270714 -0.3549214 -0.2976614
0.14086169 -0.41895878 -2.3211598 0.09660655 -0.44925728 -0.22697556 -0.17980221 -0.0870192
-0.005309671 -0.25434268 -1.5855877 -0.11773436 -0.35160193 0.15650833 -3.1275244 -0.07482764

bias f4 [32]
00000000: 92db 3ebf 3c8e 6dbf a1eb f3be c8c3 f1be
00000010: 6fd5 0abe b63e 9bbf 2f8a f8be ab59 26bf
00000020: e071 b93e e4a4 e8bf 309c 8e3e 2f39 3fbf
00000030: 207c 95be e619 4bbf 9043 c9be 6533 7cbf
00000040: 38b2 03bf 73c4 87be 2b3b 9bbe d2ac 60bf
00000050: 084c fcbd ec6e c2be 19cb 39bf 53ba 13bf
00000060: a02b 23bf 8a18 3abf eb57 bebe a330 f1be
00000070: 2e60 9dbd df67 c9bf 185d 28bf 4827 ec3f
-0.7455379 -0.9279516 -0.47640708 -0.47219682 -0.13557981 -1.2128513 -0.48542926 -0.6498057
0.36219692 -1.8175321 0.27853537 -0.7469663 -0.29196262 -0.7933639 -0.3930936 -0.9851592
-0.51443815 -0.26517066 -0.3031858 -0.877637 -0.12319189 -0.37975252 -0.7257553 -0.57706183
-0.6373844 -0.72693694 -0.3717645 -0.4710742 -0.076843604 -1.5734824 -0.6576705 1.8449488

weight f4 [64, 32]
00000000: 329d 9bbc 564f c53e 3818 05bd aa25 b2be
00000010: c7cd c53e 1417 83be 0708 40be 12eb 02c0
00000020: c72a bdbf fbbd 2d3f 66db 33bf cf5b 7cbe
00000030: 4f2d fe3d a1a4 88bd 56f7 65be f228 0bbe
00000040: 489c bb3e c77a a7be eef1 91bf 5516 b1bf
00000050: d91a 0abf 3b5f 143e f19c 963e f502 61be
00000060: 10f8 84be 66e9 3abd 7b1f 273e 597c 1ebd
00000070: d2ae e63e 8f6c a1be f21f 2cbe 82b2 2fc0
00000080: 0d5f b6be 5619 e8bd 0663 fc3e 5b6c aebf
00000090: 399e 1cbe 4da2 763f c418 253e 4f09 0240
000000a0: 8b55 4ebe f870 e3bd ef5a b4bf 54c4 b6be
000000b0: 9dd5 b9bb fe77 b6be bbcc e1be 59f8 cfbe
000000c0: 6cf7 b1be 790d 003f d5eb 453f 0d9e bb3e
000000d0: 6a8d 36bd bab0 a1be 36b4 843c 4e7a 8cbe
000000e0: dcdd fcbe 1540 d73e 4d2e d6be 6a8e cabe
000000f0: 9b5e 2bbe 2c3b efbf 3b7e b33c 9ea4 00bd
00000100: 1c84 a7be 315c d43e 5691 0d3e 241f 18bf
00000110: ced1 f0be dc13 8fbf 0d2e b3be 8c0f 1a3f
00000120: c7d0 383f 42f4 aa3e b48e 37bf b75a bdbf
00000130: 5fc3 94be a884 eb3f 75a9 aabe a5ce 28c0
00000140: 10be 963e f8b5 0fbe b950 b93f cc72 853e
00000150: 3917 a73c 6c53 333e 8781 763e dc97 0fbd
00000160: edac dabe 4f89 f83d 603c d93e f7c6 bf3e
00000170: b83c e33e be29 65bf c8e4 6abd e482 39c0
00000180: 0483 02be a5b1 70be 6c22 e2bd 8a04 c8bd
00000190: 31ff 75be 0053 b1be ee20 5a3e e2ca 99bf
000001a0: 774c 833f 93e5 bcbf ccec b63f 67e2 0cbf
000001b0: f126 ba3e 61eb e6bd 7594 803c 36d5 ab3f
000001c0: 8888 c6be 80a2 51be 6b49 6fbd 2fcf 49bf
000001d0: bb30 723e adb1 80bd f1c0 58bf db0a 533d
000001e0: b020 aa3e 3862 e43e 5285 873e 3ff7 583d
000001f0: 0e89 bf3e fa40 5d3d c542 293e 7063 17be
00000200: 84ae 4f3d 4570 70be 1523 bdbe e340 86bf
00000210: bd3d 5fbe fb23 6cbe 7a95 0f3e cc42 a5c0
00000220: dfcd 8b3f 5f27 e3bf 249b 0dbf 2746 42bf
00000230: 2dfd 09be 5d20 fa3e 68be 50be 15ba 2ebf
00000240: 0521 69be ab45 68ba 8064 933c 344e f6be
00000250: 5870 c5bc 1234 cebe fb5f 9b3f f27e 85be
00000260: 0400 10be 4deb b8be 5803 5c3e 2f9b b23e
00000270: d07f 0abe e3a1 6740 23a1 cd3c 855b a2be
00000280: 81b0 fdbe 96f2 f33e 4ce8 3fbe 5884 65be
00000290: c66a f13e 688d ddbe 9adc 35be 4c91 74be
000002a0: 94d9 4fbf b4f4 523e 8e28 7abf 27ae 46bf
000002b0: c3fd 6c3a 6f99 76bc d933 62be 5798 293e
000002c0: ca12 7d3e 9c9a efbe 7a44 db3d b397 b8bf
000002d0: 5a96 c6be e15c ac3e 99f2 ff3f 7d1a debc
000002e0: 0547 86be 2939 b83b 1a29 5dbe e1a0 e93d
000002f0: adf4 73be bea4 dfbe 8eea 08bd 7672 f8be
00000300: 865a 06be 6f3c 5fbd 6072 e93d a6d3 293e
00000310: 5ee0 b0bd 7e14 453c 32b9 1d3e 1a45 fabe
00000320: 170f cdbf 42f1 2c3f f8c2 d8bf b5fd b9bd
00000330: f5b5 7fbd e1d0 dcbe 4573 93bd 27fb f93c
00000340: 5605 37bd 3192 e03e f0b3 a43e 3668 a0bf
00000350: 488f 9d3d 798a d2be 56c4 1e3f a1f9 fa3c
00000360: d2d0 b2be 9790 753e b523 8bbd 961b bc3e
00000370: 6578 b1bd 6da7 af3c 4b54 a13c 28b1 6cbf
00000380: f7e3 1ebe 3d93 813e 5b83 a63d e17a dbbe
00000390: d3d6 913e 3897 40bf 8af6 2d3e 2fcd ecbf
000003a0: 9e85 d4bf 7ab5 0040 1d06 563f 57d8 e23e
000003b0: 12b4 393e c314 613e 5310 44be d6f6 22c0
000003c0: f4c8 833e 440a 163d 40c3 b13e f187 053f
000003d0: 37b1 babc 3f1f e13d d1ca ad3f 0b63 293e
000003e0: 0ba7 2abd 87d5 f03d 690e 1c3e dd1e 85be
000003f0: 53aa c93e 2111 a93e 1cb2 1dbf ed55 c73d
-0.018995855 0.3853709 -0.0324938 -0.3479436 0.38633558 -0.25603545 -0.18753062 -2.0455976
-1.477868 0.6786801 -0.7025665 -0.24644397 0.12410986 -0.066720255 -0.22457632 -0.13589838
0.3664267 -0.3271086 -1.1401956 -1.383494 -0.53947216 0.14489453 0.29416612 -0.21973784
-0.25970507 -0.045632742 0.16320603 -0.038692806 0.45055252 -0.31528136 -0.16809061 -2.7452703
-0.35619393 -0.113329574 0.492943 -1.3626817 -0.15294732 0.963414 0.16122729 2.0318182
-0.2014982 -0.111055315 -1.4090251 -0.3569666 -0.0056712166 -0.35638422 -0.4410151 -0.40619162
-0.3475908 0.5002056 0.77312976 0.3664402 -0.044568457 -0.31580144 0.016199213 -0.2743706
-0.49388015 0.42041078 -0.418322 -0.39561778 -0.16735308 -1.8689933 0.021910777 -0.03140699
-0.3271798 0.41476586 0.13824973 -0.59422517 -0.47035068 -1.1177936 -0.3499607 0.6017997
0.7219357 0.3338948 -0.7170212 -1.4793309 -0.29055306 1.8399858 -0.3333241 -2.6376126
0.2944188 -0.1403426 1.447776 0.26064146 0.020396816 0.17512292 0.24072848 -0.035056934
-0.42710057 0.121355645 0.42428875 0.37456486 0.44382262 -0.8951682 -0.05734709 -2.898614
-0.12745291 -0.23505266 -0.11041722 -0.09766491 -0.24023129 -0.34633636 0.21301624 -1.201504
1.025771 -1.475756 1.4291015 -0.5503296 0.36357835 -0.11275364 0.01569579 1.3424442
-0.3877604 -0.20472145 -0.058419626 -0.7883176 0.23651402 -0.06283889 -0.84669405 0.051524024
0.33228064 0.44606185 0.26468903 0.052970167 0.37409252 0.054017045 0.16529377 -0.14784026
0.05070354 -0.23480327 -0.36940828 -1.0488552 -0.21800895 -0.230606 0.14021865 -5.164404
1.0922202 -1.774639 -0.5531485 -0.75888294 -0.13475485 0.48852816 -0.20385134 -0.6825269
-0.22766502 -0.0008860479 0.017992258 -0.4810654 -0.024101421 -0.40274101 1.2138666 -0.26073414
-0.14062506 -0.3611702 0.2148565 0.3488402 -0.13525319 3.6192558 0.02510125 -0.3171045
-0.49548724 0.47646016 -0.18740958 -0.22413766 0.47151774 -0.43271947 -0.17759934 -0.23883551
-0.8119137 0.2060116 -0.9771813 -0.77609485 0.0009040499 -0.01505123 -0.22090091 0.1656202
0.24714199 -0.46797645 0.1070642 -1.4421295 -0.38786584 0.3366461 1.999591 -0.02711224
-0.2622606 0.0056220484 -0.2159771 0.11407638 -0.23823805 -0.43680376 -0.033426814 -0.48524827
-0.1312047 -0.054500993 0.113987684 0.16584644 -0.08636545 0.0120288115 0.15402678 -0.48880845
-1.602023 0.6755563 -1.69345 -0.09081594 -0.062429387 -0.43128112 -0.0719972 0.030515267
-0.044682823 0.43861535 0.3216853 -1.2531803 0.07693344 -0.4112127 0.62018335 0.03063661
-0.34924942 0.23980938 -0.0679392 0.36739796 -0.086655416 0.02144214 0.019693514 -0.9245782
-0.15516649 0.25307646 0.08130523 -0.42867187 0.2848421 -0.7523074 0.16988578 -1.8500117
-1.6603277 2.0110765 0.8360308 0.4430568 0.18135098 0.21980576 -0.19146852 -2.5463157
0.25739253 0.036630884 0.34719276 0.52160555 -0.02278958 0.10992288 1.357752 0.16541688
-0.04166321 0.11759477 0.15239872 -0.2600011 0.3938776 0.3302088 -0.615999 0.09733186

bias f4 [64]
00000000: 7bd3 86bf 63e9 f3be 9641 34bf 9613 063f
00000010: 221e 243f 24d8 febf 6710 8fbe 5aa4 253f
00000020: 59cd 12bf 6ab5 d6bf b8e8 19bf 7116 87be
00000030: 1fb6 3fbf 383c fcbf 1e73 0bbf 334f 0ec0
00000040: 8762 87bf 2ddd 7fbf d517 c3be 0fb3 51be
00000050: ff72 07bf ae4d 48bf f152 90bf a4b0 7abf
00000060: 4104 61c0 d7a0 02be dcd4 d53d 2d77 c5bf
00000070: e333 033f 1742 b3bf 5a07 7dbf 8f7e acbf
00000080: 592b 213f 92e4 6bbf 3c09 83bf a10d 9bbe
00000090: ccd7 06bf 48be 80bf d42e 9bbe 9b4c 0dbf
000000a0: e074 d1bf 5d47 d3be 747f 0ebf ed60 2cbf
000000b0: 2812 223f fde4 a8bf f4ac 23bd 7b90 9140
000000c0: 06a5 773d d223 9fbe c3eb b9bf 62b8 68be
000000d0: f573 a43f 16d1 8a3f aef5 98be 7be2 48c0
000000e0: 6e93 fdbf 725a 03bf b39c 50be a209 3dbf
000000f0: ada4 27be 51ec aebe e36d 77c0 2628 c740
-1.0533289 -0.47638997 -0.70412576 0.52373636 0.6410848 -1.9909711 -0.27942201 0.64703906
-0.57344586 -1.6774113 -0.60120726 -0.2638431 -0.7488727 -1.9705877 -0.5447253 -2.223584
-1.0576943 -0.9994686 -0.3810412 -0.20478462 -0.52909845 -0.7824353 -1.1275312 -0.9792578
-3.5158846 -0.12756668 0.1044099 -1.5426995 0.5125105 -1.4004544 -0.9883934 -1.3476123
0.6295677 -0.92145646 -1.0237193 -0.30283836 -0.5267303 -1.0058069 -0.30309165 -0.55195016
-1.6363792 -0.41265383 -0.5566323 -0.67335397 0.63308954 -1.3194882 -0.039959863 4.548887
0.060460113 -0.31082016 -1.4525074 -0.22726586 1.2847887 1.0845058 -0.2987494 -3.1388233
-1.9810617 -0.51309884 -0.20372276 -0.73842824 -0.16371413 -0.3416467 -3.866082 6.223651

weight f4 [4, 64]
00000000: c835 973e e389 65c0 6a98 7f3f dd01 ad3f
00000010: 55d3 993f 3071 19bf 911a 7c3e 105d cc3f
00000020: b800 babf 087d 10c0 4091 e13d 00eb 0d3c
00000030: ac06 f7bd 0e83 ab3f 1b9a 05be 1e55 0e40
00000040: 7e2b b7bf a25c c9be bca1 dcbd 45ec 2140
00000050: 163f 0f3d 4238 0a40 b84a 59be f548 b6be
00000060: f3a4 d13f 7caa 823e 2024 4e3f 7028 5bbe
00000070: b833 8340 de81 eebe 87b0 9d3e aa8c 8abd
00000080: b9ee e63f 0b05 8bbf 652d e2be 6e8f 51be
00000090: a320 83bf 0d1b 5ebe 5a8b a1be e1e8 12c0
000000a0: a200 b83e abcc bf3d 585c cdbe 33b1 babe
000000b0: d9cc 61bd 5cbb 72bf 97cc 793f 78a1 c4bf
000000c0: e634 2d40 ccab 1ab9 f502 4fbd 55bd 9bbe
000000d0: 895c 52be 5d93 ea3f 0cc8 c73d b94d 723f
000000e0: 3037 4cbf f412 5fbe ee18 7e3f 5e59 d23f
000000f0: 5d84 8f3f 2a86 8f3f b202 06c0 58ec c6bf
00000100: 6638 31bd 8f4c 9440 4f53 95c0 1080 02c0
00000110: 696f ebc0 e9f2 293f 25ed 5fbe 9061 0b40
00000120: bc5d ebbe bbe6 833e b42d 19bf d893 eabd
00000130: 7b0c b8be 9b2c cd3f 66b4 ddbf 9d1e 4a40
00000140: faf0 84be 05de 4f40 4849 ebbd 1d0e d1c0
00000150: 96ca cd3d ff9e 2840 f8fc 493f 7ef6 163f
00000160: a4b9 c9bf 5872 47be 860b 3f40 bfad e8bd
00000170: 3527 0940 1089 1fbe 9903 a93f f662 80c0
00000180: 9c6e 6340 ddc1 613f 9427 8e3e 46b4 81be
00000190: a53c ebbe 8ab8 54be 245c a63d 781f 1940
000001a0: 4b8c 2bbe d5de e9be d03a 58be cdb5 46be
000001b0: 8105 8ec0 9eb0 71be c36e 20c0 d913 d2bf
000001c0: 92ab 0a3f d771 0740 bdc9 43bf 8bee 85be
000001d0: 1778 5cc0 754a 2fc0 5003 9a3e 6c58 a2bf
000001e0: d2eb 2040 d5de 11bf ca04 8cc0 5aaf 813e
000001f0: fb56 97bf 6976 7e3f d27a cc3f 32f6 c3bf
00000200: 4d51 58bf 79bb 3b40 506a 8f40 6595 c53f
00000210: 6ba8 8a3f af0d a8be dba8 2b3f 2556 8dbf
00000220: 8984 783f 1142 e13e ca58 df3d f460 a6bd
00000230: ec8b ddbe 0152 9e3d b252 003e 11a4 96be
00000240: df8f 3c3e 782b 853f 96a8 debd f961 6040
00000250: 70a2 2d3e fdf2 af3f c298 83bf 3116 05bf
00000260: 74b4 debf 684d 6fbe 5c6e 3940 2bc1 95bf
00000270: 19de a7c0 e3c1 58bf 5fc7 d53e 573c d33f
00000280: 9f6e 9dc0 9a2d 7f3f 5147 0540 8c47 87be
00000290: 1e5e e23e 6466 c5be 1097 773c 81ea 873f
000002a0: 4c97 5b3f 46f5 c13d 8008 b0be 3574 883e
000002b0: 5825 5640 b212 82be 5d15 b43f 1a05 cabe
000002c0: d9a9 0fc0 68a1 323e 302f 0a40 67a6 39be
000002d0: b255 4740 9cbc 2440 35dc 41be 3a85 90be
000002e0: ae11 61be 0997 553f 5b93 0e40 7128 87bf
000002f0: 9eb4 1440 7a2e 81c0 4a3e a53f a27c 68c0
00000300: 5cdf 6ebe 64fe 5b40 005e 6240 01da 37bf
00000310: ae22 c53f 1f26 293f d0f5 f8be 0a5d 41c0
00000320: f8ae 2f3f ea87 34c0 8be6 fd3e e4a7 513e
00000330: fea9 e9bd 795b a73e 1ce4 a1be bb05 2740
00000340: 211c 033f 2a10 b9bf 6ebf 98be 12d2 9440
00000350: 1876 0fbe 63fc 56c0 63e1 cdbd 84ac a13f
00000360: 545a af3f 0fb3 80be 1af7 95c0 326d 333f
00000370: c941 4440 a274 09c0 179d 24c0 c14d 3140
00000380: 7911 ae40 47b3 c4bf 2323 0c3e 3c7b 8cbe
00000390: 32df 633f 6e4b 213f c4d9 1d3d 71cf 4e40
000003a0: 1a5d 903e a1a1 d7be bad7 95be b031 42be
000003b0: 508b 4240 2d0e 3bbe c0bc 4a40 a14f 1dc0
000003c0: ce52 583f 4454 0a3f ea6c 7e40 8e6f 7dbe
000003d0: 43bb a13f 12cc 35bf 1c81 5fbd 940e 13bf
000003e0: 42fc 793e eaab 8b3f 4c8c 8940 cf1a b9bd
000003f0: f93a 7b3f 968e 1d40 6de9 223f 7aaa c3bf
0.2953322 -3.586541 0.9984194 1.3516194 1.2017618 -0.59938335 0.2461951 1.59659
-1.4531469 -2.2576313 0.11014032 0.008661985 -0.120618194 1.339937 -0.13047068 2.2239451
-1.4310148 -0.39328486 -0.10773036 2.5300457 0.034972273 2.1596837 -0.21219909 -0.35602537
1.6378464 0.25520694 0.8052387 -0.21402144 4.1000633 -0.46583456 0.30798742 -0.06765111
1.8041602 -1.0860914 -0.44175258 -0.2046487 -1.0244335 -0.21690007 -0.3155163 -2.2954638
0.35937983 0.09365209 -0.40109515 -0.36463317 -0.055127 -0.9481714 0.97577804 -1.5361776
2.7063537 -0.00014750584 -0.05053993 -0.30417886 -0.20543112 1.8326222 0.09754953 0.94649845
-0.7977171 -0.21784574 0.9925679 1.6433523 1.1212269 1.1212819 -2.0939145 -1.5540876
-0.043266676 4.6343455 -4.6664195 -2.0390663 -7.35735 0.66386276 -0.21867807 2.1778297
-0.4596995 0.2576197 -0.5983536 -0.1145398 -0.35947022 1.6029238 -1.7320678 3.1581185
-0.259651 3.247926 -0.11488587 -6.532973 0.10048406 2.6347044 0.78901625 0.5896987
-1.5759778 -0.19477212 2.9850783 -0.113612644 2.143018 -0.15579629 1.3204223 -4.01208
3.553626 0.88186437 0.2776457 -0.2533285 -0.45944706 -0.20773521 0.08123043 2.3925457
-0.16752736 -0.4567782 -0.21116185 -0.19405289 -4.438172 -0.2360253 -2.5067604 -1.6412307
0.54168046 2.1163232 -0.76479703 -0.26158556 -3.4448297 -2.7389195 0.30080652 -1.2683234
2.5143933 -0.5698064 -4.3755846 0.25329095 -1.1823419 0.9939943 1.5974982 -1.5309508
-0.84499055 2.9333174 4.4817276 1.5436217 1.0832647 -0.3282294 0.6705453 -1.1041914
0.9707723 0.43995717 0.10905607 -0.08123961 -0.43270814 0.07730485 0.12531546 -0.29422048
0.18414257 1.0403891 -0.10871999 3.5059798 0.16956496 1.3746029 -1.0280993 -0.51986986
-1.739882 -0.23369372 2.8973608 -1.1699575 -5.2458615 -0.8467085 0.4175367 1.6502789
-4.9197536 0.9967896 2.0824778 -0.26421773 0.4421243 -0.3855468 0.0151117 1.061844
0.85777736 0.0947061 -0.34381485 0.2665116 3.3460293 -0.25404888 1.406902 -0.39457017
-2.2447417 0.17444384 2.15913 -0.18129884 3.1146054 2.5740118 -0.18931659 -0.28226644
-0.219794 0.83433586 2.2277439 -1.0559217 2.323524 -4.0369234 1.2909634 -3.632607
-0.23327392 3.4374018 3.5369873 -0.7181702 1.5401208 0.66073793 -0.4862504 -3.0213037
0.68626356 -2.8207955 0.49589953 0.20474201 -0.114093766 0.32686976 -0.31619346 2.6097248
0.51214796 -1.4458058 -0.2983355 4.6506433 -0.14009893 -3.3591545 -0.10052755 1.2630773
1.3699441 -0.2513661 -4.686414 0.70088494 3.0665152 -2.1477437 -2.572088 2.7703707
5.439633 -1.5367211 0.13685279 -0.2743777 0.89012444 0.6300572 0.038537756 3.2314112
0.2819603 -0.421155 -0.2926615 -0.18964267 3.039753 -0.18267126 3.1677704 -2.4579852
0.8450135 0.5403483 3.9753976 -0.24749586 1.2635273 -0.7101451 -0.054566488 -0.5744412
0.24412635 1.0911839 4.298376 -0.090383165 0.9813686 2.4618278 0.6363743 -1.52864

bias f4 [4]
00000000: f571 89bf bd85 d8bf 9e72 cdbe adbc 45c0
-1.0737902 -1.6915814 -0.40126508 -3.0896409
