model_weights.pth (torch, 10436 bytes, 6 tensors)

network.0.weight f4 [64, 16]
000000 e6 d3 a6 3f a3 b2 b7 3e 2a 87 56 c0 bf 32 09 3f
       1.3033416 0.35878477 -3.3519998 0.5359306
000010 bd 9e 5a 3f 7d b6 94 bf ff a2 7f be 1f 30 15 bf
       0.85398465 -1.1618191 -0.24964522 -0.5827655
000020 6b 64 ae bf dc 34 b6 bf 34 a9 68 be 4d cc 21 3f
       -1.3624395 -1.4234881 -0.22720796 0.63202363
000030 ba 8f f2 bd cf 0a d8 3e 7d 6b 01 40 75 7f 93 bf
       -0.1184382 0.42195746 2.0221856 -1.1523272
000040 13 3a bb be a4 62 1c bf 7e 81 8e bf ac 8c 51 3e
       -0.36567745 -0.61088014 -1.1133268 0.20463818
000050 bb ad 89 bf fa c0 c0 3e c7 03 a1 bf 05 22 8b be
       -1.0756143 0.3764723 -1.2579278 -0.27174392
000060 68 3c f0 be ce 77 12 c0 7e 8e 44 3e d4 13 87 c0
       -0.46921086 -2.2885623 0.19194981 -4.2211704
000070 99 64 04 c0 7d 9c 4e 3f 5a f2 3a 40 d0 9f b6 3d
       -2.06864 0.8070753 2.921042 0.089172006
000080 fa 42 11 bf 6f 9d 25 be 12 a9 5c bf 15 1d 93 3e
       -0.56742823 -0.16173337 -0.8619548 0.28733125
000090 a1 06 bf bf 31 23 83 3e 90 72 2f c0 67 25 e5 3d
       -1.4923898 0.25612786 -2.7413673 0.111887746
0000a0 4d 36 40 3f 4f ae 27 c0 60 49 83 bd 54 5f 4f c0
       0.75082856 -2.620014 -0.064104795 -3.2401934
0000b0 28 5f 0b bf 1d 40 d3 3e e4 25 3a bf b9 f0 22 be
       -0.5444207 0.41259852 -0.72714067 -0.15912141
0000c0 82 ea b6 be da af df 3e a6 85 0d c0 ab e4 b6 bc
       -0.3572579 0.43688852 -2.2112823 -0.022325834
0000d0 ac 69 8d 3f 94 b4 f6 3d 51 ff 9d c0 67 97 85 bf
       1.1047873 0.12046161 -4.9374166 -1.0436829
0000e0 97 16 a6 3f c5 a1 97 3f 50 af 79 be 3e e0 6b 3f
       1.2975644 1.1846243 -0.24383283 0.9213904
0000f0 8c 99 72 be 84 3e 83 3f 28 76 97 40 d9 e5 61 bf
       -0.23691386 1.0253453 4.7331734 -0.88241345
000100 f2 12 af 3e 8e e3 93 3f 5e 3f 3a c0 e7 11 04 bf
       0.34194142 1.1553819 -2.9101176 -0.51589817
000110 1b 38 af 3e a6 61 2c bf 03 f0 bc 40 39 c7 00 3e
       0.34222493 -0.673365 5.9042983 0.12575997
000120 97 e1 17 bf 21 9c b6 3e 90 07 5f bd 0b 48 b0 3e
       -0.593286 0.35665992 -0.05445057 0.34429964
000130 ce 58 3b 3e ad dd 81 3e 91 40 99 bf 10 0f 5f 3e
       0.18295595 0.25364438 -1.1972829 0.2178309
000140 6c 0c 7a bf 3a 00 c3 be 1b b3 23 c1 97 8f fe 3e
       -0.97675204 -0.3808611 -10.231227 0.49718925
000150 32 ed 60 bf 5c 24 72 be 55 00 24 c0 8c 89 f5 bf
       -0.8786193 -0.23646683 -2.5625203 -1.9182601
000160 3c df 63 bf 4c 97 18 c0 e6 14 48 3e b8 45 13 c0
       -0.89012504 -2.3842344 0.19539222 -2.3011303
000170 1c 3c 09 bf 96 e1 17 bf 8d 2b 46 40 10 39 6d 3f
       -0.53607345 -0.5932859 3.0964081 0.92665195
000180 db e3 07 bf f7 d6 d1 3e 04 7c 0a c1 12 6f e5 3f
       -0.53082055 0.40984318 -8.655277 1.7924521
000190 1a ac 08 bf 3a 87 a3 bf d1 b6 56 c0 87 cd 3a bd
       -0.53387606 -1.2775643 -3.3549082 -0.045606162
0001a0 06 c6 af be ee 41 72 c0 d0 77 29 bd 46 94 dd c0
       -0.34330767 -3.785274 -0.041374028 -6.92435
0001b0 d6 59 ea be bb 86 7e be 7b 1f f9 3e 49 89 81 be
       -0.45771664 -0.24856083 0.4865683 -0.25300053
0001c0 eb f1 83 3e 9f 1c 80 bf dc 94 2b 41 01 53 f2 be
       0.25770506 -1.0008734 10.723843 -0.47328952
0001d0 4d bc 1c 3f 3f 19 c0 3e cb de fa c0 60 3c 62 bf
       0.61224824 0.3751926 -7.8396964 -0.88373375
0001e0 4a 7f c2 3f 46 a8 1e c0 a8 c1 3a be 95 3f 4c c0
       1.5195096 -2.4790206 -0.18237936 -3.1913807
0001f0 f4 ba 7d 3e 2a 08 90 3e 59 51 fa c0 57 74 5f bd
       0.24778348 0.2813123 -7.82243 -0.05455431
000200 91 3f b2 bf 98 b4 ab bd 89 34 72 40 b9 db 27 be
       -1.3925649 -0.08384055 3.7844565 -0.16392411
000210 32 19 35 3f c7 0f 2a 3f 5b 7c 4a c0 9b 14 1e bf
       0.7074157 0.66430324 -3.16384 -0.6175019
000220 d0 6a 05 40 59 47 6f be 88 55 3f bd 45 e1 86 c0
       2.0846443 -0.2336706 -0.04671243 -4.2149987
000230 37 d7 8c bf 50 d2 91 3d 36 b2 d7 c0 6d 51 26 3f
       -1.1003178 0.07120192 -6.7405043 0.64967996
000240 7f ae 93 3e ad 4b 48 3e 97 7b f2 40 06 54 1c bf
       0.28844067 0.19560118 7.5775867 -0.6106571
000250 cd cf 33 3f 0b e5 9f 3e 76 7c 0d 40 b6 26 8c be
       0.70238954 0.31229433 2.2107215 -0.27373284
000260 e0 a4 7d 3f 27 3c 82 3f 6e 2f 30 be c1 39 0e bf
       0.99079704 1.0174607 -0.17205593 -0.55556875
000270 4e b0 7e 3f 5c 1e 42 bf 44 40 89 c0 fb be b1 be
       0.9948777 -0.75827575 -4.289095 -0.3471602
000280 b7 77 39 3e 55 c1 a0 3e f9 19 0d c0 38 f0 c9 be
       0.18112074 0.313975 -2.2047102 -0.39441085
000290 ce 3b 76 be 7c 09 b0 be d1 d2 17 41 f5 fa 36 3e
       -0.24046251 -0.34382236 9.488969 0.1786917
0002a0 7e b1 5d 3f 8d b2 8f bf 3c 71 90 bd 2d f4 19 bf
       0.86598957 -1.1226364 -0.07052848 -0.6013821
0002b0 9e 56 d1 3d 03 a9 c8 3e 1a f8 f0 c0 4c 12 9e 3f
       0.10221599 0.39191446 -7.530286 1.2349334
0002c0 75 53 8f bf fc 32 24 3e 52 dd cf c0 32 70 81 3f
       -1.1197344 0.16035074 -6.4957666 1.0112364
0002d0 28 4f b9 bf a0 7b 03 3f ab e6 7c c0 d2 00 77 be
       -1.4477282 0.5136051 -3.9515789 -0.24121407
0002e0 d2 4b 5a 40 cf d9 ac c0 88 c3 d3 3d 8c 38 01 c1
       3.4108777 -5.401588 0.10340029 -8.076305
0002f0 72 43 ec bf 3e 8a 90 bf 73 8e 46 c0 55 ce ab be
       -1.8458083 -1.1292188 -3.1024444 -0.33555856
000300 15 40 a9 bf f0 0e 05 be f6 23 88 c0 18 de d1 be
       -1.3222681 -0.1299398 -4.25439 -0.40989757
000310 24 b7 4f bf f9 e4 e9 bf 93 4e 9b c0 31 11 d8 bf
       -0.81138825 -1.8273002 -4.8533416 -1.6880246
000320 41 a5 a0 3d 17 60 f2 bf 60 79 88 3d df 18 ba c0
       0.0784402 -1.8935574 0.066637754 -5.815536
000330 2d e4 c0 3c e0 7a 49 bf a4 29 f0 be 98 59 e0 be
       0.023546303 -0.7870312 -0.4690677 -0.43818355
000340 da 93 a1 be 13 62 ac 3e 89 df 02 c1 f4 6a e2 3e
       -0.31558114 0.33668575 -8.179574 0.44222224
000350 81 8b b7 3e 49 a9 4e 3e 19 db 05 be e2 eb f3 bf
       0.3584862 0.20181765 -0.1307186 -1.9056361
000360 2e f6 55 bf 97 d6 1a c0 34 f5 42 be ef 82 56 bf
       -0.83578765 -2.4193475 -0.1903885 -0.8379354
000370 f4 b3 16 bf b6 cf 9a 3e 62 c8 4f 40 de 17 12 bf
       -0.58868337 0.30236596 3.2466054 -0.5706767
000380 38 ec ac 3f 87 a1 a8 bd 67 5a c0 40 37 bd 22 bd
       1.3509588 -0.08233934 6.0110354 -0.03973123
000390 14 e2 6f 3f 89 1a 46 be b1 99 5c 3f 89 b6 bc bf
       0.9370434 -0.1934606 0.86172014 -1.4743205
0003a0 82 45 a3 3d 8c 63 0c bf e8 8a e8 bd 9e d2 4c bf
       0.07972242 -0.54839396 -0.11354619 -0.80008876
0003b0 6a 91 7d 3f 2e 5b b3 bf fb 17 69 c0 48 a2 39 bf
       0.9905001 -1.4012201 -3.6420887 -0.72513247
0003c0 2a 67 de bf 19 09 59 bf 0f b6 13 40 84 c5 98 bf
       -1.7375233 -0.84779507 2.307987 -1.1935277
0003d0 22 9d aa 3f 06 ea 05 3f 0e 3b 11 40 4b 69 dc bf
       1.3329203 0.52310216 2.2692294 -1.7219633
0003e0 5d 65 8c 3f 7e 65 01 40 54 22 8f bd 10 58 4b bf
       1.0968434 2.0218196 -0.069889694 -0.7943125
0003f0 a2 ec 82 bf 07 4f 9d 3f 8d e0 04 c0 46 0b 16 bf
       -1.0228465 1.2289742 -2.0762055 -0.5861095

network.0.bias f4 [64]
000000 93 13 05 bf a3 4a 8c be 9f a2 b6 be b5 98 c8 be
       -0.5198299 -0.27400693 -0.35670945 -0.39179006
000010 27 3a 14 3e bc 25 08 3f 62 bd 44 3f e2 4c 05 c0
       0.14475308 0.5318258 0.76851475 -2.0828176
000020 2b 25 56 bf 40 57 c6 bf 15 be 19 3f 8c 36 64 bd
       -0.83650464 -1.5495377 0.6005567 -0.055716082
000030 31 60 0b c0 9f 67 5d 3d bf f8 f4 bf fe 3d 45 c0
       -2.177746 0.0540539 -1.9138411 -3.0819087
000040 26 48 11 3f 50 86 2b 3f b6 f7 a3 bf 5c dd 10 c0
       0.56750715 0.6700182 -1.280997 -2.2635107
000050 81 ff c1 be e8 de c7 3e d8 2e 9d bf 12 66 27 3c
       -0.37890247 0.3903725 -1.227992 0.010217207
000060 41 b3 21 c0 ef 53 81 bf 2a 2c 42 c0 66 b8 04 c0
       -2.5265658 -1.010374 -3.0339456 -2.0737548
000070 22 77 9a be 7d 03 12 c0 b6 35 3a 3f c1 b5 14 be
       -0.30169016 -2.281463 0.72738206 -0.14522459
000080 b9 63 6e 3f c4 f9 64 c0 63 0d f9 bf 5c 0d 07 3f
       0.93120915 -3.5777445 -1.945721 0.5275476
000090 dc 59 5d bf 33 05 9d bf 0d 81 39 c0 c1 3f f2 3d
       -0.8646524 -1.2267212 -2.8985016 0.11828566
0000a0 82 92 2e 3d a9 8c 27 c0 c7 3a ad 3e f8 f0 1c 3d
       0.04262019 -2.6179602 0.33833906 0.038315743
0000b0 d2 ff 26 bb 97 73 42 c0 dc 7c 59 bf 00 e8 89 bf
       -0.002548207 -3.038305 -0.84956145 -1.0773926
0000c0 9e 43 67 bf 14 09 0d 3f f2 ed 96 3e 6d 97 b2 bf
       -0.9033755 0.5509198 0.29478413 -1.3952461
0000d0 98 4f a0 3f 54 fc 86 be 95 3f 8f bf 49 fd 49 be
       1.252429 -0.26364386 -1.1191279 -0.19725527
0000e0 16 c7 d9 be 23 9e 71 3e 08 f3 bc be 13 89 a6 be
       -0.42534703 0.2359548 -0.36904168 -0.32526454
0000f0 c5 d0 67 3e 5f 2e bb be 95 e9 b3 bf ce e7 00 c0
       0.22638233 -0.36558816 -1.4055659 -2.0141482

network.3.weight f4 [12, 64]
000000 64 37 bb 3e 85 63 4b 3e 0c 88 10 be 22 17 14 be
       0.36565697 0.19862182 -0.14114398 -0.1446195
000010 5e ed c3 3e db fc ea 3e 28 c2 1b 3f 91 55 c5 3e
       0.38267034 0.45896038 0.60843134 0.38541844
000020 cd 8b 86 3e db 15 1a bf 97 9b 3d 3e 66 8f 77 3f
       0.26278535 -0.601896 0.18516384 0.96703184
000030 ef 54 9e 3f 83 06 85 be 32 7e bf 3f 01 2c f5 3f
       1.236967 -0.2598153 1.4960387 1.9154054
000040 62 e6 f8 bf 14 bb 5c be ab 9c 4f 3f 23 4d 2e be
       -1.9445307 -0.2155574 0.8109843 -0.17021613
000050 6c 34 eb be d4 80 b3 bf 17 2b 98 3e 45 ae 6f be
       -0.45938432 -1.402369 0.29720375 -0.23406322
000060 e3 df 9c bd 6a 2c 6a bf ef 97 31 3f 5c 7e 2b 3e
       -0.076598905 -0.9147402 0.6937246 0.16747421
000070 74 2e 59 3f a3 b1 21 40 e3 c2 2b c0 74 26 8a 3e
       0.84836507 2.526467 -2.68377 0.26982462
000080 61 fe 98 3f 53 24 88 3f 73 c0 d7 3f b6 5d 94 be
       1.195263 1.0636085 1.6855606 -0.28977746
000090 ad ec 76 be bd 18 aa 3f 38 ea be 3f 32 12 e5 bc
       -0.24113722 1.32888 1.4915228 -0.027962778
0000a0 5c 27 e5 3f 6d dd cc 3f d8 e8 03 3f ab 25 3c 3f
       1.7902637 1.6005074 0.51527166 0.73494977
0000b0 68 6c 03 40 20 b0 9f 3f ed 1f 54 bd 1e cd 8c 3f
       2.0534916 1.2475624 -0.05178826 1.1000097
0000c0 9d 5c 82 3f 6e a2 92 3e 21 2f ab 3f 84 2b 16 3f
       1.0184513 0.2863955 1.3373758 0.5866015
0000d0 70 ca 1a 40 70 05 94 be 67 ba 98 be c4 6d da 3d
       2.4186058 -0.28910398 -0.29829714 0.106654674
0000e0 52 9a ca 3d f1 45 5b 40 57 38 c8 3f 95 90 be 3f
       0.098927155 3.426144 1.5642194 1.4887873
0000f0 f0 31 f7 be d1 d2 a7 3c 1c a0 a5 3f 83 f3 93 3f
       -0.48280287 0.020486267 1.2939487 1.1558689
000100 0a 7a 01 bd cb 78 43 bf 47 cd 25 3f bc 29 81 bf
       -0.031610526 -0.7635619 0.64766353 -1.0090861
000110 76 6d 38 be ea d9 c6 bf b3 7f be be 94 c2 2e 3f
       -0.18010506 -1.5535252 -0.37206802 0.6826565
000120 02 01 86 3d f8 e0 70 3d 27 59 17 bf a7 f2 d5 3d
       0.06543161 0.058808297 -0.5912041 0.10446673
000130 e6 75 22 be 93 59 8d bf d2 3f 27 3f f7 aa 7a 3d
       -0.15865287 -1.1042961 0.6533176 0.0611982
000140 ea b2 2b bf 09 19 17 3e 57 7f a0 bf 77 1d 90 bd
       -0.67069876 0.14755644 -1.2538861 -0.0703687
000150 63 5e 0c bf c7 cb 94 bf 4c 32 58 3e 7f 11 01 3f
       -0.5483152 -1.1624688 0.21112937 0.5041732
000160 59 1a 28 bf 85 2c 78 3d 13 64 ff 3c 28 8b 58 3d
       -0.65665203 0.060589332 0.031175649 0.052867085
000170 11 28 42 bf 36 30 e0 3e 6d 9f cd bf b4 7d 99 be
       -0.75842386 0.43786782 -1.6064278 -0.29978716
000180 54 47 3c bf 7c 24 94 3f 12 80 f8 be 6c 20 30 bf
       -0.7354634 1.1573634 -0.4853521 -0.6879947
000190 76 d9 7a bf 74 34 40 3f 4e 64 de 3e 3c cd 52 bf
       -0.9798807 0.7508004 0.434359 -0.8234441
0001a0 e3 3a 66 be 2b df 02 bf 89 6b fb bd b6 16 2b bf
       -0.22483401 -0.5112178 -0.1227637 -0.6683153
0001b0 34 48 b4 bf 40 1c 62 3f 56 08 38 bf 95 9a 2e be
       -1.4084535 0.88324356 -0.7188772 -0.17051156
0001c0 77 23 68 3e 81 5d c7 bf 7f ad ef 3e 0d 72 d4 3c
       0.22669779 -1.557541 0.46812055 0.02593329
0001d0 17 c6 a0 be 61 20 44 bf a8 53 2a bf 7a 22 46 bf
       -0.3140113 -0.76611906 -0.665339 -0.7739636
0001e0 31 7b 5e bf 84 08 a7 bf 2b f3 d9 3d 5a c5 9e 3d
       -0.86906725 -1.3049474 0.10642084 0.077524856
0001f0 c7 f5 81 bf 7f 56 53 3e 36 1f 58 3e 4d 52 45 3e
       -1.015313 0.20638464 0.21105656 0.19269677
000200 a0 84 af 3e 62 51 51 be 41 7d 0f 3f d6 92 3d bf
       0.34280872 -0.20441201 0.560505 -0.7405218
000210 f9 a2 69 be 97 85 7e 3f 1a 73 4b bf 8a fe 30 bf
       -0.22816075 0.9942259 -0.79472506 -0.69138396
000220 37 71 fd 3e 11 86 bc bf 3a 90 cf bf 74 30 54 3f
       0.4950044 -1.4728414 -1.621589 0.82886434
000230 a3 09 0b 3f 84 1b 3d 3e 5b 0a ba bf b1 7b 87 3c
       0.5431158 0.18467528 -1.453441 0.016538473
000240 1e 6f 82 3e a7 a4 b1 be 54 8e 59 3e 85 d3 df 3e
       0.254754 -0.34695932 0.212457 0.43716064
000250 89 7a b8 bf a1 22 f6 3e 46 2e b3 bf 04 19 18 bf
       -1.4412395 0.48073295 -1.3998497 -0.5941317
000260 8a f9 64 bf 49 39 11 c0 3c 86 df bf 7c f6 3c bd
       -0.89443266 -2.2691214 -1.746284 -0.046133503
000270 21 68 df bc 74 1f aa be 53 4b 02 40 6a 94 d1 bf
       -0.027271332 -0.33227122 2.0358474 -1.6373417
000280 96 be ec 3e 1b 35 d8 bf d6 96 58 bf 39 cf 33 3f
       0.46239156 -1.6891207 -0.8460516 0.7023807
000290 f9 f9 31 3d 06 94 2e bf d7 c3 44 bf c6 21 0d bf
       0.043451283 -0.68194616 -0.7686133 -0.5512966
0002a0 6c 15 0a c0 6d 9e 53 bf ab fa a7 be 5f fe 63 bf
       -2.1575575 -0.82663614 -0.32808432 -0.89060014
0002b0 c5 ed 99 bf 0c fb 81 bf 99 39 bf bd 38 05 75 3b
       -1.2025687 -1.0154738 -0.09337158 0.0037387144
0002c0 ea e5 fa 3d 6a ea 99 be 77 d9 9b bf 13 42 9f bf
       0.12250884 -0.30061656 -1.217574 -1.2442039
0002d0 98 47 dd 3d 8b 5c 9e 3f d3 80 c9 be 1e 92 18 3f
       0.10804671 1.2371992 -0.39356098 0.5959796
0002e0 fa ba f6 bf a2 d3 de bf b0 b6 2a 3f e6 aa 70 bf
       -1.9275811 -1.7408335 0.6668501 -0.9401077
0002f0 8c 24 b4 39 de b8 7e 3e de 3e 71 3c 97 a3 08 3f
       0.00034359505 0.24875209 0.014724461 0.5337462
000300 d8 35 08 3f 7c 12 38 3f 6f c7 14 bd c5 d0 52 3f
       0.5320716 0.71903205 -0.036323007 0.8234981
000310 2b a1 c3 bc a5 87 2b 3f 87 92 10 3e cc 9d 37 3f
       -0.023880562 0.6700385 0.14118396 0.71725154
000320 1e 7c 28 3f a5 15 11 bf 45 23 36 c0 8e ba fb be
       0.6581439 -0.5667365 -2.8459027 -0.49165767
000330 fe 45 de 3e 47 18 e6 3e 61 85 e0 3f ab e8 61 3f
       0.43412775 0.44940397 1.7540704 0.8824565
000340 8a ed 4a 3f 68 e3 3f 3e 07 6c a8 3e 3f 43 a1 3f
       0.79268706 0.18739092 0.32894918 1.2598647
000350 63 51 49 c0 38 63 a6 bd 9e d8 10 be bd 6f 1a bf
       -3.1455925 -0.08124393 -0.14145133 -0.6032675
000360 36 10 bb be 86 17 99 3f f6 d5 dc 3e 11 b2 c1 3f
       -0.36535805 1.1960304 0.4313199 1.5132467
000370 4e 56 8f bf 3d 20 72 3f 4c 73 8d be 08 dd 58 be
       -1.1198213 0.9458044 -0.27627027 -0.21178067
000380 71 2d c0 3e ef 73 3c 3f 73 bc 44 3f 06 3d a7 bf
       0.3753467 0.736144 0.7685005 -1.3065498
000390 d7 cf b3 3e b6 77 12 bf 9b a9 8e 3f 70 70 07 c0
       0.35119507 -0.57213914 1.114551 -2.1162376
0003a0 76 ed a0 bf ad 85 86 3f 4f d5 2a 3d 46 2f 85 bf
       -1.2572467 1.0509545 0.041707333 -1.0405052
0003b0 d4 fd ab bf 64 c9 3b 3e a3 92 7d be e9 f1 2a 3f
       -1.3436837 0.18338543 -0.24762969 0.66775376
0003c0 1d 71 0a 40 bf db 36 bf 82 eb 67 bf 78 76 11 3e
       2.163154 -0.71429056 -0.9059373 0.14205348
0003d0 1b 51 53 c0 4e d8 c4 3f 07 af 48 3f 57 5c c7 3e
       -3.3018253 1.5378511 0.7839207 0.38937637
0003e0 08 5b d2 bf 3f ec 80 c0 7d 49 05 bf 58 b1 52 bf
       -1.643403 -4.0288386 -0.5206526 -0.82301855
0003f0 18 c6 88 3f 56 1a 8d 3e 0a 8a ac 3e 7e 88 23 3e
       1.0685453 0.27559155 0.33699065 0.15970036

network.3.bias f4 [12]
000000 92 85 b3 c0 46 57 9f c0 9a d9 21 3f 81 73 ac c0
       -5.610055 -4.9794035 0.6322266 -5.3890996
000010 2b 8e bc bf 62 8d 51 3f 9d 2b 01 c0 4d 51 c7 c0
       -1.4730886 0.8185636 -2.018287 -6.2286744
000020 0a f0 f0 3e bb 01 ff c0 cc b0 ce bf d5 3b 88 c0
       0.47058135 -7.9689612 -1.6147704 -4.2573037

network.6.weight f4 [4, 12]
000000 d2 8c 25 bb 37 f7 56 3c 6a 13 af 3c f6 05 7b bc
       -0.0025260937 0.013120464 0.021371562 -0.015321245
000010 76 00 a4 bb 5a 71 34 bc 85 97 a9 bc 7a e1 ae 3c
       -0.0050049378 -0.011013353 -0.020702133 0.02134775
000020 a9 07 d1 3b b0 f2 87 bc 08 16 7b 39 5a 33 60 bc
       0.006379087 -0.016595215 0.00023945433 -0.013684118
000030 d2 10 d6 be 1f e3 c0 3e 03 ff 7c 3e ae d7 af 3f
       -0.41809708 0.3767328 0.24706654 1.3737695
000040 bf 69 59 bd 85 5a 7b be 60 e0 8e 3e bf f8 8e 3d
       -0.053079363 -0.24546249 0.2790556 0.06981038
000050 49 a4 89 3c 06 dd 4a 3d 4c 0e 1a 3e de 5f a9 be
       0.01680197 0.04952719 0.15044516 -0.33080953
000060 16 18 81 be e3 0b d5 3c 38 9c 0e 3e fa 4d 72 3e
       -0.2521369 0.026006645 0.1392678 0.23662558
000070 dc 54 22 bf 4c 09 9d be 7c b8 5b 3e 85 1a 3f be
       -0.63410735 -0.30671155 0.21457094 -0.1866246
000080 d5 07 a5 be b1 2a c4 be d6 e4 61 3f c5 c9 e5 3e
       -0.32232538 -0.3831382 0.882398 0.448805
000090 80 f2 54 be c5 a2 8b 3e 0e 9a 41 be c7 2d b1 bd
       -0.20795631 0.2727262 -0.18906423 -0.086513095
0000a0 23 e8 fc 3d 9a 3e f3 be 6c 88 b1 bd 6d db 56 be
       0.12348964 -0.475087 -0.086685985 -0.20982142
0000b0 ff 60 af be e3 8c 8e bd 60 84 04 3e 47 f1 f6 bd
       -0.3425369 -0.06960466 0.12941122 -0.12057739

network.6.bias f4 [4]
000000 64 e5 09 40 c7 8f bd bf f4 5c 6f bf 10 49 8e c0
       2.154626 -1.4809502 -0.9350121 -4.446419
