saves/kevin/kevin_nn_2025-02-22_17-07-05.pt (torch, 17468 bytes, 8 tensors)

weight f4 [16, 16]
0	0xbe93f680	-0.28899002
1	0xbe826c62	-0.25473315
2	0x3ca1880d	0.019718194
3	0xbe86e1c6	-0.26344126
4	0xbdca4b2c	-0.09877619
5	0x3d835e7f	0.06414508
6	0x3ac3366f	0.0014893542
7	0xbe88a50d	-0.26688424
8	0xbe21c1ac	-0.15796536
9	0xbc45e558	-0.012078606
10	0xbd84045e	-0.064461455
11	0xbd04bc6f	-0.032406267
12	0xbdab2cb5	-0.083581366
13	0xbe8037c4	-0.25042546
14	0xbee26c24	-0.4422313
15	0x3c8215b4	0.01587949
16	0xbdb0f7b4	-0.086409956
17	0xbd7105d3	-0.058843445
18	0xbc8fe599	-0.017565535
19	0xbe89e4b4	-0.269323
20	0xbe47eabd	-0.1952314
21	0xbe2644a2	-0.16237119
22	0x3cb93d3d	0.022612209
23	0x3e087b6c	0.13328332
24	0xbe1ffa6d	-0.15622874
25	0xbe58a7f4	-0.21157819
26	0xbea7a44b	-0.32742533
27	0xbde3857d	-0.11109445
28	0xbdf7951e	-0.12088989
29	0xbea778fa	-0.32709485
30	0xbf23c594	-0.63973355
31	0x3ca5044c	0.02014365
32	0xbe60516e	-0.21906063
33	0xbf074fb4	-0.5285599
34	0xbeb53f8e	-0.3540005
35	0xbe86737b	-0.2625998
36	0xbd80f6de	-0.06297086
37	0x3d4d901d	0.050186265
38	0x3f27b89c	0.65516067
39	0xbc21ce54	-0.009875853
40	0x3d80c17f	0.062869065
41	0x3d75354c	0.05986528
42	0xbf187a94	-0.5956204
43	0xbe54e69f	-0.207911
44	0x3e96e297	0.2946975
45	0xbdba8ae0	-0.091085196
46	0xbf35862b	-0.7090785
47	0xbe9017f9	-0.2814329
48	0x3a080a78	0.0005189548
49	0xbec5646a	-0.38553172
50	0x3f90afa7	1.1303605
51	0xbe2e4c26	-0.17021236
52	0xbdb80814	-0.08985916
53	0xbbd6e481	-0.0065580015
54	0xbf6f1359	-0.933889
55	0xbecd374f	-0.4008126
56	0x3cbb9943	0.02290023
57	0xbcf0e98c	-0.029408239
58	0xbfa882b9	-1.3164893
59	0xbe07cb0f	-0.13261054
60	0x3e830ec1	0.25597194
61	0xbe420eac	-0.1895091
62	0x3f20e371	0.6284705
63	0xbe098130	-0.13428187
64	0xbe41eab8	-0.18937194
65	0x3c849e05	0.01618863
66	0x3c93a07a	0.018020857
67	0xbdd522cb	-0.10407027
68	0x3d032ed0	0.032027066
69	0xbdc56aac	-0.09639487
70	0xbdfae614	-0.12250915
71	0x3b792542	0.0038016592
72	0xbe1aeb90	-0.15128922
73	0xbe1e2bea	-0.1544644
74	0x3dbea144	0.09308103
75	0xbe3a7fe0	-0.18212843
76	0x3c5eeef8	0.013606779
77	0xbe2cac9e	-0.16862723
78	0xbe18f8bc	-0.14938635
79	0x3dc4cdd4	0.09609571
80	0x3d3d726b	0.046251696
81	0xbe0a9daf	-0.13536714
82	0xbf810ef0	-1.0082684
83	0xbe5a9ec2	-0.21349624
84	0xbec5eabe	-0.38655657
85	0xbe93d2fe	-0.28871912
86	0x3f80d03f	1.0063552
87	0xbe8db5d3	-0.27677783
88	0xbda960cf	-0.08270418
89	0xbe74806c	-0.23877114
90	0xbf225d71	-0.6342383
91	0xbe7d85ba	-0.24758044
92	0xbcbadf3a	-0.02281152
93	0x3d1bc176	0.038026296
94	0xbeff9ea3	-0.49925718
95	0xbe9e69b7	-0.3094003
96	0xbd512546	-0.051060937
97	0xbdbe01b7	-0.09277671
98	0x3dcdfd17	0.10058039
99	0xbd2817b9	-0.04103825
100	0x3d58d090	0.052933276
101	0xbe842673	-0.25810584
102	0xbdea3ccd	-0.11437378
103	0xbe8f7deb	-0.28025755
104	0xbeac1f7b	-0.33617768
105	0xbdaaa3d1	-0.08332027
106	0x3ac6eef0	0.001517741
107	0x3c11ab25	0.008890902
108	0xbe42f708	-0.19039547
109	0xbe98c74a	-0.29839545
110	0x3e065e0d	0.13121815
111	0x3bc9b9b8	0.0061561726
112	0xbcea9200	-0.028634071
113	0xbd39ada8	-0.045331627
114	0xbe86bafe	-0.2631454
115	0xba751fdb	-0.0009350755
116	0x3d53b610	0.0516873
117	0xbe7a65f8	-0.2445296
118	0xbda21ed0	-0.07916033
119	0xbe98e756	-0.29863995
120	0x3d40ad84	0.047040477
121	0x3db95577	0.09049504
122	0x3e382df4	0.1798628
123	0xbe6ff91f	-0.23434876
124	0xbe1aebaa	-0.15128961
125	0xbe0bae8a	-0.136408
126	0x3e40e0ac	0.18835706
127	0xbd3437aa	-0.043998398
128	0x3d63e329	0.05563656
129	0xbe8c173e	-0.27361482
130	0x3d2d1974	0.042260602
131	0x3b9d0414	0.004791746
132	0xbe96caf9	-0.2945173
133	0xbdb70980	-0.08937359
134	0xbe998bae	-0.2998938
135	0xbd8acec7	-0.06777721
136	0xbd87404b	-0.0660406
137	0xbea56266	-0.32301635
138	0xbce99bea	-0.028516728
139	0xbe76f117	-0.24115406
140	0xbe10bcfb	-0.1413459
141	0x3e2263d4	0.15858394
142	0xbec8179a	-0.39080507
143	0xbe6d4d6e	-0.23174068
144	0x3e47be68	0.19506228
145	0xbe5f57b6	-0.21810803
146	0xbee76815	-0.45196596
147	0xbe66a062	-0.22522119
148	0x3c12b26a	0.00895367
149	0xbe3f73f6	-0.1869658
150	0x3eb81324	0.35952103
151	0x3da5e9ee	0.08101259
152	0x3e6aee66	0.22942504
153	0xbf00e9b7	-0.5035662
154	0xbf260e99	-0.64866024
155	0xbeba0831	-0.36334375
156	0xbe5d1c81	-0.21592905
157	0x3e744c51	0.23857237
158	0x3e309375	0.1724375
159	0xbe003c71	-0.12523057
160	0x3d45ded8	0.048308223
161	0xbe2a0fff	-0.16607665
162	0x3d2c5833	0.0420763
163	0xbef66c33	-0.48129424
164	0xbeb840d1	-0.3598695
165	0x3d171222	0.036882527
166	0x3ec42ae4	0.38313973
167	0xbe8eb5b9	-0.27873018
168	0xbe6e5a0c	-0.23276538
169	0x3e69c37d	0.22828479
170	0xbf14c9e7	-0.5812058
171	0xbec383f7	-0.3818662
172	0x3dd53071	0.1040963
173	0xbe8f7c0b	-0.28024325
174	0xbe5c0d95	-0.21489556
175	0xbd1f7a42	-0.038934954
176	0x3dfc9521	0.123331316
177	0x3c1b4e67	0.009479142
178	0xc09acd95	-4.8375955
179	0xbee8f098	-0.45496058
180	0xbd8eb870	-0.069687724
181	0x3d300ba1	0.04297984
182	0x3feaa693	1.8332084
183	0xbe89565a	-0.26823694
184	0xbd6944b6	-0.056950293
185	0xbe2482f2	-0.16065577
186	0x3fc74bd1	1.5570012
187	0xbed24f40	-0.41076088
188	0x3c9c39ff	0.019070623
189	0xbe71d48d	-0.23616238
190	0xbfdde081	-1.7334138
191	0xbe991a05	-0.29902664
192	0xbc5dc880	-0.013536572
193	0xbdf716c0	-0.12064886
194	0xbe9792ae	-0.29604095
195	0xbdf51d97	-0.119685344
196	0x3e3b7791	0.1830733
197	0xbda9c032	-0.082886115
198	0xbe3fa226	-0.18714198
199	0xbea348ee	-0.31891578
200	0xbda3cb02	-0.07997705
201	0xbdd794d9	-0.10526437
202	0x3d55a7fd	0.05216216
203	0x3c35b387	0.011090166
204	0x3dce0fce	0.10061608
205	0x3dd38011	0.10327161
206	0xbd804d75	-0.06264774
207	0xbe831e47	-0.25609037
208	0x3dc30400	0.09522247
209	0xbf4fad3f	-0.8112373
210	0x3eb88dd5	0.3604571
211	0xbe9b08b5	-0.3028008
212	0x3de4a881	0.11164952
213	0x3d657341	0.056018118
214	0xbf7f0514	-0.99617124
215	0xbe0e669e	-0.13906333
216	0xbed22e62	-0.41051012
217	0xbdd79407	-0.10526281
218	0x3f64e5ef	0.8941335
219	0xbda5a7e6	-0.08088665
220	0x3dcd768c	0.10032377
221	0xbebf9f02	-0.37426
222	0xbef49fcd	-0.47778168
223	0xbeca7795	-0.3954436
224	0xbda8db16	-0.08244912
225	0xbdd4f509	-0.10398299
226	0xbfd19373	-1.6373123
227	0xbe8c9cdb	-0.2746342
228	0xbd5c18c4	-0.053734556
229	0xbe6c4c51	-0.23075987
230	0x3fcaf511	1.5856038
231	0xbe6c9cac	-0.2310664
232	0xbd215d20	-0.03939545
233	0xbdc22076	-0.09478848
234	0xbf95811f	-1.168003
235	0xbea9c657	-0.33159134
236	0x3d1ef741	0.03881002
237	0x3d7ba657	0.06143793
238	0xbf3f0984	-0.74623895
239	0xbec122e3	-0.3772193
240	0x3a6ed11f	0.0009110141
241	0xbe9a20a2	-0.30103022
242	0xbeb8a9d3	-0.36067066
243	0xbe03b503	-0.12862019
244	0x3d86e7d7	0.06587189
245	0xba722120	-0.00092365034
246	0x3f44f7ef	0.76940817
247	0xbe94cc45	-0.29062095
248	0xbe10e8a3	-0.14151244
249	0xbe76556e	-0.24056026
250	0xbf7c6c75	-0.9860299
251	0xbe2c21e4	-0.16809803
252	0xbd85f6a5	-0.06541184
253	0x3ccb2881	0.024799587
254	0x3e7fada7	0.24968587
255	0xbe8cb279	-0.27479914

bias f4 [16]
0	0xbdac61df	-0.08417105
1	0xbe02bec5	-0.12768085
2	0xbeb8f7d7	-0.36126587
3	0xbe904111	-0.28174642
4	0xbd1d24d2	-0.038365193
5	0xbe433de4	-0.19066578
6	0xbe393587	-0.18086825
7	0x3dc07e83	0.0939913
8	0xbe24eb65	-0.16105421
9	0xbe7f6177	-0.24939524
10	0xbc344544	-0.011002842
11	0xbef7592b	-0.48310217
12	0xbe84f7fa	-0.2597044
13	0xbeb07af7	-0.34468815
14	0xbdb4e238	-0.0883221
15	0x3c837b3d	0.016049976

weight f4 [32, 16]
0	0x3defee5c	0.11715385
1	0x3c82bc85	0.015959034
2	0xbe70a5ea	-0.23500791
3	0xbe1d9d55	-0.15392049
4	0xbe5b4ca7	-0.2141596
5	0x3d905a21	0.07048441
6	0x3d6ca8d5	0.0577782
7	0x3d88c464	0.066780835
8	0x3e0d0249	0.13770403
9	0xbcc50920	-0.024052203
10	0x3d732828	0.059364468
11	0xbec993ea	-0.39370662
12	0x3b9ae9fc	0.0047276
13	0x3c1ff4cd	0.009762955
14	0xbe3fe8fa	-0.18741217
15	0xbe96e3e6	-0.29470748
16	0x3d8347e8	0.064101994
17	0x3c3167ee	0.010828001
18	0xbe1903f5	-0.14942916
19	0xbe8a8202	-0.27052313
20	0x3e33c2fb	0.17554848
21	0xbeaa1247	-0.3321707
22	0xbe689139	-0.22711648
23	0x3dc7d634	0.09757653
24	0x3d6ad492	0.05733163
25	0xbe49a6ca	-0.19692531
26	0xbe121cc9	-0.14268793
27	0xbd1fbfe1	-0.03900135
28	0x3db91c18	0.090385616
29	0xbd409b85	-0.047023315
30	0xbec90dd4	-0.39268363
31	0xbc60c670	-0.013719186
32	0xbe56294a	-0.20914188
33	0xbe19b64a	-0.15010944
34	0x3df94580	0.12171459
35	0xbe88faa7	-0.26753733
36	0xbdc3305c	-0.09530708
37	0x3d846cc4	0.06466058
38	0xbd8170c0	-0.063203335
39	0x3d553c30	0.052059352
40	0x3dfe7968	0.124255
41	0x3e10ee10	0.14153314
42	0xbcd74fcb	-0.026283165
43	0xbe8ac1b1	-0.271009
44	0xbdc03750	-0.0938555
45	0xbda6d0a8	-0.08145267
46	0xbdcba3a4	-0.09943321
47	0xbd9fa5c0	-0.07795286
48	0x3d77556d	0.060384203
49	0xbda88168	-0.08227807
50	0xbddab173	-0.10678377
51	0xbd0a25e8	-0.033727556
52	0xbe311437	-0.17292868
53	0xbe597da6	-0.21239337
54	0x3dfacc0c	0.1224595
55	0xbdcfe53c	-0.10151145
56	0x3c8409ca	0.016117949
57	0xbe6d2075	-0.23156913
58	0x3df06cb9	0.11739487
59	0xbec5e728	-0.3865292
60	0x3de2488e	0.11048995
61	0x3daae62c	0.08344683
62	0xbda93b9b	-0.08263322
63	0xbdd4ed09	-0.10396773
64	0x3e19c0e7	0.15014993
65	0xbd86577f	-0.06559657
66	0x3bdaa568	0.00667255
67	0x3e898203	0.26857004
68	0xbe3a0e20	-0.18169451
69	0x3e0fc4af	0.14039873
70	0x3dfcf529	0.12351448
71	0x3e6daad9	0.23209704
72	0xbdad1960	-0.084521055
73	0xbdda94f2	-0.1067294
74	0x3c5eb44d	0.013592792
75	0x3d94b5e2	0.07261254
76	0xbc483b62	-0.012221189
77	0x3f606751	0.8765765
78	0xc00a4167	-2.1602418
79	0x3e916639	0.28398302
80	0xbc0a0ff4	-0.008426655
81	0x3d73d099	0.059525106
82	0x3e0ea2b0	0.13929248
83	0x3dacdcbe	0.08440541
84	0xbe577c26	-0.21043453
85	0xbd99f5a0	-0.075175524
86	0x3e86d9e1	0.26338103
87	0x3e38abb5	0.18034251
88	0xbd99d005	-0.0751038
89	0x3ea10320	0.31447697
90	0x3f260ee3	0.64866465
91	0xbe9ae893	-0.30255565
92	0xbcc0733a	-0.023492444
93	0x3d198c81	0.03748751
94	0x3b31238c	0.0027029244
95	0x3c4a7de1	0.012359113
96	0x3df23d4a	0.11828096
97	0xbe367e71	-0.17821671
98	0x3e44aa3f	0.19205569
99	0x3ef444a1	0.4770861
100	0xbe5dc9b0	-0.21658969
101	0xbf3f61e5	-0.7475875
102	0x3ddb23e4	0.10700205
103	0x3e516b5c	0.2045111
104	0x3de5e073	0.11224451
105	0xbdbda8fd	-0.092607476
106	0x3d59ef5e	0.053206794
107	0xbd99f91b	-0.07518216
108	0xbdd14c69	-0.10219652
109	0x3f4784a5	0.77936774
110	0xbffcdf7d	-1.9755703
111	0x3e3b34e5	0.18281896
112	0xbdfd44a1	-0.123666056
113	0xbe1267ef	-0.1429746
114	0xbed6e341	-0.41970256
115	0x3f084bd6	0.53240716
116	0x3d994efb	0.074857675
117	0xbe9c2b02	-0.30501562
118	0x3cf5b44b	0.029993197
119	0xbe59342c	-0.21211308
120	0xbd21a956	-0.039468132
121	0xbdb2ef2d	-0.087370254
122	0xbed1fe11	-0.4101415
123	0xbe1063e7	-0.1410061
124	0xbbbfba7e	-0.005851089
125	0xbcabeb88	-0.020986333
126	0xbe5b9360	-0.21442938
127	0x3e7f104c	0.2490856
128	0x3e1ed419	0.15510596
129	0xbe2c4b7d	-0.16825671
130	0xbd0c720a	-0.034288444
131	0x3dc85912	0.09782614
132	0x3e790934	0.24319917
133	0xbe63dddd	-0.22252603
134	0x3d8f3b36	0.069937155
135	0x3e315a4c	0.17319602
136	0x3e584ddc	0.21123451
137	0x3df2843c	0.11841628
138	0x3f25e7b6	0.6480669
139	0xbdef1003	-0.11672976
140	0x3dbef5f1	0.09324253
141	0x3ee74621	0.45170692
142	0x3e2556bb	0.16146366
143	0xbe76ed1e	-0.2411389
144	0x3e88925f	0.26674172
145	0xbe1c2b09	-0.15250792
146	0xbf1dc3f7	-0.61627144
147	0xbcd1c7e4	-0.02560801
148	0x3e1f539a	0.15559235
149	0xbe49a1c8	-0.19690621
150	0x3d8767d0	0.066115975
151	0x3d8cdb38	0.0687775
152	0x3cc4dd14	0.0240312
153	0x3e3dd72e	0.18539116
154	0x3ec26fee	0.3797602
155	0xbf3f35f1	-0.74691683
156	0x3e2757b0	0.16342044
157	0xbe853b48	-0.2602179
158	0xbdb0c1b5	-0.08630697
159	0x3d93e39f	0.0722115
160	0xbd8d98ad	-0.06913886
161	0x3ddb4e17	0.10708254
162	0x3e99f34d	0.30068436
163	0x3ec2e839	0.38067797
164	0x3ca9c6b7	0.020724637
165	0xbe89c27f	-0.269062
166	0xbe144a59	-0.14481486
167	0x3e6394d4	0.22224742
168	0x3d92fdcf	0.071773164
169	0x3d2e8a66	0.042612456
170	0x3e30957d	0.17244525
171	0xbeb3cdd7	-0.3511798
172	0x3e08ebd0	0.13371205
173	0xbf0a92ed	-0.5413044
174	0xbf5d78cc	-0.86512446
175	0x3db51aa7	0.08842974
176	0xbd86707a	-0.06564422
177	0x3d95961d	0.073040225
178	0x3e867f14	0.26268828
179	0x3ddea5e5	0.108714856
180	0x3df23f33	0.118284605
181	0x3ce32a0a	0.027730007
182	0xbd8ceae5	-0.0688074
183	0xbe347c25	-0.17625482
184	0x3dd07ebc	0.10180423
185	0xbe013271	-0.12616898
186	0x3e609099	0.2193016
187	0xbf118d77	-0.56856483
188	0xbda399ce	-0.0798832
189	0xbea83e2a	-0.32859927
190	0xbfd2ea38	-1.6477728
191	0xbe61fcf1	-0.22069146
192	0x3e353538	0.17696083
193	0xbddb6d42	-0.10714199
194	0x3d07464f	0.033026036
195	0xbe1e317b	-0.15448563
196	0xbdc944f5	-0.09827606
197	0xbdbe154b	-0.09281405
198	0xbe888795	-0.2666594
199	0x3dda28dd	0.10652325
200	0xbdacb902	-0.08433725
201	0xbe9c5d85	-0.305401
202	0xbd62be21	-0.055357102
203	0xbd68c5e6	-0.056829356
204	0xbe4006b0	-0.18752551
205	0xbefa9da9	-0.4894841
206	0xbc89e6c1	-0.016833665
207	0x3e5782c6	0.2104598
208	0xbd81dedb	-0.063413344
209	0x3deebd19	0.11657161
210	0xbd9ae621	-0.07563425
211	0xbe1b81a9	-0.1518618
212	0x3e0476ea	0.12935987
213	0x3ca46b4e	0.020070698
214	0x3c3b1815	0.011419316
215	0xbe8f8761	-0.28032973
216	0xbd4e3091	-0.050339285
217	0xbe855b94	-0.2604643
218	0x3d96efdc	0.07369968
219	0xbbd1fc3e	-0.0064082434
220	0xbdd2b39d	-0.10288165
221	0xbe51b55f	-0.20479344
222	0xbe0f23fe	-0.13978574
223	0x3d6e3cc5	0.058163423
224	0x3e11a8d5	0.1422456
225	0xbdaf3812	-0.085556164
226	0x3cfe9cea	0.031080682
227	0x3e0a606f	0.13513349
228	0x3e50b64f	0.20382045
229	0x3d88ece8	0.06685811
230	0x3e4b6e87	0.19866382
231	0xbe345088	-0.17608845
232	0x3dc7392b	0.09727701
233	0xbda057dc	-0.07829258
234	0x3e679b4c	0.22617835
235	0xbef882fe	-0.4853744
236	0xbe80c466	-0.2514984
237	0x3ecda595	0.40165392
238	0x3cf42de3	0.029807037
239	0xbe0e4f1c	-0.13897365
240	0x3dcdf565	0.10056571
241	0xbd22deb9	-0.039763186
242	0xbea8f4aa	-0.32999164
243	0xba0c1c04	-0.0005344751
244	0x3cd78510	0.026308566
245	0xbd0dba24	-0.034601346
246	0x3ec008ac	0.37506616
247	0x3d718673	0.05896611
248	0xbe8342a9	-0.25636795
249	0x3dcf5098	0.10122794
250	0x3bd8067e	0.006592571
251	0xbd149234	-0.036272243
252	0x3cf26139	0.029587375
253	0x3c5a29f5	0.013315667
254	0xbcf52de7	-0.029929115
255	0xbe40d07c	-0.1882953

bias f4 [32]
0	0xbe239da0	-0.15978098
1	0xbdfa430d	-0.1221982
2	0xbe8613b7	-0.26186916
3	0xbeb5d7c8	-0.3551619
4	0xbf0b8645	-0.54501754
5	0xbdd59f3b	-0.104307614
6	0xbd52793d	-0.051385153
7	0xbda67a60	-0.0812881
8	0xbc89cecb	-0.01682224
9	0xbcb06121	-0.02153069
10	0xbc0dc3f7	-0.008652679
11	0xbca5caea	-0.020238359
12	0xbd059acc	-0.03261833
13	0xbde90288	-0.11377436
14	0xbe922f6c	-0.28551805
15	0xbe35b18e	-0.17743513
16	0xbe8b8d8a	-0.27256423
17	0xbedc0acf	-0.42976996
18	0xbf284c5f	-0.65741533
19	0xbeb7c5d8	-0.3589313
20	0xbcc66d7b	-0.024222126
21	0xbd849580	-0.06473827
22	0xbe5989f5	-0.21244033
23	0xbea261b7	-0.31715176
24	0xbc963d94	-0.01833991
25	0xbe8ef704	-0.27922833
26	0xbee38213	-0.44435176
27	0xbcd702df	-0.026246486
28	0xbe4acf3b	-0.19805615
29	0xbea6592a	-0.32489902
30	0xbe886485	-0.2663919
31	0xbe43e5ed	-0.19130678

weight f4 [64, 32]
0	0x3de85467	0.113442235
1	0x3da47ef9	0.080320306
2	0xbd9fdb94	-0.07805553
3	0x3f0d5dd6	0.5522131
4	0x3ffcd6b5	1.9753023
5	0x3f2b3e3e	0.6689185
6	0x3fcad0ce	1.5844972
7	0xbe27e593	-0.1639617
8	0x4021a97e	2.52597
9	0x3fc4bb9d	1.5369755
10	0x3f92dfb1	1.1474515
11	0x3f9e0eae	1.234823
12	0xbda62a23	-0.08113506
13	0x3dabe68a	0.08393581
14	0x3fc4c05c	1.5371203
15	0x3e688709	0.22707762
16	0x3e826264	0.2546569
17	0x3ce0b4fc	0.02743005
18	0x4005d497	2.0911005
19	0x3e5f84aa	0.21827951
20	0x3f54e215	0.83157474
21	0x3f1c5cae	0.6107892
22	0xbd5dffcb	-0.05419902
23	0x3fa9b8e0	1.3259544
24	0x3e6a11ef	0.22858404
25	0xbd9d0a11	-0.07667936
26	0x3fcf6ec1	1.6205674
27	0x3fe525b2	1.7902129
28	0x3f3db3ab	0.74102277
29	0x4021ff22	2.531197
30	0x3fdfc77f	1.7482756
31	0x3ed0ec5f	0.40805337
32	0x3db93c70	0.09044731
33	0xbcf36390	-0.029710561
34	0xbda1bede	-0.07897733
35	0x3c22a24f	0.009926393
36	0x3bf426df	0.007450923
37	0xbd5255ea	-0.051351465
38	0xbd9d0069	-0.07666094
39	0xbc420f33	-0.011844444
40	0xbca8cbda	-0.020605016
41	0xbd805e5e	-0.06267999
42	0x3d182c95	0.03715189
43	0xbe0969de	-0.13419291
44	0xbddb6b01	-0.10713769
45	0xbe1dd9df	-0.15415142
46	0x3d0e719a	0.034776308
47	0x3d5fab75	0.054606874
48	0xbe25c6f7	-0.1618918
49	0x3d1beea7	0.038069393
50	0xbe8cda1b	-0.2751015
51	0x3e05bb11	0.13059641
52	0xbe4d640d	-0.20057698
53	0xbde8384f	-0.11338865
54	0x3dd38f98	0.10330123
55	0xbe14878b	-0.1450483
56	0x3b9006a3	0.0043953224
57	0x3df87e35	0.12133447
58	0xbde1a4bb	-0.11017748
59	0xbda1be21	-0.07897592
60	0x3da7ec6f	0.08199393
61	0xbe9f7ff5	-0.3115231
62	0xbdeb8aba	-0.11501069
63	0x3caedeee	0.021346536
64	0xbdfa018a	-0.12207325
65	0x3d16b92f	0.0367977
66	0x3e0f9896	0.1402305
67	0xbe030a4b	-0.12796895
68	0xbe5bdcb9	-0.21470918
69	0xbe09d9cc	-0.13461989
70	0xbcd61362	-0.02613229
71	0x3e0e65b9	0.13905992
72	0xbdc79c53	-0.09746613
73	0xbe34d36a	-0.17658773
74	0xbd5b81a8	-0.053590447
75	0xbe307410	-0.17231774
76	0x3b26c770	0.0025448464
77	0x3da97104	0.08273509
78	0x3dffe6cc	0.12495193
79	0xbe93b1cc	-0.28846586
80	0xbe2d7afc	-0.16941446
81	0x3d0182da	0.03161893
82	0xbdbeb8bd	-0.0931258
83	0xbe141cb3	-0.14464073
84	0xbe65e46d	-0.22450419
85	0x3d11418a	0.035462894
86	0xbe01b783	-0.1266766
87	0xbe27fe14	-0.16405517
88	0xbba74033	-0.0051040887
89	0xbe32f185	-0.17474945
90	0xbe467c54	-0.19383365
91	0xbe15ba82	-0.14621928
92	0xbe0ffe9a	-0.14061967
93	0xbd893c3b	-0.06700941
94	0xbe015f2d	-0.12633963
95	0xbe81ca97	-0.25349876
96	0xbe04a9ed	-0.12955447
97	0x3bbe8e07	0.005815271
98	0xbb80ac64	-0.0039268006
99	0x3de43a0f	0.11143886
100	0x3cfab194	0.030602254
101	0x3da0fdfb	0.07860943
102	0xbf07851c	-0.52937484
103	0xbe979154	-0.29603064
104	0x3d342eb3	0.04398985
105	0xbdf12a9f	-0.117757075
106	0xbec0315a	-0.37537652
107	0xbdbd1588	-0.092326224
108	0xbdac2aa6	-0.08406572
109	0xbbf0fcf7	-0.0073543745
110	0x3b779d10	0.0037782826
111	0x3e56929c	0.20954365
112	0xbbfa3723	-0.0076359673
113	0xbc3bccc9	-0.011462399
114	0xbf0e7723	-0.5565054
115	0x3e49fced	0.1972539
116	0xbeb31098	-0.34973598
117	0x3e6eceb7	0.23321043
118	0xbd7eaa30	-0.062174022
119	0xbe5c1f92	-0.21496418
120	0x3da1ed77	0.07906621
121	0xbd4e6594	-0.05038984
122	0xbd57cd00	-0.052685738
123	0x3caea892	0.021320615
124	0xbdb93645	-0.09043554
125	0xbe8b50e5	-0.27210155
126	0x3bb61834	0.0055570845
127	0xbdace965	-0.08442954
128	0x3d7d652f	0.061864074
129	0xbbee2344	-0.0072673876
130	0xbda20c12	-0.079124585
131	0x3ece8966	0.40339202
132	0x40938d1d	4.6109757
133	0x3f043b6b	0.51653165
134	0x3f959bb2	1.168814
135	0xbdd8438d	-0.10559759
136	0x4014eba5	2.3268826
137	0x3fe3b29f	1.7788886
138	0x3ecf5a67	0.4049866
139	0x3f2d1939	0.6761661
140	0x3e8bee65	0.27330318
141	0x3dc0c73f	0.09413003
142	0x3f55046b	0.83209866
143	0x3daa93fe	0.083290085
144	0x3e891c1d	0.2677926
145	0xbe0da6d5	-0.13833173
146	0x3fd39ad3	1.6531624
147	0x3e093811	0.13400294
148	0x3f95eaba	1.1712258
149	0xbd99259f	-0.07477879
150	0x3ce80a72	0.028325293
151	0x3f95a726	1.1691635
152	0xc095260e	-4.6608953
153	0x3df63f08	0.12023741
154	0x3faff09d	1.3745304
155	0x3fa6d167	1.3032655
156	0x3ec62f85	0.3870813
157	0x400ae4fe	2.1702266
158	0x3f835bf2	1.0262434
159	0x3ee3a4ad	0.44461575
160	0x3d49a9c7	0.049234178
161	0xbdb30b56	-0.087423965
162	0x3dd58dba	0.10427423
163	0x3dc44641	0.09583712
164	0xbe2ad3f8	-0.16682422
165	0x3df298cd	0.11845551
166	0xbe731819	-0.23739661
167	0xbdb9fec2	-0.09081794
168	0xbdbfb267	-0.093601994
169	0xbc66fe5e	-0.014098732
170	0xbe140cbb	-0.14457981
171	0xbdbc6681	-0.091992386
172	0xbe5a920d	-0.21344776
173	0xbde1dcec	-0.11028466
174	0xbe249d45	-0.16075619
175	0x3accbd95	0.0015620465
176	0xbdd2ce9f	-0.10293316
177	0xbdf0787c	-0.117417306
178	0xbdbb34b1	-0.091409095
179	0x3a2d66c0	0.0006614737
180	0x3cc4a2b1	0.024003359
181	0xbc9f0f83	-0.019416576
182	0x3ccfc70d	0.02536347
183	0x3dc78ea0	0.097440004
184	0x3b8e6c1a	0.004346383
185	0x3c617252	0.013760166
186	0x3d67e87d	0.056618202
187	0xbdf7c77c	-0.120985955
188	0xbd3f1fc4	-0.046661153
189	0xbe8f8fe5	-0.2803947
190	0xbe0c01d7	-0.13672577
191	0xbd8107b2	-0.06300296
192	0xbd5db3ba	-0.05412648
193	0xbe31bbb8	-0.17356765
194	0x3dc096a2	0.09403731
195	0x3d825ac3	0.06364968
196	0xbe5ae059	-0.21374644
197	0x3d8f2285	0.06989006
198	0xbda15ddd	-0.07879231
199	0x3db511ca	0.088412836
200	0xbd4935d0	-0.049123585
201	0x3e0af4e2	0.13569978
202	0x3d66f46c	0.056385443
203	0xbd6c701b	-0.0577241
204	0xbdc5ab39	-0.09651799
205	0x3c5cf1a4	0.013485346
206	0xbcec6297	-0.028855605
207	0xbc2ab79e	-0.010419754
208	0xbda5dc26	-0.080986306
209	0xbe22df43	-0.1590548
210	0xbdfeb185	-0.12436203
211	0xbe0de1a0	-0.138556
212	0xbe09cdd7	-0.13457428
213	0xbd5cfd8f	-0.05395275
214	0xbdb513a9	-0.088416405
215	0x3da52689	0.080639906
216	0x39e325a2	0.00043324853
217	0x3d28c48e	0.041203074
218	0xbe226488	-0.15858662
219	0x3c2b64c0	0.010461032
220	0xbb7d4a1c	-0.003864891
221	0xbe1bc14c	-0.15210456
222	0xbd26d140	-0.0407269
223	0x3d476e51	0.04868919
224	0xbde5ad7c	-0.1121473
225	0x3dbff5de	0.09373067
226	0xbdda3dcc	-0.10656318
227	0x3d02cb9c	0.03193246
228	0xbc581e75	-0.013190855
229	0x3da4e261	0.08050991
230	0xbe49d660	-0.19710684
231	0x3d2576e9	0.040396605
232	0x3dc34bda	0.09535952
233	0x3c74b0ff	0.014934777
234	0xbb785e4b	-0.0037898
235	0xbcb0daa4	-0.021588631
236	0xbddddee8	-0.108335316
237	0x3dd7186f	0.10502707
238	0xbd6fe62c	-0.05856912
239	0x3e217bce	0.15769884
240	0xbe5d4232	-0.21607283
241	0xbe2d9568	-0.16951525
242	0xbbb19c00	-0.005420208
243	0x3d23450c	0.03986077
244	0x3cb150d0	0.02164498
245	0xbb89fba2	-0.004210905
246	0xbdbb7c60	-0.09154582
247	0xbe833795	-0.25628343
248	0xbd9458d6	-0.072435066
249	0x3c25f4a7	0.01012913
250	0xbe232d4f	-0.15935253
251	0xbd44f98b	-0.048089545
252	0xbe61ff8a	-0.22070137
253	0xbde1e043	-0.11029103
254	0x3c98b11b	0.018639138
255	0x3c63ea42	0.013910832

bias f4 [64]
0	0xbc58d39c	-0.013234045
1	0xbdbdbcc5	-0.092645206
2	0xbd3ee422	-0.046604283
3	0xbe9fa733	-0.3118225
4	0xbc198716	-0.009370586
5	0xbecba8b9	-0.39777163
6	0xbe59daf1	-0.21274926
7	0xbd7cff05	-0.061766643
8	0xbc2bc66c	-0.010484319
9	0xbe2a7237	-0.16645132
10	0xbc9b18bb	-0.01893269
11	0xbf5778fa	-0.8416897
12	0xbe9588e1	-0.29205993
13	0xbe8602a5	-0.26173893
14	0xbe25a9a0	-0.16177988
15	0xbbcfd3ef	-0.006342403
16	0xbe06c675	-0.13161643
17	0xbe403154	-0.18768817
18	0xbd8ac5a3	-0.067759775
19	0xbd0968da	-0.03354726
20	0xbde66d0f	-0.1125127
21	0xbccc58d1	-0.024944695
22	0x4161df28	14.1169815
23	0xbbec5b85	-0.0072130584
24	0xbcabeeee	-0.020987954
25	0xbec628ba	-0.38702947
26	0xbe7396ee	-0.23788044
27	0xbb35c5e3	-0.0027736358
28	0xbdd98ec8	-0.106229365
29	0xbe2ac5dd	-0.16677041
30	0xbcb0c07e	-0.021576162
31	0xbc5e2cf9	-0.013560527
32	0xbdb895da	-0.09012957
33	0x3f8f7c35	1.120978
34	0xbe67745b	-0.2260298
35	0xbf4e9933	-0.80702513
36	0xbcacf377	-0.021112187
37	0xbe181519	-0.14851798
38	0xbed38b27	-0.41317102
39	0xbd91b83a	-0.071152166
40	0xbc55e4db	-0.013055052
41	0xbe7f6039	-0.2493905
42	0xbe27ccb8	-0.16386688
43	0xbe61cc4c	-0.2205059
44	0xbd893831	-0.06700171
45	0xbc0491b2	-0.008091377
46	0xbc446b2b	-0.011988441
47	0xbe7e2e6d	-0.24822398
48	0xbca418b7	-0.020031316
49	0xbc280168	-0.0102542415
50	0xbc900a27	-0.017582966
51	0x3ef83a09	0.48481777
52	0xbda8592b	-0.082201324
53	0x40b997d8	5.7997856
54	0xbe16550a	-0.14680877
55	0xbe0c966d	-0.13729258
56	0xbc88fcc9	-0.0167221
57	0x404928ed	3.143123
58	0xbc963ee7	-0.018340541
59	0xbd0b113a	-0.033951975
60	0xbc696a06	-0.014246469
61	0xbc69f881	-0.014280439
62	0xbdc33e34	-0.09533349
63	0xbe3c7e6f	-0.18407606

weight f4 [4, 64]
0	0x3dcbccb7	0.09951156
1	0x3c116f73	0.008876669
2	0xbd0be50e	-0.03415399
3	0xbe18ba43	-0.14914803
4	0xbd274aff	-0.040843006
5	0x3deaee96	0.11471288
6	0x3c6f8854	0.0146199055
7	0xbcd107bd	-0.025516385
8	0x3e8fdd12	0.2809835
9	0xbbf71aea	-0.00754105
10	0xc154abde	-13.29196
11	0xc0512c3c	-3.2683249
12	0xbee72136	-0.45142525
13	0xc0824d1e	-4.0719137
14	0xbf981578	-1.1881552
15	0xc18ae172	-17.36008
16	0x3d91adbd	0.07113216
17	0x3c561489	0.013066419
18	0xbec41c22	-0.38302714
19	0xbda10b69	-0.078635044
20	0x3dadd412	0.08487715
21	0xbfec857f	-1.847824
22	0x3e98af52	0.2982126
23	0xc038f114	-2.8897142
24	0xc141f3e4	-12.122044
25	0xc00684c6	-2.1018538
26	0x3d11900c	0.035537764
27	0xc0eae5eb	-7.340566
28	0xbdfbeeac	-0.123013824
29	0xbfeecb2f	-1.8655757
30	0xc06df1d0	-3.717884
31	0xc0ceb124	-6.4591236
32	0x3e50e614	0.20400268
33	0xc0ba66c0	-5.8250427
34	0xbd8cd780	-0.06877041
35	0xbf00d1f5	-0.5032037
36	0x3c0c995c	0.008581486
37	0x3c5b1b13	0.013373154
38	0xbc3f174a	-0.011663267
39	0xbf93ba31	-1.1541196
40	0xbf774b00	-0.96598816
41	0xbd1c3b10	-0.038142264
42	0xbc1c1580	-0.00952661
43	0xbe644250	-0.22290921
44	0xc07ba2e2	-3.9318166
45	0xc0dd37f6	-6.913081
46	0xc0a33e52	-5.1013575
47	0xbc7fa8b5	-0.015604188
48	0xc1257dd1	-10.343217
49	0xbcc782d3	-0.024354374
50	0x3b905e20	0.004405752
51	0x3e1319c8	0.14365304
52	0x3d03bcf9	0.03216264
53	0x408e6bd9	4.450665
54	0xc08fbd0d	-4.4918275
55	0xbc168900	-0.009187937
56	0xc01b4ebb	-2.4266803
57	0x3f746080	0.9545975
58	0xc0a5f7e1	-5.1865087
59	0x3f37baf9	0.7176967
60	0xc0cca68c	-6.3953304
61	0xc0ddd151	-6.9318013
62	0x3cbdcb1e	0.023168143
63	0xbe791dce	-0.24327776
64	0xc052e72b	-3.2953594
65	0x3e161a25	0.14658411
66	0x3d67ee15	0.056623537
67	0x3d9418aa	0.07231267
68	0xbea816ea	-0.32829982
69	0x3d4a6b80	0.049418926
70	0x3dd39eb2	0.10333003
71	0x3e6b3fb4	0.2297352
72	0xc07b6e9f	-3.9286268
73	0x3c1bc553	0.009507495
74	0x3f8a2ce3	1.0794948
75	0x3f788ccc	0.9708984
76	0x3c283883	0.01026738
77	0xbd92bd62	-0.07165028
78	0xbeead1f0	-0.45863295
79	0xc03952e7	-2.895685
80	0x3de6f5f4	0.112773806
81	0xbff3b687	-1.9040078
82	0xc00032e9	-2.0031073
83	0xbd78cd0f	-0.060742434
84	0x3a76ddb1	0.000941719
85	0xbd5c0077	-0.05371138
86	0xc042eaf1	-3.0455897
87	0xbfbe0802	-1.4846194
88	0x408194f0	4.049431
89	0x3d062ba8	0.032756478
90	0xbda3fbe6	-0.0800703
91	0x3fe6c7a3	1.8029674
92	0x3ca6e7f3	0.020374274
93	0xbe0ee897	-0.13955913
94	0xbf800f85	-1.0004736
95	0xc046b401	-3.1047366
96	0x3d98a002	0.07452394
97	0xbfed4702	-1.8537295
98	0x3d49c0e4	0.04925622
99	0x3f9701c9	1.179742
100	0xbe1024ec	-0.14076585
101	0x3da424c6	0.080148265
102	0xbec24dad	-0.37949887
103	0xbf3de21f	-0.7417316
104	0xbfd75d91	-1.6825429
105	0xbb54d0f7	-0.0032473186
106	0x3d79f5a6	0.061025284
107	0x3d4bb91e	0.04973709
108	0xbe009fe4	-0.12560993
109	0xc012fc64	-2.2966547
110	0x3f6ee1f3	0.9331352
111	0xbe078ee0	-0.13238096
112	0xc0215a7b	-2.5211475
113	0x3fe89440	1.8170242
114	0xbd12081f	-0.035652276
115	0xc036ab40	-2.8542023
116	0xbedd1a59	-0.43184164
117	0xc07e7802	-3.9760747
118	0xbf83e699	-1.0304748
119	0xbda96c4d	-0.0827261
120	0xc042671b	-3.037543
121	0xc0437603	-3.0540779
122	0xbfb79711	-1.4342977
123	0xc02025e8	-2.5023136
124	0x4026b6f3	2.6049163
125	0xbf587710	-0.84556675
126	0xbdabfafb	-0.0839748
127	0xbf5e3308	-0.8679662
128	0xbe625caf	-0.22105668
129	0xbe972343	-0.2951909
130	0x3a7e0792	0.0009690459
131	0x3cadf9a9	0.021237211
132	0xc00a6c77	-2.1628702
133	0xbdba413d	-0.090944745
134	0x3d65e2b0	0.05612439
135	0x3df88e8b	0.12136563
136	0x3d908beb	0.07057937
137	0x3d8e2a20	0.069416285
138	0xbea6462a	-0.32475406
139	0x3b13d27a	0.0022555874
140	0x3e279be1	0.16368057
141	0x3ebdac7c	0.37045658
142	0x3e0def5d	0.13860841
143	0xc01a779c	-2.4135504
144	0xbe002e67	-0.12517701
145	0x3e2645d3	0.16237573
146	0xbc5da285	-0.013527517
147	0xbd1c773c	-0.03819965
148	0xbca46756	-0.020068806
149	0x3f3f64eb	0.74763364
150	0x3d8ab8d2	0.06773533
151	0xbf178f01	-0.5920258
152	0x3b9b2398	0.0047344677
153	0x3ea5304a	0.32263404
154	0xbd87f130	-0.066378
155	0xbd6949be	-0.05695509
156	0xbcc8c183	-0.024506336
157	0x3b95082a	0.0045480924
158	0x3d525af4	0.05135627
159	0xbf3a5d4d	-0.72798616
160	0xbd14bbac	-0.03631179
161	0x3f378411	0.7168589
162	0xbde7aefa	-0.11312671
163	0x3cfb721c	0.03069406
164	0x3e8b50ae	0.2720999
165	0xbda36b1d	-0.079794146
166	0x3c967209	0.018364923
167	0x3c0d4e7e	0.008624671
168	0xbe8afa82	-0.27144247
169	0x3d0cbcc0	0.034359694
170	0xbdc4aee0	-0.09603667
171	0x3e10be56	0.14135107
172	0x3da8f8b2	0.0825056
173	0xbf238c28	-0.63885736
174	0x3ee2b8ac	0.44281518
175	0x3c5a6ad0	0.01333113
176	0xba668b03	-0.0008794518
177	0xbded8f4c	-0.11599597
178	0xbd99d13e	-0.07510613
179	0x3ca2dba1	0.019880118
180	0xbed56578	-0.41678977
181	0xbe867876	-0.2626378
182	0xbf199638	-0.5999484
183	0x3c0252fd	0.007954356
184	0xbf2c5824	-0.6732199
185	0x3e99283e	0.29913515
186	0xbfa28a30	-1.2698421
187	0xbecb860d	-0.3975071
188	0xbdc2540b	-0.09488686
189	0xbe13b5c3	-0.14424805
190	0x3e699b6a	0.22813192
191	0xbf02c983	-0.5108873
192	0xc010b0a0	-2.2607803
193	0x3e62c774	0.22146398
194	0x3d9b762e	0.075909
195	0x3d1c60db	0.038178306
196	0xbf66945f	-0.90070146
197	0xbd873538	-0.066019475
198	0x3c8c6c60	0.017141521
199	0xbd1af256	-0.037828766
200	0x3d05bec9	0.03265265
201	0x3e49eeb6	0.19719967
202	0xc08a3c18	-4.3198357
203	0xbffb81f9	-1.964904
204	0x3d456fd5	0.048202354
205	0x3b3f8328	0.0029222462
206	0xbe266a0b	-0.1625139
207	0xc1821f52	-16.265293
208	0xbd9c0bec	-0.076194614
209	0xbe3e6cdd	-0.18596216
210	0xbda88b6a	-0.08229716
211	0xbd0399ee	-0.03212922
212	0x3d51e731	0.051245872
213	0x3d36d193	0.04463346
214	0x3dd973fe	0.10617827
215	0xc0510e3d	-3.266494
216	0xc1135a02	-9.209475
217	0xbdb4d516	-0.088297054
218	0x3db20f4e	0.086943254
219	0xc089ce2f	-4.306419
220	0x3cb18554	0.021670021
221	0xbf1cf572	-0.6131202
222	0xbc8e2394	-0.01735095
223	0xc08cfa81	-4.405579
224	0x3e5adc28	0.21373045
225	0xc12d9b94	-10.850483
226	0xbc90e9d1	-0.017689617
227	0xbe8b23b8	-0.2717569
228	0x3a2888d5	0.0006429081
229	0xbdee3d9b	-0.11632844
230	0xbe81b45f	-0.25332925
231	0xbe5b1aa1	-0.21396877
232	0xc03dbf4c	-2.9648008
233	0x3b3f2840	0.0029168278
234	0x3c7df1fd	0.015499589
235	0x3d276a5d	0.04087292
236	0x3d1dda86	0.03853848
237	0xc0efbf37	-7.4920917
238	0x3e97d793	0.29656658
239	0x3caea55b	0.021319082
240	0xc0ce50a7	-6.4473453
241	0x3bdcbf9f	0.00673671
242	0xbd08a5b9	-0.03336117
243	0xbfb96b15	-1.4485804
244	0xbe2a00c3	-0.16601853
245	0x40ceccf2	6.4625177
246	0xbfc9a1f1	-1.5752546
247	0xbd872713	-0.0659925
248	0xc046f6d1	-3.1088145
249	0xbf93f61a	-1.1559479
250	0xc08ecfca	-4.462865
251	0xc008c67e	-2.137115
252	0xc0142152	-2.3145337
253	0xbff2b6e7	-1.8962067
254	0x3cebd6aa	0.028788883
255	0xbed518b2	-0.41620404

bias f4 [4]
0	0xc1a95e12	-21.170933
1	0xbf8a3f6f	-1.0800608
2	0x3f751c88	0.9574666
3	0xc194bd0f	-18.592314
