saves/kevin/kevin_nn_2025-02-22_15-05-18.pt (torch, 17468 bytes, 8 tensors)

weight f4 [16, 16]
000000 e7 ac d8 bd 9c 6c 2e 3d 81 ae 2a bd c4 b6 05 be
       -0.105798535 0.042584047 -0.041670326 -0.13058001
000010 98 be 0c be 56 97 82 be 38 ba 75 be e8 a7 08 3e
       -0.13744581 -0.25506085 -0.23996818 0.13345301
000020 0d 8a 6e be 7c cf 10 3d 05 94 07 3e 9c 3e 89 be
       -0.2329485 0.035354123 0.13240059 -0.2680558
000030 81 d6 1e 3e 91 c8 09 3e 9a cc 56 be 7d e4 83 be
       0.15511514 0.13455416 -0.20976487 -0.2576026
000040 50 20 eb bd fd f3 aa bd b5 98 27 bf c5 39 ad 3e
       -0.114807725 -0.08347318 -0.6546739 0.33833137
000050 26 ad 19 bd e5 44 9e 3c 08 b7 ef 3d ff cb 6a be
       -0.037518643 0.01931996 0.11704832 -0.22929381
000060 be db b3 3d de f8 c3 3e cb 84 55 3e 3b 6d c4 3e
       0.08782147 0.38275808 0.20851438 0.38364586
000070 05 1e cf bd 04 db 3f bd b9 60 2b be 2d 7a b1 be
       -0.10113148 -0.04683973 -0.16736116 -0.34663525
000080 6f a1 34 3e 5f 1f 97 bf 04 3e 58 3e a1 11 b5 be
       0.17639707 -1.1806449 0.21117407 -0.35365012
000090 7b 10 41 3d 71 13 8e 3e c8 e4 39 3f 3c 31 5f 3f
       0.047134858 0.27749208 0.7261472 0.871845
0000a0 bf 22 b4 bc 40 24 dc c0 e8 4c 8b bd e2 bb 26 be
       -0.021989224 -6.879425 -0.06801778 -0.16282609
0000b0 39 e0 c0 bc aa 77 cc 3d 83 33 10 3f 98 68 ee 3e
       -0.023544418 0.099837616 0.563286 0.46564174
0000c0 a3 4d 1c be ee 29 c6 bd d3 4a 13 be 42 d0 1a 3e
       -0.15263991 -0.09675966 -0.14384012 0.15118507
0000d0 0f 0d 94 3c b3 3e 22 bd f4 c0 d2 3d 73 fd 3f be
       0.018072633 -0.039610576 0.10290709 -0.18749027
0000e0 6a 39 5c be dd 48 86 bf 42 00 22 3e 87 c2 11 bf
       -0.21506277 -1.0490986 0.15820411 -0.5693745
0000f0 64 3e c3 bd 58 df 52 bd 04 b2 14 bf 1b ef 42 bd
       -0.095333844 -0.05148253 -0.5808413 -0.04759131
000100 d6 75 10 be eb 30 88 bf 7e b4 28 bf 7f ae 40 be
       -0.14107451 -1.0639929 -0.6590041 -0.18816565
000110 4e f1 db bd 21 58 93 3d 0d 95 47 c0 c2 17 82 3f
       -0.107393846 0.07194544 -3.1184723 1.01635
000120 f7 7a 79 bd 47 19 42 be 23 0f 78 bf 28 7a de bd
       -0.060908284 -0.18954955 -0.96898097 -0.10863143
000130 66 73 32 bb ef 76 0a 3d 30 35 2b 3f f8 63 b7 3e
       -0.0027229427 0.03380483 0.6687803 0.35818458
000140 19 8c 73 be 18 c9 05 c0 01 3d e1 bf f1 e9 5c 3f
       -0.23783912 -2.0903988 -1.7596742 0.86294466
000150 37 08 d2 bd 89 b0 f9 3f 63 77 0b 40 b6 22 eb be
       -0.10255473 1.9506999 2.1791618 -0.4592492
000160 ed c0 d9 3d 85 0f a3 bf 00 47 c7 c0 67 97 90 3f
       0.10632501 -1.2739111 -6.227417 1.1296204
000170 02 49 83 be 29 81 32 be 79 f3 8c 3d 7c 77 d8 be
       -0.25641638 -0.17432083 0.06882376 -0.4227866
000180 41 d2 a9 bd c8 50 88 be 5c 88 2d bf f2 ee 94 be
       -0.08292056 -0.2662413 -0.6778619 -0.2908855
000190 e3 13 7c be c4 13 12 be cc 15 d9 3e c2 e1 42 bc
       -0.24616961 -0.14265352 0.42399442 -0.011894645
0001a0 5f 89 40 3d e4 98 d3 bd 9e 5c 99 bf e7 e5 8b be
       0.047006007 -0.10331896 -1.198139 -0.2732384
0001b0 05 73 94 be b7 3d de be 5e b5 63 be 3c 74 0f bf
       -0.28994003 -0.4340646 -0.22237155 -0.56036735
0001c0 10 01 1f 3d 25 6e 22 40 ec a0 03 be 90 fa 20 bf
       0.038819373 2.5379727 -0.12854356 -0.6288233
0001d0 12 36 80 3c 65 06 29 3f 78 84 a2 3e 66 b1 43 3f
       0.015650783 0.6602538 0.3174169 0.76442564
0001e0 69 ab 20 3e d6 18 58 3f 4a ce 94 be 60 4c d8 be
       0.15690388 0.84412897 -0.29063636 -0.4224577
0001f0 7b 0f a7 be 77 ba d4 3d eb 9b 35 bf f3 e8 37 3f
       -0.32628998 0.10387128 -0.70941037 0.7183983
000200 51 fb 0e bf 7b cf 28 3e 3c 0a 3e 3e 26 ee 7d bd
       -0.5585223 0.16485398 0.18558592 -0.061994694
000210 f2 75 50 be 95 c0 27 be f4 4a e0 bc 65 79 4f be
       -0.20357493 -0.16382058 -0.02737949 -0.20261152
000220 8f 98 07 3d a8 8e c7 be b8 2d fb be c3 88 94 be
       0.033104476 -0.38976026 -0.49058318 -0.2901059
000230 74 c7 0a 3e 14 c5 cb 3d 3e a3 cd 3e 5b d2 ba be
       0.13552648 0.09949699 0.40163606 -0.36488613
000240 c4 41 e5 3d 9d 31 1b 3e 18 26 8a bf 8d 8c 1e bf
       0.111941844 0.15155645 -1.0792875 -0.61933213
000250 4b fc 91 be f4 c3 c7 be ea 69 46 3f 78 06 07 bf
       -0.28512797 -0.39016688 0.7750536 -0.52744246
000260 7b 30 a6 bd 5a bf 9d bf 7a 8b 52 bf b2 1d d5 be
       -0.08114716 -1.2324021 -0.82244074 -0.41624218
000270 54 cd 97 be f0 b9 99 be 0a 89 6f be 24 83 bd be
       -0.2964884 -0.30024672 -0.2339212 -0.37014115
000280 a3 e3 d8 3c e2 48 68 c1 75 41 8c 3e f3 d1 4f bc
       0.026475733 -14.517794 0.2739369 -0.012684333
000290 5b a1 fe 3e bc 8f b8 3e 9b dc f9 3f c8 4a 8d 3e
       0.4973248 0.3604716 1.9520448 0.27596116
0002a0 24 6a 9d bb 34 00 30 3e 61 bd b6 bf 60 04 12 3f
       -0.0048039127 0.17187577 -1.4276544 0.57037926
0002b0 bb 88 47 be ff b7 b8 3d e5 85 88 be f5 f2 83 3f
       -0.19485752 0.090194695 -0.26664653 1.030852
0002c0 e1 36 4a bd 7f f9 97 bf 3f 6b 11 be 4f 56 72 3f
       -0.049368743 -1.1873015 -0.14201067 0.94662946
0002d0 e7 d0 11 3d 5f 7f 1f c1 e0 7c 97 3f 12 d3 16 bf
       0.035599615 -9.968596 1.1834984 -0.5891582
0002e0 aa 32 44 3a bb fd 5e 3d 8a 5b f2 bf 9c 52 6a 3f
       0.0007484356 0.054441195 -1.8934186 0.915323
0002f0 4b 20 2c bd 6b c4 94 3d ea 26 07 3e 98 cd 2c bf
       -0.042022984 0.07264026 0.13198438 -0.6750121
000300 ea a1 d6 bd 2b 70 83 3e a2 2f fd be 49 fb 26 be
       -0.104801014 0.25671515 -0.49450403 -0.16306795
000310 a5 0d db bd b3 48 3f be ec 61 8b 3f 30 36 67 3e
       -0.10695962 -0.18680076 1.0889258 0.22579265
000320 83 b1 23 be a1 fd bd be c2 af 40 3e 47 3b 76 bd
       -0.15985684 -0.37107566 0.18817046 -0.060115125
000330 cf 61 21 bf 24 85 6f 3e 52 3b 26 c1 63 af 8e 3f
       -0.6303987 0.23390633 -10.3894825 1.1147274
000340 ee e7 b6 3d df 45 f2 bd f9 ae cb 3d a7 d3 ef be
       0.08930956 -0.11829733 0.09945483 -0.46841165
000350 91 69 12 3d c2 8b a1 bb 97 ab 21 3e 9d 8e 04 3f
       0.035745207 -0.0049299905 0.15788113 0.5178011
000360 15 5a 52 bd a8 9c 78 bd d7 ec 5f be 32 68 df be
       -0.05135544 -0.060696274 -0.21867691 -0.43634182
000370 59 88 c0 3d 94 e8 ea 3c dc 9b 1e 3e 99 3c 14 3f
       0.09401006 0.028675355 0.15489143 0.57904965
000380 54 3b 63 bd 29 4d 9c bf 46 a8 e8 be 22 ea 8c 3d
       -0.0554765 -1.2211047 -0.45440882 0.06880595
000390 13 7d 2c 3e bf 6e 72 3f 90 87 60 bf d9 11 66 3e
       0.16844587 0.94700235 -0.8770685 0.22467746
0003a0 84 a2 bb bd fe 60 8e 3f f5 19 e2 3f 6c df fb 3e
       -0.09161857 1.112335 1.7664171 0.49193895
0003b0 cc ce 21 3d 54 a1 06 bd 17 a8 16 3f b2 bb 68 3e
       0.039503857 -0.0328687 0.58850235 0.2272785
0003c0 cf 1f cd bd fc 76 ed be 92 f9 84 c0 90 6c 79 bf
       -0.10015833 -0.4637984 -4.155465 -0.9743128
0003d0 88 eb 19 be 65 6e 85 3e 8d cf 2f 3f 96 9d 2d 3c
       -0.15031254 0.26060787 0.6867607 0.010596653
0003e0 c9 bc e5 bb 81 df e6 c0 6e 9a eb bf 6b d3 7a bf
       -0.0070110303 -7.214783 -1.8406503 -0.9797885
0003f0 03 48 53 bf 28 45 e9 3e a8 e4 72 c0 30 d4 b3 be
       -0.82531756 0.45560575 -3.795206 -0.35122824

bias f4 [16]
000000 57 fc 08 3d b8 be 2d 3e 1f 47 85 bf 3f a8 92 be
       0.033443775 0.16967285 -1.041233 -0.28643987
000010 0f 7b f1 bd ac 08 08 be e8 9e 1e bc cf ce ed 3e
       -0.1179105 -0.13284558 -0.009681441 0.46446845
000020 5a 50 8d bd 8d 63 2e bf 07 78 2f bd 56 6c d0 be
       -0.069000915 -0.6812065 -0.042839076 -0.40707654
000030 9c 27 cd 3d e1 3d 12 bf 09 d9 96 3f 53 50 49 bf
       0.100173205 -0.5712567 1.1784984 -0.7863819

weight f4 [32, 16]
000000 d4 00 8c bd 86 05 a0 bf f8 e3 aa c1 d3 69 05 bf
       -0.068360955 -1.2501686 -21.361313 -0.521146
000010 15 7c d9 3f da 1f 29 3f 6f 9b 16 3f 9b ba ac be
       1.6990992 0.66064227 0.5883092 -0.3373612
000020 22 b5 85 3d d6 46 6f be 77 5e 20 3f 3f 02 d5 bd
       0.06528689 -0.23366866 0.6264414 -0.10400819
000030 01 9a 72 3e f5 b5 d1 3f 34 3c cb bf ce 1c 1b c0
       0.2369156 1.6383654 -1.5877748 -2.423633
000040 a5 4f 7c be 1b 76 c9 3f a2 48 c3 be ee 4c 70 be
       -0.24639757 1.5739168 -0.38141352 -0.23466846
000050 08 bb 0b 3f 30 f7 99 be 63 8c 46 bd c8 80 e1 be
       0.5458226 -0.30071402 -0.048473727 -0.44043565
000060 e5 23 06 3e 5c 5e 11 3f 3d 07 46 3f 6c 48 17 c1
       0.1309963 0.56784606 0.77354795 -9.455181
000070 ee 32 f7 3c e2 fc cf 3e 27 7f 77 bf d7 bd 62 3e
       0.030175652 0.40622622 -0.96678394 0.2214273
000080 b3 48 65 3e 8c 79 a0 3e f3 d8 1c bf f9 4c 4d be
       0.22391014 0.31342733 -0.6126854 -0.20048894
000090 17 ce 9a bf f3 db 22 3d db 4b 06 3f ee 6d 91 bf
       -1.2094144 0.03976054 0.52459496 -1.1361673
0000a0 83 b2 1f be 0f 90 05 bd 55 b6 c5 bf ca da 76 3d
       -0.1559544 -0.032608088 -1.5446268 0.060267247
0000b0 36 af 33 be 84 e2 c7 bf 09 fa a3 bc c8 6a f0 3b
       -0.17547306 -1.5616002 -0.020016687 0.007336948
0000c0 62 f0 cb 3b e2 fc 87 3f 25 dd 95 bf 1b 89 f0 be
       0.006223724 1.0624049 -1.1708113 -0.46979603
0000d0 e7 d1 1f c0 4b b3 b3 bf c8 d1 92 be 0c 5f 76 bf
       -2.4971864 -1.4039091 -0.28675675 -0.9623878
0000e0 40 ca bd 3c 3d d2 ba 3e 55 c0 00 c0 cf 54 2e bf
       0.02316773 0.36488524 -2.011739 -0.6809816
0000f0 61 84 fe 3e 7d 73 de bc a1 f0 2e bf b3 71 f9 3e
       0.49710372 -0.027154678 -0.6833592 0.48719558
000100 80 ea 22 be f0 61 ae be 93 4f e2 bf 20 31 9d be
       -0.15909767 -0.34059095 -1.7680534 -0.30701542
000110 ae f0 46 bb bf 54 51 3e 48 ed 1d 3f f0 c3 53 bf
       -0.0030355859 0.20442484 0.6169019 -0.8272085
000120 4f 8c 8a 3e 8a 0d 94 bd f9 1c 78 3e 8a 9e d2 be
       0.27060172 -0.07229145 0.24229802 -0.4113658
000130 7c 0d 9e be 74 23 c2 bf 6e de 23 bf 3e 47 5f bf
       -0.30869663 -1.516707 -0.64011276 -0.8721808
000140 60 7f 53 3c e2 a7 cc be ce f2 f7 be 15 46 4e bd
       0.012908787 -0.39971834 -0.48427433 -0.050359804
000150 3d 20 a8 be ce fd 40 3c a6 92 b7 3d 30 a6 2f be
       -0.32837096 0.011779262 0.08963518 -0.17153239
000160 84 4f 12 3e 85 2b cc bd b6 d2 51 be a5 26 13 be
       0.14288145 -0.09969238 -0.20490536 -0.1437021
000170 fa 2e 40 be 00 3a 40 3d 27 11 39 be 0f 75 73 b8
       -0.1876792 0.046930313 -0.1807295 -5.8044734e-05
000180 9e cb 83 be 55 11 79 bf 6e 52 9e be 9f c0 48 3f
       -0.25741285 -0.9729207 -0.30922264 0.78418916
000190 0a 90 06 3e ba a3 76 bd 8f 2d 9f be 7e 5f 2f 3b
       0.13140884 -0.060214736 -0.31089446 0.0026759799
0001a0 b6 9e 74 be 62 47 b0 bd f5 85 96 be 25 5d 14 bf
       -0.23888668 -0.08607365 -0.29399076 -0.5795463
0001b0 b0 09 f1 be a6 50 50 be 29 8d 55 bf ba 4a 95 be
       -0.47077703 -0.20343265 -0.8341852 -0.29158574
0001c0 d9 bd 25 3e 52 66 47 bf 9c 62 ae bf fe 21 da be
       0.16185702 -0.77890503 -1.3623843 -0.4260406
0001d0 ee 56 17 be 3c 08 8a 3e 33 43 34 3f 90 98 4b bf
       -0.14779255 0.26959407 0.7041504 -0.79529667
0001e0 4f 5a 37 3e a6 aa 0d 3e 1c d7 e7 3c 78 03 84 bf
       0.17905544 0.13834628 0.028300814 -1.0313559
0001f0 25 47 0f 3f 86 5f ea bf b9 54 96 bf 97 39 71 bf
       0.5596793 -1.8310401 -1.1744605 -0.942285
000200 8f e9 27 3e b0 4c 47 3f c2 eb 05 3f b1 bd 2c 3f
       0.1639769 0.7785139 0.5231286 0.67476946
000210 29 96 67 bf 94 0d ee 3d 0e f0 66 3e d6 f5 72 bd
       -0.904635 0.116236836 0.22552511 -0.05931648
000220 a3 6f 80 be 59 fb 5c 3f d0 7a 4a bd 4f d2 a7 3e
       -0.25085172 0.86321026 -0.04943353 0.3277764
000230 95 40 c6 be 08 48 a8 be 29 55 af bc 2e a0 41 3f
       -0.38721147 -0.32867455 -0.021402912 0.7563504
000240 df bb cc 3c 7a 8b 02 bf 48 34 d2 bd a0 3a 48 3f
       0.024991928 -0.50994074 -0.10263878 0.78214455
000250 17 25 50 bf 1f ca 88 bf da 89 89 3e c7 10 22 bf
       -0.81306595 -1.0686682 0.26862985 -0.6330685
000260 8e 0d 33 be 9a c8 4f 3e 90 38 1e be b3 ef 8e bf
       -0.1748564 0.20291367 -0.15451264 -1.11669
000270 60 a1 8b bf 8a b9 9a 3e 4c 5c e6 bc aa fb f7 3e
       -1.0908623 0.3021968 -0.028120182 0.48434192
000280 cc 98 25 3e 7b af 61 3f 9c 3b e8 3e 35 1d 08 3f
       0.16171569 0.88158387 0.45357978 0.53169566
000290 19 1d da 3e 9a 84 b8 bc 3d 9b 30 3f e3 b5 2a bf
       0.42600325 -0.022524167 0.68986875 -0.6668379
0002a0 0c b7 34 bc ad 11 ea 3d af 20 ca c0 18 75 c5 3e
       -0.01102997 0.11429153 -6.3164897 0.38565898
0002b0 6c 28 4f 3e bc 74 81 40 56 27 eb 3e 07 f0 83 be
       0.20230263 4.0455 0.45928448 -0.25769064
0002c0 21 01 20 be c0 1a c1 bf fc e7 24 3f 58 50 6d 3f
       -0.1562543 -1.5086288 0.6441648 0.9270072
0002d0 55 1a 46 bf 99 12 4a bf da f2 a7 3b 93 53 55 3c
       -0.7738393 -0.7893463 0.0051253857 0.013020414
0002e0 c8 29 dc 3d 46 96 9d 3d 19 e3 8e be 72 27 28 bf
       0.10750157 0.07694678 -0.27907637 -0.6568519
0002f0 7a 76 ac bf 3c 1b 3b bd b8 54 1a be d8 90 95 3d
       -1.3473656 -0.04568027 -0.1507138 0.073030174
000300 19 2d 32 3e 3c 94 cf be ca eb 47 be 6f b4 68 be
       0.17400016 -0.4054278 -0.1952354 -0.2272508
000310 f2 9e 3e 3d f0 48 52 be 8a fe e7 3d f9 17 f1 be
       0.0465383 -0.20535636 0.11327846 -0.47088602
000320 18 16 e7 3d 22 f1 ab 3d 59 d9 5d be 27 5f 14 be
       0.11283511 0.08395602 -0.21664943 -0.14489423
000330 0f 6b 23 be 9e 96 14 3e 23 3d b6 bd 1c 3e 1b 3e
       -0.15958808 0.14510581 -0.0889838 0.15160412
000340 0d 95 94 3d 39 09 a2 3e de ee 46 3e 8f cf 6d be
       0.07254992 0.3164766 0.19427058 -0.23223709
000350 04 2e 07 3f de 56 72 bd 9d 06 ea 3e a4 6b ab bd
       0.5280459 -0.059164874 0.4570817 -0.0837014
000360 53 ad ee 3c ef 92 9c 3e d6 e5 6b 3d 38 4c 24 3e
       0.029135382 0.3058085 0.057592236 0.160447
000370 35 23 5e bf d8 6e cb 3d c1 01 80 bc e1 8e 86 bf
       -0.8677247 0.09933251 -0.015625836 -1.0512353
000380 20 1b 4a be 72 9c 4b be 89 03 00 be ba 78 d3 bc
       -0.1973691 -0.19883898 -0.12501349 -0.025814403
000390 dd 30 c0 be ae 11 d6 be 4a 32 cd 3c 6d 0f b2 be
       -0.3753728 -0.41810364 0.025048394 -0.34777394
0003a0 8e 3a 6d 3e 9a ba 38 be 4f 3a f1 be c6 89 db be
       0.23166868 -0.18039933 -0.47114798 -0.4287855
0003b0 e8 b1 b2 bd b3 97 dc bd 4f 2d 33 bd c5 5e a3 be
       -0.08725339 -0.10771122 -0.04374438 -0.3190824
0003c0 98 23 91 3e 97 0d 19 bd f7 86 e9 bd 8f bb 72 3f
       0.28347468 -0.037366476 -0.114026956 0.9481744
0003d0 95 f0 19 3e 34 7d ab bf 37 47 a0 3e 51 3d 4d bd
       0.15033181 -1.3397584 0.31304333 -0.050107304
0003e0 62 11 84 3e ac d5 0c bd 87 b1 1b 3b b5 33 ce bf
       0.25794512 -0.03438346 0.0023756938 -1.610953
0003f0 07 c1 5b bf 5a 3c 02 3d 11 e7 8b bf 01 94 32 3d
       -0.8584141 0.031795837 -1.0929891 0.04359818

bias f4 [32]
000000 63 9c ba 3e 93 07 df 3f f6 d0 0e 3f 6f f6 1c 3f
       0.3644744 1.7424186 0.557876 0.6131353
000010 7b 20 ea 3c d4 32 96 be b4 c9 71 bf 3d 3d 9d bd
       0.028579941 -0.29335654 -0.944484 -0.07677696
000020 c7 9e 5f bf 6f d1 00 bf 22 24 38 bf 81 a6 f5 be
       -0.8735165 -0.5031957 -0.71930134 -0.47978595
000030 39 90 cd 3c 13 12 8c bf 50 6a af bd ae 33 18 bf
       0.025093185 -1.0943016 -0.085651994 -0.59453857
000040 77 35 5b bf 32 bf 4b 3e a2 05 32 bf d2 03 0a bf
       -0.85628456 0.19897154 -0.69539845 -0.5391208
000050 01 ed 99 be 32 05 5b bf 89 d5 88 3d 71 e8 9f bd
       -0.30063632 -0.855548 0.066813536 -0.078080066
000060 91 3b d6 be 58 01 96 be e2 b3 d6 be 4e 70 18 be
       -0.4184232 -0.292979 -0.41934115 -0.14886591
000070 4f 4a a1 3d 24 2c 54 bf c9 69 08 be ba 52 3c bd
       0.07875501 -0.82879853 -0.13321604 -0.04597733

weight f4 [64, 32]
000000 4a ad 8f 3e 62 dd 96 3e d0 0a 4f bf d2 11 02 3f
       0.28061897 0.29465777 -0.80875874 0.5080844
000010 9a 4f 26 3f 3e 51 d2 3d bc dd 0c 3f cd 92 e9 3e
       0.6496521 0.10269402 0.5502584 0.45619813
000020 54 10 23 3e 4f ba 03 bf 81 64 a9 be 85 56 5b 3f
       0.15924197 -0.5145616 -0.3308449 0.85678893
000030 f5 80 47 be 10 45 dc bf 0c d3 ce 3e 1c 55 f4 3e
       -0.19482787 -1.7208576 0.4039539 0.47721183
000040 b6 38 89 bc 52 2f a1 be 78 4f 72 be 28 33 08 bf
       -0.016750675 -0.31481415 -0.23663127 -0.5320306
000050 95 c2 88 3e 6d da 66 3f 21 02 0d 3f 08 ad f9 be
       0.26710954 0.9017704 0.55081373 -0.48764825
000060 f8 91 08 bd 19 6e 94 bf a0 4d f7 3e da 8a 10 bd
       -0.03334233 -1.1596099 0.4830141 -0.03528867
000070 93 72 c9 3e 4d 3f 54 be 6b bc 7a bf 92 37 ef bd
       0.39345226 -0.20727272 -0.97943753 -0.11680521
000080 ec ea 6c be 87 d5 56 3d b7 6b 44 be 6d 7d 6d be
       -0.2313649 0.05244973 -0.19181715 -0.23192377
000090 8b df a3 be a9 77 a3 3d 7a 9b 5a 3d 1d 3d e8 be
       -0.32006487 0.07981808 0.05337093 -0.45359126
0000a0 29 34 18 bf 0b bc 91 be 21 e7 47 be cb cb cc be
       -0.5945459 -0.28463778 -0.19521762 -0.39999232
0000b0 97 65 87 bd 34 6d 94 be 3e 00 ad bd 22 56 25 be
       -0.066111736 -0.28989565 -0.08447312 -0.16146138
0000c0 02 e3 bf be da 7d 96 be ef 2e 43 be 95 1c 0a bf
       -0.3747788 -0.29392892 -0.19060872 -0.5394986
0000d0 d9 16 2e be c8 dd 8c be 59 74 62 be 1b 3a ca bd
       -0.17000903 -0.27512956 -0.22114696 -0.09874364
0000e0 ba 31 e8 3d e0 5a 1c bf 2c 13 7a be 21 c2 e0 be
       0.113376096 -0.61076164 -0.24421376 -0.4389811
0000f0 83 9c 14 be 45 51 ce be 66 75 bf 3b 8d 0a c1 be
       -0.1451283 -0.4029638 0.0058428524 -0.37703362
000100 01 70 79 3f 84 77 cc bf 06 ff 2f 3f b1 2e dc bf
       0.9743653 -1.5973973 0.6874851 -1.7201749
000110 67 0f bc bf e1 2e 71 3d e3 df 2f bf 57 eb 93 be
       -1.46922 0.058882598 -0.68701 -0.28890488
000120 70 f7 60 3f d2 eb ad 3e 10 e5 82 3f fb 41 14 be
       0.8787756 0.3396898 1.0226154 -0.14478295
000130 51 54 56 be ad b6 4f 3f 71 69 42 3e fc cb 26 bf
       -0.20930602 0.81138116 0.18985535 -0.65155005
000140 7a 05 1b bf ed 3c f1 3d 48 42 3c bd 69 89 a1 be
       -0.6055523 0.11779199 -0.04596165 -0.31550148
000150 25 6e 84 be 94 05 48 3f e4 4b 62 3f 01 1c 81 3f
       -0.25865284 0.7813351 0.8839705 1.0086671
000160 8c 0c 83 bd 0c 2d e6 3f e3 7c aa bd f9 c0 02 3f
       -0.063988775 1.7982497 -0.083246015 0.510757
000170 11 8f 38 be 4f 4e 97 be 77 c1 e8 bd e9 5c 94 be
       -0.18023326 -0.29551932 -0.113650255 -0.28977135
000180 f8 24 f5 3e 69 88 b3 3f 1e 89 ac 3e 94 d1 6d be
       0.47879767 1.4026004 0.33698362 -0.23224479
000190 e9 04 f9 be ce 8e 50 bd ab 2e 9e be 02 5b c1 be
       -0.4863656 -0.05091744 -0.3089498 -0.37764746
0001a0 79 ff d9 3f ce 5c 86 be d3 d9 8d 3f 71 41 56 bf
       1.7031089 -0.2624268 1.10821 -0.83693606
0001b0 f3 89 24 3e 38 23 1b 40 16 bd 03 3e c9 0c 55 be
       0.16068248 2.4240246 0.128651 -0.20805658
0001c0 6a c5 36 3f da db 62 be c9 3e 68 3f 1f 2a a1 3c
       0.7139498 -0.22154179 0.907208 0.019673405
0001d0 48 7e 04 be 80 ec 68 40 cc 39 f3 3f c3 f3 ed bd
       -0.12938797 3.6394348 1.9002013 -0.116187595
0001e0 20 6e 8a bd d8 6d 05 3f 3e 9b 21 bf 8f 65 aa 3f
       -0.06759286 0.52120733 -0.63127506 1.3312243
0001f0 fc d5 83 bf de 96 b5 3c 1d 1b 8c 3e 36 7b 72 3e
       -1.0299678 0.022166666 0.27364436 0.23679814
000200 34 ce b6 be 95 0e 04 c0 42 22 34 3e 19 4b 51 bd
       -0.35704195 -2.06339 0.17591193 -0.05109701
000210 ac 05 11 be fb cd aa 3d 6a 7e 76 be 0b 6e 6b bf
       -0.1416232 0.08340069 -0.2407166 -0.9196479
000220 36 fa 54 bf 01 89 93 bf 00 d1 89 be aa a3 9f be
       -0.8319429 -1.1526185 -0.26917267 -0.31179553
000230 38 67 03 be ec fe f6 3d 8b 7e a4 3d dd 90 0a bf
       -0.12832344 0.12060341 0.08031949 -0.54127294
000240 75 3e a1 be 8d bc dd 3d 7d 9f 96 bf c3 ac 2e bf
       -0.31492963 0.10826979 -1.1767422 -0.68232363
000250 af f4 ef be 87 f1 60 bf 12 18 83 3d 8a 4d d6 3d
       -0.46866366 -0.8786854 0.064010754 0.10464008
000260 ca bf 18 be 89 04 e4 3e 6f 81 fb bd 7d cd e1 be
       -0.14916912 0.4453471 -0.12280547 -0.44102088
000270 b7 cb ae 3d 49 6a 04 be c4 a5 82 3c a3 f0 00 be
       0.08534949 -0.1293117 0.015948184 -0.12591796
000280 6f 5e 44 bf d3 20 f7 be 9c c7 4f bf d5 57 9e bf
       -0.76706594 -0.4826723 -0.81163955 -1.2370554
000290 d6 77 f7 3d 3b 86 3a 3e 21 3a 0b 3f d3 40 d5 bd
       0.12083404 0.18215267 0.5438557 -0.10412755
0002a0 97 3a 5e bd 3c ec bb be 7b e8 db be 98 9a 2f be
       -0.054255094 -0.3670367 -0.42950806 -0.17148817
0002b0 27 9c fb 3d 0c 00 a6 be 29 1a 86 3c 76 1e 2e bf
       0.12285643 -0.3242191 0.016369896 -0.6801523
0002c0 e2 f6 f6 be 6c 89 a9 be f6 34 b5 be d1 fc 84 bf
       -0.48235232 -0.33112657 -0.35391968 -1.0389653
0002d0 c0 b5 3c 3e 00 b7 93 3c 10 c0 e8 bc 85 c9 57 be
       0.18428707 0.018031597 -0.028411895 -0.21072967
0002e0 ea bd 3a 3e 3b 82 0f bf 9c 85 96 be ac 6c 8e be
       0.18236509 -0.5605809 -0.2939881 -0.27817285
0002f0 9e e9 43 bf 93 e6 e8 3e 03 88 13 bf 66 70 5d 3e
       -0.76528347 0.45488414 -0.5762941 0.21624908
000300 2f b8 1c 40 61 e0 17 3f 6d 80 47 be 77 28 ac 3d
       2.4487417 0.5932675 -0.19482584 0.084061556
000310 4b ae 57 bf fd 28 17 3a b5 f3 07 bd 89 11 30 3e
       -0.84250325 0.00057663006 -0.0331914 0.17194189
000320 d2 6c e8 3e 2e 13 8b bf 95 dc 52 3f 63 88 85 bf
       0.45395523 -1.0865228 0.8236783 -1.0432247
000330 f9 6c 1a bc 10 99 71 bf 50 6c 1f bf f1 50 0d 3f
       -0.009425395 -0.9437418 -0.62274647 0.5520163
000340 66 30 1a 3e c6 f3 ed 3d 11 bd 62 3d ed fe 99 bf
       0.15057525 0.11618762 0.05535609 -1.2030922
000350 a4 a0 b0 be b7 6e ec 3e 25 70 de 3f f0 c7 1d 3f
       -0.3449756 0.4617822 1.7377974 0.61633205
000360 32 8c 47 bc a6 93 cd 3e d9 41 a0 3e 3a fe a1 3f
       -0.012179421 0.4015171 0.31300238 1.2655709
000370 02 28 11 c0 32 c3 5b bd e7 d3 d2 bd 0a bb 3a 3f
       -2.268067 -0.05365295 -0.102943234 0.7294165
000380 56 7e 0c 3f 4f 05 ed bf fd 43 a3 bf 51 7e e6 3e
       0.54880273 -1.8517245 -1.2755123 0.45018247
000390 d8 b5 90 bf d4 c7 0d 3d 70 4c 2e 3f 0f 58 46 3e
       -1.1305494 0.0346144 0.68085384 0.19369529
0003a0 15 d3 6b 3f c0 e4 06 bd 52 3e ca be 94 22 69 3f
       0.9211896 -0.032932997 -0.39500672 0.9106839
0003b0 0b 8c 3f 3d de 75 4a 40 1a 3a 33 bd af 97 16 3e
       0.046764415 3.163444 -0.04375658 0.147063
0003c0 67 d2 06 3e ec 3a 39 c0 13 77 60 bf b5 6b d4 bf
       0.131662 -2.8942213 -0.8768169 -1.659537
0003d0 ff fe 51 3f e6 30 1a 3f be 19 8d be 46 ac 59 bf
       0.8202972 0.60230863 -0.27558702 -0.85028493
0003e0 a4 14 f7 bc c5 da 4d c0 14 c8 c2 bc 50 cd c3 be
       -0.03016121 -3.2164776 -0.023777045 -0.38242579
0003f0 0b f0 8f 3e 65 ce ec be ee 23 65 3f cc 4a da 3e
       0.28112826 -0.46251217 0.8950795 0.4263519

bias f4 [64]
000000 33 42 03 bf 29 82 c4 be 17 3b 3f c0 f6 c4 ec 3e
       -0.51272887 -0.38380554 -2.9879816 0.4624402
000010 7c b3 35 c0 7c af 40 bf 0e bf fb bf 49 c3 41 bd
       -2.8390799 -0.7526777 -1.966768 -0.04730538
000020 b5 7b ad bf 12 ce 4c c0 3d 94 41 c0 17 45 08 c0
       -1.3553377 -3.2000775 -3.0246727 -2.129217
000030 f7 22 0c bf 04 37 03 bf 12 fd 4b c0 72 d5 4b 3e
       -0.5474085 -0.5125582 -3.1873212 0.19905642
000040 d4 34 58 41 18 cf b0 3f dd bf 97 be bb 14 e0 bf
       13.5128975 1.38132 -0.29638568 -1.7506326
000050 81 08 f1 bf a1 8f 0c c0 6b 03 ee bd fe 3c 0f c0
       -1.883072 -2.1962664 -0.11621746 -2.2380977
000060 5b 27 dd 41 ad 22 8d 3f 1a 4b 40 c0 52 48 55 c0
       27.644217 1.1026207 -3.0045838 -3.332539
000070 aa 46 a1 3c 9d 40 3e c0 83 2d 07 c0 eb 93 f8 be
       0.019687016 -2.9726937 -2.1121528 -0.48550352
000080 c3 f2 f2 bf cc e2 a4 bf e1 d1 ee bf fd ed e4 bf
       -1.8980335 -1.2881713 -1.86578 -1.7885128
000090 da b3 c8 be 44 56 76 bf b1 3e 3a c0 f3 2c 6c c0
       -0.39199716 -0.9622538 -2.9100764 -3.6902435
0000a0 47 10 0f c0 5f 46 22 c0 28 59 2e 40 63 f7 a5 c0
       -2.2353685 -2.535545 2.7241917 -5.1864486
0000b0 85 cc 69 41 54 ce 0e c0 98 c9 a1 bf 45 78 aa 40
       14.612432 -2.2313433 -1.2639647 5.3271813
0000c0 3f a4 1e be 3a 2d 05 be 73 19 0f bf 74 14 e7 be
       -0.15492342 -0.13005534 -0.5589821 -0.45132792
0000d0 af e6 6d c0 06 22 a3 bf d9 16 89 be c5 af 58 c0
       -3.7172048 -1.2744758 -0.26775244 -3.3857281
0000e0 61 44 27 bf 57 92 69 3f 7d 64 b4 40 cc 11 c0 bd
       -0.6533871 0.9123892 5.6372666 -0.093783945
0000f0 6d 8d 89 c0 3c 5a 6a 41 2a 7e 19 c0 e8 a1 b6 3b
       -4.298514 14.64703 -2.3983254 0.0055735

weight f4 [4, 64]
000000 9a 36 1b 40 bb bc 0f 3e cf 4a 98 3f e1 47 e5 bf
       2.4252076 0.14036839 1.189783 -1.7912561
000010 e9 6d 69 3f 9a 92 4e c0 90 d5 18 c0 7b 72 78 3e
       0.91183335 -3.2276978 -2.3880348 0.24262421
000020 7a e3 dd 3e 93 db ae 3f 8d c2 d0 3f e1 c5 82 bf
       0.43337613 1.3660759 1.6309372 -1.0216638
000030 60 05 ad 3f cf 65 c7 bf 21 90 02 be 92 24 06 3c
       1.3517265 -1.5577945 -0.12750293 0.00818743
000040 2d 69 80 be 12 e0 e0 40 41 ca d8 3c 0a 0d 3e c0
       -0.25080243 7.0273523 0.02646363 -2.9695458
000050 8d 03 0a 3f 38 43 0d 3f ba 0c 1b 3d 3b 14 80 3e
       0.5391167 0.5518069 0.037853934 0.25015435
000060 1e ec 53 be 79 8b e1 3f 6f b2 98 3f 0a a3 09 c1
       -0.2069554 1.7620689 1.1929454 -8.602304
000070 18 16 05 be a5 bc 2d c0 27 54 8f 3f 56 0c 41 be
       -0.1299671 -2.714639 1.1197556 -0.18852362
000080 41 81 85 40 38 f3 a3 3f 64 d5 16 bf 23 85 9f 3f
       4.172028 1.28086 -0.5891936 1.2462505
000090 d0 f0 ce bd 43 51 fc be ad 69 78 3f 97 a9 1d 3f
       -0.10104525 -0.49280748 0.9703625 0.615869
0000a0 62 5e 4a 3f bb 61 59 3e 87 58 89 3e d1 c9 d3 3f
       0.79050267 0.21228687 0.26825354 1.6545964
0000b0 c9 c2 c1 bf 8e 3e 0c 3f f4 a1 b6 3e 66 6d f2 3f
       -1.5137569 0.5478295 0.35670435 1.8939636
0000c0 0e b4 01 be 18 ed 97 3f 7a 59 2f 40 d5 99 57 3f
       -0.12666342 1.186923 2.7398362 0.84219104
0000d0 fc 54 84 bb 78 a1 fd 3d 10 53 e3 3d 87 ec f8 3f
       -0.0040384512 0.12384313 0.11099827 1.9447182
0000e0 09 5e 5f c0 65 53 44 3f 87 4d 83 be f1 6f be bd
       -3.4901145 0.7668975 -0.25645086 -0.09298695
0000f0 78 69 19 40 e3 5d 11 be 9e 76 36 c0 86 28 9f be
       2.3970623 -0.14195971 -2.8509898 -0.31085604
000100 da 3a aa 3f 35 b7 80 bd 3f 0a 8e bf b5 36 3c 3f
       1.329921 -0.06284944 -1.1096877 0.73520976
000110 01 93 af 3e ce 39 29 3f 16 3b b2 bf af 70 4d 3f
       0.34291843 0.6610383 -1.3924282 0.80250067
000120 28 d5 3f 40 10 55 4a bf 3e b9 c1 bf 86 7b 31 bf
       2.997385 -0.79036045 -1.5134656 -0.69329107
000130 e0 44 86 c0 75 cc 9c c0 98 8f 8c 3f b5 70 11 40
       -4.1959076 -4.899958 1.0981321 2.272504
000140 02 ab e7 3d 30 b4 0e 3f 69 3d 6c 3d 1c c2 e2 3e
       0.11311914 0.55743694 0.057675753 0.4428872
000150 c7 3c 19 40 06 b8 9f 3e 2d 24 09 be cd df 2e 3e
       2.3943346 0.31195086 -0.13392706 0.1707756
000160 9c 76 f3 bd 4d e0 33 40 b2 ed 29 c0 cf 92 2c 3f
       -0.11887857 2.8105652 -2.6551328 0.6741151
000170 ef 7c 80 3f a6 ac 92 bf b2 2c 5e bf 5c c7 82 bd
       1.0038127 -1.1458938 -0.8678695 -0.06385681
000180 91 3a 92 c0 e4 b2 c1 3e a5 c4 6f c0 d4 d8 7e 3e
       -4.569649 0.37831795 -3.7463772 0.24887401
000190 28 18 a7 bc db 57 3d 40 4b 10 e0 bf de d9 29 3f
       -0.02039726 2.9584873 -1.7504972 0.66348064
0001a0 a2 d7 1b 40 98 f2 83 3e 89 84 98 3f c8 a2 1c bd
       2.4350362 0.25771022 1.1915447 -0.038241178
0001b0 56 3b 05 bf 1c 4c 5b 3d 15 18 77 bf da ec ce be
       -0.52043664 0.05353938 -0.9652112 -0.40415078
0001c0 8c 7d 99 bd c9 db 24 3f 0f a4 26 40 5c ef 9e bd
       -0.07494649 0.64397866 2.6037633 -0.07760498
0001d0 de d9 a0 3f 6a 5c 12 3e 1b 0e 96 bd a5 ea 9c 3f
       1.2566488 0.14293066 -0.07326909 1.2259108
0001e0 29 e0 6d 3f c8 e1 e9 be 51 e7 28 c0 60 7f 95 3c
       0.92920166 -0.4568007 -2.6391184 0.018249214
0001f0 51 b6 4b 3f 1e fb c5 be 4d e8 06 bf d1 79 bd bf
       0.7957507 -0.3866815 -0.5269821 -1.48028
000200 07 1a 37 bf 4c b1 94 3d 80 2a 9e bf e8 b7 a1 bf
       -0.7152409 0.07260379 -1.235672 -1.2634249
000210 b8 41 2b c0 14 42 2d 3e e5 4c 42 40 59 e9 49 40
       -2.6758862 0.16919738 3.0359433 3.1548674
000220 38 61 9f 3f 8b 53 1b c0 3f 2c 54 3f c9 db 28 3f
       1.2451544 -2.426974 0.82880014 0.65960366
000230 dd 2e d9 bd db e8 bd be 48 1f 7b 3f 4d 3a 74 bf
       -0.106046416 -0.37091717 0.98094606 -0.9540146
000240 cd c0 d2 3e f4 4d 02 bf 92 8b 91 3c 2e 9c 2e 40
       0.4116272 -0.509002 0.017766748 2.7282825
000250 e0 98 9e 40 e4 55 a8 bd db e0 4c 3d 5f ba a2 3f
       4.9561615 -0.08219507 0.050019126 1.2713126
000260 d4 db 06 be 7b 99 33 be 34 96 17 bf 76 2c 99 3f
       -0.13169795 -0.17539017 -0.59213567 1.1966693
000270 b6 19 89 3f b3 90 c1 3e 72 c5 20 bf bb 11 a8 3d
       1.0710971 0.3780571 -0.6280128 0.08206507
000280 d3 80 7a 40 86 4a 6c 3f 0f c1 a1 c0 ff fd 1d c0
       3.9141128 0.92301214 -5.0548167 -2.4686277
000290 8b 72 e0 bd 65 9e e8 3e eb d9 03 40 f2 15 25 40
       -0.10959347 0.45433345 2.0601757 2.5794644
0002a0 82 25 13 c0 d7 e4 11 3e 25 b9 80 3e 28 b7 7e 3f
       -2.2991643 0.14247452 0.25141254 0.99498224
0002b0 ea ab 55 bf 20 03 62 3f 19 e5 86 3f 02 94 5e 3e
       -0.83465445 0.8828602 1.0538665 0.21736148
0002c0 9a 1e 04 be 4d 3d ed 3e 1f df 42 3e 14 95 2d 3f
       -0.12902299 0.4633583 0.19030426 0.678056
0002d0 02 40 0b be 7f 54 eb 3d ac 0f 9e 3e 54 60 fb bf
       -0.13598636 0.11490726 0.30871332 -1.9638772
0002e0 af e9 ca 3e 6d c3 40 40 6a 80 8f bf 93 55 5c bc
       0.3963141 3.0119278 -1.1211064 -0.013448137
0002f0 f1 29 28 bf c4 af dd 3e a2 68 4e bf b8 31 8a c0
       -0.65689 0.4329816 -0.80628407 -4.318569
000300 1b 18 57 40 f0 94 3a 3e 21 fe b0 3f ff b2 fe be
       3.3608463 0.18220878 1.3827554 -0.49745938
000310 d3 4b cf 3e da 69 1e 3f dc 54 48 bf 74 b8 1f c0
       0.40487537 0.61880267 -0.78254485 -2.4956331
000320 78 6c 2b 40 ec b8 d2 be e2 51 44 3e 9a 27 5c 3f
       2.6784954 -0.4115671 0.19171861 0.8599793
000330 f4 25 43 40 29 cf cc be 24 8e d2 3f cf eb 4b 40
       3.0491915 -0.400018 1.6449628 3.1862676
000340 33 a9 42 3e 25 5c 5e 40 0c 82 de bd 10 10 1d bf
       0.19009857 3.474374 -0.10864648 -0.61352634
000350 de 33 04 bf de f5 1b 40 7f 13 19 3e 87 e3 3b bf
       -0.51641643 2.4368815 0.14948843 -0.73394054
000360 ea 07 95 be d6 37 f8 be ab 69 42 bf 4d ce 20 c0
       -0.291076 -0.484801 -0.75942487 -2.5125916
000370 37 47 9e bf 47 27 c7 bf f9 33 2c 3e 21 85 34 bd
       -1.2365483 -1.5558861 0.16816701 -0.044072274
000380 b2 d8 2c 40 f0 46 c9 3e 3a 91 86 c0 c6 fe 3f 3f
       2.700726 0.39311934 -4.205228 0.7499813
000390 20 40 2b bd 98 6a 21 3e aa 9e c0 3f cb 11 94 3f
       -0.0418092 0.15763319 1.504842 1.156793
0003a0 27 94 cf 3d 04 4b 48 3e 82 c0 1a 3e 2a 0a 0f 3f
       0.1013568 0.19559866 0.15112498 0.55874884
0003b0 7a 06 c9 3e 97 cb e6 3c 8c 39 41 be b9 0e 17 3f
       0.39262754 0.028173251 -0.18869609 0.5900684
0003c0 c7 58 e9 3d cb fc 27 3f d7 d2 1b 40 c9 fb 35 bf
       0.11393886 0.65620106 2.4347436 -0.7108732
0003d0 d9 6b ef 3f 40 39 52 be 76 c9 12 be 49 1c 08 40
       1.8704787 -0.20529652 -0.14334664 2.1267264
0003e0 27 6d e0 3e 3a 35 70 3f e4 69 06 bf 6f 0c 4c be
       0.43833277 0.9383122 -0.52505326 -0.19926618
0003f0 61 ce 0d 40 41 3b d6 bd c3 0e 1d c0 a9 26 b0 bf
       2.2157214 -0.104605205 -2.454026 -1.3761798

bias f4 [4]
000000 ea f8 cd be 98 7d 0a 3d 13 aa 0d c0 1e 00 f9 bf
       -0.4022897 0.03381118 -2.2135055 -1.9453161
