saves/kevin/kevin_nn_2025-02-22_15-27-07.pt (torch, 17468 bytes, 8 tensors)

weight f4 [16, 16]
00000000: 7e84 643e d879 243e 4335 ea3e d4e1 a03c
00000010: 3598 673d d86c 32be abc7 89be 4e99 31be
00000020: 6a06 47be 9407 bbbd a191 89be 85cc 4bbe
00000030: 2138 103e f9bf 683e 2f80 ddbe 6618 6c3e
00000040: 9259 203e a965 52bc 1f89 8f3c ceb6 9e3d
00000050: 3c24 6bbe 1b48 b53d 6fe0 99bd 3d56 99be
00000060: 1c6f 813d c49e fa3d 0068 b03c 785f 563d
00000070: c1c9 ea3d f1b0 f2bb 38db 2d3e 9c85 84be
00000080: 9d43 3c3e 193e fc3d 7784 ec3d d53d 60bc
00000090: 104b 53bd e7b4 d93c bbc2 19be 061d 6ebe
000000a0: 9418 a8bd 4519 03be e58e 063e 2eb7 cdbd
000000b0: ef9e 5b3e b1c9 e93b 1b28 43be 03e2 65be
000000c0: 9643 4b3e 5d43 18be 2b0c 2a3d cabb e13d
000000d0: 0c8b 77bc cf1b 553e 22c5 b93e b783 093e
000000e0: 0659 873e a245 d5bd 15a8 86be 803a bfbb
000000f0: dde0 7ebe ff60 e7be 6c70 37be f063 49be
00000100: fc87 a3bd 18a8 093d 003c a7ba 3ee3 5cbe
00000110: c0e9 e73d c02b fdbc e8dd 05bd 80f0 16bb
00000120: 8cf5 3d3e 3a36 09be 10ca ecbd b870 77be
00000130: b686 1c3e b28d 4abe ec32 603e 9c21 ecbd
00000140: 3d70 fdbc 4b4c 9ebc 02ef ad3e bda8 5c3e
00000150: 6358 95be d46f 1c3c c801 193e 9940 913e
00000160: 61a5 193d 297c 05bd 6258 4a3d b25b febb
00000170: 0842 98be aae0 dd3d 55cf 87be b139 903d
00000180: be08 2c3e 13d3 813d 7336 163f 4251 8bbd
00000190: 48ea 96bd 2f64 aa3c 0f35 31be acce c0bc
000001a0: 4522 4e3e 8003 e2bc 57ce 0b3e 2ea9 923d
000001b0: 00e0 ac3b 54b5 e8bd d5c0 cbbe 2317 783e
000001c0: e9d0 593e 174d e33d 6113 003f 9aff e7bd
000001d0: 95ca 8ebe 520d 3d3e f11e 303e ab95 263e
000001e0: 213e a73e 8364 c13d 0759 ccbd e71f 403c
000001f0: 4d3a d03d 8ebf 2a3e a8de 18be 5834 943e
00000200: 22fd 80bc c01c f7bc 6694 283e 9118 aa3e
00000210: f88b 30be a311 85bd fe8f 763e 6808 793e
00000220: 6bf2 ae3d 2f18 e0bd e134 813e 5894 94bd
00000230: 5202 6dbe 0c37 a8be 6d25 c4bc 4c8f 1a3d
00000240: 9c0a 663e e3a5 5bbe 8297 1b3d 023a b2bd
00000250: a871 a13d 050e 7fbe 27fc c93d 5c01 9ebe
00000260: aa2e 60be 490a 71be 9eff 9dbd 2153 71be
00000270: 6920 51be 4415 9b3b 7cd6 0ebe 45cf 19bc
00000280: 7803 b33e 2b1d 0abe 3113 d93d 0c52 363e
00000290: a199 89be de25 123e 39a8 763d 404a ed3d
000002a0: 99f6 eabd bc99 11be d198 1d3e deee 97bd
000002b0: 1961 82be 0469 343e 513f afbe e6bb 873e
000002c0: 928c 653e 2e9a 893d 09b9 613e e530 af3c
000002d0: 0e69 b1bc ea3c d5bc e7f2 9e3e 3c7b a43e
000002e0: 932f 933e d215 273d 15d8 393d 1a99 9f3e
000002f0: bffc 9e3d adae 543e 03eb 75be 2adc b73c
00000300: 01e7 4b3e 8ed8 0ab9 d7a3 a23e ac5c a03e
00000310: 068e 87be f2fd 1d3b f40f d8bd 3220 3b3e
00000320: 4c50 c9be 3da9 14be 584b 4ebc 5ebf dbbe
00000330: b8cf c6bd 946a 0b3e bb2c 8fbe de23 f7bd
00000340: 73c0 96be 0e11 c7bd 5e27 7fbc b8bd 87be
00000350: 6d6c b2be 4e5c 65be 300f 2f3d e728 1cbe
00000360: 8cc6 a83d e121 643d 6a11 4dbe 1d26 5b3d
00000370: 549e 96be 2810 ffbd b83b 65bd eb9b b83e
00000380: fc50 103e a4a3 ac3d ea5a 87be 534c acbd
00000390: f8ba 283e 78f3 5b3d b275 27be 88cc 42be
000003a0: 8803 2e3e 6d31 b1bd bd59 0cbe 23f8 0f3d
000003b0: c4e2 91bd e0ba 3a3d 91bc 75be 04c2 39be
000003c0: 5d0c 823e 8575 a13d 0a05 0d3e 75dc 6a3e
000003d0: 478a 57be 1e8a ad3b 9d95 6abe 9f67 84be
000003e0: 9370 1dbe 8037 2abe e63f aabd b9ca 823d
000003f0: 111e 45be 947a 23be 8588 8fbe 84c7 093d
0.22316167 0.16062105 0.4574376 0.019638933 0.05654164 -0.17424333 -0.26910147 -0.17343637
-0.1943604 -0.09132305 -0.2686892 -0.19902237 0.14083911 0.22729482 -0.4326186 0.23056182
0.15659168 -0.0128416205 0.01752144 0.07749711 -0.22963041 0.08851644 -0.075135104 -0.29948607
0.063200206 0.122373134 0.021533966 0.05233714 0.11464263 -0.007406347 0.16978157 -0.25883186
0.18385167 0.12316532 0.11548703 -0.013686617 -0.051585257 0.026575519 -0.1501569 -0.23253259
-0.08207813 -0.12802608 0.13140447 -0.100447044 0.21447347 0.007134639 -0.19058268 -0.22449498
0.1985 -0.14869447 0.04151551 0.11022146 -0.015108835 0.2081139 0.36283213 0.13429151
0.26435107 -0.10413672 -0.2630011 -0.005835831 -0.24890466 -0.4519119 -0.1791398 -0.1966703
-0.07984921 0.033607572 -0.001275897 -0.21571061 0.11323881 -0.03090465 -0.03268233 -0.0023031533
0.185507 -0.13399592 -0.11561978 -0.24164093 0.15285763 -0.19780615 0.21894425 -0.11529848
-0.030937308 -0.019323489 0.3397141 0.21548744 -0.29168996 0.009548146 0.14942086 0.28369597
0.037511233 -0.03258911 0.049400695 -0.007762396 -0.29737878 0.10833867 -0.2652537 0.07042254
0.1680021 0.06339087 0.5867683 -0.06802608 -0.07368904 0.020799724 -0.17305396 -0.023536049
0.2013026 -0.02758956 0.13652931 0.07161175 0.0052757263 -0.113627106 -0.39795557 0.24227576
0.21271099 0.11098688 0.5002957 -0.11328049 -0.27888933 0.18462113 0.17199303 0.16268031
0.32664588 0.09442999 -0.09977918 0.011726356 0.1016737 0.16674635 -0.14928687 0.28946185
-0.015745703 -0.030165076 0.1646286 0.33221868 -0.17240894 -0.064975046 0.24078366 0.24319613
0.08542331 -0.10942113 0.25235656 -0.07254857 -0.23145416 -0.32854497 -0.023943627 0.037734315
0.22464985 -0.2145 0.037986286 -0.0870247 0.07883006 -0.24907692 0.09862547 -0.30860412
-0.21892801 -0.2353908 -0.07714771 -0.23566867 -0.2042252 0.0047327597 -0.13949007 -0.009387796
0.34963584 -0.13487689 0.105993636 0.17804736 -0.26875022 0.14272258 0.060219023 0.11586428
-0.11472816 -0.14218801 0.15390326 -0.07418607 -0.25464705 0.17618185 -0.34227994 0.26510543
0.22416905 0.067188606 0.22043242 0.02138562 -0.02165654 -0.026030023 0.31044695 0.3212527
0.28747234 0.040792294 0.045372088 0.31171495 0.07763051 0.20769759 -0.24015431 0.02244385
0.1991234 -0.00013241378 0.31765625 0.31320703 -0.26475543 0.0024107662 -0.10549918 0.18274
-0.39319074 -0.14517684 -0.012591206 -0.4291944 -0.09707588 0.13614875 -0.27963814 -0.12067388
-0.29443702 -0.0972005 -0.015573351 -0.2651193 -0.34848347 -0.22398493 0.042739093 -0.15249978
0.08240995 0.055696372 -0.20026174 0.053503145 -0.2941767 -0.124542534 -0.055965155 0.36056456
0.14093393 0.084296495 -0.2643655 -0.08412995 0.16477573 0.053698987 -0.16353491 -0.19023335
0.16993535 -0.08652005 -0.13706107 0.03514875 -0.0712333 0.045588374 -0.23997714 -0.18140417
0.25400057 0.07883743 0.13771453 0.2293566 -0.21048842 0.005296006 -0.22908635 -0.25860307
-0.15374975 -0.16622734 -0.08312969 0.063863225 -0.1924975 -0.15964729 -0.28033844 0.03363754

bias f4 [16]
00000000: d08c be3b 225e 40be b1b1 67be bad5 1ebe
00000010: d097 20be 2191 5e3d 61d4 6a3e c4a6 9a3e
00000020: 0657 833e a0ff 94be 2f54 843e 83db 4b3e
00000030: f06d cc3e f8a5 103e 2f70 bdbc 4bfd febc
0.005815126 -0.18785909 -0.22626378 -0.15511218 -0.15682912 0.054337624 0.22932579 0.30205357
0.2565233 -0.29101276 0.25845477 0.19907956 0.39927626 0.14125812 -0.023124782 -0.031126639

weight f4 [32, 16]
00000000: fccc 233e 59e7 943a 929b 14be 33fa e0bd
00000010: a8a4 603e 89c5 893e 64b3 693e 2434 b3bd
00000020: 4bed ae3e cb76 f0bd 8c2e 843e f628 8d3e
00000030: e7ae 593e 6fa5 993e 2b7b 483e 9361 b0bb
00000040: 9079 5cbd 8082 663b 0ec3 04be d052 a73d
00000050: d8c8 7f3d aa88 3dbe 603e 77be 00c0 e138
00000060: c040 6b3d 98b5 e43d 20d9 263c 6470 3dbe
00000070: b8ba 083e e013 4c3d 446c 57be 780d 2e3e
00000080: 209f 73be 19a3 343e 86d5 003e 3895 693d
00000090: 361d 303e 5cbc 85bd 3685 2b3e 0c71 0abe
000000a0: 27c3 57bd 6a7e 3abe 5bdf 8bbe 6506 75be
000000b0: b02d f53c aa66 23be fc5f 35be 502b e4bd
000000c0: fc9d 683e 62af 59be 3b9b 683e 4b17 34be
000000d0: b0f9 603d ceae 873d f0f6 7e3e d6dc 8a3e
000000e0: ccd8 7c3e dbb3 99bd 1af2 35be f15c 15be
000000f0: 1842 1a3f 9d28 1bbd d866 ab3c df7b ad3d
00000100: 18e1 053d 3621 1dbe 8023 8c3c 309f 263e
00000110: 0040 a13a 4c5a 05be 0651 5f3e 54c9 6cbe
00000120: 1cf0 4fbe 4245 4e3e 0662 33be dc05 47be
00000130: 1008 adbd 3ab3 5cbe 7650 43be 009d 393e
00000140: 7eaf 86bd 5709 233e 208b 163d 84c7 f0bd
00000150: fc10 2fbe ee8c df3d 43ae e2bd c1af 7ebe
00000160: 18af 023e 6051 b9bd 6f1b aebe f058 50bd
00000170: 32e4 3e3c 948d e1bd 24f3 b3bd 0086 623a
00000180: 569b 163f 6a1e 623e 7a23 3abc 4497 82be
00000190: eab9 4bbe cca6 80be 4bb2 923e 825b 073e
000001a0: 2177 b23d 3890 ff3d 45e0 bfbc 2a0d 2b3e
000001b0: f8ff 0c3f cebb 783e 5179 663e fc42 2b3d
000001c0: 84cc 8f3e 7534 813a cb80 08be 99ba 6dbb
000001d0: e073 92bc 7568 063e afaf 4d3e e90f cabd
000001e0: 039d a73e fa46 04be 2f68 8e3e 313f f03d
000001f0: 338b 8d3e eed6 5c3c 033c 6f3e cfcf ac3e
00000200: 1bdf 6c3e 3dc0 063d 566e e1bd 726e 303e
00000210: e057 3dbd b965 8c3e e849 0fbe c85f b03e
00000220: 6dbb aebc 90c3 12bd 5eaa 253e 087e 963d
00000230: 3572 cb3e 40a3 f13d 87e3 f73d df84 8f3d
00000240: c649 4fbe f290 0cbe 94cd 87bd f476 1bbe
00000250: 60cb 5cbe 704a 843c a2f1 44be c07b 123d
00000260: 801d d43d 8e1d 533e d664 1dbe 328d 13be
00000270: d498 fdbd 68e2 e73d c80a 5ebd d804 1d3e
00000280: f1b3 803e 3f22 cfbd dd71 3cbd 59df d53d
00000290: 5080 cc3d 32c7 283e d7d3 973e 151c b83e
000002a0: ee44 e73d 7351 3a3e 9c86 463e fbb4 703e
000002b0: ed1b 873e b9d5 383e a5f8 073e ab77 963e
000002c0: 740f 173e 008f 083e 58e0 913d 08ef 0bbd
000002d0: b474 fdbd 363c 68be a06e 6ebe 4cbe c0bd
000002e0: 2698 4abe f0ae 553d 78c4 c23d 602b 823c
000002f0: 509c b5bc 5088 dbbc 18a4 2abe c003 c53d
00000300: bf69 da3e 9888 e63d 47ee f4bd d494 dc3d
00000310: 98a3 373e 230e 09be 7ba1 2abd 3dc6 8a3e
00000320: 70f2 483e 6695 8c3e 12c8 383e 4ed8 8c3e
00000330: df44 9c3e fe78 983e 66a4 323e 9b86 693e
00000340: 2067 493e fda9 bd3d 9496 523e 7ebb 923d
00000350: a0d6 393e dc0b 3cbe fe2e 2abe 17ee c33c
00000360: 28f5 99bc 6c7e 5d3e e5a8 253e d915 63be
00000370: 05b6 5ebe 9c8c 0bbe 339f b4bd 7a93 16bd
00000380: 54cc 293e 60c2 633c 66d2 91bd 079a 36bc
00000390: f8d7 e43d fa02 47be a300 4abd c9b4 6d3e
000003a0: b4e3 793e 300c 32be 6845 2c3e efd1 f6bc
000003b0: f2ca 393e 6c28 8e3e 7c75 a83d f3b0 5c3e
000003c0: 97b4 4a3d 9318 963d e96c f33d 324f 2bbe
000003d0: 7cfd fabd 802f 7dbd 17c9 b23d d628 49be
000003e0: 0bcb 743e a060 0ebe 1918 11be 655a b2bd
000003f0: ac7a dfbd 4c0f 28be 9c2b 36be 70da d5bd
0.15996164 0.0011360451 -0.1451247 -0.10985222 0.21937811 0.2690852 0.22822338 -0.087501794
0.34165415 -0.11741408 0.25816762 0.27570313 0.21258126 0.30009028 0.19578235 -0.0053827255
-0.05382687 0.0035173 -0.12965032 0.08170092 0.0624474 -0.18509164 -0.24144888 0.00010764599
0.057434797 0.11167449 0.010183603 -0.18499905 0.13352478 0.04982364 -0.21037394 0.16997325
-0.2379117 0.17640342 0.12581453 0.05702707 0.17198643 -0.06530067 0.16750035 -0.13519686
-0.052676346 -0.18212286 -0.27318844 -0.2392822 0.029929012 -0.15957132 -0.17712396 -0.11141074
0.22716516 -0.2125831 0.22715466 -0.1758701 0.05492562 0.06625138 0.24898887 0.2712161
0.24692076 -0.07505008 -0.17768136 -0.14586236 0.602571 -0.03788053 0.020923063 0.08470892
0.03268537 -0.153447 0.017106771 0.16271663 0.0012302399 -0.13022727 0.21808252 -0.23123676
-0.20306438 0.20143607 -0.17517862 -0.19435829 -0.084488034 -0.21552745 -0.19073662 0.18126297
-0.06576441 0.15921532 0.036753774 -0.117568046 -0.17096323 0.10915552 -0.11068394 -0.24871732
0.12762105 -0.09048724 -0.34005305 -0.050866067 0.011651086 -0.11013332 -0.0878661 0.00086411834
0.58830774 0.22081915 -0.011360997 -0.25506032 -0.1989514 -0.25127256 0.28651652 0.13218501
0.08714128 0.124786794 -0.02342237 0.1670424 0.5507808 0.24290392 0.22507216 0.04181193
0.2808572 0.0009857552 -0.1333038 -0.003627455 -0.01787752 0.13125785 0.20086549 -0.09866316
0.32736978 -0.129177 0.2781386 0.11730803 0.27645263 0.013478978 0.23362736 0.33752295
0.23131983 0.032898176 -0.11007373 0.17229632 -0.046226382 0.27421358 -0.13993037 0.34448075
-0.021329606 -0.035831034 0.16178271 0.07348257 0.3973557 0.117987156 0.12103944 0.07007765
-0.20242986 -0.13727167 -0.06631008 -0.15182096 -0.21561956 0.016148776 -0.192328 0.03576255
0.10357189 0.20616743 -0.15370497 -0.1440933 -0.12382665 0.113224804 -0.0542095 0.15333879
0.25137284 -0.10113954 -0.046007026 0.10442991 0.09985411 0.16482237 0.29653808 0.35958925
0.11292444 0.18195133 0.19387287 0.23506539 0.26388493 0.18050279 0.13278444 0.29388174
0.14751989 0.133358 0.07122868 -0.034163505 -0.12375775 -0.22679219 -0.23284388 -0.09411296
-0.19784603 0.052168787 0.0951013 0.015889823 -0.022169262 -0.026798397 -0.1666416 0.09619856
0.42658803 0.11256522 -0.1195951 0.10770574 0.179335 -0.13384299 -0.041657906 0.2710437
0.19623733 0.27457732 0.18045071 0.27508777 0.30521294 0.2977981 0.17445526 0.22805254
0.19668245 0.09260938 0.20565253 0.071646675 0.18148279 -0.18363899 -0.16619489 0.023917241
-0.018793657 0.21630257 0.1617771 -0.22176303 -0.21749122 -0.13627857 -0.08819427 -0.03676174
0.16581851 0.013901323 -0.071202084 -0.011145121 0.11174005 -0.19434729 -0.049317013 0.23213495
0.24403268 -0.17387462 0.16823351 -0.030129401 0.18143824 0.27765214 0.08225533 0.21551876
0.04948863 0.07328906 0.11886007 -0.1672943 -0.122553796 -0.061812878 0.08729761 -0.19644484
0.2390558 -0.13904047 -0.14169349 -0.08708648 -0.1091207 -0.16412085 -0.17790073 -0.10442054

bias f4 [32]
00000000: 421c 61bc fe42 56be 5c7d d43c e4d6 afbd
00000010: deff 46be 0e0b 92be 43ed 473e 25b5 853d
00000020: af5a 1bbd 5428 73be 364d 913e 7617 12be
00000030: 617d d23d 2a11 b0bd eec5 ba3d 79d6 923c
00000040: 6bf3 993e 569f 14bd 1f9e 5c3c cfd0 92bd
00000050: 8c5b 3d3e 59a9 973d 2566 a0bc 2782 b43d
00000060: 2774 a6bd 2f9f bdba 91a9 5c3e 452a 84be
00000070: 5438 8b3d c791 6d3d d66c a73e f014 373e
-0.013739647 -0.20923993 0.025938682 -0.08585909 -0.19433543 -0.2852406 0.19524102 0.06528691
-0.03792828 -0.23745853 0.2837922 -0.14266762 0.102778204 -0.08597024 0.09119783 0.017924534
0.30068526 -0.036284767 0.013465433 -0.07168733 0.18491954 0.074053474 -0.019579956 0.08813887
-0.08127623 -0.0014466996 0.2154906 -0.258135 0.06797853 0.058000352 0.32700223 0.17879081

weight f4 [64, 32]
00000000: acbe 30bd 6eca c6bd 0b47 063d 4273 c13d
00000010: ef04 29be 4e22 97bd c0e9 5d3c dcde 013d
00000020: 623f 673e c546 0cbc c37f 223d 452b e7bd
00000030: c463 573e 5e11 0e3e 0b6b 083e 26e0 ddbd
00000040: 56e0 e03d 0ea6 86bd 304a 7b3d 1890 2e3d
00000050: d77b 2a3e 6a7d 0ebe 818f 1e3e ecc4 e23c
00000060: 0c9a 413e b968 f1bc 98be 213e 396b f0bd
00000070: 682d 473e a1b6 84bd 5461 913e dacf 9b3d
00000080: 91b7 1a3d 556e b53d 6bca 813d f59f c93c
00000090: d8c9 f23d 9ff1 b23d 8409 6e3c 840b 28be
000000a0: 277e c1bd 0844 253d 8737 b6bd dbf3 7a3d
000000b0: bf1d 7fbd 69a2 ea3d 25f0 923d 30f9 a2bd
000000c0: 685d 2b3e 4515 1abd 3102 c1bd 052e 9c3d
000000d0: 2e8d a13d ad9d b43d 27c7 863e 3956 2d3e
000000e0: f912 863e a4a2 8e3e 5518 f8bd de9c b33d
000000f0: 5ea4 f3bd 9f7f ac3a 696e 4a3e 0cb7 233e
00000100: 94bc 8b3e 7724 0cbe 6766 21be 5977 d7bd
00000110: f1a3 093e f597 37bc d1a5 18be 3a89 9e3c
00000120: f180 f4bd 831a 4fbb 1597 1e3e 9bdc 07be
00000130: ced5 adbc 257c 0c3e e34b aebd 4734 0c3e
00000140: 57e1 873d 1f67 383e 03cb 413e 080f 453e
00000150: a86b 713e 35ce 07be 6429 cb3e bac7 473d
00000160: c90b 4a3e ef5b 883e 4a4d 293c cccc b33d
00000170: c372 753e 5f11 34be a582 0ebd 0652 2a3c
00000180: eb7f 453e 69cb e8bd 034e 023e ad4a 1bbe
00000190: 9ef3 a93d 2158 84bd 1df3 253d d2d8 64bd
000001a0: 551e 563e 31c8 093e ffcd b33d 6540 183e
000001b0: bd87 593e 297e 073e 300d 633d 6564 71bb
000001c0: b230 bf3d b784 2dbd 2bf9 f03d cab0 4e3e
000001d0: e0ba 3f3e 2042 8d3d d7e2 443e 7cbe 873d
000001e0: 261b 8abd 03ee 573e e48b 7d3e 1e8e 05be
000001f0: 2a2f e13d f8de bd3c 59c0 383e 917a a2bd
00000200: cc10 da3c 4a76 7c3d 497f da3d 039a 47bc
00000210: dca9 0ebe f17a f5bd 0f69 c43d 8c33 babd
00000220: b143 abbd a7b5 213c 2a8c c1bd 90ec d2bd
00000230: 4fba 163e ff43 413d c697 213e 0c32 9c3d
00000240: a9ec a8bd cafc 06be 2729 e6bd d56a 063e
00000250: c430 b3bd 8e1f 10be 4993 9ebd 864b 363d
00000260: 60ec fabd 8e44 dfbd 8f4a dabd 71eb ee3d
00000270: 24e3 90bd 36e7 8d3d 517b 19be 4bd9 d4bd
00000280: 314b 263e 20ce a8bd b6b7 f5bc 7f95 c63e
00000290: 9979 063e dcbb a93d e650 543e 0aa7 8f3e
000002a0: 0963 663e b815 813d cf95 fb3d 42b7 773d
000002b0: 5f90 573e f5f6 cc3c f069 ae3c fd05 fabd
000002c0: f98e 42bd dbea 6dbd 100e 2c3d afde 483e
000002d0: 002d 673c 4c7d 8c3d cde0 47be 17d1 a33d
000002e0: 9078 96bd 995e 603e d0e6 ef3d 15a9 9dbd
000002f0: 884e e03d 204a fabc 8916 3b3d e867 77bd
00000300: 0e4d 8cbd 5659 42bd 0f91 19bd 763f 54bd
00000310: 6466 1abe d027 263e f6c7 3fbd 35da 2f3e
00000320: 6fc7 fcbb c0a8 14bc 6d06 013e d249 e2bd
00000330: ecce 523e 642a 93bd 8182 7b3e 9afe 3abe
00000340: 8580 c0bd 9fad 323e 0881 0a3e 2196 173d
00000350: 8396 283d fa41 963d 7cf4 533e 8532 813e
00000360: a0dd 003e b683 4d3e 6604 253e 979c 403e
00000370: 6a32 5a3e ef3d 2dbe 195c 613e 00a2 a1bd
00000380: 2fb6 043e 3066 09bd 8b51 343e 69d7 023e
00000390: 602c 333e d7f9 e13c 9c73 633d 20fc 523e
000003a0: f60d 70bb ba7f 29be 3d49 283e 2ff4 9e3d
000003b0: 41bb e8bc e5db d5bd 8d49 1c3e 8b6d 38bd
000003c0: 5c9d df3d 6907 a93d 41d0 803c b43b 243e
000003d0: 0b01 12bd 5b9a 44bd d454 213e 71f1 6a3e
000003e0: e17c bb3e fdaa ec3d d319 e33c a073 2ebc
000003f0: 13d7 7bbe d941 7d3d a1b4 473e 459c 9d3d
-0.04315059 -0.09706579 0.032782596 0.09445812 -0.16505788 -0.0737959 0.0135445 0.031706676
0.22582772 -0.008561795 0.039672624 -0.1128755 0.21034151 0.13873813 0.13322084 -0.108337685
0.10980289 -0.06574641 0.061350048 0.042617887 0.16648804 -0.13915029 0.1548443 0.02768179
0.1890642 -0.029468881 0.15795362 -0.11739201 0.19450915 -0.06480146 0.28394568 0.07608004
0.03777272 0.08858935 0.06337436 0.024612406 0.11854905 0.08737492 0.014528636 -0.16410643
-0.0944789 0.040348083 -0.0889731 0.061267715 -0.062284227 0.114567585 0.0717471 -0.07957685
0.1673485 -0.03761794 -0.09424246 0.07625965 0.07888256 0.08819137 0.26323816 0.16927423
0.2618635 0.2785846 -0.12114016 0.087701544 -0.11896585 0.0013160593 0.1976868 0.15987796
0.2729231 -0.13685785 -0.1576172 -0.10520811 0.13441445 -0.011205663 -0.14907004 0.019352544
-0.11938656 -0.0031601496 0.1548732 -0.13267748 -0.021220114 0.13719232 -0.08510568 0.13691817
0.06634777 0.18008088 0.18925099 0.19244015 0.23576224 -0.13262255 0.39680016 0.04877446
0.19731058 0.2663264 0.010333369 0.08779296 0.2396956 -0.17584752 -0.03479256 0.0103955325
0.19287078 -0.113669224 0.12725072 -0.15165205 0.082984194 -0.06462122 0.040515054 -0.05587084
0.20910008 0.13455273 0.08779525 0.14868315 0.21243186 0.1323172 0.0554325 -0.0036833521
0.0933546 -0.042362895 0.11766275 0.20184627 0.18723631 0.06897378 0.19227158 0.06628129
-0.067434594 0.21086888 0.24760395 -0.13042495 0.10995324 0.023177609 0.18042125 -0.07933534
0.026619337 0.061636247 0.10668809 -0.012182715 -0.13931984 -0.1198634 0.09590351 -0.09091863
-0.083625205 0.009869969 -0.09450562 -0.10299027 0.14719509 0.047183987 0.15780553 0.07626733
-0.08248264 -0.13182369 -0.11238318 0.1312669 -0.08749536 -0.14074537 -0.07742936 0.04450562
-0.12252116 -0.10901748 -0.10658752 0.11666001 -0.07074574 0.069288656 -0.14988448 -0.10393008
0.16239621 -0.0824244 -0.029994827 0.3878593 0.13132323 0.082877845 0.20733985 0.28057128
0.22498716 0.06302971 0.12284433 0.060477503 0.21051167 0.025020102 0.02129075 -0.122081734
-0.04749963 -0.058085304 0.0420056 0.19616197 0.01410985 0.06859836 -0.19519348 0.07998865
-0.07347214 0.21911086 0.11713946 -0.076982655 0.10952479 -0.030552924 0.045675788 -0.060401827
-0.068506345 -0.04744848 -0.037491854 -0.051818334 -0.15078121 0.16226125 -0.046821557 0.17173083
-0.007714204 -0.009073436 0.12600107 -0.11049236 0.20586747 -0.0718582 0.24561502 -0.18261185
-0.09399513 0.17449044 0.13525784 0.03700841 0.041159164 0.07336803 0.20698732 0.25233856
0.12584543 0.20069775 0.16114959 0.18809734 0.21308294 -0.16918157 0.22007789 -0.07892227
0.12960123 -0.03354472 0.17609231 0.12777485 0.17497396 0.027584953 0.055530176 0.2060399
-0.0036629415 -0.1655263 0.16434188 0.07761418 -0.028409602 -0.10442332 0.15262432 -0.045026343
0.10918686 0.082533665 0.015724303 0.160384 -0.035645526 -0.047998767 0.15755016 0.22943665
0.36618713 0.11556051 0.027722275 -0.010647684 -0.24593763 0.061830375 0.19502498 0.07695822

bias f4 [64]
00000000: b8c4 763e 2e52 0d3e 8812 e53c 0966 013e
00000010: 6ff6 a3bd 1d60 603e ac40 963d 6049 86bd
00000020: fa11 e33d 085c 953d b26b 41be c90f 23bd
00000030: efc5 743c fbf4 17be 237f 4f3e e983 d8bc
00000040: 432b 603e 07de b53d 7856 edbd 8d26 f73d
00000050: 20f4 adbd 173e 303e 2bab c9bc bd9b 2b3c
00000060: 1027 ba3d 39dc 763e e5b8 07bd e728 14bd
00000070: b4dd 223c 6c22 febd 8e6b 703e a043 1abd
00000080: 94a1 24be d393 d03d 0957 1cbe d135 3d3d
00000090: 6aae c8bd 0370 bcbd 7183 913c 50f2 47bd
000000a0: 20a3 483d ed00 a03b 9006 fa3d 5bdf 853c
000000b0: 9cc0 9a3d 34a9 3a3e 6e64 f6bd 7649 ebbc
000000c0: e186 5b3e 7de1 27be fdfb 973d 2480 87bc
000000d0: 2f86 ffbc 3405 c53d 2892 803e 0638 743e
000000e0: 0435 29bd eacb e7bd 46c8 6abc a0c3 a23d
000000f0: 533c 24be 3f48 6ebd be95 b53c 2d66 1b3e
0.2409848 0.1380088 0.027962938 0.1263658 -0.08005988 0.21911664 0.07336554 -0.06556964
0.11087413 0.07292944 -0.18888739 -0.039809976 0.014939769 -0.14839546 0.20263343 -0.026430087
0.21891503 0.08880239 -0.11588758 0.120679 -0.08493829 0.17211185 -0.024617752 0.010474143
0.09089482 0.24107446 -0.033135314 -0.03617182 0.009940553 -0.12408909 0.23478529 -0.03766215
-0.16077262 0.10184445 -0.15267576 0.0461939 -0.09798892 -0.09201052 0.017762871 -0.04881507
0.048983693 0.004882923 0.12208283 0.016341856 0.075562686 0.18228608 -0.12030874 -0.028721552
0.21438171 -0.1639461 0.0742111 -0.016540594 -0.031191913 0.09620133 0.25111508 0.23849496
-0.041310325 -0.113181904 -0.0143299755 0.07947469 -0.16038637 -0.058174368 0.02216613 0.15175696

weight f4 [4, 64]
00000000: aee2 54be e84e 4fbe ec8c fcbd 460b 19be
00000010: 86a0 b2bd 10b9 64be f994 58be cefa 82be
00000020: 6970 4bbd c6b7 d13c 5a36 73bb 2de7 6cbe
00000030: 276b 79bd a69d 28be cc53 86be c663 96be
00000040: 9756 6cbe c1bf 01be 746e e5bd 858c 34bd
00000050: ba5b 16bd 8628 74be 802a 2d3c 5144 75be
00000060: 9d13 53bd 2414 88be 3f46 d93c 4490 0d3d
00000070: 30ea 6abe 67fe 503d f9c2 49be 0caf 983d
00000080: 52b8 fc3d cc52 7dbe b838 f23d 49ef 90be
00000090: 5b55 c33d 1316 a6be 9b9d a0be 2d55 57be
000000a0: 8d03 2abe 7870 853d 906f 1dbe b0d2 89be
000000b0: 5cea 09ba a8f4 1abe bf70 903d 84b2 8abe
000000c0: ea4c 91be ee24 653d d5a9 01be c44d 853d
000000d0: 1060 023d 821d 45bc c9cd 77be 1b32 98be
000000e0: 7a5e 41bb 9075 d53c b277 e33d bdfe 6c3d
000000f0: 8d21 08be 4245 d73d 2ce5 edbd 6661 0dbe
00000100: c9c1 83be 2b79 21be 62f7 7fbe d4be 88be
00000110: f293 b83d af26 bebd 09f2 4fbe 9c3b 00be
00000120: 95bd e3bd 6efe 13be 3a97 a43c a051 2cbe
00000130: ba65 a73d 2ad6 45bd 3b8f 4fbe e98b fdbd
00000140: 2dc8 30be 37ca 62be aab9 fabd 2974 0dbc
00000150: 6d67 d93c c60a 26be 5647 dd3c 7731 6bbd
00000160: 053d 5abe fe8d 40be 9659 a73c 5880 83be
00000170: f146 37be feca 03be b3e7 23be 94f7 86bd
00000180: 5629 e3bd 8681 41be c4d2 823c 1d6d 15be
00000190: 7364 10be fd38 5cbd 408e 11bd 3d06 3cbe
000001a0: bc16 79be ac0f 6fbd 8871 08be ddf3 14be
000001b0: 280b 9f3d ba50 97bd 3030 51bb 0d7a 163c
000001c0: cd92 44be 504f 9ebc 9b15 23be 8859 85bd
000001d0: 80d2 0b3b 0139 793d 9bac 4dbe 1aa6 a1bc
000001e0: bbcf 71be c87d 443d 389d 0ebd 3ed8 65bd
000001f0: 1004 343d f0f5 9ebd 561c a5bd 83b0 58bb
00000200: 08d6 a7bd 0b77 683e 8e1c 773d beaa 79bc
00000210: d0b6 8f3c 6db8 14be 7a91 eebc 2a94 73bb
00000220: 389e 8e3c 0c63 99bc fab2 93bd 9923 2dbe
00000230: 006f cbbc 0a23 963c f13d 8cbd d880 9e3b
00000240: 945d 1abe 135b 94bd 34b9 9ebd 321c f4bc
00000250: 0f0b 183c 45b6 753e 38a5 053d 3d8f 40bd
00000260: fe66 c5bd 8f1a 7fbd 2385 983d 5a72 153d
00000270: 767f 5dbd 8d62 913d 9f5a 10be c4ea 0dbd
00000280: d059 1dbd a091 873d 4467 9e3d d8c7 04be
00000290: 0ea8 efbd 8c13 753e ff20 64bd 3f82 13bc
000002a0: e40a c7bd 40d3 1b3b 204e 91bd 2ba3 e33d
000002b0: 70fb 3b3d 62e0 2fbe 981c cf3c 7774 11bd
000002c0: 407d 32bc 656c 2dbd 6856 babb e06e 62bc
000002d0: 1615 c93d 3ca0 72bd 31e3 333e 416e cabd
000002e0: 9735 28be ee48 febd 4f0f ca3d 32d2 013d
000002f0: 01d2 753d 1a86 ffbd df49 36be f6e5 a83c
00000300: b1e0 d8bd 8eee 1d3d 9506 14be 5ab9 c63a
00000310: f00d 65bc 667f 383a c3d0 a6bd e88c 543d
00000320: bab3 9d3d d425 af3d 79c7 f43c d528 3ebe
00000330: 00e0 f339 6ed5 28bd d638 aa3c f552 2ebe
00000340: a1a5 2ebc 5eba 24be 80a3 20bb 1e14 e1bc
00000350: ec05 d5bc 9501 e3bd d02d b93b 344a f4bc
00000360: 4ce2 353d 779e 5ebe 042a ae3a eae0 393d
00000370: ee53 3bbe bd54 d83d 7adc 43be 4cc8 59bd
00000380: acf5 1bbd 9abf d3bc 3e39 e83d ece8 c6bd
00000390: 48b0 50be 2fbe 73bd 9dc7 003d 7e6c 0abd
000003a0: a9bb 41bd 945b 78bd 0342 2bbe 7307 c1bd
000003b0: 202a 5f3d db4d 58bd fd9a 8c3d 2cd4 ab3d
000003c0: f6c4 13be 0b96 003c 331d 34be 4851 c2bc
000003d0: 0ce4 b3bd dc8c 5b3d 8560 34be 442a aabd
000003e0: 140a 00bd 7c4e c23d 497d 5f3d 832d b3bd
000003f0: 0273 c93d 0082 5b3a 5bc4 1fbd 1402 b83a
-0.20789596 -0.20244944 -0.12331566 -0.14945707 -0.08722024 -0.2233622 -0.21150579 -0.25581974
-0.04966775 0.025600325 -0.0037111253 -0.23135062 -0.060893204 -0.16466388 -0.26235807 -0.29372996
-0.23079906 -0.12670805 -0.11202708 -0.044079322 -0.03670857 -0.23843583 0.010569215 -0.23951842
-0.051532377 -0.26577866 0.026522754 0.03456141 -0.22940898 0.051023867 -0.19703282 0.074552625
0.12339844 -0.24738616 0.118272245 -0.2830756 0.09537765 -0.32438716 -0.31370243 -0.21028586
-0.16602917 0.06515592 -0.15374589 -0.26918554 -0.00052610575 -0.15132391 0.070527546 -0.27089322
-0.28378993 0.055943422 -0.12662442 0.06508973 0.031829894 -0.012030961 -0.24199595 -0.29725727
-0.0029505775 0.026057035 0.111068144 0.057860125 -0.13294049 0.10511257 -0.11615977 -0.13806686
-0.25733784 -0.15768878 -0.24996713 -0.2670809 0.09012593 -0.09284722 -0.20307173 -0.12522739
-0.11120144 -0.14452526 0.020091642 -0.16828012 0.081737 -0.048299946 -0.20269482 -0.12380201
-0.17263861 -0.22147451 -0.12242444 -0.008633652 0.026538575 -0.16215047 0.027011555 -0.05742022
-0.2131234 -0.18804166 0.02042846 -0.25683856 -0.17898156 -0.12870404 -0.16006355 -0.065901905
-0.110918686 -0.18897066 0.015969642 -0.14592405 -0.14100818 -0.053765286 -0.03553605 -0.18361755
-0.24325079 -0.058364555 -0.13324559 -0.14546151 0.077658 -0.07388444 -0.003191959 0.009184373
-0.19196625 -0.019324929 -0.1592621 -0.06511217 0.0021335185 0.06084538 -0.20085375 -0.019732524
-0.23614399 0.047971517 -0.034817904 -0.056114428 0.043949187 -0.077617526 -0.08062045 -0.0033064194
-0.0819512 0.22701661 0.060329966 -0.015238462 0.017543226 -0.14523478 -0.029122103 -0.003716717
0.017409429 -0.018723987 -0.072118714 -0.1690811 -0.024833202 0.018327255 -0.06847752 0.0048371367
-0.1507476 -0.072439335 -0.077501684 -0.0297986 0.00927998 0.23995312 0.032628268 -0.047011603
-0.09638785 -0.062281188 0.07447269 0.036486007 -0.054076634 0.07098875 -0.14097069 -0.034647718
-0.03841573 0.06619573 0.0773454 -0.1296686 -0.11701976 0.23933238 -0.05569553 -0.009003221
-0.09718874 0.0023777038 -0.07094979 0.11115106 0.045894086 -0.17175439 0.02528219 -0.03551146
-0.01089412 -0.0423397 -0.00568657 -0.01382038 0.09818475 -0.059234843 0.17567135 -0.098843105
-0.16426693 -0.12416254 0.09866201 0.0316946 0.06001473 -0.1247675 -0.17801617 0.020617466
-0.105897315 0.03855758 -0.14455636 0.001516144 -0.013980374 0.0007038027 -0.08145287 0.05189219
0.07700296 0.08552137 0.029880272 -0.18570264 0.00046515465 -0.041219167 0.020779055 -0.17023833
-0.010659606 -0.16086718 -0.0024511516 -0.027475413 -0.0260038 -0.11084286 0.005651213 -0.029820539
0.044405267 -0.21740137 0.0013287668 0.04538051 -0.18293735 0.105630375 -0.19127074 -0.053169534
-0.038076088 -0.025848199 0.11339043 -0.09712395 -0.20379746 -0.059507545 0.031440366 -0.033794872
-0.047298107 -0.06063421 -0.167244 -0.09425249 0.054483533 -0.052808624 0.06865499 0.08390078
-0.14430603 0.007848273 -0.17589264 -0.023720399 -0.08783731 0.05360113 -0.17614944 -0.08308843
-0.03125961 0.09487626 0.05456284 -0.08748915 0.09836389 0.00083735585 -0.03900562 0.0014038705

bias f4 [4]
00000000: d1ee 2abe 153c 91be 75f8 0c3d a7e9 bfbd
-0.16692664 -0.2836615 0.034416635 -0.093707375
