saves/kevin/kevin_nn_2025-02-22_15-27-37.pt (torch, 17468 bytes, 8 tensors)

weight f4 [16, 16]
0.1778176 -0.12332529 -0.053665612 -0.25195938 0.18304025 -0.09786812 -0.096494704 -0.11285294
-0.12332725 -0.051797576 -0.0016968055 -0.11946246 0.038636263 -0.0921523 -0.026031587 0.116107054
-0.100373894 -0.1718754 0.57911164 -0.10894614 0.13908108 -0.03378674 0.3754355 0.09251596
-0.1497863 0.12530735 -0.17174514 0.3482538 -0.06907423 0.12016424 0.0653542 0.34047288
-0.028796483 0.12537394 -0.0020288017 -0.091107294 0.17385715 0.17223114 0.539423 0.17569809
-0.05228674 -0.0026467321 -0.41065636 0.23919299 -0.06398539 -0.2019589 -0.36430237 0.20107034
0.25227854 0.26301757 -0.025729433 0.23528847 0.1777738 -0.10444923 0.47475863 0.35737357
-0.2525592 -0.1467085 0.33620444 0.23136172 0.02521104 -0.121401034 0.1245593 -0.01834992
0.09052625 -0.1275177 0.16583306 -0.18525852 0.14270452 0.1307033 -0.109918684 -0.13273922
-0.00853315 -0.017386675 -0.21566036 -0.10150824 0.041600645 -0.20056653 -0.09548181 0.10524658
0.27173972 -0.15045328 0.62037534 0.29210424 0.23105499 -0.19446597 -0.4339059 -0.18077223
0.14739788 -0.025400702 -0.45026886 0.028276889 0.0405308 0.10687997 -0.5340642 0.012645864
0.040719964 0.08317806 -0.11425393 0.08985135 -0.13908312 0.27101114 0.3555963 0.291085
-0.16798119 -0.21316943 -0.0004961469 0.19924316 -0.23573706 -0.44918713 -0.38436645 -0.32919455
-0.047452915 0.09917828 0.56526875 0.2463099 -0.01593748 0.21345668 0.10081614 0.22339772
-0.13434796 0.01517118 0.09078828 -0.15714122 -0.28438094 -0.068556145 -0.43244126 0.08286775
-0.07660371 -0.012967635 -0.14342682 0.36505944 -0.0012541525 -0.030260786 0.60272616 0.34569913
-0.12739687 -0.20938382 0.15525971 -0.24996608 0.0282655 -0.13354056 -0.22876628 -0.1068144
-0.16576345 -0.16182585 0.19181004 0.20723319 -0.11188692 -0.13250235 -0.13467845 -0.47001892
-0.045106847 -0.3076149 0.17244692 0.2047406 -0.24260493 0.057643417 -0.37190697 0.056314714
0.069170035 -0.19865277 0.49013656 -0.050626848 0.009006122 -0.11782146 -0.39701664 0.024529157
0.21098964 0.35254884 -0.6619825 0.12309579 -0.0864772 0.26273698 -0.21225211 0.11169122
-0.16710018 -0.13640033 0.22432475 0.14551564 -0.2592008 0.0038706013 0.37892497 0.14705566
-0.31167927 -0.2277002 0.17634605 -0.23382574 -0.09318309 0.04241123 -0.36748424 0.12541813
-0.13898428 0.12935118 -0.18500352 0.38269773 0.30439076 0.1452659 0.63828474 0.26622507
0.1453918 -0.010816256 0.3979355 0.06717896 -0.10105465 -0.09287903 0.089058176 0.24265172
-0.07660891 0.07656695 0.6536121 0.025721876 0.034358665 -0.27812865 -0.45699564 -0.24245353
-0.20990652 0.0034595951 -0.21578407 0.018481445 -0.24439053 0.08401617 -0.50805366 0.42085725
-0.31198236 -0.30959183 -0.58298856 -0.1830055 -0.1329739 -0.05155273 0.13788052 0.020406274
-0.11421952 -0.16782019 0.33614233 0.2892418 -0.056241002 -0.07227799 -0.10330661 0.017002229
0.33959603 -0.19507353 0.22909783 0.19136885 -0.30627382 -0.21558344 -0.095093966 -0.031419832
-0.0058536283 -0.15943217 -0.25193718 0.20326838 -0.21530646 -0.11374273 -0.6864923 -0.24672216
00000000: d115 363e f891 fcbd 79d0 5bbd d200 81be
00000010: e76e 3b3e 156f c8bd 049f c5bd 711f e7bd
00000020: ff92 fcbd b229 54bd 5867 deba bca8 f4bd
00000030: 0f41 1e3d 58ba bcbd 3240 d5bc 89c9 ed3d
00000040: d490 cdbd 1b00 30be a940 143f 271f dfbd
00000050: 456b 0e3e f763 0abd 1539 c03e 0279 bd3d
00000060: 9461 19be 9250 003e f5dd 2fbe 524e b23e
00000070: ca76 8dbd ab18 f63d 6cd8 853d 7652 ae3e
00000080: 9ae6 ebbc 0762 003e a5f5 04bb 7696 babd
00000090: 9c07 323e 5c5d 303e a017 0a3f 33ea 333e
000000a0: 9f2a 56bd cc74 2dbb 8d41 d2be 02ef 743e
000000b0: c60a 83bd 50ce 4ebe d785 babe 62e5 4d3e
000000c0: a72a 813e 3daa 863e 88c6 d2bc 76ef 703e
000000d0: 560a 363e 7ae9 d5bd 9013 f33e abf9 b63e
000000e0: 714f 81be c13a 16be fd22 ac3e 16ea 6c3e
000000f0: 6287 ce3c 1ba1 f8bd f218 ff3d 9252 96bc
00000100: d465 b93d 0094 02be 24d0 293e 69b4 3dbe
00000110: 2221 123e 16d7 053e 0c1d e1bd caec 07be
00000120: a0ce 0bbc 806e 8ebc 12d6 5cbe 8de3 cfbd
00000130: 7065 2a3d 5061 4dbe f88b c3bd 858b d73d
00000140: 7821 8b3e 6d10 1abe ebd0 1e3f b08e 953e
00000150: ae99 6c3e 1622 47be ea28 debe 5b1c 39be
00000160: 78ef 163e 2215 d0bc a489 e6be efa4 e73c
00000170: a003 263d e3e3 da3d 6eb8 08bf 9930 4f3c
00000180: fac9 263d 4259 aa3d f7fd e9bd fc03 b83d
00000190: ce6b 0ebe f9c1 8a3e b810 b63e 1809 953e
000001a0: 4303 2cbe 1649 5abe db0f 02ba 6606 4c3e
000001b0: 0e65 71be dbfb e5be aecb c4be 308c a8be
000001c0: fd5d 42bd fb1d cb3d 74b5 103f aa38 7c3e
000001d0: 518f 82bc 6394 5a3e b178 ce3d 5fc2 643e
000001e0: 8392 09be 8a90 783c 35ef b93d a1e9 20be
000001f0: 619a 91be 2a67 8cbd f168 ddbe 91b6 a93d
00000200: 68e2 9cbd 3476 54bc 7bde 12be 12e9 ba3e
00000210: 6062 a4ba 78e5 f7bc 434c 1a3f 7aff b03e
00000220: 5374 02be b668 56be 67fc 1e3e 1cf7 7fbe
00000230: 0d8d e73c dbbe 08be b541 6abe 82c1 dabd
00000240: e5bd 29be adb5 25be da69 443e f034 543e
00000250: f824 e5bd b2ae 07be 26e9 09be 52a6 f0be
00000260: f5c1 38bd b37f 9dbe ed95 303e 85a7 513e
00000270: 6d6d 78be 811b 6c3d 976a bebe 42aa 663d
00000280: 05a9 8d3d a26b 4bbe 2ef3 fa3e 195e 4fbd
00000290: 6a8e 133c 614c f1bd c445 cbbe 5ff1 c83c
000002a0: ab0d 583e 4881 b43e af77 29bf a519 fc3d
000002b0: f51a b1bd 7685 863e 9e58 59be 5ebe e43d
000002c0: 4f1c 2bbe 87ac 0bbe 63b5 653e 0d02 153e
000002d0: f8b5 84be eaa9 7d3b 7402 c23e c295 163e
000002e0: 6d94 9fbe 3e2a 69be 0f94 343e 0470 6fbe
000002f0: c7d6 bebd 66b7 2d3d e526 bcbe 9c6d 003e
00000300: e551 0ebe a374 043e 9071 3dbe f5f0 c33e
00000310: 1bd9 9b3e 96c0 143e a166 233f a74e 883e
00000320: 97e1 143e aa36 31bc 34be cb3e 1f95 893d
00000330: bef5 cebd 5c37 bebd 2264 b63d b179 783e
00000340: 22e5 9cbd 22cf 9c3d 1f53 273f afb6 d23c
00000350: acbb 0c3d e166 8ebe 55fb e9be bd45 78be
00000360: bcf1 56be 60ba 623b 80f6 5cbe 6666 973c
00000370: 8341 7abe ab10 ac3d ce0f 02bf 9a7a d73e
00000380: 27bc 9fbe d282 9ebe bd3e 15bf cb65 3bbe
00000390: 4f2a 08be f528 53bd 8d30 0d3e 0f2b a73c
000003a0: eceb e9bd 0ed9 2bbe d91a ac3e 8017 943e
000003b0: f75c 66bd 7c06 94bd 6a92 d3bd 4248 8b3c
000003c0: 88df ad3e 5bc1 47be 9f98 6a3e 32f6 433e
000003d0: eccf 9cbe e8c1 5cbe a0c0 c2bd 15b2 00bd
000003e0: cbcf bfbb 3042 23be e9fd 80be 9625 503e
000003f0: 4c79 5cbe f3f1 e8bd f6bd 2fbf bca4 7cbe

bias f4 [16]
-0.16873656 0.13904585 0.32334694 0.3080964 -0.18422732 -0.15385579 0.0029995614 -0.027298955
-0.05437367 -0.23636681 0.097256824 0.28542566 0.20556787 0.12674654 -0.16063982 -0.10045615
00000000: 47c9 2cbe 0962 0e3e bb8d a53e d0be 9d3e
00000010: 16a6 3cbe 5f8c 1dbe 4a94 443b 0fa2 dfbc
00000020: edb6 5ebd 240a 72be 962e c73d 5023 923e
00000030: 6280 523e d8c9 013e c47e 24be f4bb cdbd

weight f4 [32, 16]
0.036496393 -0.032411296 0.17573127 0.2333006 -0.14996147 -0.009447167 0.17642651 0.27985388
0.018886864 0.10390597 0.0048788604 0.37097615 0.29530486 0.21282691 0.23259185 0.27057302
-0.020711645 0.2815694 -0.08453466 0.091250665 -0.060054693 -0.17932688 0.27409044 0.12965815
-0.123202495 0.38693836 0.07753996 0.031398013 0.04531719 0.18344957 0.5146398 -0.08561843
0.14955582 0.29760063 0.12794857 -0.16562733 0.26586282 0.3613451 -0.052530676 -0.15583053
-0.2565781 0.22518228 0.3006755 0.18947282 -0.07248125 0.2734804 0.009699697 -0.14753827
-0.010205258 -0.13814041 -0.14455229 0.15267645 -0.087072134 -0.17248666 0.1804084 -0.042635746
-0.05244622 -0.17991698 -0.09889823 -0.28645 -0.261526 -0.19884738 0.052408908 0.23199281
-0.018420078 0.28378224 0.02253284 0.17516267 0.12032628 -0.26322407 0.43640077 -0.01608454
0.13824889 0.04917501 0.095072985 0.27036327 0.22494091 -0.22961524 0.5101987 0.08734342
0.24886438 -0.04454443 -0.12874046 -0.087390184 -0.05081567 -0.05021608 -0.02382633 -0.07155883
0.010527432 0.22465849 -0.012341946 -0.04229802 -0.20182252 -0.05986601 -0.09520614 0.10507473
-0.2106394 0.22685723 0.114090696 -0.11513375 0.175123 0.3099143 -0.33768773 0.26864067
-0.14344953 0.49117252 0.46278426 0.19855458 -0.09366704 0.28506204 0.024423309 0.383786
0.07602796 -0.24706665 -0.23144457 -0.078848034 0.18506652 -0.07825136 0.047521114 -0.027324438
0.035807252 -0.034193486 0.083244056 -0.030480623 -0.05425927 0.18061903 -0.09692991 -0.108579606
-0.028582182 -0.14126608 0.23252061 0.31136635 -0.086070634 -0.09445985 0.12734488 -0.025585715
0.29780295 0.419018 0.08337535 0.3227059 0.2712051 0.08030654 0.22238201 -0.0061583007
-0.18764713 0.06769667 0.35669664 0.021833483 -0.040493965 -0.17037234 0.21802019 -0.26726797
0.034849826 0.17606701 0.29340827 -0.33904174 0.13528903 -0.29741308 -0.17096536 -0.13784033
-0.007022184 0.020876348 -0.19012439 0.29361618 -0.10812387 0.087388955 0.2437059 0.41036105
-0.022064863 0.5137182 -0.107702084 0.27146876 0.298625 -0.14141707 0.22601768 0.08020043
-0.12623243 0.09704503 0.14583096 0.09199022 0.13135067 0.05744979 -0.055086896 0.12883176
-0.349442 0.25446054 0.18626395 -0.07977506 -0.117525965 0.12456292 -0.23149063 0.1808702
0.17260267 -0.11932929 0.12829915 0.3058553 -0.027281106 -0.18073513 0.34855482 0.21453613
-0.069756925 0.3796182 -0.26531336 0.32433045 0.03649238 0.2269661 0.019951092 0.28802103
-0.18731453 0.24344136 0.00010708475 0.34077555 0.074116185 0.21009466 0.21072629 0.3995017
0.23834062 0.22137453 -0.034083065 0.12266983 0.31481376 0.2795009 0.11133635 0.026478067
-0.06415153 0.19824788 0.09818707 0.2459282 0.06451315 0.24869797 0.28739107 0.16097371
0.12710144 0.4201627 0.29594475 -0.2121705 -0.14397788 -0.047061376 -0.00934516 0.2827057
0.16447105 -0.13646373 0.28245538 0.17854619 -0.039274607 0.111788444 0.13461751 0.14941928
0.39010477 0.20556143 -0.18735547 0.37550154 0.2923628 -0.19766478 0.3968476 0.056881104
00000000: 3e7d 153d b5c1 04bd e6f2 333e 5ae6 6e3e
00000010: 808f 19be 4ac8 1abc 27a9 343e 0249 8f3e
00000020: a0b8 9a3c a7cc d43d d9de 9f3b 96f0 bd3e
00000030: 3332 973e 4cef 593e 8f2c 6e3e 8c88 8a3e
00000040: 78ab a9bc dd29 903e 8220 adbd a1e1 ba3d
00000050: e9fb 75bd 77a1 37be 9555 8c3e 1bc5 043e
00000060: 9751 fcbd c91c c63e 45cd 9e3d 349b 003d
00000070: 859e 393d 34da 3b3e 6fbf 033f b758 afbd
00000080: 2925 193e 1c5f 983e f304 033e 369a 29be
00000090: 2c1f 883e 3a02 b93e 682a 57bd 0a92 1fbe
000000a0: 345e 83be 2f96 663e 24f2 993e 2a05 423e
000000b0: 0d71 94bd 9f05 8c3e 7aeb 1e3c 4614 17be
000000c0: f433 27bc ae74 0dbe 8405 14be 3757 1c3e
000000d0: e052 b2bd 58a0 30be fbbc 383e d2a2 2ebd
000000e0: d9d1 56bd 283c 38be 288b cabd 93a9 92be
000000f0: bce6 85be a69e 4bbe b9aa 563d 868f 6d3e
00000100: b4e5 96bc e84b 913e ca96 b83c d85d 333e
00000110: a06d f63d 4ec5 86be ec6f df3e bac3 83bc
00000120: 1e91 0d3e bc6b 493d a0b5 c23d 0e6d 8a3e
00000130: e956 663e 4220 6bbe 629c 023f 1be1 b23d
00000140: 4ed6 7e3e 3874 36bd 8ad4 03be a0f9 b2bd
00000150: 1824 50bd 60af 4dbd 702f c3bc 708d 92bd
00000160: 407b 2c3c e00c 663e e035 4abc b040 2dbd
00000170: 90aa 4ebe 1036 75bd 70fb c2bd 6c31 d73d
00000180: dbb1 57be 434d 683e 62a8 e93d 3ecb ebbd
00000190: 7253 333e 16ad 9e3e 68e5 acbe 458b 893e
000001a0: 6fe4 12be f77a fb3e 0ff2 ec3e e451 4b3e
000001b0: 81d4 bfbd a7f3 913e 6413 c83c 997f c43e
000001c0: 8cb4 9b3d 0aff 7cbe ceff 6cbe 147b a1bd
000001d0: 1482 3d3e 4042 a0bd 80a5 423d 80d7 dfbc
000001e0: a0aa 123d 780e 0cbd dc7b aa3d 80b2 f9bc
000001f0: f83e 5ebd 32f4 383e 3083 c6bd fc5e debd
00000200: 2e25 eabc 0ea8 10be e219 6e3e 696b 9f3e
00000210: cd45 b0bd 2a74 c1bd b266 023e 2299 d1bc
00000220: a179 983e 8789 d63e b2c0 aa3d b539 a53e
00000230: 65db 8a3e c177 a43d 1cb8 633e 92cb c9bb
00000240: 9226 40be 8da4 8a3d f1a0 b63e 22dc b23c
00000250: 00dd 25bd 1676 2ebe af40 5f3e 59d7 88be
00000260: b1be 0e3d e94a 343e 9c39 963e e196 adbe
00000270: 3589 0a3e 8746 98be 8b11 2fbe 0426 0dbe
00000280: 591a e6bb e004 ab3c f8af 42be dc54 963e
00000290: 0c70 ddbd fbf8 b23d 0a8e 793e d81a d23e
000002a0: 5fc1 b4bc 0983 033f e992 dcbd f4fd 8a3e
000002b0: 60e5 983e a3cf 10be 2e71 673e 1f40 a43d
000002c0: 1343 01be 8bbf c63d b654 153e 5e65 bc3d
000002d0: ca80 063e 7950 6b3d cca2 61bd 79ec 033e
000002e0: 10ea b2be a748 823e fabb 3e3e 1b61 a3bd
000002f0: 74b1 f0bd d81a ff3d e10b 6dbe 0a36 393e
00000300: c1be 303e ea62 f4bd da60 033e 1199 9c3e
00000310: a07c dfbc a112 39be c775 b23e 5caf 5b3e
00000320: b8dc 8ebd 515d c23e 27d7 87be a40e a63e
00000330: 0979 153d cd69 683e 7970 a33c 7e77 933e
00000340: 61cf 3fbe b148 793e b092 e038 227a ae3e
00000350: 3aca 973d 0e23 573e a2c8 573e 7d8b cc3e
00000360: 900f 743e 01b0 623e af9a 0bbd 523a fb3d
00000370: 452f a13e be1a 8f3e 5004 e43d 88e8 d83c
00000380: e161 83bd 7e01 4b3e 4d16 c93d 9ad4 7b3e
00000390: 781f 843d aeaa 7e3e ec24 933e 4bd6 243e
000003a0: e126 023e 911f d73e 1286 973e 3943 59be
000003b0: f06e 13be 6ec3 40bd 711c 19bc cdbe 903e
000003c0: 196b 283e 26bd 0bbe fe9d 903e d0d4 363e
000003d0: 69de 20bd 57f1 e43d 2cd9 093e 5e01 193e
000003e0: d0bb c73e b27e 523e 1dda 3fbe bd41 c03e
000003f0: 94b0 953e a368 4abe 9c2f cb3e 29fc 683d

bias f4 [32]
0.33527774 0.114735104 0.21917059 -0.13875233 -0.07777571 0.077043265 0.27365428 0.09039533
0.2630163 -0.029374747 -0.05134056 0.066138715 -0.10995743 0.1121661 -0.025256755 0.001315982
0.11136107 -0.035482556 0.2992316 0.28343812 -0.031377207 -0.14948456 0.09047309 0.33780298
0.15160969 0.17135006 -0.13334352 -0.18941978 0.13191706 0.17447892 -0.117242485 0.032662027
00000000: 86a9 ab3e 3dfa ea3d 416e 603e 1715 0ebe
00000010: df48 9fbd dcc8 9d3d 6a1c 8c3e 3021 b93d
00000020: 13aa 863e 4fa3 f0bc 7b4a 52bd bc73 873d
00000030: 5c31 e1bd 57b7 e53d 41e7 cebc 077d ac3a
00000040: 4611 e43d 2856 11bd e234 993e cd1e 913e
00000050: 6385 00bd 7b12 19be f549 b93d 83f4 ac3e
00000060: 923f 1b3e 6476 2f3e 348b 08be 42f7 41be
00000070: 4415 073e 9aaa 323e d41c f0bd 9ec8 053d

weight f4 [64, 32]
-0.1960828 -0.135404 0.066500865 -0.154759 -0.058254495 -0.039456233 -0.14689857 0.09407303
0.11095682 0.010546274 -0.16559644 -0.13630837 0.011147694 -0.19744594 0.094872974 -0.13781518
0.08038179 0.05833782 0.043296076 -0.053483088 -0.17131424 -0.011147761 0.14066167 -0.013027059
-0.03827332 -0.02177514 -0.08439347 0.15845156 0.1673016 0.113765575 -0.16590059 0.0484628
-0.19600743 -0.13817291 -0.022548484 0.011118052 0.034576803 0.09390796 -0.10729145 -0.1673259
-0.18653616 -0.0714872 -0.18406545 -0.070229925 0.095053956 0.07859079 -0.13391246 0.08290875
-0.09602246 -0.10326672 -0.16745684 -0.117284596 0.013234484 0.11908588 0.1210229 -0.120698005
-0.07267705 0.05569023 -0.07160221 -0.1657301 -0.09131007 0.07172767 -0.09743411 -0.13181171
-0.15043984 -0.103794254 -0.110951975 0.07258865 -0.14653787 -0.010460827 0.034514982 -0.16612996
-0.12906015 0.056909014 -0.08314745 0.049985636 0.05625578 -0.19273645 -0.084158234 0.010919447
0.16003577 0.11192741 0.05483839 -0.1449448 -0.09923465 0.12634942 -0.19869985 0.11375293
-0.06963964 -0.12697972 -0.021184515 -0.0386448 0.17575327 0.040977485 -0.09262783 0.10655646
-0.0045805955 0.11408249 -0.19753326 -0.11577012 -0.10811908 -0.032764666 -0.08240917 0.012735576
-0.023727922 -0.13115732 0.12222031 0.104910046 -0.029656185 -0.094499394 0.07433432 -0.14819893
0.11064123 -0.108241804 0.10710431 -0.118955225 -0.18849549 -0.1358879 0.102586195 -0.021970896
0.035294063 0.0026779082 -0.1766775 -0.044462416 0.001442987 -0.13804048 0.14453356 0.07613004
0.023688518 0.2936626 -0.1929792 0.010262043 0.22961554 -0.010229904 -0.14249721 -0.12071875
-0.020667344 0.1774482 -0.06602918 0.09937492 -0.048375018 0.17645204 0.2401182 0.13965195
0.18129708 0.05246093 0.33183953 -0.112161644 0.30498704 0.23303421 0.023210106 0.2065681
-0.10121185 0.062823854 0.2574611 -0.021984344 0.0038458297 0.22853202 -0.092928596 0.11168312
0.025873406 0.13599284 0.2879352 0.10066718 0.05858057 -0.00966954 0.14900696 0.06559683
-0.115226805 0.1664857 -0.22660175 0.06487506 0.03140867 -0.15320298 0.09483185 -0.26343974
-0.15413609 -0.23056097 0.20442729 0.26246816 -0.05526466 0.09932838 0.15126364 0.24333283
0.081001215 -0.123754054 0.06645563 0.09778553 0.16911761 0.15680604 0.17555924 0.0049810004
-0.11012455 -0.16960043 -0.1383596 -0.1151887 -0.06720612 0.13020046 0.08944274 0.12824702
0.11367105 -0.09730084 -0.18024802 0.12692034 0.101376645 -0.06797937 -0.016986381 -0.03462577
-0.20155995 0.06868882 -0.17244194 -0.020889327 -0.070708714 0.10935881 -0.05868471 -0.1127958
0.13644981 -0.0076288804 0.053470906 -0.11125166 0.1679203 0.12957801 0.14123148 0.0051476895
0.025763357 -0.029187072 -0.080518454 -0.027109569 -0.06756076 -0.082844436 -0.14763105 -0.06711831
-0.017913422 -0.13651979 -0.099105425 0.15069556 -0.13814719 -0.08250408 0.16351669 0.17108563
0.08192669 0.022197649 0.11841966 0.045118347 -0.10313746 0.09593185 -0.08214524 -0.031195432
-0.14743488 -0.1189391 -0.13823949 -0.07536761 -0.013381835 0.0135688195 -0.028019857 -0.024505336
00000000: eec9 48be 59a7 0abe 9b31 883d 2579 1ebe
00000010: 449c 6ebd dc9c 21bd 946c 16be 5ca9 c03d
00000020: 543d e33d 47ca 2c3c 1d92 29be 6c94 0bbe
00000030: d1a4 363c 452f 4abe c34c c23d 6c1f 0dbe
00000040: 359f a43d a3f3 6e3d 3a57 313d 1511 5bbd
00000050: 006d 2fbe 19a5 36bc 9d09 103e 726f 55bc
00000060: 7cc4 1cbd c761 b2bc 7cd6 acbd 2041 223e
00000070: 1c51 2b3e edfd e83d d8e1 29be ee80 463d
00000080: 2cb6 48be 337d 0dbe 99b7 b8bc 7d28 363c
00000090: 68a0 0d3d d152 c03d 9fbb dbbd 7b57 2bbe
000000a0: 5603 3fbe e267 92bd a77b 3cbe b5d4 8fbd
000000b0: a6ab c23d 35f4 a03d 5920 09be 10cc a93d
000000c0: 6ca7 c4bd 817d d3bd ce79 2bbe e832 f0bd
000000d0: 73d5 583c 4ce3 f33d dbda f73d 8430 f7bd
000000e0: b5d7 94bd 701b 643d 2ea4 92bd 27b5 29be
000000f0: c600 bbbd f5e5 923d 898b c7bd a6f9 06be
00000100: e70c 1abe 1592 d4bd ca3a e3bd 5ca9 943d
00000110: 060e 16be e363 2bbc 955f 0d3d f91d 2abe
00000120: 5828 04be 6d19 693d 3649 aabd bdbd 4c3d
00000130: 766c 663d b45c 45be 275b acbd 7be7 323c
00000140: 6be0 233e 333a e53d 389e 603d 696c 14be
00000150: 893b cbbd be61 013e f977 4bbe 4cf7 e83d
00000160: 3a9f 8ebd f906 02be 268b adbc 034a 1ebd
00000170: aaf8 333e 02d8 273d a9b3 bdbd 463a da3d
00000180: d218 96bb 15a4 e93d 2946 4abe e218 edbd
00000190: 896d ddbd 3e34 06bd 24c6 a8bd e1a8 503c
000001a0: 0f61 c2bc 1b4e 06be a44e fa3d 14db d63d
000001b0: 87f1 f2bc e688 c1bd 983c 983d 76c1 17be
000001c0: df97 e23d e1ad ddbd 8159 db3d cc9e f3bd
000001d0: f604 41be 3326 0bbe b618 d23d 4ffc b3bc
000001e0: 8290 103d d87f 2f3b f2ea 34be 391e 36bd
000001f0: 9c22 bd3a 7c5a 0dbe 9b00 143e 11ea 9b3d
00000200: 6c0e c23c f25a 963e 579c 45be 2122 283c
00000210: 5620 6b3e 549b 27bc caea 11be 643b f7bd
00000220: 904e a9bc fbb4 353e 4f3a 87bd 1485 cb3d
00000230: e224 46bd d8af 343e 8ce1 753e ec00 0f3e
00000240: f1a5 393e 46e1 563d dfe6 a93e 01b5 e5bd
00000250: 4327 9c3e 85a0 6e3e 1f23 be3c 9786 533e
00000260: 2948 cfbd cba9 803d f1d1 833e 8318 b4bc
00000270: 510a 7c3b 4c04 6a3e 5951 bebd 1fba e43d
00000280: 77f4 d33c b541 0b3e 3e6c 933e 982a ce3d
00000290: 2ef2 6f3d fe6c 1ebc 4895 183e a157 863d
000002a0: 08fc ebbd 3a7b 2a3e 4a0a 68be 37dd 843d
000002b0: 61a6 003d 3ee1 1cbe 3337 c23d 93e1 86be
000002c0: dad5 1dbe 2d18 6cbe 6355 513e 3a62 863e
000002d0: 325d 62bd ad6c cb3d dbe4 1a3e 3e2c 793e
000002e0: f7e3 a53d c472 fdbd e419 883d c843 c83d
000002f0: 2b2d 2d3e c391 203e cdc5 333e a937 a33b
00000300: fb88 e1bd bcab 2dbe 24ae 0dbe 0ee8 ebbd
00000310: 5da3 89bd 4553 053e c12d b73d 3053 033e
00000320: 5ecc e83d aa45 c7bd f092 38be 68f7 013e
00000330: 8f9e cf3d c538 8bbd 0627 8bbc c0d3 0dbd
00000340: bb65 4ebe b9ac 8c3d 9f94 30be 1820 abbc
00000350: bbcf 90bd 83f7 df3d 615f 70bd 7c01 e7bd
00000360: 80b9 0b3e b0fb f9bb 4f04 5b3d e9d7 e3bd
00000370: 4df3 2b3e 19b0 043e fc9e 103e f3ad a83b
00000380: ad0d d33c ba19 efbc dce6 a4bd e314 debc
00000390: 4c5d 8abd 58aa a9bd 982c 17be 5375 89bd
000003a0: 2bbf 92bc d8cb 0bbe c9f7 cabd f04f 1a3e
000003b0: 7576 0dbe e6f7 a8bd eb70 273e 1231 2f3e
000003c0: 2ec9 a73d d8d7 b53c 0286 f23d 04ce 383d
000003d0: bc39 d3bd eb77 c43d c33b a8bd 908d ffbc
000003e0: 2bf9 16be 5896 f3bd a78e 0dbe 555a 9abd
000003f0: 7c3f 5bbc c14f 5e3c e689 e5bc 6abf c8bc

bias f4 [64]
0.05013039 -0.024713077 -0.008142911 0.12524113 0.15944427 0.09006919 -0.033919025 -0.10505736
0.07163456 0.24181235 0.17610648 0.22053637 0.102200836 0.08148465 -0.08964569 0.033496663
-0.119154446 0.004258956 0.28025195 -0.04007455 -0.10660185 -0.13440588 0.06849189 -0.043423966
0.09733898 -0.032453675 0.019153232 0.076395795 0.11054767 0.121463306 0.1589774 0.044046838
0.04576054 -0.23044722 0.020483522 -0.018095559 0.17088869 0.13471362 0.034743316 0.092717126
0.17275558 -0.15945417 -0.1551457 -0.09351989 0.19019805 0.2885754 -0.075436324 0.15167807
0.120961614 -0.046138518 0.14335252 -0.1907136 0.119039856 0.026696762 -0.09943103 0.018132797
-0.043308437 0.021995716 0.009375936 -0.07340668 -0.1368543 -0.0759665 0.24854876 0.079534054
00000000: 8655 4d3d 1473 cabc d869 05bc 363f 003e
00000010: 5c45 233e 3276 b83d adee 0abd 5028 d7bd
00000020: 24b5 923d a89d 773e 4255 343e 49d4 613e
00000030: ac4e d13d 6de1 a63d 2998 b7bd cc33 093d
00000040: 3f07 f4bd b68e 8b3b 2f7d 8f3e 3625 24bd
00000050: 1252 dabd b2a1 09be 7a45 8c3d 54dd 31bd
00000060: a959 c73d 25ee 04bd 3de7 9c3c 6675 9c3d
00000070: d166 e23d c1c1 f83d f9ca 223e 756a 343d
00000080: 676f 3b3d 5bfa 6bbe 0fcd a73c 233d 94bc
00000090: 72fd 2e3e 5ef2 093e 024f 0e3d 7ae2 bd3d
000000a0: d7e6 303e f447 23be 84de 1ebe 5b87 bfbd
000000b0: 47c3 423e 28c0 933e 5c7e 9abd 7f51 1b3e
000000c0: b9ba f73d befb 3cbd 01cb 123e 6d4a 43be
000000d0: 2bcb f33d 2bb3 da3c 7fa2 cbbd 3b8b 943c
000000e0: 3064 31bd 5c30 b43c 879d 193c 3e56 96bd
000000f0: 8923 0cbe 5394 9bbd 9183 7e3e c0e2 a23d

weight f4 [4, 64]
0.073444456 -0.021806682 -0.11974791 0.03462568 -0.032552652 -0.33620366 -0.097312704 0.050954193
0.033608973 -0.15313102 -0.3410803 0.02731824 -0.05785452 0.059876245 -0.16161908 0.043137543
0.03503093 -0.14247745 0.055027585 0.11483914 -0.072024465 -0.1198317 -0.0963797 0.0076143774
0.02814931 0.026387 -0.45506853 0.08905041 -0.20051625 -0.16670278 -0.3379792 -0.19169325
0.015890343 0.033084325 -0.40661934 0.036765546 0.04463624 0.0076637194 -0.39544654 -0.32304507
-0.1395184 0.0029288596 0.113083795 -0.21401307 -0.19239679 -0.09552641 0.026481593 -0.39721918
-0.10147351 -0.16060233 0.012044281 -0.07604513 -0.19651702 -0.10748348 0.0061034523 -0.055672124
-0.11957115 -0.13622764 -0.13418004 -0.093087435 0.07958988 -0.07585945 -0.2034433 0.07202473
0.090075165 -0.018047698 0.011170677 0.06048556 -0.26128456 -0.1587842 -0.04022938 0.1079178
-0.24754527 -0.18128893 0.075978726 -0.337828 -0.004085809 0.054003805 0.04163715 -0.03499558
-0.06681919 -0.26262274 -0.3255891 0.03308712 -0.055077985 0.064755015 -0.23441596 0.084941804
-0.0368787 0.027910858 0.042770512 0.01349844 -0.16825783 -0.0650985 -0.0058874777 -0.21985397
0.05048262 -0.05684763 -0.027162759 0.05042416 -0.32324448 -0.19185159 0.029409895 -0.044995654
-0.110057704 -0.02034307 -0.11591752 -0.1461909 -0.24036117 -0.27504575 0.0009402413 0.03521006
-0.21004328 -0.02876981 -0.29689452 0.00929536 -0.072163306 -0.29376572 0.038305387 -0.111973196
0.11717677 -0.006796333 -0.12544265 -0.08805904 0.06711574 0.080594614 -0.24913044 -0.04896942
-0.13876867 -0.113863915 0.07843569 -0.042136304 -0.023612034 0.15892145 -0.05204974 -0.0918612
-0.15685976 -0.104799494 -0.172608 0.07059965 -0.00029593706 0.06598669 0.036143713 0.07505963
-0.0074217804 -0.09225033 -0.08654188 -0.015883252 0.05407384 -0.043964308 0.039376803 0.09122831
-0.060784247 -0.0816533 0.25800756 -0.008265734 -0.07046282 0.03693522 -0.0044139335 -0.025246525
-0.05942629 0.06335192 0.14947666 -0.1221403 -0.13883927 -0.105125956 0.14686562 0.14866689
-0.13620307 -0.06519915 0.07376203 0.07893245 -0.13835089 -0.12024493 -0.015458719 0.061750945
-0.069858216 -0.30523312 -0.10058727 0.06976223 -0.12491454 -0.09964798 -0.096429564 0.026018053
0.075861245 0.071280025 -0.16634466 -0.07984949 0.11377613 0.08580499 -0.14244936 -0.0995993
-0.051397372 -0.07579262 -0.014280245 -0.13009107 -0.06854234 -0.028590014 -0.070046626 0.036843702
-0.017450757 0.039840378 0.33207396 -0.1006581 -0.08992049 -0.03777117 0.012679856 -0.0067821923
-0.041100856 0.021711485 -0.038646072 -0.119065255 0.05258599 -0.03181125 0.018819941 0.09001537
0.040098272 -0.0057934653 0.11787515 0.12350248 -0.07394604 -0.13848592 0.03188948 -0.047139574
-0.088505335 0.004212567 -0.14755775 -0.025030538 -0.09088234 -0.08107806 -0.10562748 0.16357182
-0.105919324 -0.13965955 0.05697684 -9.881216e-06 -0.12834582 -0.1449719 -0.041711476 0.08645232
-0.07893914 0.35417968 -0.15506999 0.02586902 -0.17800418 -0.11323084 -0.0103896195 -0.050609276
-0.0944629 -0.11896419 -0.05073574 -0.1787974 0.01938735 -0.023450764 0.045357656 0.043716375
00000000: 0c6a 963d eda3 b2bc 643e f5bd a8d3 0d3d
00000010: ee55 05bd e322 acbe e24b c7bd 58b5 503d
00000020: 90a9 093d 61ce 1cbe 14a2 aebe 80ca df3c
00000030: dcf8 6cbd cb40 753d 797f 25be feb0 303d
00000040: 987c 0f3d 9ce5 11be 9b64 613d c830 eb3d
00000050: 9081 93bd 536a f5bd b862 c5bd 0782 f93b
00000060: 6299 e63c 8d29 d83c befe e8be 1060 b63d
00000070: 2254 4dbe 22b4 2abe 9c0b adbe 3c4b 44be
00000080: 772c 823c 6e83 073d 6930 d0be 7897 163d
00000090: 7dd4 363d f01f fb3b f877 cabe 2a66 a5be
000000a0: e9dd 0ebe 1cf2 3f3b 7a98 e73d 3e26 5bbe
000000b0: aa03 45be 5aa3 c3bd edef d83c 5060 cbbe
000000c0: 58d1 cfbd f074 24be 6055 453c 8dbd 9bbd
000000d0: c23b 49be 4c20 dcbd 78ff c73b 7408 64bd
000000e0: b8e1 f4bd 427f 0bbe 7e66 09be a0a4 bebd
000000f0: 0500 a33d 335c 9bbd 7153 50be b481 933d
00000100: 5479 b83d c4d8 93bc 3705 373c b5bf 773d
00000110: 17c7 85be 5398 22be 90c7 24bd 0204 dd3d
00000120: 827c 7dbe cea3 39be bc9a 9b3d cbf7 acbe
00000130: 40e2 85bb 1833 5d3d b78b 2a3d 8657 0fbd
00000140: 80d8 88bd 7d76 86be 9db3 a6be 5c86 073d
00000150: 7499 61bd 479e 843d bd0a 70be f8f5 ad3d
00000160: 1f0e 17bd 50a5 e43c 2230 2f3d 9028 5d3c
00000170: c84b 2cbe 5d52 85bd beeb c0bb 6621 61be
00000180: ddc6 4e3d 0fd9 68bd 6f84 debc 9089 4e3d
00000190: 4d80 a5be be74 44be 05ed f03c 5d4d 38bd
000001a0: ef65 e1bd 83a6 a6bc 2a66 edbd 11b3 15be
000001b0: 3d21 76be ccd2 8cbe 877a 763a 6d38 103d
000001c0: 9615 57be aaae ebbc 8f02 98be 914b 183c
000001d0: 5bca 93bd 7668 96be 1ce6 1c3d 3452 e5bd
000001e0: 60fa ef3d c6b3 debb 0a74 00be 4c58 b4bd
000001f0: fa73 893d ca0e a53d 0d1c 7fbe 2994 48bd
00000200: 6019 0ebe 7c31 e9bd e4a2 a03d 1e97 2cbd
00000210: 066e c1bc 4ebc 223e 1c32 55bd ba21 bcbd
00000220: d89f 20be 1ea1 d6bd 27c0 30be 8d96 903d
00000230: 0028 9bb9 0824 873d 6e0b 143d ddb8 993d
00000240: 6832 f3bb beed bcbd df3c b1bd 981d 82bc
00000250: 887c 5d3d eb13 34bd 9249 213d e8d5 ba3d
00000260: e7f8 78bd d839 a7bd 9119 843e 006d 07bc
00000270: d04e 90bd 6349 173d c2a2 90bb cdd1 cebc
00000280: fb68 73bd a7be 813d 6910 193e b224 fabd
00000290: e22b 0ebe 474c d7bd f163 163e 223c 183e
000002a0: d178 0bbe 2287 85bd 8c10 973d 56a7 a13d
000002b0: dbab 0dbe f942 f6bd 9146 7dbc 8fee 7c3d
000002c0: d311 8fbd 8447 9cbe b300 cebd 80df 8e3d
000002d0: 32d3 ffbd 3d14 ccbd dd7c c5bd d023 d53c
000002e0: 245d 9b3d 43fb 913d 4156 2abe 2188 a3bd
000002f0: 7603 e93d 87ba af3d 3fde 11be b8fa cbbd
00000300: 0d86 52bd 2939 9bbd b0f7 69bc 9836 05be
00000310: ed5f 8cbd 9b35 eabc 9b74 8fbd 6ce9 163d
00000320: e4f4 8ebc aa2f 233d 9905 aa3e d525 cebd
00000330: 3c28 b8bd f1b5 1abd 2cbf 4f3c 273d debb
00000340: 5f59 28bd 49dc b13c 584b 1ebd 7cd8 f3bd
00000350: 6864 573d 834c 02bd 472c 9a3c fa59 b83d
00000360: 163e 243d 1cd7 bdbb 8768 f13d deee fc3d
00000370: 0571 97bd 41cf 0dbe 8b9e 023d 6d15 41bd
00000380: 4942 b5bd 9309 8a3b 6119 17be d80c cdbc
00000390: 8520 babd 410c a6bd 3853 d8bd 5f7f 273e
000003a0: 3bec d8bd ea02 0fbe 8c60 693d 80c7 25b7
000003b0: 166d 03be 8473 14be a7d9 2abd ea0d b13d
000003c0: d8aa a1bd 0a57 b53e abca 1ebe 44eb d33c
000003d0: ba46 36be 92e5 e7bd 3939 2abc ac4b 4fbd
000003e0: c475 c1bd 7fa3 f3bd 48d0 4fbd aa16 37be
000003f0: 38d2 9e3c d11b c0bc f3c8 393d f10f 333d

bias f4 [4]
-0.14760074 -0.10549261 0.057301603 -0.043894213
00000000: a624 17be 820c d8bd 16b5 6a3d 6bca 33bd
