saves/kevin/kevin_nn_2025-02-22_17-08-14.pt (torch, 17468 bytes, 8 tensors)

weight f4 [16, 16]
00000000: 6097 fdbd 5c1b 02be 7422 c2bd 52e6 26be
00000010: 00e5 f0bd cafe 7dbe fe66 71be 4fda 89be
00000020: 60ad cbbd 263e 833d 8036 27bc 1647 f9bd
00000030: 1012 c4bc ce18 01be ca10 09be aaa2 d53d
00000040: ae0b a2bc 4b02 d6be 2688 2e3f 3117 5ebd
00000050: 9c28 1abe b6bf f4bd e47f 793d 8232 ce3e
00000060: 37ac 81be def2 1fbe 4378 96bf c30e 5a3d
00000070: 9b87 02bd ea4c 7dbf bf86 c1be 9910 27bf
00000080: c2ef a13c 7995 183d 4e8e a93e 9bc6 553e
00000090: 2f78 b2bd 819a 5e3d 3468 ccbe 721f 3ebe
000000a0: 67ae 82bd cd3e b1be b382 133e 6f5f 11bf
000000b0: 46c8 a93c f081 bf3c 4e5d ebbe eae8 883d
000000c0: bc33 ccbe fe09 38be 66cf a23f 3f75 a83d
000000d0: c094 413d ecae b13d 78dd 3cbf bc5b b2bc
000000e0: 526a c7bd e353 ec3e fbd6 8dbf 5e4c 393d
000000f0: 5b46 b43d 3f5b e4bd 4582 1dbe c435 963d
00000100: ff85 0c3b dadf dbbe d95b 163e 1a25 423d
00000110: da84 d3bd 7e53 3ebc 20ba e3be 9165 693d
00000120: 8e0b 25bc 35c0 963e d732 883e 20e9 fb3d
00000130: 2ced 44bd 2ce7 813e e00a a2bf b1d5 9ebd
00000140: 9854 2fbe 47a8 a3be a0e8 643c 3f93 cf3c
00000150: 1ab5 273e f968 ab3c e53e 1d3f 076d 4e3d
00000160: 121b 673e 7c19 273c 376e fb3e 00ac c83e
00000170: d01b 6cbd d4e3 773e 7d6a 78bf 1fcb cb3e
00000180: 42c1 cfbc 19aa 463d cfcc 84bf a79c b33e
00000190: 0837 d7be 5408 a13d 24be 243f 9f28 193e
000001a0: f8f0 7ebe 0fe7 b4bf a095 883f b6c6 4ebe
000001b0: f7d2 02bf a8e0 833e f97e 99bf 80dd e03d
000001c0: eac2 8f3d b639 5c3b f35f 173f 4d60 6d3e
000001d0: c8ac fb39 75dc 2f3d 157b c7be b05f 58be
000001e0: 33c6 7f3d b703 2e3d 85bc cdbe d932 d33d
000001f0: b439 24be 5998 913e 46fe e33e 1523 953e
00000200: c7c5 893e 92ad cf3b e11c a1bd 8d2f 293e
00000210: f1d6 3cbd dd3e 65bd ca87 8bbd c9f4 66be
00000220: 75ab 343e 77cb 493e 2a58 a5bd 477f 0cbe
00000230: 2181 b3bd a808 af3e 609b ed3d b83b a43e
00000240: f5d6 913c d2e7 073d 3bb2 933f ba3a 09bd
00000250: 371c 02ba 5c72 90bc cf48 f4be 2396 1ebe
00000260: 3422 3f3e c1b8 213f 97b9 f4bf 373d cc3e
00000270: 86c3 34be 3d0b 4d3e 22fd 263e 0309 013f
00000280: 356e 183e 457b 56bd 2f11 c63d 6efa c63d
00000290: cf23 bcbc 303a e7bd 49ca c23e 144e f6bd
000002a0: fe74 e63d ad65 6dbf a914 dbbe 4d57 fcbe
000002b0: c076 20be ee22 283e 21ab 90bf cd78 9c3e
000002c0: aec0 3abe e450 6f3c acf1 003f 42e2 dd3e
000002d0: 00fc a6be 7102 3bbe 652a aabe 723c 103d
000002e0: 6764 203c 42d1 fd3d be60 59bf b5ee 503e
000002f0: 3718 4ebe 43e7 3bbf 83a3 8cbe 8d0f a8be
00000300: 128e 0bbe 4693 9e3d 8295 6e3e 963a 913d
00000310: 6c76 69be 2014 31bc ea6d e53c 54e0 01be
00000320: e039 913d 5ed8 2c3e 3e8e 6bbe 5549 65be
00000330: cc71 aa3d d07f 15bd 005f 11bc 9381 80be
00000340: 9c52 95be aac6 9bbd fdb1 45bf 0eef df3e
00000350: 79f6 d0ba 5a65 b5bd f94a 123f 97be f93e
00000360: 077e e13d d9aa fdbe 0ab6 1b3f 1255 a53c
00000370: b869 b5be e8fa a4be f0c4 28bf dfed 02bd
00000380: c39f 0b3c d010 2a3d 0427 983f ea0f 823c
00000390: 9af9 f8bd b42c 45bd 969c e1be 6b7a bbbd
000003a0: 8d8b d83d 1779 683f 6258 09bf 75be 673e
000003b0: 1447 953c cd10 903e 498f 68bf fbb6 c73e
000003c0: 710b c8be ed5f 2abe b79d 623f 187b 9abd
000003d0: 9e2f 56be 1a32 4a3e 24de 92be 127e ed3e
000003e0: b4f6 a8be 64b5 793e 9f0f d0bf 46f2 633e
000003f0: 4205 9b3d 0cba 91bf 3992 293f 8e1e 26bf
-0.12382388 -0.1270575 -0.09479228 -0.16298798 -0.11762428 -0.24804226 -0.23574445 -0.2692437
-0.09945178 0.06408338 -0.010205865 -0.12171762 -0.023934394 -0.12607118 -0.13385311 0.10431416
-0.01978096 -0.41798624 0.68176496 -0.054221336 -0.15054554 -0.119506285 0.06091298 0.4027291
-0.25326702 -0.1561999 -1.1755451 0.053236734 -0.031867605 -0.98945487 -0.37798116 -0.652597
0.019767646 0.037251923 0.33116382 0.20876543 -0.087143295 0.054346565 -0.3992325 -0.18566683
-0.06380921 -0.34618226 0.14405327 -0.56786245 0.02072538 0.023377389 -0.45969623 0.0668505
-0.3988322 -0.17972562 1.2719543 0.08225488 0.047261 0.08675942 -0.73775434 -0.021772258
-0.09737076 0.4615775 -1.1081232 0.045238845 0.08802482 -0.11150216 -0.15381725 0.07334474
0.0021442173 -0.42944223 0.14683475 0.047398664 -0.10328074 -0.011616586 -0.4447794 0.056981627
-0.010073556 0.29443517 0.26601288 0.123003244 -0.048077747 0.25371683 -1.2659569 -0.07755602
-0.17122114 -0.31964323 0.013971478 0.025338767 0.16377679 0.020924078 0.61424094 0.050396945
0.2256892 0.010198947 0.49107525 0.39193726 -0.05764371 0.24208003 -0.9703749 0.39803407
-0.025360707 0.04850206 -1.0375003 0.35080454 -0.42034173 0.078629166 0.6435263 0.14956902
-0.2489661 -1.4133013 1.0670662 -0.2019299 -0.51103157 0.25757337 -1.1991874 0.10979748
0.07019599 0.0033603734 0.5913078 0.23181267 0.00048003183 0.042934854 -0.38961092 -0.21130252
0.062444877 0.04248401 -0.4018289 0.10312433 -0.16037637 0.28436545 0.44529933 0.29128328
0.26908705 0.00633783 -0.07866836 0.16522045 -0.04610342 -0.055968154 -0.06813009 -0.22554316
0.1764353 0.19706522 -0.080734566 -0.13720427 -0.08764864 0.34186292 0.11601901 0.32076812
0.017802695 0.033180065 1.1538767 -0.03350327 -0.0004963311 -0.017632656 -0.477118 -0.1548696
0.18665391 0.6317254 -1.9119138 0.39890453 -0.17652711 0.20023818 0.163075 0.50404376
0.1488579 -0.052363653 0.09671246 0.097157344 -0.022966294 -0.11290395 0.38044956 -0.12026611
0.11252783 -0.9273327 -0.427892 -0.49285355 -0.156703 0.16419575 -1.1302224 0.30560914
-0.18237564 0.014606688 0.5036876 0.43336684 -0.32614136 -0.1826265 -0.3323547 0.035213895
0.009789563 0.123934284 -0.8491324 0.2040356 -0.20126425 -0.7339975 -0.274685 -0.32824364
-0.13628414 0.07742934 0.2329922 0.070912525 -0.2279908 -0.010808021 0.028006513 -0.1268323
0.07091117 0.16879413 -0.2300348 -0.22391255 0.08322486 -0.036498845 -0.008872747 -0.25098857
-0.29164588 -0.076062515 -0.77224714 0.43737072 -0.0015942595 -0.08857222 0.5714565 0.4877822
0.11010366 -0.4954441 0.60824645 0.020182166 -0.3543222 -0.32222676 -0.659255 -0.031965133
0.008521977 0.04151994 1.1886907 0.015876729 -0.12156983 -0.048138335 -0.44064778 -0.09154209
0.10573492 0.9080977 -0.53650486 0.22631247 0.01822237 0.28137818 -0.90843636 0.3900679
-0.3907123 -0.16638155 0.88521904 -0.075430095 -0.20916602 0.19745675 -0.28685105 0.46385247
-0.3300072 0.24385601 -1.6254767 0.22260389 0.07569362 -1.1384902 0.66238743 -0.6489037

bias f4 [16]
00000000: e6ad 47be 1b39 91bd 44b6 5c3e 80dd df3d
00000010: b96e 8cbd 413e 273e f416 523d 1133 913e
00000020: 5038 963d bd0c f0bd b41c 903e 3ae0 f73d
00000030: b0eb 48be 2a01 a33e 14c0 a03d e65f 48bc
-0.1949993 -0.0709097 0.21553904 0.1093092 -0.06857056 0.16332342 0.05129142 0.28359273
0.073349595 -0.1172118 0.281469 0.12103315 -0.19621158 0.31836826 0.07849136 -0.012229895

weight f4 [32, 16]
00000000: 3c2e 01be 21bc 843d ee02 7b3e 5ab1 37bf
00000010: 5fa0 753e 4d19 023e 9926 b03e 40ed d3bd
00000020: 9959 c63e 4ad2 bcbe 910b be3e 3037 4dbe
00000030: 6fd6 58be 17e7 d93e 2e25 81be 0a77 80be
00000040: 5c93 b4bd ef1c a93e 2178 0cbe 78f1 5cbf
00000050: 6980 60bb c8b5 aa3d de16 cf3d 1746 a7bd
00000060: 7dee 503e a923 f6be 2796 c33d e01b 73bd
00000070: 9379 5cbd 8143 b73e 3161 ddbe 382e 3b3e
00000080: d9f4 3ebe d982 28bf ca3f 173f 2a82 bdbe
00000090: 390b bcbd 8c37 cb3e 9539 233f 7d03 e2be
000000a0: fd9f cebe 580d d2bd 6db2 283f fe7e 4d3e
000000b0: f861 673d 7553 473e 40e9 56be 98e7 9ebe
000000c0: acd3 513e 3fda c43c f8b2 093f cabc b93e
000000d0: a7b2 963e d90e 9c3e 0446 ca3d 11ea 593d
000000e0: e63e 4bbd 4d46 28be 92f7 833e d1f3 65bb
000000f0: 82c8 2b3c c0a6 913d 88fa 893e efd0 8fbd
00000100: e64b 303e c3ed 01be ad9c 15be de60 b4bd
00000110: f73c d53d fb4e 9f3e 97ec 69be 57df 8dbd
00000120: 69d1 503e 0c9f 11be 6088 af3e c691 323e
00000130: d776 4f3d 4437 a83e f6c3 7e3b 52f3 83be
00000140: 00cf b33b 1065 bd3e 434d 7ebe a6fb 02bf
00000150: e0ca aabd ea91 8abe aea5 37bd b425 15bf
00000160: a4e1 c7bd 18eb 90be 2df0 59bf f787 a8bd
00000170: ee96 1a3e 161f a53e b5b6 3bbf 78fb bd3e
00000180: df4b e43d 333a 4c3e ab13 89be 6577 083f
00000190: c4e5 6b3e df10 15be 6973 ecbe faba cb3e
000001a0: beb2 183f 5844 c73d 0e4e f3bd 9629 7e3e
000001b0: 036b e0bc 9978 27bd a000 923e 9d78 0b3a
000001c0: ac2a 1cbe 3e0b a9bc 94eb c0bd 26dc 683f
000001d0: c3f0 38bd baea 533e cee1 5bbe 1287 993d
000001e0: 88e5 cd3d 129a df3e 514d 1bbe dbf6 1a3e
000001f0: 78b4 23bd bc37 6abe d054 dd3e 0c20 ac3d
00000200: 443b 953d e15e b23e 3e33 dfbd 6847 c9be
00000210: 3cbb 71be f42a 6ebd b264 1dbe 6e34 ddbe
00000220: b911 f4be dd37 11bf a460 6abf 8374 8a3e
00000230: 6fbb f53d 5358 c93c 9935 1bbf 8b6b ec3e
00000240: c64d 8ebd 87fc 983e f3d4 2cbd de47 a83d
00000250: a1ab 8cbd 3419 85bd 8862 7bbe 59c5 e53e
00000260: 5154 273f 78b6 173e 5f7e 20be b57b 763e
00000270: db8e 7cbd 8291 083e 1950 06be 4b36 d23e
00000280: 3c04 4dbe 6c83 6d3e a589 923d 3cf2 0b3f
00000290: 1fdd 03be e499 6abd 1d4b 19bf 863f 853e
000002a0: 1c58 1d3e c682 df3d 943c 163e aa68 c6bc
000002b0: 96bc 41be 240e 44be 83c4 403f 9579 e63e
000002c0: 9105 593e 8425 993d be92 053e 2eba 3f3f
000002d0: badc 7f3e f208 c9be 3796 61be d80d 443d
000002e0: 304a a43d d5a9 553e b119 9fbd 85ca ee3e
000002f0: a1a3 143e 2646 53bc de05 2d3e 006e 713c
00000300: 44aa 50be 1d9f d73e f044 b9bc b278 8e3d
00000310: bf5e 1f3e 29e2 9dbe fa6d c3be d26e 6b3e
00000320: d9b0 c43e 937e e3bc 2d31 d5bd fc4e edbc
00000330: 8844 cc3d 2e68 263c 45e3 29be a4f9 f13e
00000340: e44b 41be 0c56 ba3e 28c9 fb3e 5ac6 b7be
00000350: 55b8 cf3d 9772 47bd dcce cd3e a658 903e
00000360: bac9 1e3f 17e1 0cbf 3ecf 873e 2ac7 aabd
00000370: 7187 7cbd 8724 443e e347 1dbf c5fe a33e
00000380: 22b9 88be 5664 53be 7eb7 333f f2ba c73e
00000390: 460b d03e 4dee 923e 6bf9 df3d f075 8bbe
000003a0: 42f0 013e 43ad 643e e169 f33d 28a4 acbd
000003b0: f25c 803e 129d 8b3d 5a94 173f 96fb 9d3d
000003c0: 98e3 05be 6d26 aa3e 63d0 35be 199e 0b3f
000003d0: f2b5 913d 920b 8cbb 0f6b c4bd 1e78 ea3e
000003e0: 9e1b d63e 40f8 e63e 6f39 1d3e f41c 373f
000003f0: 90ce 3b3e 2191 51bc f7f0 8c3d a241 9cbd
-0.12615293 0.06481195 0.24512836 -0.7175499 0.23986958 0.12704964 0.34404448 -0.10347986
0.38740233 -0.36879188 0.371182 -0.20040584 -0.2117555 0.4255912 -0.25223678 -0.2509082
-0.08817169 0.33029887 -0.137177 -0.8630595 -0.0034256226 0.08335453 0.101117834 -0.081676655
0.20403476 -0.48074082 0.09550124 -0.059352756 -0.05382688 0.3579369 -0.43238214 0.1827935
-0.1864809 -0.6582466 0.5908171 -0.3701337 -0.09181828 0.39690816 0.6375974 -0.44143286
-0.40356436 -0.10256451 0.65897256 0.20067975 0.056489915 0.1946543 -0.20987415 -0.31036067
0.20490903 0.02402985 0.5378871 0.36276847 0.29433176 0.30480078 0.09876636 0.05320174
-0.04962053 -0.16433068 0.2577482 -0.0035087953 0.0104848165 0.07111883 0.26948953 -0.07022273
0.17216453 -0.12688355 -0.14610548 -0.088075384 0.10412019 0.31114945 -0.22844158 -0.06927364
0.20392384 -0.14220828 0.34283733 0.1743842 0.050650444 0.32854664 0.0038874126 -0.25771576
0.005487323 0.36991167 -0.2483416 -0.51165235 -0.083394766 -0.2706445 -0.04483574 -0.58260655
-0.097598344 -0.28304362 -0.85132104 -0.08229058 0.15096638 0.3225028 -0.73325664 0.37105918
0.11147284 0.19944076 -0.26772818 0.5330718 0.23036867 -0.14557217 -0.461818 0.3979109
0.5964774 0.097298324 -0.11880122 0.24820551 -0.027394777 -0.040886495 0.28516102 0.0005320402
-0.15250653 -0.020635244 -0.09419933 0.9096092 -0.045151483 0.2069501 -0.21472856 0.07496466
0.10053545 0.43672234 -0.15166213 0.1513323 -0.03996703 -0.22872823 0.4322877 0.0840455
0.07286695 0.34838012 -0.108984455 -0.3931229 -0.2360658 -0.058146432 -0.15370443 -0.43204063
-0.4766977 -0.56725866 -0.9155371 0.27042016 0.11998641 0.02457825 -0.6062866 0.461758
-0.06948428 0.29880163 -0.04219527 0.082168326 -0.06868673 -0.06498948 -0.24549305 0.44877127
0.6536303 0.148157 -0.15673207 0.24070628 -0.061659675 0.13336757 -0.13116492 0.41057047
-0.20021147 0.23194665 0.0715516 0.54666495 -0.1287732 -0.057275668 -0.5988024 0.26025027
0.15365642 0.10913615 0.14671546 -0.02421983 -0.18919596 -0.19146019 0.75299853 0.45014635
0.2119353 0.07477859 0.13044259 0.7489346 0.24986544 -0.39264637 -0.22029959 0.047864765
0.08021963 0.20865567 -0.07768572 0.46638885 0.14515544 -0.012895143 0.1689677 0.014735699
-0.20377451 0.4211358 -0.02261588 0.069566146 0.15563487 -0.3083661 -0.38169843 0.22991493
0.38416174 -0.027770316 -0.1040977 -0.028968327 0.09974009 0.010156674 -0.16590603 0.47260773
-0.18876606 0.36393774 0.49176908 -0.35893518 0.101425804 -0.048693266 0.40196884 0.28192633
0.6202656 -0.5503096 0.265253 -0.08338769 -0.061652604 0.19154559 -0.61437815 0.3203031
-0.26703745 -0.20643744 0.7020186 0.39009815 0.406336 0.28697434 0.109362446 -0.27238417
0.12689307 0.22331719 0.11885429 -0.08429748 0.25070912 0.06817068 0.5921074 0.07714002
-0.13075101 0.33232442 -0.17755274 0.5453811 0.071147814 -0.00427384 -0.09590732 0.45794767
0.41817945 0.45111275 0.1535394 0.71528554 0.18340516 -0.012790949 0.06881898 -0.07629706

bias f4 [32]
00000000: d3a7 493e 0826 b23d fd6f d2bd d20d dfbd
00000010: d20f babc f0d0 c0bc b7a3 253e fa84 58be
00000020: 37a7 6ebd e67d 523e cbf3 323e 4f3c 4f3e
00000030: 193e 613e 6933 91bd f3f7 9c3e a78c a63e
00000040: 5add 8fbd bae6 103e ba8d cb3d b207 4a3e
00000050: e0bb 57bd 0fe5 21bd 6cce 833c 9eed c6ba
00000060: 64a0 b53d fe0f bdbe 666e 1c3e d35f 30bd
00000070: 6c28 883e f625 c43e 5e16 923c 3c99 483e
0.19692926 0.0869866 -0.10275266 -0.10891308 -0.022712622 -0.02353713 0.16175734 -0.21144477
-0.058264937 0.20555839 0.17475812 0.2023785 0.21996345 -0.07089884 0.3065792 0.32529184
-0.07024641 0.14150515 0.099391416 0.19729498 -0.052669406 -0.039525088 0.01608964 -0.0015177017
0.08868483 -0.36926264 0.15276489 -0.043060135 0.2659334 0.38310212 0.017832931 0.19589704

weight f4 [64, 32]
00000000: 68c7 1fbe 02cb c1bc ac66 dc3d ecbc 213d
00000010: a1a3 7dbd 3bb0 683d 5660 7d3d 36d5 41be
00000020: df2c 20bc 0abd f33d 5fce 62bd 9dc0 28be
00000030: 30c1 14be 39b8 ccbc 82c1 4ebe 82f5 0eba
00000040: 56e4 853d fec7 82bd 294a 05be f02f 41be
00000050: 85df 2cbd 1cd7 0abe 61dd 083e a687 f8bd
00000060: ba8f 3dbe ab61 1d3d ed84 443d 6bfb bfbd
00000070: 30c4 963d 75ab e1bc 5716 afbd 8350 c2bd
00000080: 6512 8f3d 5619 e93d c6db 4dbf c802 2d3e
00000090: 56b4 e23e a52e 0a3f 7fe1 b63e 638e b73d
000000a0: 69fd 563f 30a0 ee3e 4f0c 183e 5a80 b93e
000000b0: 11a7 dd3e 4b4d 05be a04d e23c 61a6 2d3f
000000c0: c9ea aa3e 898b 453f 58dd be3e 98af c93d
000000d0: e64f a3be 7875 613e 466b 1ebe 1f99 493e
000000e0: 9823 89bd 9a79 943e ff91 c6bd 46db e63b
000000f0: 366a adbe ae2e ea3e 5065 19bf 9396 183d
00000100: cbab d23d b0e2 91bd 0d78 c13e c2e8 083f
00000110: fa1d 643e 6ba2 5bbf 8fe4 a33e 72c0 503e
00000120: 7ae7 6abf 606e 0b3e 2e1d ef3e 9022 a13e
00000130: 73cd 483e 3a5f c5bc 4289 043f e69c 3b3e
00000140: 7f43 173e 4d12 d8be 2fc1 6ebe 9688 a73e
00000150: 05f4 ecbb cda3 fd3e d84b b03e 45e8 023f
00000160: 61d1 833d db35 d33e 7893 a53e e839 87bd
00000170: e615 883e f214 8abc 3b46 223f aa44 db3d
00000180: 5350 5a3e 7af7 893e bdbb 76be c44d 003e
00000190: d127 02be 8f40 173f 4289 cf3e a893 933e
000001a0: 768b 593f 78df c73e 2114 8d3e 56e6 833e
000001b0: c5c3 2d3f 78a9 2d3f 4f5e ecbd 31c3 113e
000001c0: 68c8 4cbd e4b1 863e e0c6 373f f789 a43e
000001d0: 4cdd 4f3e e704 143f e2ba 603e 22ab 9c3d
000001e0: 80c0 2b3e d7a1 a33e 7e57 4abe a170 4d3d
000001f0: 008c c1be 54e9 8a3e 9be1 5b3e 3265 f9bd
00000200: be41 b63d e302 023e d3c0 e4be b63d 603e
00000210: d028 803e 5b21 61be b111 643e 8dbd a03e
00000220: 97e8 113e 6960 133d 4dc1 953d c927 1a3c
00000230: 07fb 783e 9eb3 f5be 1e81 08be 1836 563e
00000240: 4267 443e a5f2 8a3d 5e2b 85be 2713 6f3e
00000250: 8a65 8dbc 3816 233e dcb7 b8be 4d76 bf3d
00000260: 8778 1cbe b49b 9e3e ba33 18be c361 6f3d
00000270: 15e9 f7bd 6fff 1c3e f2c6 42bf bac1 2cbe
00000280: 8c03 583a a30e c53a c894 a43c af96 0abe
00000290: f38d 4cbe 0169 a93d 5700 b63d f806 9abd
000002a0: 7dc3 a83d 113c fdbc f74d e2ba ab7c a13c
000002b0: 73ff 91bd 0c58 ccbc 54fb 94bd 55e6 d23d
000002c0: 00a3 1abe 5eb4 4cbe 2583 a0bd 3458 76bd
000002d0: 0b1e 4a3e bbd1 e3bd 67da 1e3e 0420 3fbe
000002e0: ebf5 c63d 0d42 c03d c9f8 003e 2c78 06be
000002f0: 90a3 c83d ff22 b23c d67a 4bbe c3d6 08be
00000300: d469 06be a22a 3dbe c62c 55bd 3152 1ebe
00000310: 03ad 4e3d e776 91bd 55e8 8f3d 12a5 3a3d
00000320: 47bc 18be 52fc a43d b1af 1c3b 414e 273d
00000330: 3086 913d 1d8a 29bd 4ed1 15be 0725 3dbe
00000340: 6eae 563d d8ae ffbd c651 273d 3638 f13c
00000350: 82d6 d3bc 9f82 febd 888a 49bd 116e 2bbe
00000360: 406f ad3c a8a0 82bd e529 a6bd e398 23bd
00000370: 671d 15be 42f6 2cbd 6a54 1fbd 9971 bebd
00000380: 1bbe 323f dfcf 3b3f ecf4 3c3e 13cf 063e
00000390: 8ca4 5e3e 80bc 633f 4c6d 9ebe 4a6a 11bf
000003a0: fef9 683f b936 bdbd 99f6 7ebe cb7b 0abf
000003b0: ba88 8f3e 4bed 5a3f a985 cbbd b18b 06bf
000003c0: 0e87 033f 73f6 e03d 2b0c 3b3f 8ddf 993e
000003d0: 4f91 be3d 50dc abbd 994a 4cbe f137 a83e
000003e0: 6ace 4fbc 3b54 713e e9f7 603e a955 fe3d
000003f0: 627d e43e 19a2 8bbd 217c 363f b1c1 cdbd
-0.15603411 -0.023656372 0.107617706 0.03948681 -0.061923627 0.05680869 0.06185945 -0.1892899
-0.009776323 0.11901291 -0.055372592 -0.16479726 -0.1452682 -0.024990188 -0.20191005 -0.00054534536
0.06537692 -0.06385802 -0.13016571 -0.18865943 -0.042205352 -0.1355862 0.133657 -0.12135248
-0.18511859 0.03842322 0.04797833 -0.09374126 0.073616385 -0.027547577 -0.08549183 -0.09488013
0.0698593 0.113817856 -0.8041347 0.16895592 0.4427821 0.53977424 0.35718915 0.08962705
0.83980423 0.46606588 0.14848445 0.36230737 0.43291524 -0.13017766 0.027624905 0.67832
0.33382252 0.7716604 0.37278247 0.09847945 -0.31896895 0.22017467 -0.15470609 0.19687317
-0.06696242 0.28999025 -0.09695815 0.0070451824 -0.33870095 0.4573874 -0.59920216 0.037252974
0.10286673 -0.07123315 0.37786904 0.5348016 0.2227706 -0.85794705 0.32010314 0.20385912
-0.91759455 0.13616323 0.4670195 0.31471682 0.19609623 -0.02409326 0.5177194 0.18321571
0.14771841 -0.42201462 -0.23315881 0.32721394 -0.007231238 0.49539033 0.34432864 0.51135665
0.0643642 0.41252026 0.32339072 -0.066028416 0.26579207 -0.01685569 0.63388413 0.10706456
0.21319704 0.26946622 -0.24095054 0.12529665 -0.12710501 0.59082884 0.40534407 0.2882359
0.84978426 0.3903768 0.2755442 0.2576167 0.67876846 0.67836714 -0.115414254 0.14234616
-0.04999581 0.26307595 0.71787834 0.3213651 0.20299262 0.5781998 0.2194629 0.076498285
0.16772652 0.31959412 -0.19759938 0.05015624 -0.37802124 0.2713114 0.2147278 -0.121775046
0.08899258 0.12696414 -0.44678363 0.21898541 0.25031137 -0.2198538 0.22272374 0.31394616
0.14248882 0.035980616 0.0731226 0.0094089 0.2431451 -0.479886 -0.13330504 0.20919073
0.19180015 0.06784562 -0.2600965 0.2334715 -0.017260332 0.15926445 -0.36077774 0.09348736
-0.15280353 0.30978167 -0.14863482 0.058442842 -0.12105004 0.15331815 -0.76084816 -0.16870776
0.00082402746 0.0015034269 0.020090476 -0.13534044 -0.19976024 0.08271981 0.088867836 -0.075208604
0.082404114 -0.030912431 -0.0017265667 0.019712767 -0.07128801 -0.024944328 -0.072744995 0.102978386
-0.15101242 -0.1999068 -0.07837514 -0.06014271 0.19738023 -0.11123987 0.15513001 -0.18664557
0.09714874 0.09387598 0.12594904 -0.1313178 0.09796822 0.021745203 -0.19871077 -0.13363175
-0.13126308 -0.18473294 -0.052044652 -0.15461041 0.050457966 -0.07102757 0.07026736 0.04556758
-0.14915572 0.08055939 0.0023908431 0.040846113 0.07105672 -0.04139148 -0.14630625 -0.18471156
0.052412443 -0.12484521 0.04084947 0.029445749 -0.025859121 -0.12427258 -0.04920438 -0.16741206
0.021171212 -0.06378299 -0.081134595 -0.039940726 -0.14561997 -0.042227037 -0.038898863 -0.09299011
0.6982133 0.7336406 0.18452805 0.1316493 0.21742457 0.88959503 -0.30942762 -0.5680281
0.9100646 -0.09238953 -0.24898757 -0.54095143 0.28034002 0.8551833 -0.09937603 -0.525569
0.5137795 0.109845065 0.7306544 0.30053368 0.09305059 -0.08391631 -0.19950332 0.3285518
-0.01268349 0.23567288 0.2196957 0.12418682 0.4462691 -0.06818027 0.71283156 -0.10046709

bias f4 [64]
00000000: 388a 993d ab7d 853e 2e69 9f3e e000 0c3e
00000010: f413 cdbd 4d6c 013d 74fd 243c 05a7 713e
00000020: fea9 e2bb eaed bb3e b6d3 8f3d f091 3b3e
00000030: ece6 eabc 67c7 9cbd 3d09 1d3d 4ab1 813e
00000040: 84fb 4dbe 99d2 bfbd 14bc 273e 48b1 8e3e
00000050: 7f1a 39bd 061e af3d 5a7d 573e 15fd a1bd
00000060: c5f4 75bd d758 c73d ce79 793e 6886 9a3e
00000070: cd99 da3e ebdb 14be 3d36 24be 2cf9 d9bd
00000080: 7a83 0abd 817d d8bd d39f f83d a54e f5bd
00000090: 4ffe 8c3e 6216 2dbd 65e9 973e 2959 163d
000000a0: bbcf cf3d 0bd8 bdbd cc1a cc3d 069f 683e
000000b0: 3b61 e8bc 7811 56bb e96a 953d 5fc5 5e3e
000000c0: a3dc 8abe 91d4 643e 340c 33bd e2b2 853d
000000d0: 472b 393c 2d81 3f3e 9891 7b3d 2c05 67bd
000000e0: 5287 f5bd 3e93 e33d 3d26 753e 9fb3 843e
000000f0: 307a 753e 24ec 4ebe 752d 453e 9f70 833e
0.07497066 0.2607244 0.31134933 0.13672209 -0.100135714 0.031597424 0.010070194 0.23598869
-0.0069172373 0.36704952 0.070228025 0.1831739 -0.028674565 -0.076552205 0.03833889 0.25330573
-0.20115477 -0.0936634 0.1638034 0.2786963 -0.045191284 0.085506484 0.21043912 -0.079096
-0.060047884 0.09733742 0.24362871 0.3018067 0.42695466 -0.14537017 -0.16036315 -0.10643229
-0.033816792 -0.10570813 0.12139859 -0.11977891 0.27537772 -0.042257674 0.29670253 0.036706124
0.10147043 -0.092697226 0.099660486 0.22716913 -0.028366676 -0.003266422 0.07295782 0.21754979
-0.27121457 0.22346713 -0.04371281 0.0652826 0.011301822 0.1870162 0.061418146 -0.056401417
-0.11988701 0.111120686 0.23940368 0.2591829 0.23972392 -0.20207268 0.19255622 0.2567186

weight f4 [4, 64]
00000000: 4695 af3b b45b a7bd e73e 4ebe 6d19 18be
00000010: 31cb 20be a056 f33b 93d5 9c3a d616 923e
00000020: 20c4 47be 1fb9 4fbe a4a1 87bd b53d 8f3e
00000030: 3436 4e3e a078 80bb 7cf8 df3e fe2c c5bd
00000040: 0e1b 953d 00d5 843b 89ca 03be bc08 d2bd
00000050: b668 b7bc 7245 12be 7224 86bb 2558 fbbe
00000060: 217e 6e3d ac2b 28be cf77 1bbe 60f9 20be
00000070: 182b f5bd cde8 6b3d 44b1 a83d c0e8 a2bc
00000080: 9567 b0be db31 92bc dec2 08be 0bae 483e
00000090: f287 87be e26b 82bd 0e5e 85bc 3101 403d
000000a0: bb1d c8bd c1bd bfbd f28a 3fbe ccc5 073f
000000b0: e0f0 443d c6b3 7d3c 4253 8fbd 190a 36be
000000c0: 5116 bfbc 1861 01be 1901 a3be 9e80 2bbe
000000d0: 1e84 bebd e533 24be 9364 f63c d8ea 923d
000000e0: 59c4 383d 1a60 26be 5361 df3e 4335 c83e
000000f0: b90c 033c 9cb2 a0bd f5d7 08be ce9c fc3d
00000100: e3a8 adbd ebc1 333b 3e67 813d b9a7 823d
00000110: 5c35 94bd d50a edbc b3e2 60bd 01f8 3cbe
00000120: 5bcd 103e 54e5 2abd fe1d c3bc c213 bebd
00000130: 3469 c53d 1066 42be d77f fe3d f9ea 26bd
00000140: 5202 f9bd 4cbc 963d bbb5 b5bc de00 54bd
00000150: 91d5 17bd 11c5 243c 79a9 a1bd 5360 383e
00000160: fe13 d1bc 49ec 073e 8a32 f73d 7182 cfbd
00000170: 702a 893d 1fa0 bb3c 5eca 8c3d e0f7 19bd
00000180: 4439 8c3c 35a3 f4bd ada0 20be deb2 333e
00000190: 6278 f4ba 6492 353d 4b6e b73c a6ca 1abc
000001a0: 1b50 89bb 4a7a 8dbd 0484 753d ca1b debd
000001b0: f559 04bd 6625 e33d 5a92 dabd 4662 093c
000001c0: ba56 ad3d 9aeb a2bd 8a85 c43d 0182 1abe
000001d0: 14c8 463d e2de 46bd 33fe 673c 08a7 923d
000001e0: 0e36 2cbd 8746 66bc 5ed0 d9bd 3441 61bd
000001f0: 0a38 dfbd 87f1 793d c98e 2cbd 9947 c3bd
00000200: bc73 3b3d 01fd 913e 1dd9 d9bd 052d b3bd
00000210: bf21 873d 7f96 cb3d 36b4 3c3d 4758 b5be
00000220: f4c7 863e 9070 65be dc97 7fbd 8644 70be
00000230: eb25 a23e 151c 68ba 1962 38be df91 653d
00000240: a3c7 3a3c c738 933d 6f30 02be 336a 98be
00000250: ed8b 11be 7502 8a3d c702 273e 6668 183e
00000260: 6d4d 7abd 0cc4 a2bd 1587 d5be 62b0 29be
00000270: 363d 563e 57ba 50bd 94f1 8cbd 026b 34bd
00000280: a468 353e 311c 70bd cd8a f73d 0c76 7b3e
00000290: 7774 653e 4493 77bd c243 86be 8230 73bd
000002a0: 2400 8ebe b931 ccba d368 2e3d f76c 0c3d
000002b0: 6152 81bb d083 2ebd abf8 05be 0d9f c2bd
000002c0: c04b 483d 432c 4b3e 59ae 933e ad52 153d
000002d0: 8d7b 2cbe 27f4 75bd 02bd a9bd d66e c7bd
000002e0: 0e8c 1fbe 52fc 0bbe e75d a1be ea7f 10bf
000002f0: 861f 743e 2210 c63c 3014 56bd f1ef 82be
00000300: c384 7a3d 5c3b 41be 2e2e 993e 2add 8fbe
00000310: 3823 1a3d 3ecb a63d fdc5 033d 2135 82be
00000320: 00e8 91be 518f c7bd 78e1 6d3d 2169 3abe
00000330: 5408 f7be 094e 04bd bc2e 823e d6e5 39be
00000340: 4699 4d3c 8809 be3d c2be 73be 612c 3abc
00000350: 9bbe 093d d80e d7bd 6da0 80be d472 ec3c
00000360: aa3c fcbd fac6 57be 81ea 3e3e 2163 60be
00000370: d8f6 22be 7681 b0bc 1000 65bd 2009 26bd
00000380: 5d38 1c3e ba4a 86bd 6636 563e 218f 45be
00000390: c485 ae3e eec2 c63c a127 ffbd 51da c53c
000003a0: fee7 8e3e 6cc7 38bd f5ec 3bbe 2ec8 00be
000003b0: a216 87be d788 8cbc addc 693e 8228 82be
000003c0: 7038 a3bd f0a2 2d3e 9fac 47bc 5116 053e
000003d0: 508e cf3c 1ae2 54be 1568 1dbc dace 8cbb
000003e0: be72 1cbd 8211 3c3e eee7 003e 6673 193d
000003f0: 0d99 a43e a8e4 99bd 2b91 ee3d ff48 523d
0.005358371 -0.08171788 -0.20141183 -0.14853449 -0.15702511 0.007426098 0.0011965506 0.28533047
-0.1950841 -0.20285462 -0.066226274 0.27976766 0.20137864 -0.0039206296 0.43744266 -0.09627722
0.07280551 0.004053712 -0.1287023 -0.10255572 -0.022388797 -0.14284304 -0.0040937 -0.49090686
0.058225755 -0.1642291 -0.15182422 -0.15720129 -0.1197111 0.057595063 0.08236936 -0.019886374
-0.34454027 -0.017846039 -0.13355586 0.19597642 -0.26470906 -0.06368233 -0.0162802 0.046876136
-0.09771296 -0.093623646 -0.18705347 0.5303619 0.04808128 0.015484756 -0.06998302 -0.1777729
-0.023326071 -0.12634695 -0.31836775 -0.16748282 -0.09302543 -0.16035421 0.030077254 0.07173699
0.045109127 -0.16247597 0.4362894 0.39103135 0.007998639 -0.07846567 -0.13363631 0.123345956
-0.08479478 0.0027428817 0.0631852 0.06379647 -0.0723674 -0.02893583 -0.054903697 -0.18453981
0.14140837 -0.04172261 -0.023818012 -0.09281112 0.096392065 -0.18984246 0.12426727 -0.04075143
-0.12158646 0.073601335 -0.022181382 -0.05175864 -0.037068907 0.01005675 -0.078936525 0.18005495
-0.025522228 0.1327373 0.120701864 -0.101323016 0.066975474 0.0229035 0.06874536 -0.037589908
0.01711715 -0.11945192 -0.15686293 0.17548701 -0.00186516 0.044329062 0.022391459 -0.009447729
-0.0041904575 -0.069080904 0.059940353 -0.10845144 -0.032312352 0.110911176 -0.106724456 0.008385247
0.084638074 -0.07955094 0.09595783 -0.15088655 0.048530653 -0.0485524 0.014159727 0.07160765
-0.042043738 -0.014054901 -0.10635446 -0.054993823 -0.108993605 0.061021354 -0.042128358 -0.095351405
0.04576467 0.2851334 -0.10637114 -0.08748821 0.065982334 0.09940814 0.0460703 -0.35418913
0.26324427 -0.2240622 -0.062400684 -0.2346364 0.31669554 -0.0008854282 -0.18006171 0.056047317
0.011400136 0.07188564 -0.12713788 -0.29768524 -0.14213534 0.0673875 0.16309653 0.14883575
-0.061108995 -0.07947549 -0.41704622 -0.16571191 0.20921788 -0.050958958 -0.06882015 -0.044047363
0.17715698 -0.058620635 0.12087021 0.2455675 0.22407709 -0.060443178 -0.2622357 -0.059372433
-0.27734482 -0.0015578783 0.042580437 0.034283604 -0.003946588 -0.042606175 -0.1308314 -0.09502993
0.048900366 0.19841103 0.28843954 0.0364558 -0.16844006 -0.060047295 -0.082880035 -0.09737937
-0.1558077 -0.13670471 -0.31516954 -0.5644518 0.2384015 0.024177615 -0.052265346 -0.25573686
0.061161768 -0.188703 0.29918045 -0.28098422 0.037631243 0.08144234 0.03217124 -0.2543116
-0.28497314 -0.09744132 0.058076352 -0.18204166 -0.4824854 -0.032300983 0.2542628 -0.18154082
0.01254875 0.09279162 -0.23803237 -0.01136312 0.03362904 -0.10500878 -0.25122395 0.028863348
-0.12316258 -0.21071997 0.18644144 -0.21912815 -0.15914476 -0.021546107 -0.055908263 -0.040536046
0.15255876 -0.06557222 0.20919189 -0.1929288 0.3408643 0.024262872 -0.124587305 0.024151953
0.2791137 -0.04511206 -0.1835211 -0.12576362 -0.26384455 -0.017155094 0.22838087 -0.2542153
-0.07969749 0.16956687 -0.012187152 0.12996794 0.025336415 -0.20789376 -0.009607335 -0.0042971196
-0.038195364 0.18366054 0.12588474 0.03746357 0.32148018 -0.07514316 0.11648782 0.051339146

bias f4 [4]
00000000: da99 90bd 5bd3 29be e65f a3bb 5819 c33c
-0.07060595 -0.16584532 -0.004985797 0.023815796
