saves/kevin/kevin_nn_2025-02-22_16-24-38.pt (torch, 17468 bytes, 8 tensors)

weight f4 [16, 16]
00000000: 2ea9 a13e 1af4 1fbe 9afa 4a3e 34a8 593e
00000010: 900f 403e 448f 1f3e c5d2 d3bd fa78 803c
00000020: 41ab 2dbe c71a 49bd b030 2e3e 9918 57be
00000030: dbdb 53bd eeec b2bd 1f8d 6dbe d76f 153e
00000040: c587 83be 1b58 8bbe 3e1e b53e bfd1 20be
00000050: 4b3c a1be f5cb 43bc d659 a03e 6994 b0bd
00000060: 643a 673c a068 4e3e fc92 38bd e86d a43e
00000070: 585a a03d 651c 73bd c1e4 253e 7211 5f3c
00000080: 3d9e 243e 8f93 ed3d de39 bf3a 2d07 00be
00000090: 5e99 a23c 6fd1 8bbe ed1b 0d3e c53b 81be
000000a0: caf8 aabd 6829 223e 7d6e 78bd 6cef ef3c
000000b0: c8e6 3d3e 8ba0 5c3d 52fb 1c3e e20b 893e
000000c0: b10e 9fbc adae c13d 2bd4 723e 466f d03c
000000d0: c613 85be 273b 3fbe 7f97 db3c 38f9 06be
000000e0: 0c23 513e edc8 2d3d 8399 ff3a e24e 573d
000000f0: 5bb3 3b3e b126 25be 9066 0bbd 1ac9 1ebe
00000100: e81c 273e 5eb0 7ebd c7d7 cdbd 2d86 343d
00000110: 06ac 743e 23ce 223d 33f7 983e cf46 0c3e
00000120: 1589 49bd 0ae9 17be d74b 01be 42d6 ad3d
00000130: 6e08 f83d 743e 45be 53d4 82be 6354 a6be
00000140: baa9 86bd 3b5e 643e 05ce 1a3e 8ce8 633e
00000150: e05d 7c3e 8bfa 5f3e 4996 153d fa66 973e
00000160: 8fe8 9f3d ce48 153d b1e4 113e fa1a 913e
00000170: f406 5abe 2926 463e 22b2 3bbe 9cee 6c3e
00000180: 9556 b63d 374e 58be e5ed 913e 6104 d73d
00000190: f6c2 383e 3e2c 01be 9b59 1a3e 0925 9a3e
000001a0: 0ccf a43e 1314 24bd 57f0 6abc 08e4 053d
000001b0: cba9 9abd 9eb7 10be 79af 2f3a 9539 9b3e
000001c0: c74e 803e 7313 5cbd f980 683d d9a7 41be
000001d0: 2a3e 89be a8b8 8a3e 4f88 9d3d 8a8e 283e
000001e0: 60c2 883e 64d1 d83d a56b 24be 2e4e d83d
000001f0: 330c 8abe 4d9d 7cbd 8772 94be d97e 74be
00000200: e82b 03bd b86c 813d b017 2dbe d886 88be
00000210: ccd3 ddbd e2bb 0bbe 6898 62bd 128b 3abe
00000220: bf2d 1f3e d426 413d 1515 0d3e 4d3c 6bbe
00000230: ec65 96bd 2ec4 46be eefc 933d 04bd 79bc
00000240: 6fe5 cf3e 520a 81bd 8e3f 63bd 277d 323e
00000250: 1a28 65be 3dc4 8c3d d38b b3bc 9336 b1bb
00000260: 6833 2cbd bbb9 2b3d 4bf7 01be 015f 67be
00000270: 1f4f 073e 696e 0b3e 5969 09be 24f8 d93c
00000280: 6931 3d3e 1d7c b13d 69a0 3a3e fb1e 7b3e
00000290: bf8b 88ba d849 44be c71d 8abd 4e82 423d
000002a0: f454 473e 5200 abbc f882 68bd 0ee2 19be
000002b0: 5fbc 293e abf7 edbc 1999 04bf 7aa4 883d
000002c0: 6a78 8ebb 481f 3d3e e198 6d3c 0475 523d
000002d0: 094e 443e 567f 7a3d cf5d 153e 65f4 a63c
000002e0: eef2 a23e c5dc 993d ec0e d13d 8c17 983e
000002f0: 8840 d9bb fe34 623e cb47 70be 0daf 313e
00000300: c1ff c63e 8f3c 163e 5866 6a3e 381b b9bd
00000310: 726d 4ebe 8d60 423e 9884 ed3c bff2 613e
00000320: 5076 6ab9 bc61 28be 1a79 91be fd7c 313e
00000330: 2ba1 713e 8a16 383d be79 0e3e 05e3 20be
00000340: d981 96be 64bd 52ba e0d2 04b8 8b5e 78bd
00000350: 6328 4abe d492 4c3d d921 333e 066f a6bd
00000360: f632 33be 4ede d9bd 5b60 acbe 6064 fd3d
00000370: 702b 95bd abc7 8d3e 8d23 fd3d 8291 e53d
00000380: b221 b63e 88cc c83d 3d0b 903d c256 013e
00000390: 55f6 b1bd 1de7 59be dd5e c3bd 4f84 2fbe
000003a0: e1b9 90bd 1e69 77bd b5e9 33be 159e b6bd
000003b0: cefd 1bbc 29f0 2ebd 21c9 51be dad1 873e
000003c0: 544d 69be 3b20 29bb ff63 573e a6f9 1c3d
000003d0: 849c 873e 58ec 10be d2f5 ae3e 3043 0bbe
000003e0: 5751 883e 79f0 133e f77f debd a827 8c3e
000003f0: 1361 09be 63e4 083e 9ef3 0d3e ae72 09bd
0.31574386 -0.15620461 0.1982216 0.2125557 0.18755937 0.15581995 -0.103429355 0.015682686
-0.1695986 -0.049097802 0.1701076 -0.21005477 -0.051723342 -0.08736597 -0.23198365 0.14593445
-0.2568952 -0.27215657 0.35374635 -0.15705012 -0.31491312 -0.011950483 0.3131854 -0.08622057
0.0141130425 0.20157099 -0.04506205 0.32115102 0.07829732 -0.05935325 0.16200544 0.013614999
0.16075988 0.1160041 0.0014589389 -0.12502737 0.019848522 -0.27308223 0.13780184 -0.25240913
-0.08348234 0.15836108 -0.060652245 0.02928897 0.18545067 0.053864043 0.15330246 0.26766878
-0.019416185 0.09457145 0.23713748 0.025443684 -0.25991648 -0.18674909 0.026805637 -0.13181007
0.20423526 0.042427946 0.0019500706 0.052565463 0.18330137 -0.16128041 -0.034033358 -0.15506402
0.1631962 -0.062179916 -0.10050922 0.044073272 0.23893747 0.03974737 0.29876098 0.13698886
-0.049202997 -0.14834991 -0.12626587 0.08488132 0.12110983 -0.19262105 -0.25552616 -0.32486257
-0.065753415 0.22301571 0.15117653 0.22256678 0.24645185 0.21872918 0.036520276 0.29570752
0.07808029 0.036446385 0.14247395 0.28340894 -0.21291715 0.19350494 -0.18329671 0.23137897
0.08903233 -0.21123587 0.28501812 0.10498882 0.18043122 -0.12614533 0.15073244 0.3010638
0.32189214 -0.040058207 -0.014339528 0.03268817 -0.07551917 -0.14132544 0.00067018677 0.3031737
0.25060102 -0.053729486 0.056763623 -0.18911685 -0.2680524 0.27094007 0.076920144 0.16460624
0.26710796 0.10586813 -0.16056688 0.105617866 -0.26962432 -0.06167345 -0.28993627 -0.23876514
-0.032024294 0.063195646 -0.16903567 -0.26665378 -0.10831413 -0.1364589 -0.055321127 -0.18217114
0.15544794 0.04715617 0.13777573 -0.22972222 -0.07343659 -0.19410774 0.07225977 -0.015242819
0.4060473 -0.063007966 -0.055480532 0.17430554 -0.22378579 0.06873367 -0.02191726 -0.005408117
-0.042041212 0.041925173 -0.12691991 -0.22594835 0.13213776 0.13616337 -0.13419093 0.02660758
0.1847588 0.08666251 0.18225254 0.24523537 -0.0010417624 -0.19168794 -0.06743961 0.04748755
0.19466001 -0.020874176 -0.056765527 -0.1502764 0.16575764 -0.029048761 -0.5179611 0.066719964
-0.0043478506 0.18468964 0.014501781 0.051381126 0.19170393 0.061156593 0.14586566 0.020380208
0.31825966 0.075128116 0.10207924 0.29705465 -0.006630007 0.22090527 -0.23464887 0.17351933
0.38867 0.14671539 0.22890604 -0.09038395 -0.20158938 0.18982144 0.02899389 0.22065257
-0.00022360054 -0.16443533 -0.28412706 0.17332835 0.23596637 0.04494337 0.13913628 -0.15711601
-0.2939594 -0.00080390857 -3.1667645e-05 -0.06063704 -0.19741969 0.049944714 0.1749338 -0.08126645
-0.17499909 -0.106381044 -0.33667263 0.12372661 -0.07283676 0.27691397 0.123602964 0.11209394
0.35572582 0.09804636 0.070333935 0.12630752 -0.08689562 -0.21279569 -0.09539578 -0.17140315
-0.070667036 -0.060402982 -0.17569621 -0.089168705 -0.009520961 -0.042709503 -0.20486881 0.26527292
-0.22783405 -0.0025806564 0.21034239 0.03832402 0.264866 -0.14152658 0.3417192 -0.13599849
0.26624557 0.14447202 -0.10864251 0.27374005 -0.13415937 0.13368373 0.13862464 -0.033556633

bias f4 [16]
00000000: 2d8f 38bd 2dad 9fbd 8e9e 9b3d 6258 07bd
00000010: aa7f 0b3e d4a8 b83e 4b69 253e b604 643e
00000020: bd8f 9dba 1f02 e93b 59af 123d 9b12 b93e
00000030: 1fb3 e8bd 48bb 1fbe 1852 e3bd b862 3c3e
-0.045058418 -0.077967025 0.07598601 -0.033043273 0.13622919 0.36066306 0.16153447 0.22267422
-0.0012020987 0.0071108486 0.035811756 0.36147007 -0.1136229 -0.15598786 -0.110996425 0.18397033

weight f4 [32, 16]
00000000: d2d1 54be 8ece 00be 6e82 6ebe f0d6 61bd
00000010: d836 243d 9c8a 43be e05d 84bd c441 ea3d
00000020: e805 65be b0a5 0c3e 90c3 403e f0a1 12bd
00000030: 28de 4c3d bc1d c93d 0832 25be 809a 083d
00000040: 9756 ab3e 3b76 b23c 804b 0b3e 9640 14be
00000050: 630c 3c3d b4e3 973e f2ec bdbd f9ed e73d
00000060: 99c3 703d 9c43 ac3e 32e6 c43e a792 303e
00000070: 65e8 93bc 7528 45be 125c 463d 6c6e 83be
00000080: eb87 f9bc 6ff3 0e3e 01fe 7dbe a13d ab3c
00000090: 8f2b 593e 19bd 403e 4cfd 8f3e 232b 8c3e
000000a0: 8814 ebbc d4be 493e f738 e53e 1350 1b3c
000000b0: 5f85 2b3d 244a d9bd 6d25 963e 93fa d03c
000000c0: e48d 21be 5c73 563e d088 38bd 145c e5bd
000000d0: d864 c9bd 0008 5ebe 043b 46be cc43 fa3d
000000e0: 90c3 26be 58da b43d c0a6 aa3b c0f0 dbbd
000000f0: a6e1 643e 1c16 143e 469a 77be 6e51 6dbe
00000100: 686b c53d 10c1 1f3d 2c48 14be 6022 dcbc
00000110: 9eaa 0c3e b800 f7bd 38b9 933d d6bc 6b3e
00000120: 9a7d 5b3e 047a 22be e497 c9bd ec26 a0bd
00000130: 2cb3 09be 145f 1cbe d412 c93d 6858 05be
00000140: a5eb 1b3e 1871 41be 2fe4 29be 752a 0fbe
00000150: bbb1 3e3e 98d2 7a3d da98 2b3e 3afc a6bc
00000160: 605e 383e a055 a93e 1f9d 463e 588f 61bd
00000170: 607a c1bc b378 c1bd 6158 40bd 02bd b93b
00000180: 5e00 433e 1e0f 73bd 8244 9abd 9f0d f13d
00000190: 676d 5d3e edbe 673e 1fb6 66be bb8f bc3e
000001a0: cefa 5bbe 5460 ac3d e960 313d 357b 9ebd
000001b0: 7d4e f43d a49a 7cbe aeb3 d33d 3cb2 1dbe
000001c0: 06ae 833e 7992 11be f6b6 bdbd 78ba 5a3d
000001d0: 607c 003e 2715 923e fa9e 913e 683f 0f3d
000001e0: bb78 1c3e 5cda a63e 7541 a03c 7af0 463e
000001f0: f890 9f3d 38ec 4fbe 681a 173e 3f86 9fbc
00000200: 3fa2 1d3e 4207 793e 2401 323e 5d51 39bc
00000210: f219 973e 965d 3b3e 5297 7d3e 6113 de3e
00000220: 4354 8b3e fed0 e33d aea0 7b3d efc2 e53d
00000230: f022 463e 9099 083d 2cd0 543e ba64 063e
00000240: baf3 383e 0e13 2d3e 72bd 0cbe 9a6d 44be
00000250: c16a c0bd 280d 473e 6353 2c3d 29c1 7f3e
00000260: c53f 99bd cc56 903c 2a0e 0f3d f1b2 a0bd
00000270: 7088 6abd dc79 073e bbfb eebd aef3 4fbc
00000280: e991 8b3d cfea 4f3e c204 9f3e ea46 03be
00000290: f0a8 a23e ed5d 503e d1dc a9bd b079 a83e
000002a0: a8f6 1dbd 03c9 34be ba1e 05bd 9904 2ebe
000002b0: 035e a73e 4517 7f3e a6a5 8dbd b9d6 5b3e
000002c0: bc4a 64bd d566 05bd ba9b 823d 7068 c03d
000002d0: f626 633e e94a a53e a43a 8fbd 9293 b93e
000002e0: 732f 9d3d 0116 a03e 2668 ffbc fa49 ab3e
000002f0: 5c2f 0c3e 38e5 56bc 8b85 6e3e ecbe 573e
00000300: 295b e43c 58bd 61be fb4b 3ebe 86a1 b33d
00000310: 0525 54be 12c9 9f3d 6961 26be 7831 7b3d
00000320: 6822 7abe b41e 183e a800 bd3d 6eaf 86be
00000330: 7b79 74be 923b 143e e3c0 55bd f04f 5ebd
00000340: 46c1 2b3d 3491 663e 7931 48be 739c 4fbe
00000350: 029d 793e a893 663e 707b cebd d879 d13e
00000360: a04c 8e3d 75d3 bd3d a066 e43e a8f9 913d
00000370: cb56 483c e6a7 313e 3de8 b8bd b361 36be
00000380: 66ee c93d 9b95 a2bd 472b 2cbe 5a8e ad3c
00000390: daed a9bd d41a c33d 8faf 903d 485b aebc
000003a0: 8016 fd3d 5b4a 303e 5f26 6b3e 189c 63be
000003b0: cae2 35be 71c2 103d 303e 893d 5180 67bd
000003c0: 9641 5bbe e71a f33d 82d2 f73d 8df8 533e
000003d0: 80e1 033e 0ff0 4cbe b5bf b43c 9140 b53d
000003e0: 4e2d a0bd fde2 4fbe 6651 093d 9191 0fbd
000003f0: 71e7 06bd 4213 983d cb03 2ebe 1526 a03b
-0.20783165 -0.12578794 -0.23291942 -0.05513662 0.040091366 -0.19095844 -0.06463218 0.11438325
-0.22365534 0.1373508 0.18824601 -0.035798967 0.050016552 0.098201245 -0.16132367 0.033350468
0.334645 0.021784892 0.1360302 -0.14477763 0.04591025 0.2966591 -0.09273709 0.113246866
0.058780286 0.33645332 0.38456875 0.17243443 -0.01805515 -0.19253714 0.04842765 -0.25670183
-0.030460319 0.1396005 -0.24803926 0.02090341 0.21208023 0.18822135 0.28122938 0.2737666
-0.028696314 0.19701701 0.44770023 0.00947954 0.04187524 -0.10609844 0.2932543 0.025510108
-0.15776783 0.20942444 -0.04505235 -0.11199203 -0.098336875 -0.2168274 -0.1935845 0.122199625
-0.16285539 0.08830708 0.0052078664 -0.10739279 0.22351703 0.14461559 -0.24179944 -0.23175594
0.09639627 0.039002478 -0.14480656 -0.02687186 0.1373696 -0.12060684 0.07213062 0.23021254
0.21434632 -0.15866858 -0.09843424 -0.07819924 -0.13447255 -0.15270644 0.09818044 -0.13022006
0.1522661 -0.18890798 -0.16590951 -0.1398104 0.18622486 0.061235994 0.16757527 -0.020383943
0.18004751 0.3307314 0.19395874 -0.055068344 -0.023617923 -0.0944685 -0.046959285 0.0056682834
0.19043109 -0.05934059 -0.07532598 0.11770176 0.21623765 0.22631426 -0.22530411 0.36828408
-0.21482393 0.08416811 0.04330531 -0.077383436 0.11929033 -0.24668366 0.103370056 -0.15400022
0.25718707 -0.14216031 -0.09263413 0.053400487 0.12547445 0.28531763 0.28441602 0.03497258
0.1528043 0.3258847 0.019562462 0.19427672 0.077913225 -0.20304954 0.14756167 -0.019473193
0.15393923 0.24319175 0.17383248 -0.011310902 0.29511982 0.18297419 0.24764755 0.4337416
0.27212724 0.111238465 0.061432533 0.11218821 0.19349265 0.033349574 0.20782536 0.13124362
0.18061724 0.169018 -0.13744143 -0.19182435 -0.09395362 0.19438612 0.04207171 0.24976029
-0.07482866 0.017619513 0.034925617 -0.0784663 -0.057259023 0.1323008 -0.116691075 -0.012692375
0.068149395 0.20304416 0.31058317 -0.1282002 0.31769514 0.2034833 -0.082940705 0.3290534
-0.038565308 -0.17654805 -0.032500006 -0.16993941 0.32688913 0.2491122 -0.069163606 0.21468629
-0.055735335 -0.03256877 0.06377359 0.0939492 0.22182831 0.32283714 -0.06993607 0.362454
0.07675066 0.31266788 -0.031177592 0.33454877 0.13689941 -0.013116173 0.2329313 0.21068925
0.0278755 -0.22044885 -0.18583672 0.087710425 -0.20717247 0.07802023 -0.16248097 0.061326474
-0.24427187 0.14855462 0.09228641 -0.26305717 -0.23874466 0.1447585 -0.052185904 -0.054275453
0.041932367 0.22516328 -0.19550122 -0.20274524 0.243763 0.22517264 -0.100821376 0.40913272
0.06948209 0.09268848 0.44609547 0.07127696 0.012227724 0.17349204 -0.09028671 -0.17810707
0.09859924 -0.07938691 -0.16813384 0.021186043 -0.0829732 0.095266014 0.07064735 -0.02128376
0.12357807 0.17215864 0.22963856 -0.22227514 -0.17762294 0.035341684 0.067013144 -0.056518856
-0.21411738 0.118703656 0.12100698 0.20700283 0.1287899 -0.2001345 0.02206407 0.08850206
-0.07821141 -0.20301433 0.033524893 -0.035050932 -0.032935563 0.07425548 -0.16993634 0.004887352

bias f4 [32]
00000000: 4055 453d 82fa 813e efda 983e 1a09 283e
00000010: 6056 75be 4199 213e 3750 d83d e2f6 0fbd
00000020: fd4e ee3d abac 783e 9f96 8b3e 7a6f a63d
00000030: 187c d23d dd0e 873e e985 63be 532a 403e
00000040: e1e4 3a3e b8fd 17be b5b8 a73e d3ed b63d
00000050: f2f9 75bc 1aba 16be 013d 953e 7601 df3b
00000060: 4db2 4a3d 8505 823e 851c 543e deda 9d3e
00000070: 3c63 633e e73f 6c3e 43d7 44be a44f 873e
0.048177004 0.25386435 0.29854533 0.16409722 -0.2395873 0.15781118 0.10562175 -0.035147555
0.116361596 0.24284618 0.27263352 0.08126731 0.10277575 0.26378527 -0.22219051 0.18766145
0.18251373 -0.1484288 0.32758108 0.0893208 -0.015013205 -0.1471943 0.29148105 0.006805594
0.049486447 0.25394836 0.20714004 0.30831045 0.22205824 0.23071252 -0.19222741 0.26427948

weight f4 [64, 32]
00000000: fe42 083a 591f acbd ae0b d63c 8d70 b7bb
00000010: ea43 1c3e 6364 e83d 3049 8d3d d6b1 923d
00000020: 7fb5 8f3e 8bbe 7d3e b057 d63c 1d6a 563e
00000030: 8510 10be 5388 033e 9e90 0e3e 5358 ef3d
00000040: 6bb3 583d 2ba3 933e d1d1 013e 5b7d 6d3e
00000050: 44c5 ec3d b624 28bd 6d62 da3c 6a42 913e
00000060: ded8 2e3e 4194 663d 28d9 353e 33ef 603e
00000070: ba4d f33d d6a0 943e 4af7 173e acbc 833e
00000080: a0ae 2e3e b498 fc3b 3e68 e23d fbfb 9a3d
00000090: 6840 de3d 9868 84bd 1c7d 023e eab8 333e
000000a0: 5951 133e e2b8 7e3e 1383 be3e 5abd 793e
000000b0: 1fb4 d93d 1f0b 503d 6b42 1e3d 27c6 90bd
000000c0: 340c 343e 1311 a7bc f688 883e 7cae d03c
000000d0: c14e a33e cfd4 263e 9fea 813e 032f 173d
000000e0: 10f2 953c 4483 c23d 80db 923e d8e6 ef3c
000000f0: a838 b13e 37fe cc3d 396f 043e 3fbe 613e
00000100: 7774 d2bd 8692 ce3b e8b2 2e3e 61ab 12be
00000110: adf0 9bbd 84b3 063e 37cf 8e3d 54ac 683e
00000120: da0f 1f3e 331e d23d 1ac5 b23e 160e 933e
00000130: 6912 ddbd fcde b73d f59b b9bc c47f 82bd
00000140: fdb6 613e 1794 323e 491c 0f3e f6b2 a83d
00000150: 2982 933e 002c e83d 26ff 373e 94e4 a33e
00000160: a4b1 203d aa54 213e 68cf 623e 3818 983d
00000170: 6e55 5b3d 0ccc bf3e 41a0 b93c 57b1 5e3e
00000180: 141d eabd c99c ccbd 6893 e13d f2e6 2f3d
00000190: 8f5e 733c f799 033e a104 c63b 565c edbd
000001a0: a037 493a 0fb1 943d 6795 71bd af75 5e3d
000001b0: b372 7e3d 5a1b a4bc 26ba 073e e8a3 82bd
000001c0: 74de ce3c 533d 903d 293f dfbd a81a 43be
000001d0: f70f 2dbe fd97 cebd 4b15 6abc f520 523d
000001e0: 0f8d 4bbb fc43 4abc 6603 77bd 384c 1ebe
000001f0: 4d3d d2bb 391a d7bc 56df c23c 71a4 23bd
00000200: eaa2 d6bd 41b7 f9bd 0bde c83d 5627 7cbc
00000210: d4b0 e4bd eee9 e7bd bab0 78bd 358a 653c
00000220: 7404 463d 2fe1 0f3d 9bc2 4abe a152 f8bb
00000230: 5eff 01be b337 54bd 04df 32be 8e8c 30bd
00000240: 09ac 1ebe 4be4 043e dabb 073e cba2 2bbe
00000250: ad99 2ebe eb49 e6bc 627d 25be 39ac 653d
00000260: ec26 42bd 6ea0 f73d d0b5 b9bd cfd1 49be
00000270: 8971 f53d c459 55be 60d6 84bd 7321 dd3d
00000280: 7a95 25be 9580 1c3e b582 b3bd dc89 b6ba
00000290: 3c96 c4bd 26a7 f53d 805c 003e 1067 1d3e
000002a0: d9fd 4c3e bb53 7a3d 1cfd c6bd 9f9d 13bd
000002b0: 0179 dc3d c464 363e a12c e53c 1dc4 24bb
000002c0: 09ae 183c 5174 8a3d 2105 8f3d b5c8 5e3e
000002d0: 39fe aebd 3901 fbbd d540 7d3e 961c fc3d
000002e0: d81a 063e 6ff4 383e 709f 26be 8670 47bd
000002f0: 01c7 213d 73b4 23be 8e5e b73d 091c 13be
00000300: a8be 4e3d d128 3dbd d2d4 173d 03c5 323c
00000310: 7a3c 1c3d f006 9e3d d585 65bd b8c7 0ebe
00000320: 6dcc b4bd 134a 993d e967 ddbb 88c2 103e
00000330: fe5b e5bd dea2 4c3d e7c0 8c3d d861 e63d
00000340: 08f5 253e 427a 90bd 0884 74bd 370f aa3d
00000350: 19d3 413b 0c45 993d 0896 fabd e3b6 203e
00000360: d68a 8fbd b644 a8bd 16ba a9bd 6291 22be
00000370: df3e 30be f447 12bd bbfb 82bd 2470 293c
00000380: 11ad bd3c 2493 a33e 3a94 913e 76e4 c23d
00000390: eec9 963d 91ba 8f3e 8507 293e 0d32 743e
000003a0: 5062 483c 8e06 b73d 3bbe 613e 2bff d73d
000003b0: 4e16 9bbd 4650 993e 7660 063e f00a 083e
000003c0: ee1c 843e d63f 61bd 565f 683e 76ae 9c3d
000003d0: bc94 af3d 0a70 243e 47d8 013c 54eb 813d
000003e0: bf50 9d3d e137 013e c60b 88bd fa1b ec3c
000003f0: af7f 083d f3a7 e23c 96e3 7e3e d5f8 503e
0.0005197971 -0.084044166 0.026128616 -0.005598134 0.15260282 0.11347272 0.06898725 0.07162826
0.28068158 0.24779718 0.02616486 0.20938917 -0.14068802 0.12844972 0.13922355 0.116867684
0.05290548 0.28835425 0.12677695 0.2319235 0.11561063 -0.041050635 0.026658261 0.28370982
0.17074916 0.05629373 0.1775862 0.21966247 0.118800595 0.29028958 0.14840427 0.25729883
0.17058802 0.0077086333 0.11055039 0.07567593 0.10852128 -0.06465262 0.12743038 0.17551008
0.143865 0.24875215 0.37209377 0.24388638 0.106300585 0.050791856 0.03863756 -0.070690446
0.1758278 -0.020393884 0.26666993 0.025473826 0.31896022 0.16292118 0.25374314 0.03691007
0.018303901 0.09497693 0.2868309 0.02928488 0.34613538 0.10009425 0.12933053 0.2204523
-0.1027612 0.006304088 0.17060435 -0.14323188 -0.07614265 0.13154417 0.06973117 0.22721988
0.1553339 0.10259666 0.34916002 0.28721684 -0.10794527 0.08978078 -0.022657374 -0.063720256
0.2204246 0.17439304 0.13975634 0.08237259 0.28810242 0.11336517 0.17968425 0.3201033
0.03923191 0.15754953 0.22149432 0.07426494 0.05354827 0.37460363 0.022659423 0.21747337
-0.114313275 -0.09990842 0.11014444 0.042944856 0.0148540875 0.12851702 0.0060430323 -0.11589877
0.000767583 0.07260334 -0.05898037 0.05431145 0.062121104 -0.020032573 0.13254604 -0.06378919
0.025252558 0.07042947 -0.10900719 -0.19053137 -0.16900621 -0.10087583 -0.014287303 0.05130096
-0.003105942 -0.01234531 -0.060305975 -0.15458763 -0.006415999 -0.026257621 0.023788135 -0.039951745
-0.10480292 -0.12193156 0.09807976 -0.015390238 -0.1116654 -0.113239154 -0.060715415 0.014010002
0.04834409 0.03512686 -0.19800799 -0.0075782095 -0.12695071 -0.05181093 -0.17467886 -0.043102793
-0.15495314 0.12977712 0.13255253 -0.1676132 -0.1705081 -0.028111419 -0.16161111 0.056072447
-0.0474004 0.120911464 -0.09067881 -0.19708942 0.11984546 -0.20835024 -0.06486201 0.107973956
-0.16170302 0.15283425 -0.08765165 -0.0013926583 -0.095989674 0.11994772 0.12535286 0.15371346
0.2001871 0.061115008 -0.097162455 -0.03603899 0.10765267 0.17811877 0.027975382 -0.0025141307
0.009318837 0.06760467 0.069834 0.21756251 -0.08544583 -0.122560926 0.24731763 0.1231014
0.13096178 0.18061994 -0.16271758 -0.048691295 0.039496426 -0.15986805 0.08953582 -0.14366163
0.050474793 -0.046181504 0.037068196 0.010911229 0.038143612 0.07716167 -0.056035835 -0.13943374
-0.088280536 0.07484832 -0.006756772 0.14136708 -0.11199187 0.04996001 0.06872731 0.11249131
0.16206753 -0.07054569 -0.059696227 0.08303683 0.0029575287 0.07483873 -0.122356474 0.15694766
-0.07008903 -0.082162306 -0.08287446 -0.15875772 -0.17211483 -0.03571315 -0.0639567 0.010341678
0.023153814 0.31948197 0.284334 0.09516232 0.07362734 0.28072026 0.16506775 0.23847218
0.012230471 0.08936797 0.22045223 0.10546716 -0.07572614 0.29944056 0.13122734 0.13285422
0.25803322 -0.05499252 0.22692618 0.07650463 0.08573291 0.16058365 0.0079251 0.063437134
0.07681417 0.12618972 -0.066428706 0.028821934 0.033324894 0.027667975 0.24891505 0.20407422

bias f4 [64]
00000000: 8ce5 533d c62f 2d3e 8fbd 153e 20ed a4bd
00000010: d60e 833d b9cd 783e 564f 24be 92f9 0abd
00000020: 5d97 953d 021a 27be eb19 a93c de18 a2bc
00000030: 642a 183e 0af2 693e 92da c73d 070b 683e
00000040: c0f4 f5bc d18b 9fbc 3d23 41be 27d0 42be
00000050: 0d6e ea3d 33e0 c53d eccc b03d 3185 9d3c
00000060: 4c14 643c 0c85 343e fabd 433e 5204 883e
00000070: 8ea2 3bbd 6116 6f3e aefc 87bd 619b 91bd
00000080: db85 31be 70ad 0cbe c6d4 543b a67a 083e
00000090: 4abd 20be a617 983e 6f22 be3d 400e fabd
000000a0: c382 febc eba5 033e 1f0e 883e ac42 1a3e
000000b0: db96 17be f3ab 53bc 039a 1cbe 751e 3a3e
000000c0: d1f3 2f3e 4e4e 333e a6b6 9a3c 61dd 803d
000000d0: 1689 f9bc 6450 56bd af00 28bd 3210 853e
000000e0: a0a8 8b3d 8052 c73c 3587 2dbe 2143 8abd
000000f0: 70ea 18be 9f19 d03d 7ebd 003c 1101 c63c
0.051732585 0.16912755 0.14623092 -0.080530405 0.06399314 0.24297227 -0.1604589 -0.033929415
0.07304261 -0.16318515 0.020642241 -0.019787248 0.1485992 0.22846237 0.09758486 0.22660457
-0.030023932 -0.01947585 -0.18861099 -0.19024716 0.11446772 0.09661903 0.08632836 0.01922855
0.013920855 0.17628878 0.19115439 0.26565796 -0.04580932 0.2334838 -0.06639992 -0.07109714
-0.17336218 -0.13738036 0.0032475456 0.13328037 -0.15697208 0.29705542 0.092839114 -0.12209749
-0.031068211 0.12856261 0.26573274 0.15064496 -0.1480364 -0.012919414 -0.15293126 0.18175681
0.17182852 0.1751034 0.018885922 0.06292225 -0.030460875 -0.05232276 -0.041016277 0.2598892
0.06819272 0.024331331 -0.16946109 -0.06751085 -0.14933181 0.10161137 0.007857678 0.02417043

weight f4 [4, 64]
00000000: 8712 46be 4958 5dbe a330 6abe 6f91 69bb
00000010: 3547 2d3d 4fa8 c9bd 0088 943a 47de 19be
00000020: 9bbf 2ebe 7ee9 503c 24da f3b8 e869 7abe
00000030: a420 52be 21aa cfbd e40f de3c 7921 58be
00000040: 344d 3f3d 06f9 f5bd 3a4c 58bb b0f7 533d
00000050: 4603 9a3d 33b3 4abe 2fe3 32be 86bf 05be
00000060: 2ba7 95be 2d0f fcbd e5e6 7abe 5065 32be
00000070: 3aa6 02bd 196e 10be 721f e13d a2a1 6fbe
00000080: 00df bdbb ec10 2b3d d807 413d 3321 7fbe
00000090: ea4b 93bd 4175 1ebe 3026 f4bd d7c7 7f3c
000000a0: b1f1 95bd 160b 32be 403c 57be a305 5ebe
000000b0: d2f3 26bc 8753 ce3d 02cf 83bd adaa 97be
000000c0: ab26 12be a549 31be fec9 37be 03f5 17be
000000d0: b086 1b3d 8c7b 573d e9b9 10be 4566 6dbe
000000e0: a892 65be 1e95 a2bd c5c2 233d 7c24 f6bd
000000f0: 0895 aa3d 44d1 e93c 5d78 87be 58a1 50be
00000100: a0cf 2dbe 7a9f 24be 3f93 50be 39f9 7a3d
00000110: 0929 89bd 8658 51be 80a4 e33c 937e 66be
00000120: 401f 933c 418c db3d ae91 bc3b 9c24 63bd
00000130: a3ec 52be 5192 45be 8b39 1a3d b781 2ebe
00000140: 8aae 2f3d dfaa 34be 3ae6 a23d 8eae d7bd
00000150: f856 a93d 04ca 47bd ed57 26be 9b21 7e3d
00000160: 34af 3a3b b231 04be 6d6d 2cbe 5636 53be
00000170: 3ece 9a3d d8b4 44be 06b8 d6bd b100 85bd
00000180: c0a9 22bd 2ca9 293d 7046 d3bc f064 38be
00000190: d0da a3bc bb5e 73be 847d b6bd 4a91 fe3c
000001a0: a3a7 43be 2678 d9bd f593 82be 630f 97bd
000001b0: dcf1 35bc a4df bbbd 0099 68bc e00a 05be
000001c0: 37e8 dbbd 3c2c 22be 82ad 2cbe d3f2 3abe
000001d0: 38b8 09bd 1825 f2bd ccca 60be 65d5 4dbe
000001e0: 4acf 02be 693f 67be ae4c 06be b04c 413c
000001f0: e274 86bd 179f 15bd 2eb8 1cbe c97d 43be
00000200: 2332 a13d 563b ac3d 4753 893d a184 97bd
00000210: ec88 693d a960 3ebe c419 233d bded 27be
00000220: ec8a eebd a21c 60bd 5e42 4a3c 8186 42bd
00000230: e4b2 e8bd b579 4c3d 154b b53c 518f c33c
00000240: 9ee2 d9bd a14d 37be 6ac6 90bd 739a e43c
00000250: 7061 c33c 2ea4 3cbe e785 2fbd 4331 b63b
00000260: d790 d5bd 8f6d a1bd 232c 92bd f7fc b13d
00000270: 860c 263e 436a 69bd 60f1 d83d 5c08 53be
00000280: 90ca 3fbc d2d6 b03d a8d4 56bd 9923 913d
00000290: 98fd 143d 9feb 8c3d 0070 57bd e901 203d
000002a0: ce49 b2bd 6a4b 29be d5ca d1bd 2e9a 02be
000002b0: 4b84 2fbe 22f2 c9bd d1bf 84bd e45f 033d
000002c0: 00fd a23d 8d14 85bc 20f8 75bd 0354 71be
000002d0: e0b0 783d 0ccb 4fbd 7380 c43c c547 963d
000002e0: 4f45 fdbd 7838 e3bd 8a98 6b3d 9669 8a3d
000002f0: d7cd 6c3d 2cc3 03bc 11e3 f2bd ffc8 0bbd
00000300: d36a 8cbd ae98 5cbc 8c88 9cbd a0cc 2ebd
00000310: d8dc 39bd a2be a6bc ac35 c5bd c9d0 d0bd
00000320: 5319 d4bc b0b3 9f3c 4d7a 15be 9fad ecbd
00000330: b472 823d d7d2 1abd 7662 083e f80c 353a
00000340: 0fa8 14bd 81e0 c1bd 5d77 be3d a4da a83b
00000350: 78cf a5bc 1afb 93bc 375e 2cbe 364d 4ebd
00000360: f3f3 04bd bd2b a4bd 489e b2bd 53b5 18bd
00000370: 7aae 24bd 94c8 c03d 0067 a63c dc91 b43d
00000380: 50d1 3b3d 949d c4bd 145f 983d 278c 8fbd
00000390: 52a1 f5bd 370a 8f3d 08f3 e6bd 237b c83d
000003a0: 1bda 223d 579b ff3c e67c ff3d 7eb0 98bc
000003b0: a0e8 0bbd d4de f4bb a069 9a3b 27a6 d2bd
000003c0: 367c 03be 249d 78bd b473 1fbe bf03 313e
000003d0: c255 9d3d 8049 993d cfda 21bd dcb0 0ebe
000003e0: fb19 4a3d 8c7c 04bc 49e9 823d 9237 153d
000003f0: a203 a33d ec5c e33d f868 a6bc dedd 57bd
-0.19343005 -0.2161571 -0.22870116 -0.0035639664 0.042304236 -0.098465554 0.0011332035 -0.15026198
-0.17065279 0.012750981 -0.00011627775 -0.24454463 -0.20520264 -0.101398714 0.027107187 -0.21106519
0.046704486 -0.12010388 -0.003300442 0.051749885 0.075201556 -0.19794922 -0.17469476 -0.13061342
-0.29229102 -0.12307582 -0.24502142 -0.1742146 -0.031896807 -0.14104499 0.10992326 -0.23401502
-0.005794406 0.041764185 0.04712662 -0.24915008 -0.07192214 -0.15474416 -0.11921346 0.01561161
-0.073214896 -0.17387041 -0.21019077 -0.21681838 -0.010189967 0.10074525 -0.06435968 -0.29622403
-0.14272563 -0.1731325 -0.17948148 -0.14839558 0.037970245 0.052608058 -0.14133419 -0.23183544
-0.22419226 -0.07938598 0.03998067 -0.120186776 0.08329207 0.028542168 -0.26459017 -0.20374048
-0.16973734 -0.1607646 -0.2036867 0.061272833 -0.0669728 -0.20443925 0.0277884 -0.22509222
0.017959237 0.10720111 0.005754671 -0.055454835 -0.20598082 -0.19294097 0.037652534 -0.1704167
0.042891063 -0.17643307 0.079540685 -0.105313405 0.08268541 -0.04877664 -0.16244479 0.062043767
0.0028485777 -0.12909582 -0.16838618 -0.20626196 0.07558869 -0.19209611 -0.104843184 -0.064942725
-0.039712667 0.0414211 -0.025790423 -0.18007255 -0.020001799 -0.23766606 -0.08910659 0.031075139
-0.19106917 -0.106186196 -0.25503507 -0.07375982 -0.011105027 -0.091735154 -0.014196634 -0.1299243
-0.10737651 -0.15837187 -0.16863063 -0.18256693 -0.03362295 -0.11823481 -0.21952361 -0.20100935
-0.12774387 -0.22582783 -0.13115188 0.011798069 -0.065652624 -0.036528673 -0.15304634 -0.19090952
0.07870891 0.08409755 0.06705337 -0.07398344 0.057015345 -0.1859156 0.039819494 -0.16399284
-0.11647591 -0.054714806 0.012344925 -0.047491554 -0.11362246 0.049920756 0.022130528 0.02387205
-0.10638927 -0.17900707 -0.070690945 0.027905678 0.023850173 -0.18422005 -0.04285231 0.0055600717
-0.10428017 -0.07882225 -0.07137325 0.08690827 0.16215715 -0.056986105 0.10592914 -0.20608658
-0.0117060095 0.08634724 -0.0524489 0.07086868 0.03637466 0.06880879 -0.052597046 0.03906432
-0.087054834 -0.16532674 -0.10243765 -0.12754127 -0.1714031 -0.09860636 -0.064818986 0.03207387
0.07958412 -0.016245151 -0.060051084 -0.23567204 0.060715556 -0.05073075 0.02398703 0.07337908
-0.12366735 -0.11094755 0.05751852 0.0675842 0.05781349 -0.008042138 -0.11859716 -0.03412723
-0.068563126 -0.013464136 -0.07643232 -0.042675614 -0.04537663 -0.020354573 -0.09629378 -0.101960726
-0.025890982 0.019494861 -0.14597435 -0.11556553 0.06369534 -0.03779873 0.1331881 0.00069065345
-0.036293086 -0.09466649 0.093001105 0.005153017 -0.02024053 -0.01806407 -0.16832815 -0.050366603
-0.03245921 -0.08016155 -0.08721596 -0.0372823 -0.040205456 0.09413257 0.020312786 0.08816883
0.045853913 -0.09600368 0.0744001 -0.07009154 -0.1199366 0.0698437 -0.11276823 0.097891115
0.039758783 0.031202001 0.12474994 -0.018638846 -0.034157395 -0.0074728522 0.0047122985 -0.10285597
-0.12840351 -0.060696736 -0.15571481 0.17286585 0.07682373 0.07484722 -0.039515313 -0.13934654
0.049341183 -0.008086335 0.06392152 0.03642995 0.07959677 0.11101708 -0.020313725 -0.052701823

bias f4 [4]
00000000: e09b 1dbe c661 00bd b4f2 5b3d 27d7 8e3c
-0.15391493 -0.031343244 0.053698257 0.017436577
