saves/kevin/kevin_nn_2025-02-22_17-17-26.pt (torch, 17468 bytes, 8 tensors)

weight f4 [16, 16]
-0.34339377 -1.6143488 -1.201536 -0.5750189 -0.44108433 -0.1669702 -0.11190474 -0.05777702
-0.049712703 -0.4155024 -0.032024607 0.16164295 0.2959289 -0.65807587 0.7042467 -0.8007052
-0.017520662 -0.06232538 -0.696687 0.16770448 0.0049623977 -2.602017 -0.2823051 -0.1855017
-0.033938546 -0.07882678 -0.04042801 0.19270363 -0.05921341 0.13603783 0.47519675 0.021133818
-0.019429151 -3.204723 -0.19431512 0.060398754 -0.060218975 -0.12813593 -1.3968797 0.31173864
-0.10853114 -0.3982897 -1.5237122 0.26526144 -0.007863004 -5.4151382 0.57292444 0.30104917
-0.09415017 0.8742818 -4.3488135 0.6336532 -0.092736125 0.080563195 0.81701815 -0.21157262
0.10701537 0.5664616 0.095756955 0.28640398 0.095240116 -0.065459 1.9658777 -0.4529306
0.026552336 -2.949412 0.11528922 -0.15901609 -0.030078707 -0.02265027 -0.2909462 0.28116962
0.031164687 -0.36877236 -0.25669676 -0.17039542 -0.009555353 -0.13937426 -0.5135915 0.27504903
-0.19218352 -0.398348 -0.021981062 -0.039528813 0.053514883 0.03359401 -0.23173457 -0.013778943
-0.024590915 -0.3160734 0.09850602 -0.07326223 0.019865476 -0.13029148 -0.2341528 0.020010507
-0.027726138 -0.14708948 0.10900092 -0.22489794 0.12494702 -0.32364342 -0.6278422 -0.37137863
0.19376843 -0.0651036 0.024342407 -0.3770829 -0.38582382 0.024213044 0.003980436 0.15870994
-0.011733394 -1.2239223 0.39429536 -0.01316035 0.006340148 -0.034840178 -0.46352234 0.21845175
-0.002459703 0.86469966 1.1731064 0.077577904 -0.02928587 -0.43550333 -2.31626 0.2716404
0.039364085 -0.4448284 0.48401803 0.3734899 0.00755891 0.054941755 2.119396 -0.08968881
0.028978119 -0.17749956 -1.8832526 0.38978967 0.0046771234 -0.18826702 -0.94677925 -0.07605336
0.028745916 0.027971579 0.5573318 0.247486 -0.037750844 0.005229859 -1.6886901 -0.09587516
0.031847715 0.0065962533 -2.3604252 0.27450413 0.09358322 0.18082818 2.768549 -0.21565263
0.016980221 -0.20484 -0.9203753 -0.10263119 -0.0763577 -0.039907146 -0.11400344 -0.12671882
0.1563565 -1.5059626 0.68009335 -0.3701047 -0.08024571 -0.3188796 -0.67138183 -0.05705257
0.02400893 -2.5593355 -0.53811264 -0.32827044 -0.02827637 -0.059501242 -0.56736606 0.57809556
-0.049017455 -1.926592 -0.4360927 -0.3010377 -0.19459312 -1.821404 -0.17160772 -0.9067646
-0.03480484 0.044709593 -0.9887924 0.37499923 -0.028579518 -0.14729305 -3.1362753 0.09900588
-0.01823514 -0.05158055 0.2106767 0.3281855 -0.068242885 -0.13213657 -2.745787 0.20154439
-0.04285077 1.4051341 1.0308313 -0.19126837 0.0020948595 -0.09026694 -0.045722984 0.17238225
-0.017700609 0.2044826 -0.2760378 -0.23067035 -0.034176927 -0.16909659 -1.3538193 0.22591403
-0.27980152 -0.044460315 0.09822111 -0.031888153 -0.14769992 -0.2914628 -0.20048513 -0.15210442
-0.28872487 0.056299888 -0.26356933 0.12561652 0.049696274 -0.079803385 0.027756572 -0.20748322
-0.028101048 -0.43495655 -1.7147003 0.21975857 -0.01962729 0.046188567 -0.27471253 0.25850433
-0.012300214 -4.937253 0.61137474 0.12606072 -0.05170887 -0.107978866 -0.23850107 0.2433156
00000000: 4fd1 afbe fba2 cebf efcb 99bf 7034 13bf
00000010: ced5 e1be 3cfa 2abe 502e e5bd 99a7 6cbd
00000020: 8c9f 4bbd bbbc d4be 3c2c 03bd bb85 253e
00000030: fe83 973e a977 28bf 8349 343f 04fb 4cbf
00000040: 7e87 8fbc e648 7fbd 145a 32bf b9ba 2b3e
00000050: 9c9b a23b 7287 26c0 4b8a 90be 28f4 3dbe
00000060: 2503 0bbd ef6f a1bd d797 25bd 1a54 453e
00000070: c389 72bd 804d 0b3e fd4c f33e d420 ad3c
00000080: e229 9fbc 2e1a 4dc0 8bfa 46be af64 773d
00000090: 2ca8 76bd 1136 03be f4cc b2bf 359c 9f3e
000000a0: 9345 debd a1ec cbbe 0009 c3bf 59d0 873e
000000b0: d4d3 00bc d048 adc0 2dab 123f 1e23 9a3e
000000c0: ced1 c0bd efd0 5f3f 7b29 8bc0 1937 223f
000000d0: 70ec bdbd 51fe a43d 1a28 513f 7ea6 58be
000000e0: e02a db3d a103 113f 391c c43d 8ba3 923e
000000f0: 400d c33d 5e0f 86bd e1a1 fb3f 85e6 e7be
00000100: 4984 d93c 2bc3 3cc0 c11c ec3d 1dd5 22be
00000110: 9f67 f6bc 0f8d b9bc e6f6 94be 77f5 8f3e
00000120: 164d ff3c bbcf bcbe c26d 83be 237c 2ebe
00000130: 0e8e 1cbc 20b8 0ebe bc7a 03bf 3ad3 8c3e
00000140: c2cb 44be 45f4 cbbe a111 b4bc f7e8 21bd
00000150: 6c32 5b3d df99 093d d44b 6dbe 13c1 61bc
00000160: e372 c9bc 5fd4 a1be 86bd c93d 820a 96bd
00000170: ecbc a23c 216b 05be c0c5 6fbe 13ed a33c
00000180: ed21 e3bc a09e 16be e03b df3d a54b 66be
00000190: 39e4 ff3d 97b4 a5be 44ba 20bf 5725 bebe
000001a0: 3b6b 463e 0955 85bd ba69 c73c 0311 c1be
000001b0: b38a c5be 6f5a c63c 516e 823b dc84 223e
000001c0: 6c3d 40bc 7ca9 9cbf 15e1 c93e 829e 57bc
000001d0: 04c1 cf3b 93b4 0ebd cd52 edbe d1b1 5f3e
000001e0: f832 21bb f55c 5d3f 5a28 963f 2ae1 9e3d
000001f0: ece8 efbc 4bfa debe 9b3d 14c0 7314 8b3e
00000200: 3c3c 213d 8cc0 e3be 36d1 f73e 113a bf3e
00000210: bcb0 f73b 9b0a 613d 2fa4 0740 c4ae b7bd
00000220: 8563 ed3c 72c2 35be 6c0e f1bf 8392 c73e
00000230: 8e42 993b 12c9 40be 2060 72bf ddc1 9bbd
00000240: 8e7c eb3c a724 e53c 4cad 0e3f f86c 7d3e
00000250: a1a0 1abd 3d5f ab3b ff26 d8bf 325a c4bd
00000260: c072 023d 6225 d83b 3511 17c0 ce8b 8c3e
00000270: 8fa8 bf3d 062b 393e e82f 3140 0bd4 5cbe
00000280: 1b1a 8b3c 94c1 51be b79d 6bbf 4d30 d2bd
00000290: 6d61 9cbd ad75 23bd a37a e9bd 94c2 01be
000002a0: eb1b 203e 62c3 c0bf 991a 2e3f 5d7e bdbe
000002b0: dd57 a4bd 3044 a3be aedf 2bbf f5af 69bd
000002c0: 60ae c43c 27cc 23c0 c0c1 09bf 1013 a8be
000002d0: d9a3 e7bc 93b7 73bd e73e 11bf 12fe 133f
000002e0: 87c6 48bd 919a f6bf 8b47 dfbe 9d21 9abe
000002f0: 6b43 47be c423 e9bf efb9 2fbe ba21 68bf
00000300: 858f 0ebd 6821 373d 8021 7dbf e6ff bf3e
00000310: 981f eabc fdd3 16be bcb8 48c0 98c3 ca3d
00000320: dc61 95bc 2046 53bd a2bb 573e ee07 a83e
00000330: edc2 8bbd cf4e 07be f9ba 2fc0 a761 4e3e
00000340: 4a84 2fbd 6fdb b33f 48f2 833f dbdb 43be
00000350: e949 093b e0dd b8bd 0648 3bbd f984 303e
00000360: de00 91bc e363 513e d454 8dbe d934 6cbe
00000370: 1bfd 0bbd a827 2dbe f349 adbf 0256 673e
00000380: 2542 8fbe 051c 36bd 2628 c93d 279d 02bd
00000390: a63e 17be 9d3a 95be f94b 4dbe 43c1 1bbe
000003a0: bfd3 93be b69a 663d 8ff2 86be 9ea1 003e
000003b0: 528e 4b3d f56f a3bd c061 e33c 7b76 54be
000003c0: 2b34 e6bc a0b2 debe 4d7b dbbf 6408 613e
000003d0: 69c9 a0bc 3930 3d3d 1fa7 8cbe ae5a 843e
000003e0: d686 49bc fafd 9dc0 0e83 1c3f 1016 013e
000003f0: aecc 53bd 0624 ddbd a039 74be ba27 793e

bias f4 [16]
0.02624292 0.07718626 0.4167956 0.09172395 0.28911433 -0.22987431 0.029039651 0.24626715
0.2780724 0.0725388 0.20880757 0.26393917 -0.09171046 0.31870428 -0.008165044 -0.09408469
00000000: 64fb d63c d413 9e3d 3c66 d53e c4d9 bb3d
00000010: cb06 943e 2c64 6bbe 90e4 ed3c 752d 7c3e
00000020: 815f 8e3e 398f 943d a7d1 553e 0923 873e
00000030: b2d2 bbbd 352d a33e adc6 05bc 79af c0bd

weight f4 [32, 16]
-0.27239454 1.71213 0.13348302 0.8308096 -0.76977664 0.07708303 0.027097864 0.93553555
0.38729355 0.45317146 0.8260079 3.0092452 -0.34958246 0.49581024 -0.009141783 1.4765288
1.4862294 0.096145816 0.21057343 0.29980564 -0.24445188 0.1977193 0.380315 -0.73303115
0.24846716 0.32823887 -0.75478595 1.3013844 0.70584977 0.10643343 0.035396677 -0.9382765
-0.5431496 -0.7165327 -0.2456473 0.3692565 -0.5094962 0.21879521 0.20595 0.26612046
0.021221979 -0.25562668 0.20262071 -1.2295545 1.1852844 -0.403227 -0.062585674 0.31651422
0.5545191 0.39228448 -0.7951767 0.6013688 1.3099326 0.029477576 -0.04028915 -0.56052065
-0.6073652 -1.5688761 0.633782 1.3173043 -0.06840788 1.2593017 -0.10306105 0.37235427
0.9688173 -0.37910244 -0.35458606 -0.4709153 -0.30902046 -0.3136748 0.1269828 1.0988476
0.02485128 -0.5503743 0.6193414 -0.051733784 -0.20911601 -2.3464572 0.063502245 -0.22400953
0.2370158 -0.87480265 -0.21755382 -0.7998259 0.2539592 0.30029032 0.20254925 0.04024321
-0.13834307 0.7364724 0.265179 -0.5095476 0.7542461 0.4672044 -0.0059617693 0.4306447
0.86280704 -0.56699866 -0.2655558 -0.24510862 1.2702234 0.20630054 0.4208462 -1.4103699
0.6489774 0.51164305 -1.289239 0.4237027 0.69556355 0.3258102 -0.12782212 -1.9519495
-0.12703314 -0.019570202 -0.19844931 -0.06392691 -0.21028447 -0.09501034 -0.10113016 -0.2520466
-0.14024717 0.042006887 0.15821782 0.11697053 -0.18547079 -0.14822292 -0.055708677 -0.14364654
0.61596453 0.24370316 0.09656538 -0.82502156 1.3298384 0.33724004 0.51980567 -0.47338858
0.49870417 0.19908349 -0.93814796 -0.33244568 1.0023218 -0.013181694 0.25216034 -1.8144032
0.23409863 -1.2721182 0.33464825 -0.64910066 0.2226207 0.2183635 0.21743228 0.67766976
-0.6015901 0.5239366 0.08285233 -1.8799865 1.0417995 0.36128798 -0.1135779 0.39511505
1.222982 -0.08745154 -0.016871564 0.22653675 2.0074632 0.075924814 0.5937892 -0.56964725
0.5000531 0.2161642 -1.0342549 0.41844732 0.46013102 -0.33741236 -0.051056914 -3.2476149
1.3284931 0.8845613 -0.0350969 -0.3098357 0.4006759 -0.12759824 0.25554603 0.2970885
0.20874353 -0.030615486 -0.5127005 2.2414587 -0.08422074 -0.99386126 0.122263454 -0.5245129
0.9317449 0.34546927 -0.33446738 -0.39177322 -0.08941593 0.26302293 0.54550016 0.035889152
-0.38235536 0.39973667 0.813132 1.8702759 0.10378872 -0.5720333 -0.09090475 0.6799971
-0.32651576 0.7062274 -0.23134753 0.5284304 -2.0320225 0.11231508 0.3631555 1.0303301
0.40050757 -0.6599387 0.29870412 1.6107795 0.16530567 0.7260049 0.037061095 0.9822571
-0.12947288 0.025605597 -0.19590782 -0.0070958897 -0.36353326 0.01958121 0.031745523 -0.16764778
-0.09396064 -0.042006705 -0.19064166 -0.281125 0.0026112664 -0.057127606 -0.22475447 -0.075215995
0.7046189 0.66530997 0.2949502 0.85725844 -1.9788749 -0.11881946 0.01990294 0.078696206
-0.077052645 -0.50924796 0.5601059 1.8386897 0.6152887 -0.06107009 0.23366027 0.05038593
00000000: 4c77 8bbe 1327 db3f c6af 083e f0af 543f
00000010: 1510 45bf b5dd 9d3d 57fc dd3c 427f 6f3f
00000020: 574b c63e 1706 e83e 4175 533f 7997 4040
00000030: 79fc b2be d7da fd3e 6bc7 15bc e5fe bc3f
00000040: c43c be3f 19e8 c43d 90a0 573e 2080 993e
00000050: 9851 7abe ee76 4a3e a6b8 c23e eea7 3bbf
00000060: 2d6e 7e3e ed0e a83e a739 41bf c493 a63f
00000070: 92b2 343f c5f9 d93d 1bfc 103d e432 70bf
00000080: da0b 0bbf b06e 37bf f78a 7bbe 300f bd3e
00000090: 586e 02bf da0b 603e 8fe4 523e f140 883e
000000a0: b7d9 ad3c 80e1 82be ce7b 4f3e 0b62 9dbf
000000b0: 66b7 973f c573 cebe eb2c 80bd 270e a23e
000000c0: f7f4 0d3f 83d9 c83e b390 4bbf 4ef3 193f
000000d0: dfab a73f f57a f13c 3c06 25bd 487e 0fbf
000000e0: 497c 1bbf efd0 c8bf 8a3f 223f 6d9d a83f
000000f0: 6e19 8cbd cc30 a13f ac11 d3bd 38a5 be3e
00000100: 6904 783f b719 c2be 4e8c b5be cf1b f1be
00000110: ee37 9ebe fc99 a0be c707 023e 0aa7 8c3f
00000120: e994 cb3c 55e5 0cbf 288d 1e3f cee6 53bd
00000130: 8222 56be 5b2c 16c0 770d 823d c162 65be
00000140: 45b4 723e 11f3 5fbf 6ec6 5ebe 64c1 4cbf
00000150: f106 823e a7bf 993e 1269 4f3e 10d6 243d
00000160: cea9 0dbe 7589 3c3f 8bc5 873e b671 02bf
00000170: 4616 413f 6a35 ef3e f25a c3bb 767d dc3e
00000180: ece0 5c3f d326 11bf eef6 87be c1fd 7abe
00000190: ae96 a23f 7340 533e 2779 d73e 0087 b4bf
000001a0: 6223 263f 0afb 023f c905 a5bf 8fef d83e
000001b0: 7410 323f 98d0 a63e cde3 02be 7bd9 f9bf
000001c0: fa14 02be b051 a0bc 4c36 4bbe 1dec 82bd
000001d0: d054 57be c894 c2bd 541d cfbd 410c 81be
000001e0: f49c 0fbe 6a0f 2c3d da03 223e 3f8e ef3d
000001f0: 0eec 3dbe c0c7 17be c82e 64bd 1418 13be
00000200: daaf 1d3f 528d 793e 12c4 c53d 9d34 53bf
00000210: 2538 aa3f baaa ac3e fc11 053f fd5f f2be
00000220: 2756 ff3e 8bdc 4b3e 772a 70bf 5236 aabe
00000230: 154c 803f 08f8 57bc 291b 813e 5d3e e8bf
00000240: 8db7 6f3e c5d4 a2bf 0457 ab3e 762b 26bf
00000250: aef6 633e ae9a 5f3e 91a6 5e3e c47b 2d3f
00000260: cf01 1abf b620 063f 7bae a93d 66a3 f0bf
00000270: b059 853f bdfa b83e 889b e8bd 854c ca3e
00000280: ad8a 9c3f cb19 b3bd 3c36 8abc 40f9 673e
00000290: 477a 0040 787e 9b3d 9202 183f 67d4 11bf
000002a0: 7b03 003f 265a 5d3e 7762 84bf ba3e d63e
000002b0: 4b96 eb3e 50c1 acbe 0e21 51bd ecd8 4fc0
000002c0: 100c aa3f 9c72 623f c4c1 0fbd c9a2 9ebe
000002d0: 6425 cd3e 1da9 02be eed6 823e fc1b 983e
000002e0: ddc0 553e 54cd fabc 5740 03bf 0f74 0f40
000002f0: ec7b acbd b16d 7ebf 4365 fa3d 7a46 06bf
00000300: d586 6e3f 59e1 b03e 4f3f abbe 8096 c8be
00000310: b31f b7bd f1aa 863e e6a5 0b3f 8100 133d
00000320: 15c4 c3be 49aa cc3e 6b29 503f 3365 ef3f
00000330: 2e8f d43d c670 12bf 452c babd 4a14 2e3f
00000340: 132d a7be 52cb 343f 5ee6 6cbe 3747 073f
00000350: a80c 02c0 7305 e63d 85ef b93e dbe1 833f
00000360: 540f cd3e bef1 28bf bfef 983e 062e ce3f
00000370: e445 293e 75db 393f 60cd 173d 3475 7b3f
00000380: 8a94 04be d4c2 d13c 0f9c 48be a384 e8bb
00000390: 0821 babe c668 a03c 9807 023d dcab 2bbe
000003a0: 706e c0bd 390f 2cbd 9137 43be 9eef 8fbe
000003b0: c821 2b3b a3fe 69bd 0926 66be d80a 9abd
000003c0: e761 343f c151 2a3f b603 973e 4a75 5b3f
000003d0: c64b fdbf 9e57 f3bd 7e0b a33c 7a2b a13d
000003e0: c7cd 9dbd 135e 02bf 1a63 0f3f 2f5a eb3f
000003f0: 8f83 1d3f a124 7abd a344 6f3e 7a61 4e3d

bias f4 [32]
0.74449086 0.84360707 -0.70387775 0.3430062 -0.43081173 0.26023227 0.6629068 -0.34118876
0.529588 0.46983504 0.5726632 1.0992953 0.5072728 0.28121752 -0.34693646 0.50741273
1.3351057 -0.52846 -0.084319 0.043830276 0.7259872 -0.8856917 0.090414144 0.9097703
0.26400048 -0.6495685 1.2547499 -0.20833306 -0.12909241 -0.061493877 1.7018315 0.87535894
00000000: f496 3e3f a2f6 573f 5531 34bf 829e af3e
00000010: 5b93 dcbe 2a3d 853e 43b4 293f 4bb0 aebe
00000020: 1493 073f 388e f03e 0e9a 123f b5b5 8c3f
00000030: a1dc 013f befb 8f3e a8a1 b1be cde5 013f
00000040: bee4 aa3f 2849 07bf 71af acbd 6087 333d
00000050: 4cda 393f b1bc 62bf 0d2b b93d b5e6 683f
00000060: 122b 873e 1f4a 26bf a59b a03f 4355 55be
00000070: cd30 04be 01e1 7bbd 9dd5 d93f 8617 603f

weight f4 [64, 32]
-0.26880348 -0.13570125 -0.26414093 0.10414299 -0.28072616 0.25831932 0.21487758 -0.09261894
0.0033148916 0.055999618 -0.12839274 -0.032371525 -0.28348297 -0.024213867 -0.05377209 -0.21492773
0.008036151 -0.14426093 -0.13636287 -0.016063618 -0.15698822 0.20261389 0.041470684 -0.18055125
-0.29319763 -0.25694063 -0.19982696 -0.15710455 0.1260391 -0.14839718 -0.10734607 -0.19009912
-0.2264264 -0.39101958 0.2594977 -0.46552867 -0.15142542 0.009260733 -0.34912452 -0.13000967
-0.39313686 -0.025585366 -0.30013728 -0.28933302 -0.35735983 0.04059148 -0.04539654 -0.214386
-0.09930957 -0.10563306 -0.1608526 -0.07098988 -0.42175677 -0.4080227 -0.016066095 -0.097797014
-0.36645702 0.15982057 -0.6247153 -0.336649 -0.16487895 -0.13481158 -0.023447359 -0.74280226
-0.187077 -0.10989209 -0.16017678 0.01334336 -0.17951779 0.0246749 -0.20132485 0.03600127
0.0014437056 -0.078996666 -0.023019757 -0.13225067 -0.05371058 0.026900548 0.042192757 -0.13879737
-0.06648777 -0.10598664 0.11549496 0.17629313 -0.036338475 0.049054928 -0.00878468 -0.058095895
-0.086288564 -0.039396934 -0.16403858 -0.012566272 0.07902661 0.05710603 -0.12909009 -0.16999546
-0.24970594 0.2913473 0.40333 -0.48415494 0.38242307 -0.66915816 0.26831818 -0.04723905
0.6163745 -0.35633212 0.97823125 0.57975715 0.06086056 -0.40481246 0.15797663 0.24445787
-0.18125792 0.8256575 -2.2546196 -0.5225198 0.18911062 0.31341606 -0.7113212 -0.10982566
-0.6457684 -0.026772603 -0.087797225 -0.64205605 -0.080518104 0.41049358 -0.5112234 0.68954015
-0.36083466 -0.33595765 0.2155826 0.43009445 0.1157736 0.09640783 -0.6547554 -0.05881942
-0.12995102 -0.3687288 -0.4272658 -0.42258945 -0.26007432 -0.089768626 0.12507607 0.09059516
-0.09790857 -0.22788538 -0.13567317 -0.16080385 -0.6217104 -0.2827122 0.3661529 -0.40219316
-0.23783003 0.59923464 -0.45440754 -0.4006158 0.15092322 0.15049793 -0.3930058 -0.49634126
0.043517258 -0.027687045 -0.21950407 -0.06579089 -0.21073186 0.106511176 -0.11988812 -0.028544247
-0.1676331 0.006853478 0.116232075 -0.07617242 -0.22762837 -0.23482236 -0.14889124 -0.16754185
-0.24395627 -0.018724015 -0.10937784 0.17247708 -0.1861736 0.105517544 -0.24072312 -0.11845202
-0.24556512 0.0607482 0.002669786 0.052372262 -0.2588345 -0.14218011 -0.26500085 -0.09768195
-0.09691425 0.2660436 0.23207344 -0.8402579 -0.74646646 0.08778199 0.20368367 0.012369915
-0.29827887 0.49826896 1.0041437 -0.71148133 0.6347285 -0.35227326 0.039240696 0.11324715
0.792657 -0.2376341 -0.53647095 -0.90000564 0.089837946 -0.06300097 0.097451955 -0.009524831
0.3431364 0.51545745 0.8175909 -0.25913134 -0.23650149 -0.6325076 -0.5745466 -0.501508
0.39870822 0.9208011 -0.7770959 -0.7811494 2.6865933 0.47729304 0.73333657 0.13034488
1.5322716 0.64230984 0.15100016 1.9421344 0.7048248 -0.11848029 -0.15085062 -0.29768768
-0.93979055 -0.1669764 -0.116418935 -0.95342255 0.9360438 -0.49546134 0.7169109 0.1774364
1.053752 0.27944744 0.10386001 1.6541022 -0.33039147 -0.6796447 0.6978739 0.9310406
00000000: 9ca0 89be 45f5 0abe 7b3d 87be ec48 d53d
00000010: 57bb 8fbe 6e42 843e de08 5c3e 00af bdbd
00000020: a73e 593b db5f 653d 6379 03be 0198 04bd
00000030: ae24 91be 295c c6bc 1f40 5cbd 0416 5cbe
00000040: 0faa 033c 23b9 13be b5a2 0bbe d997 83bc
00000050: 85c1 20be 047a 4f3e 2add 293d 6de2 38be
00000060: 001e 96be b98d 83be 709f 4cbe 04e0 20be
00000070: 6510 013e 6ef5 17be 42d8 dbbd 58a9 42be
00000080: 52dc 67be b833 c8be e2dc 843e c659 eebe
00000090: 440f 1bbe 54ba 173c 73c0 b2be 4121 05be
000000a0: 3c49 c9be 6798 d1bc 98ab 99be 7523 94be
000000b0: def7 b6be 4043 263d b9f1 39bd 0188 5bbe
000000c0: d162 cbbd 2556 d8bd 8bb6 24be 2463 91bd
000000d0: 81f0 d7be 5ae8 d0be 0b9d 83bc cd49 c8bd
000000e0: 41a0 bbbe 01a8 233e 58ed 1fbf 425d acbe
000000f0: 07d6 28be 0c0c 0abe ad14 c0bc 4a28 3ebf
00000100: 1d91 3fbe 1b0f e1bd 6205 24be 1c9e 5a3c
00000110: 83d3 37be 0423 ca3c 1a28 4ebe 1176 133d
00000120: b93a bd3a 01c9 a1bd ee93 bcbc b86c 07be
00000130: a0ff 5bbd 8a5e dc3c 50d2 2c3d e620 0ebe
00000140: bd2a 88bd 860f d9bd 9f88 ec3d 3086 343e
00000150: a7d7 14bd d2ed 483d 9eed 0fbc f6f5 6dbd
00000160: 0fb8 b0bd ae5e 21bd bbf9 27be c4e2 4dbc
00000170: b4d8 a13d 03e8 693d 3130 04be 4a13 2ebe
00000180: eab2 7fbe 792b 953e 4581 ce3e 28e3 f7be
00000190: f5cc c33e f34d 2bbf 0061 893e bc7d 41bd
000001a0: b8ca 1d3f 2a71 b6be 5d6d 7a3f f76a 143f
000001b0: ec48 793d 9443 cfbe a0c4 213e 2a53 7a3e
000001c0: ad9b 39be 4a5e 533f b04b 10c0 dcc3 05bf
000001d0: 37a6 413e 1278 a03e 2519 36bf 47ec e0bd
000001e0: 1451 25bf 3852 dbbc 08cf b3bd c95d 24bf
000001f0: ade6 a4bd 372c d23e 89df 02bf b485 303f
00000200: 52bf b8be a402 acbe afc1 5c3e 5735 dc3e
00000210: b61a ed3d 7871 c53d 0d9e 27bf a2ec 70bd
00000220: e111 05be 05ca bcbe 95c2 dabe a55d d8be
00000230: 7628 85be 9dd8 b7bd f113 003e f589 b93d
00000240: 4a84 c8bd c95a 69be e8ed 0abe c4a9 24be
00000250: 6a28 1fbf a7bf 90be 6578 bb3e 43ec cdbe
00000260: b789 73be 7167 193f 1ba8 e8be 841d cdbe
00000270: 9e8b 1a3e 211c 1a3e 0e38 c9be 7120 febe
00000280: 273f 323d f1cf e2bc adc5 60be 60bd 86bd
00000290: 18ca 57be 8822 da3d e787 f5bd a0d5 e9bc
000002a0: 03a8 2bbe 2493 e03b 150b ee3d 4900 9cbd
000002b0: 6917 69be 4675 70be f276 18be 1790 2bbe
000002c0: accf 79be 1b63 99bc 7d01 e0bd d59d 303e
000002d0: 4ba4 3ebe 9519 d83d 1f80 76be f996 f2bd
000002e0: 6c75 7bbe 1bd3 783d 94f7 2e3b 4c84 563d
000002f0: f585 84be aa97 11be 31ae 87be 790d c8bd
00000300: fa7a c6bd de36 883e a9a4 6d3e 241b 57bf
00000310: 6d18 3fbf 0bc7 b33d 7492 503e 2fab 4a3c
00000320: 02b8 98be 1c1d ff3e c887 803f a423 36bf
00000330: 917d 223f 295d b4be daba 203d 1fee e73d
00000340: 92eb 4a3f 5a56 73be 2956 09bf c566 66bf
00000350: f5fc b73d a706 81bd e494 c73d 090e 1cbc
00000360: 93af af3e 05f5 033f a34d 513f ddac 84be
00000370: 722d 72be 05ec 21bf 7c15 13bf d462 00bf
00000380: 7c23 cc3e 9fb9 6b3f c2ef 46bf 68f9 47bf
00000390: 25f1 2b40 c15f f43e f2bb 3b3f 2179 053e
000003a0: 7a21 c43f 6b6e 243f c99f 1a3e dc97 f83f
000003b0: 666f 343f cba5 f2bd 9678 1abe 856a 98be
000003c0: 1d96 70bf ddfb 2abe 0d6d eebd 8013 74bf
000003d0: 91a0 6f3f 1cad fdbe 7987 373f e3b1 353e
000003e0: 58e1 863f bc13 8f3e 8fb4 d43d 9fb9 d33f
000003f0: 1229 a9be 32fd 2dbf dda7 323f ad58 6e3f

bias f4 [64]
-0.08193967 -0.1368788 -0.16711996 -0.012984528 -0.5265602 -0.2609451 0.1821077 -0.0011887694
3.5360134 0.19825362 -0.14165986 -0.3445251 0.37280756 -0.29348755 -0.41141078 -0.08229388
-0.19401097 -0.02080994 -0.20131083 -0.250627 -0.56399405 0.29503864 0.11850846 -0.15506881
-0.01484257 -0.45004338 0.44627175 -0.14198571 -0.24288477 -0.155536 -0.5052151 -0.042627882
0.37903145 -0.2513548 -0.30053386 -0.68770826 0.6461306 2.4435546 -0.60002536 1.6459084
-0.2612254 0.22900218 -0.84885406 -0.25331792 0.7224866 -0.7760463 -0.10819086 -0.43504727
-0.18285145 -0.36074793 -0.83282924 0.0029010493 -0.0070433514 0.005846396 2.93268 -0.23787269
0.28809762 0.57949936 -0.18217228 -0.04967235 -0.18849126 -0.5842934 -0.24310623 -0.2140113
00000000: fccf a7bd f529 0cbe 7f21 2bbe 0fbd 54bc
00000010: a6cc 06bf 999a 85be 717a 3a3e 7bd0 9bba
00000020: 0b4e 6240 ff02 4b3e 480f 11be 9865 b0be
00000030: a2e0 be3e 0044 96be 6fa4 d2be b289 a8bd
00000040: d0aa 46be 9b79 aabc 6d24 4ebe 2f52 80be
00000050: ea61 10bf 4e0f 973e 90b4 f23d 5cca 1ebe
00000060: 402e 73bc 166c e6be bb7d e43e b464 11be
00000070: c9b6 78be d444 1fbe c755 01bf 939a 2ebd
00000080: 6910 c23e 94b1 80be 93df 99be a60d 30bf
00000090: d168 253f 3363 1c40 439b 19bf 20ad d23f
000000a0: 56bf 85be 8c7f 6a3e 804e 59bf e3b2 81be
000000b0: e2f4 383f f8aa 46bf 2b93 ddbd 84be debe
000000c0: 693d 3bbe f4b3 b8be 4c34 55bf 881f 3e3b
000000d0: eacb e6bb 2093 bf3b 07b1 3b40 e694 73be
000000e0: 8881 933e 125a 143f 5f8b 3abe 3c75 4bbd
000000f0: da03 41be 4194 15bf d7f0 78be c725 5bbe

weight f4 [4, 64]
0.045067616 0.29939327 -0.07607707 0.7421166 0.048993796 0.044360183 0.5449005 -0.09817063
-0.11241154 -0.69976586 -0.87554747 0.08898612 -0.3124804 0.5676231 -0.1112455 0.1624505
-0.108228676 0.0017730156 0.112967506 -0.038299605 0.7691149 0.46199343 -0.02844959 -0.072971806
-0.01423546 0.23757933 -0.010581931 0.06910427 0.03394168 0.016761161 2.313054 1.7772517
-0.1722416 0.048885968 -0.11336944 0.16969894 0.957034 -0.16158016 -0.08173952 0.3675369
0.8262366 0.5409553 0.7919153 -0.12347664 -0.20856155 0.08609808 -0.53978044 -1.3045057
0.08992076 1.7693013 -0.002118018 -0.8447571 0.115111895 -0.070844375 -0.2440906 -0.01791805
-0.3671426 -0.26617038 0.037930645 -0.43237174 -0.016368981 0.063257575 0.65769386 -0.0896086
-0.049134053 0.10370055 0.008223078 -1.6879957 0.054988045 0.048470885 0.7612488 -0.07762171
-0.0059076794 -0.28576174 1.5690109 0.3413771 -0.06612952 -2.2791464 0.0009880969 -0.88200486
-0.075102195 -0.2571674 0.041098848 -0.021727357 -0.47578177 0.15345767 -0.17855121 -0.02607357
-0.09400518 0.29389924 0.19408138 -0.11885664 0.2625306 0.032569643 0.34416682 -0.6060233
0.15218711 0.020911667 -0.20436016 0.6600445 -0.0900194 0.023672678 -0.058262773 -0.07817684
0.27057913 -0.20110235 -0.42848995 -0.10867654 -0.06760551 0.5542561 -0.013557464 0.7278188
0.05894807 -0.5077775 0.070536554 -0.023582896 -0.02755464 0.03925183 -0.17090183 -0.05752085
0.24224769 -0.1539479 -0.067366056 2.0656676 0.0051071346 0.012557438 -0.5840043 -0.07296944
-0.19631308 -0.8452251 -0.032205608 1.5819969 -1.3996801 -0.043234304 0.025445277 0.38522857
-0.10698621 1.2969838 0.4495307 -1.0191537 0.9113754 1.5505906 -0.121199675 0.5971418
0.021571884 -0.2928671 -0.005565569 0.020626023 0.9429892 0.41116703 0.00022306886 -0.019851955
-0.058567703 -0.3490021 2.0874553 0.009522295 -0.7567482 -0.076629385 -0.36191744 -0.7787199
0.008327893 0.038530216 0.09163803 -0.8274281 2.3444462 -0.037040528 0.018940005 0.0028835302
0.6529439 -0.16895935 -0.1560528 0.00835922 0.29534066 -0.80560493 0.03925079 0.21215865
0.0678506 1.5024674 -1.0466902 0.350332 0.6068587 -0.12083356 -0.16228361 -0.0055666035
1.31099 0.15422617 0.064808965 0.15597877 0.013188086 -0.8808358 2.0109105 -0.010285304
0.32154015 0.11692202 0.057289865 0.9502052 0.22037102 0.024410725 -0.8688777 -0.11901568
-0.096075065 -0.23017345 0.6413147 0.24696916 0.65043396 1.313488 -0.15499221 1.5027254
0.04049796 0.3117863 0.03930176 0.019734427 0.55956304 -0.14727631 -0.11748312 -0.039954312
0.11152907 0.5439665 -0.304069 0.05522257 0.12582275 0.062654324 -0.108642116 -0.04750639
0.17718206 -0.04926342 -0.11634208 0.9698343 -0.4066601 -0.022779776 0.12626833 -0.21387768
-0.24381125 0.120874785 0.3774867 -0.10958141 -0.19605112 0.5059369 1.6212924 0.9349242
0.07241939 1.4887125 0.32385787 0.7850705 -0.7463978 -0.011746052 -0.08303339 0.09139961
-0.17429882 -0.016535522 0.030156104 0.37780336 -0.017339826 0.18210134 0.8281389 0.059723716
00000000: d298 383d 134a 993e 4bce 9bbd 5afb 3d3f
00000010: b8ad 483d 06b3 353d 997e 0b3f af0d c9bd
00000020: 0538 e6bd db23 33bf e123 60bf 5b3e b63d
00000030: 6efd 9fbe bf4f 113f aed4 e3bd 6d59 263e
00000040: ffa6 ddbd 8864 e83a 825b e73d 0ce0 1cbd
00000050: b7e4 443f 678a ec3e 1d0f e9bc 3e72 95bd
00000060: d93b 69bc ff47 733e d65f 2dbc 8a86 8d3d
00000070: 6e06 0b3d b44e 893c 1409 1440 fc7c e33f
00000080: 1a60 30be a73c 483d 3d2e e8bd 8fc5 2d3e
00000090: 2e00 753f 4575 25be 0d67 a7bd cc2d bc3e
000000a0: 3e84 533f 0c7c 0a3f f6ba 4a3f 52e1 fcbd
000000b0: 2991 55be 3154 b03d 0d2f 0abf 0bfa a6bf
000000c0: 6028 b83d 7778 e23f 72ce 0abb 0042 58bf
000000d0: c9bf eb3d db16 91bd e3f2 79be e0c8 92bc
000000e0: 1dfa bbbe 7c47 88be 2a5d 1b3d d45f ddbe
000000f0: 3e18 86bc 308d 813d a05e 283f b784 b7bd
00000100: ca40 49bd f460 d43d 17ba 063c 3e10 d8bf
00000110: 253b 613d 6889 463d 34e1 423f 22f8 9ebd
00000120: 3595 c1bb 5d4f 92be 59d5 c83f fbc8 ae3e
00000130: ea6e 87bd 89dd 11c0 0883 813a 12cb 61bf
00000140: 2ecf 99bd 72ab 83be 4457 283d 92fd b1bc
00000150: ab99 f3be 0224 1d3e 21d6 36be 3d98 d5bc
00000160: ca85 c0bd f679 963e 45bd 463e 1c6b f3bd
00000170: 696a 863e bf67 053d a236 b03e 5824 1bbf
00000180: f0d6 1b3e f24e ab3c ca43 51be adf8 283f
00000190: 175c b8bd 34ed c13c f2a4 6ebd 2e1b a0bd
000001a0: 5989 8a3e c6ed 4dbe 0963 dbbe ce91 debd
000001b0: c274 8abd bae3 0d3f 2020 5ebc 5552 3a3f
000001c0: 8873 713d b5fd 01bf 7875 903d eb30 c1bc
000001d0: 45ba e1bc 87c6 203d e400 2fbe fc9a 6bbd
000001e0: c70f 783e 85a4 1dbe 37f7 89bd e633 0440
000001f0: c059 a73b b6bd 4d3c 4e81 15bf 0071 95bd
00000200: 4c06 49be ac60 58bf 07ea 03bd e07e ca3f
00000210: b828 b3bf 7416 31bd 9d72 d03c ae3c c53e
00000220: 961b dbbd 9103 a63f e328 e63e a173 82bf
00000230: e64f 693f c179 c63f 8937 f8bd 49de 183f
00000240: 85b7 b03c adf2 95be 605f b6bb e8f7 a83c
00000250: bd67 713f 7c84 d23e 97e7 6939 91a0 a2bc
00000260: b0e4 6fbd 67b0 b2be de98 0540 6603 1c3c
00000270: 40ba 41bf deef 9cbd 3e4d b9be 305a 47bf
00000280: b771 083c dcd1 1d3d b8ac bb3d 54d2 53bf
00000290: 680b 1640 cfb7 17bd 1228 9b3c 9cf9 3c3b
000002a0: 5527 273f ae03 2dbe 4ecc 1fbe 1cf5 083c
000002b0: e436 973e 203c 4ebf 70c5 203d 1e40 593e
000002c0: 41f5 8a3d da50 c03f f2f9 85bf b75e b33e
000002d0: 175b 1b3f 9677 f7bd ad2d 26be 0e68 b6bb
000002e0: 85ce a73f 77ed 1d3e 90ba 843d e6b8 1f3e
000002f0: d812 583c 747e 61bf c2b2 0040 b183 28bc
00000300: e9a0 a43e d074 ef3d c7a8 6a3d a640 733f
00000310: f1a8 613e 00f9 c73c c56e 5ebf 7ebe f3bd
00000320: 01c3 c4bd 97b2 6bbe 332d 243f 7ce5 7c3e
00000330: d782 263f 6020 a83f 47b6 1ebe 4e59 c03f
00000340: 30e1 253d 74a2 9f3e e2fa 203d 18aa a13c
00000350: 863f 0f3f 9acf 16be fd9a f0bd 22a7 23bd
00000360: 5a69 e43d 6341 0b3f efae 9bbe 1031 623d
00000370: aed7 003e e950 803d c27f debd 0f96 42bd
00000380: 376f 353e 71c8 49bd c244 eebd 1047 783f
00000390: c135 d0be a79c babc 7c4c 013e c002 5bbe
000003a0: a8a9 79be 338d f73d f045 c13e 386c e0bd
000003b0: a0c1 48be 1585 013f 8286 cf3f 3157 6f3f
000003c0: 9e50 943d 228e be3f b3d0 a53e 61fa 483f
000003d0: ed13 3fbf 8372 40bc 690d aabd b82f bb3d
000003e0: 647b 32be 8175 87bc ef09 f73c 716f c13e
000003f0: 400c 8ebc c678 3a3e e900 543f dba0 743d

bias f4 [4]
-0.18993527 -0.52139944 0.0401909 -0.9631151
00000000: 647e 42be 6f7a 05bf 379f 243d b68e 76bf
