saves/kevin/kevin_nn_2025-02-22_18-06-35.pt (torch, 17468 bytes, 8 tensors)

weight f4 [16, 16]
0	0xbeafd14f	-0.34339377
1	0xbfcea2fb	-1.6143488
2	0xbf99cbef	-1.201536
3	0xbf133470	-0.5750189
4	0xbee1d5ce	-0.44108433
5	0xbe2afa3c	-0.1669702
6	0xbde52e50	-0.11190474
7	0xbd6ca799	-0.05777702
8	0xbd4b9f8c	-0.049712703
9	0xbed4bcbb	-0.4155024
10	0xbd032c3c	-0.032024607
11	0x3e2585bb	0.16164295
12	0x3e9783fe	0.2959289
13	0xbf2877a9	-0.65807587
14	0x3f344983	0.7042467
15	0xbf4cfb04	-0.8007052
16	0xbd0dfd48	-0.034665376
17	0x3d8b2f40	0.067961216
18	0xbecb259a	-0.39677125
19	0x3f42d360	0.7610378
20	0x3cc899ee	0.024487462
21	0xc0668011	-3.6015666
22	0x3ed29406	0.41128558
23	0xbf408aeb	-0.7521197
24	0xbd01731f	-0.03160393
25	0xbc664aba	-0.014055902
26	0xbf33b030	-0.70190716
27	0x3f5072db	0.81425256
28	0xbc857e2e	-0.016295519
29	0x3e799673	0.24373798
30	0xbef8891b	-0.48542103
31	0xbf31d270	-0.6946173
32	0x3cd64682	0.026156668
33	0xc01e4c2f	-2.4733999
34	0xbfa2bdfc	-1.2714229
35	0x3f17e7fe	0.59338367
36	0x3d8ccd63	0.06875112
37	0xbe5805fa	-0.2109603
38	0xbf179426	-0.5921043
39	0xbdd19056	-0.10232608
40	0xbd8ba9d2	-0.068195
41	0x3df59012	0.1199037
42	0xbfc43b7f	-1.5330657
43	0x3f432110	0.76222324
44	0x3d6485b5	0.055791575
45	0xc1007913	-8.029559
46	0x3f2147e0	0.630003
47	0xbe357553	-0.17720537
48	0xbca57b43	-0.020200377
49	0x3f111789	0.56676537
50	0xc0314007	-2.769533
51	0x3f1c7497	0.611154
52	0xbcb43e6c	-0.022002421
53	0xbd080088	-0.03320363
54	0x3e3a47e9	0.18191494
55	0xbf2fe9af	-0.6871595
56	0xbc9e3fda	-0.019317556
57	0x3ea9bf6a	0.3315385
58	0x3f53a12e	0.82667816
59	0x3f0d009a	0.5507904
60	0x3b4345d8	0.0029796269
61	0x3d3d8258	0.046266884
62	0x3fcf0ac3	1.6175159
63	0xbf3944e0	-0.7237072
64	0x3bfc1c67	0.0076938155
65	0xc077f7c0	-3.8744965
66	0xbe5abb5d	-0.21360536
67	0xbecae55a	-0.39628106
68	0x3c9e1c94	0.019300736
69	0x3d99586f	0.074875705
70	0x3c7a6fe1	0.015285463
71	0x3f2db0ac	0.67847705
72	0xb983f8e8	-0.00025171717
73	0xbe68dca1	-0.22740413
74	0xbea36d16	-0.31919163
75	0xbec36270	-0.3816104
76	0x3b60e977	0.0034318843
77	0xbeb95169	-0.36194924
78	0xc0192fc0	-2.3935394
79	0x3f305a50	0.68887806
80	0xbe44cbc2	-0.19218352
81	0xbecbf445	-0.398348
82	0xbcb411a1	-0.021981062
83	0xbe093904	-0.13400656
84	0xbd27c8b1	-0.04096288
85	0xbd79613d	-0.06088375
86	0xbea7054b	-0.32621226
87	0xbdddb5b3	-0.10825672
88	0xbcc972e3	-0.024590915
89	0xbea1d45f	-0.3160734
90	0x3b83ff38	0.004028227
91	0xbe2bc407	-0.16773997
92	0x3ca2bcec	0.019865476
93	0xbe056b21	-0.13029148
94	0xbe6fc5c0	-0.2341528
95	0xbd98824c	-0.07446727
96	0xbce321ed	-0.027726138
97	0xbe169ea0	-0.14708948
98	0x3ddf3be0	0.10900092
99	0xbe664ba5	-0.22489794
100	0x3dffe439	0.12494702
101	0xbea5b497	-0.32364342
102	0xbf20ba44	-0.6278422
103	0xbebe2557	-0.37137863
104	0x3e466b3b	0.19376843
105	0xbd855509	-0.0651036
106	0x3cc769ba	0.024342407
107	0xbec11103	-0.3770829
108	0xbec58ab3	-0.38582382
109	0x3cc65a6f	0.024213044
110	0x3b826e51	0.003980436
111	0x3e2284dc	0.15870994
112	0x3cf11da9	0.029433088
113	0xc0302bfe	-2.752685
114	0xbdbe31e6	-0.09286861
115	0xbecb7473	-0.3973728
116	0x3c38b3e9	0.011273363
117	0x3b049b93	0.002023433
118	0xbea464aa	-0.3210805
119	0x3eac8440	0.3369465
120	0x3b595cac	0.003316681
121	0x3f23fabb	0.6405446
122	0x3f0f7c27	0.56048816
123	0xbeda06c2	-0.4258328
124	0x3c443072	0.011974441
125	0xbd95dbf8	-0.07317346
126	0xc080cc3d	-4.0249314
127	0x3eb39a58	0.35078692
128	0xbb68d2e6	-0.0035526096
129	0xbcb16810	-0.021656066
130	0xbfc984be	-1.5743635
131	0x3f0178dc	0.5057504
132	0x3c191623	0.009343657
133	0x3f04f386	0.5193409
134	0x3fc6b5a2	1.552418
135	0xbee58c7f	-0.44833753
136	0xbb84c8d3	-0.0040522604
137	0xbcae951e	-0.021311339
138	0xbfcac7b1	-1.5842191
139	0x3f03e06a	0.51514304
140	0xbad7cf9b	-0.001646507
141	0xbd2371ad	-0.03990333
142	0xbfd26b13	-1.6438926
143	0xbee42ef1	-0.44567063
144	0x3d1bd263	0.038042437
145	0xbce7f915	-0.028317014
146	0xbedfa16c	-0.43677843
147	0x3e5b53cc	0.21418685
148	0x3c810057	0.015747232
149	0x3ad56038	0.0016279286
150	0xbf7e32ef	-0.9929647
151	0xbe19a4bf	-0.15004252
152	0xbda4d1b4	-0.0804781
153	0xbdcd104b	-0.10012873
154	0xc0330e34	-2.797742
155	0x3e64e7e3	0.22354083
156	0x3c05cc46	0.008166378
157	0x3efbae7c	0.4915656
158	0x40575199	3.3643553
159	0xbdfd153f	-0.12357568
160	0xbd8a7d28	-0.06762153
161	0xbec33e2e	-0.38133377
162	0xbf6b9db7	-0.9203753
163	0xbe72cedd	-0.23711725
164	0xbd9c616d	-0.0763577
165	0xbd2375ad	-0.039907146
166	0xbe14fbd3	-0.14549188
167	0xbe83d555	-0.25748697
168	0x3e201beb	0.1563565
169	0xbfc0c362	-1.5059626
170	0x3f15eee4	0.58567643
171	0xbef8f73a	-0.4862612
172	0xbdadc330	-0.08484495
173	0xbece76ea	-0.403251
174	0xbf2bdfae	-0.67138183
175	0xbe4422b3	-0.19153862
176	0xbe299cf8	-0.16563785
177	0xc023cc27	-2.5593355
178	0xbf068f26	-0.5256218
179	0xbee02d58	-0.43784595
180	0x3d8c5906	0.068529174
181	0xbd3de033	-0.04635639
182	0xbe8964e3	-0.26834783
183	0x3ef5c15a	0.47999078
184	0xbe08b2c0	-0.13349438
185	0xbff69a91	-1.926592
186	0xbf2721af	-0.6528577
187	0xbec135f4	-0.37736475
188	0xbe47436b	-0.19459312
189	0xbfe923c4	-1.821404
190	0xbe82533a	-0.25454122
191	0xbf87e404	-1.061646
192	0xbd84a923	-0.06477573
193	0x3f6c7cdc	0.9237802
194	0xbfeec81d	-1.865482
195	0x3e3c973c	0.18417066
196	0xbcb43cf2	-0.022001717
197	0xbde806d2	-0.11329426
198	0xc00bd0b8	-2.1846142
199	0x3e4938ab	0.19650523
200	0xbafe3a9e	-0.0019396131
201	0x3d7dcecf	0.061964806
202	0x3ec6e1b7	0.38844082
203	0x3dd3dd96	0.103449985
204	0x3c20fd22	0.009825977
205	0x3e01b6c5	0.12667377
206	0xbf8b24e3	-1.0870632
207	0x3e0b24a1	0.13588192
208	0xbd81c2d1	-0.063359864
209	0x3fd4307b	1.6577295
210	0x3e6a8642	0.22902778
211	0xbda06018	-0.078308284
212	0xbc4bd0b6	-0.012439897
213	0xbd9e2bc5	-0.07723192
214	0xbeb25804	-0.34832776
215	0x3e12cf1a	0.14336815
216	0xbc1921a7	-0.009346402
217	0xbfc7f409	-1.5621349
218	0xbf991aee	-1.1961343
219	0xbe5b9768	-0.21444476
220	0x3cdfec17	0.027334256
221	0xbe66cb3a	-0.22538462
222	0xc020dc12	-2.513432
223	0x3e2c974d	0.16854592
224	0xbe8f4225	-0.27980152
225	0xbd361c05	-0.044460315
226	0x3dc92826	0.09822111
227	0xbd029d27	-0.031888153
228	0xbe173ea6	-0.14769992
229	0xbe953a9d	-0.2914628
230	0xbe4d4bf9	-0.20048513
231	0xbe1bc143	-0.15210442
232	0xbe93d3bf	-0.28872487
233	0x3d669ab6	0.056299888
234	0xbe86f28f	-0.26356933
235	0x3e00a19e	0.12561652
236	0x3d4b8e52	0.049696274
237	0xbda36ff5	-0.079803385
238	0x3ce361c0	0.027756572
239	0xbe54767b	-0.20748322
240	0xbd024503	-0.031804096
241	0x3e70f24c	0.23529929
242	0xc086e8c4	-4.215914
243	0x3f01f965	0.5077117
244	0xbbd9fc47	-0.0066523883
245	0x3e5c0a6b	0.21488349
246	0x3f79fa89	0.9764791
247	0x3e4557ae	0.19271728
248	0xbc1391b4	-0.009006906
249	0xc0fce076	-7.9024
250	0x3d90c7c8	0.07069355
251	0x3eb2cf73	0.34923896
252	0xbba378a3	-0.0049887463
253	0xbd9672fb	-0.073461495
254	0xbc80f07a	-0.015739668
255	0x3e1a9951	0.15097548

bias f4 [16]
0	0x3cd6fb64	0.02624292
1	0x3f7ef222	0.99588215
2	0x3f8dd2b6	1.1079929
3	0x3f694bc3	0.9113123
4	0x3ea338f0	0.31879377
5	0xbea61177	-0.324352
6	0x3cede490	0.029039651
7	0x3e0becc9	0.13664545
8	0x3ec5f3f3	0.3866268
9	0xbd41f818	-0.04735574
10	0x3dd7368a	0.105084494
11	0x3db3301f	0.08749413
12	0xbf451685	-0.7698749
13	0x3f3ba062	0.732916
14	0xbc05c6ad	-0.008165044
15	0xbf329bd3	-0.6976902

weight f4 [32, 16]
0	0xbe8b774c	-0.27239454
1	0x4045f2d9	3.0929472
2	0x3fe8fb83	1.8201755
3	0x4037f01b	2.8740299
4	0x3f6cbe5d	0.9247797
5	0x3e2fada2	0.1715608
6	0x3cddfc57	0.027097864
7	0x40216f0f	2.5224035
8	0x3fb89b34	1.4422364
9	0x3fd7b985	1.6853491
10	0x3f773414	0.9656384
11	0x40452a71	3.0807154
12	0x3fb39798	1.4030638
13	0x3f8ac6c3	1.0841907
14	0xbc15c76b	-0.009141783
15	0x401b2271	2.4239771
16	0x3fbe3cc4	1.4862294
17	0xbe9e3822	-0.309022
18	0xbf08a0f2	-0.53370583
19	0xbc98d022	-0.018653933
20	0x3f8addf6	1.0848987
21	0x3e4a76ee	0.1977193
22	0x3ec2b8a6	0.380315
23	0xc01a4e82	-2.4110417
24	0x3eace26a	0.3376649
25	0x3eff94bc	0.49918163
26	0xbf56de29	-0.8393274
27	0x3f4fa23d	0.8110693
28	0x3f2cbdfc	0.67477393
29	0x3f8b181d	1.0866734
30	0x3d10fc1b	0.035396677
31	0xbf260ede	-0.64866436
32	0xbf0b0bda	-0.5431496
33	0xbefc2af4	-0.4925152
34	0x3cfe5ea2	0.031050984
35	0xbf928060	-1.1445427
36	0x3ee00955	0.4375712
37	0x3dfe9a1d	0.124317385
38	0x3e52e48f	0.20595
39	0x3f298e63	0.6623289
40	0x3ea0f59b	0.31437382
41	0x3eeb5c47	0.4596884
42	0x3e0c9278	0.13727748
43	0xbf9cbb83	-1.2244724
44	0x3ef2ec2d	0.47445813
45	0xbb6a6f0d	-0.0035771758
46	0xbd802ceb	-0.062585674
47	0x3ed3fb83	0.41402826
48	0x3f0df4f7	0.5545191
49	0x3ee901dd	0.45509234
50	0xbf9a2159	-1.2041427
51	0x3fa7b7ff	1.3103026
52	0x3f81f9c5	1.0154349
53	0x3dfddc48	0.12395531
54	0xbd25063c	-0.04028915
55	0xbf481947	-0.7816357
56	0x3d904d21	0.07045961
57	0xbd8cde53	-0.068783425
58	0x3f038b4b	0.5138442
59	0x3f57e749	0.8433729
60	0x3e04f20d	0.1298296
61	0x3fe90865	1.8205687
62	0xbdd311ac	-0.10306105
63	0x3f69add4	0.91280866
64	0x3f780469	0.9688173
65	0x3eae6772	0.34063298
66	0xbc858262	-0.016297523
67	0x3d8b61ef	0.06805789
68	0x3db0697a	0.08613868
69	0xbe607531	-0.21919705
70	0x3e0207c7	0.1269828
71	0x3fdf830a	1.7461865
72	0x3eccff50	0.40038538
73	0x3d39b179	0.045335267
74	0x3efaa8e1	0.4895697
75	0xbf3560eb	-0.7085101
76	0x3df97a02	0.12181474
77	0xbe952e55	-0.2913691
78	0x3d820d77	0.063502245
79	0xbd810522	-0.06299807
80	0x3e72b445	0.2370158
81	0xc007c2b8	-2.1212597
82	0xbe9eb04b	-0.30993876
83	0xbf83de2c	-1.0302176
84	0x3e819ddf	0.2531576
85	0x3eca1f06	0.39476794
86	0x3e4f6912	0.20254925
87	0xbb051500	-0.0020306706
88	0xbfef434b	-1.8692411
89	0x3f3d1cf0	0.7387228
90	0x3ea5e7db	0.32403454
91	0xbdb7bc02	-0.089714065
92	0x3f91a291	1.1377736
93	0x3df1d1f6	0.11807625
94	0xbbc35af2	-0.0059617693
95	0xbe1fccc6	-0.15605459
96	0x3f5ce0ec	0.86280704
97	0xbf29dc18	-0.6635146
98	0xbd98b891	-0.07457078
99	0x3e704f0a	0.23467651
100	0x3f8936ee	1.0719888
101	0x3e534073	0.20630054
102	0x3ed77927	0.4208462
103	0xc04d7364	-3.210168
104	0x3eae57a8	0.3405125
105	0x3f84207e	1.0322416
106	0xbfa505c9	-1.289239
107	0x3eca72d5	0.39540735
108	0x3efc5d8b	0.49290118
109	0x3dbbe7b6	0.09175055
110	0xbe02e3cd	-0.12782212
111	0xc05851c0	-3.3799896
112	0xbe0214fa	-0.12703314
113	0xbd9dff60	-0.077147245
114	0xbe4b364c	-0.19844931
115	0xbdf8d713	-0.12150397
116	0xbe5754d0	-0.21028447
117	0xbdc294c8	-0.09501034
118	0xbdcf1d54	-0.10113016
119	0xbe810c41	-0.2520466
120	0xbe0f9cf4	-0.14024717
121	0xbc7f1a4e	-0.015570236
122	0x3e2203da	0.15821782
123	0x3def8e3f	0.11697053
124	0xbe3dec0e	-0.18547079
125	0xbe17c7c0	-0.14822292
126	0xbd642ec8	-0.055708677
127	0xbe131814	-0.14364654
128	0x3f1dafda	0.61596453
129	0xbe376f38	-0.1791352
130	0x3dcd7481	0.10031987
131	0xc02c23f5	-2.6896946
132	0x3f878601	1.058777
133	0x3eacaaba	0.33724004
134	0x3f0511fc	0.51980567
135	0xbf4f6aca	-0.8102232
136	0x3f004e53	0.50119513
137	0x3f3ca1ac	0.7368419
138	0xbf702a77	-0.93814796
139	0xbe8688dd	-0.26276293
140	0x3f15b3f0	0.5847769
141	0x3f2604e3	0.64851207
142	0x3e811b29	0.25216034
143	0xbf1a7e00	-0.6034851
144	0x3e6fb78d	0.23409863
145	0xbfe1efdf	-1.7651328
146	0x3f003c72	0.5009223
147	0xbf68552b	-0.90754956
148	0x3e7e328c	0.2482397
149	0x3ea02cb6	0.31284112
150	0x3e5ea691	0.21743228
151	0x3f08b8a5	0.53406745
152	0xc00640e5	-2.0977108
153	0x3e1d3f49	0.15356173
154	0xbd44ed45	-0.04807784
155	0xbfe7235f	-1.8057669
156	0x3f1a1bba	0.6019856
157	0x3d95b820	0.0731051
158	0xbde89b88	-0.1135779
159	0xbde1a514	-0.11017814
160	0x3f9c8aad	1.222982
161	0x3f4a18ac	0.78943896
162	0x3d1ac961	0.037789706
163	0x3f154cf4	0.58320546
164	0x3fa74b17	1.3069791
165	0x3d9b7e78	0.075924814
166	0x3f180292	0.5937892
167	0x3f18af5a	0.59642565
168	0x3fb27fb5	1.3945223
169	0x3ef6cbf0	0.48202467
170	0xbf846277	-1.0342549
171	0x3e89bc83	0.26901636
172	0x3f9c1beb	1.219602
173	0xbe43f6c6	-0.19137105
174	0xbd51210e	-0.051056914
175	0xc0838994	-4.110544
176	0x3faa0c10	1.3284931
177	0x3ecff087	0.40613195
178	0xbe2322b3	-0.15931205
179	0xbffee25b	-1.9912828
180	0x3ea69969	0.32538918
181	0xbe02a91d	-0.12759824
182	0x3e82d6ee	0.25554603
183	0xbdbc28b8	-0.09187454
184	0x3d222904	0.039589897
185	0x3f25450b	0.64558476
186	0xbf034057	-0.5127005
187	0x3ff1427f	1.8848418
188	0xbe887e32	-0.2665878
189	0xbf3cc7df	-0.7374248
190	0x3dfa6543	0.122263454
191	0xbef1a724	-0.4719783
192	0x3f6e86d5	0.9317449
193	0x3f16d0ba	0.5891224
194	0xbd0a7872	-0.03380627
195	0xbdcf7f52	-0.10131706
196	0xbf00a548	-0.502522
197	0x3eb70a53	0.35750064
198	0x3f0ba5e6	0.54550016
199	0xbd27d96a	-0.040978827
200	0xbfafdda9	-1.373952
201	0x3e71e4eb	0.23622482
202	0x3f8196c3	1.0124134
203	0x3fd9b948	1.7009668
204	0x3e24eb62	0.16105416
205	0xbfd93980	-1.6970673
206	0xbdba2c45	-0.09090475
207	0x3f31abda	0.6940285
208	0xbea72d13	-0.32651576
209	0x3fab9d75	1.3407427
210	0xbec1639d	-0.3777131
211	0x3fb82517	1.4386319
212	0xc002f437	-2.0461557
213	0x3c921f90	0.017837316
214	0x3eb9ef85	0.3631555
215	0x3f9cdea0	1.225544
216	0x3f16e5f4	0.5894463
217	0xbf6ae472	-0.9175483
218	0x3ed1daaa	0.4098714
219	0x3fe5472a	1.7912343
220	0x3fe95df5	1.8231798
221	0x3f0d0619	0.5508743
222	0x3d17cd60	0.037061095
223	0x3fd87cfe	1.6913145
224	0xbe04948a	-0.12947288
225	0x3cd1c2d4	0.025605597
226	0xbe489c0f	-0.19590782
227	0xbbe884a3	-0.0070958897
228	0xbeba2108	-0.36353326
229	0x3ca068c6	0.01958121
230	0x3d020798	0.031745523
231	0xbe2babdc	-0.16764778
232	0xbdc06e70	-0.09396064
233	0xbd2c0f39	-0.042006705
234	0xbe433791	-0.19064166
235	0xbe8fef9e	-0.281125
236	0x3b2b21c8	0.0026112664
237	0xbd69fea3	-0.057127606
238	0xbe662609	-0.22475447
239	0xbd9a0ad8	-0.075215995
240	0x3f3461e7	0.7046189
241	0x3f487ce5	0.78315574
242	0x3e448968	0.19193041
243	0xbe1d57ec	-0.15365571
244	0xc062bac1	-3.5426486
245	0xbe5a6a92	-0.21329716
246	0x3ca30b7e	0.01990294
247	0x3ea92360	0.330348
248	0x3f6fee62	0.9372312
249	0xbe14e7cd	-0.1454155
250	0x3f43f3dc	0.76543975
251	0x3fc706f5	1.5548998
252	0x3e56cf4e	0.20977518
253	0x3ec83832	0.39105374
254	0x3e6f44a3	0.23366027
255	0x3e8ffde5	0.28123394

bias f4 [32]
0	0x4081925b	4.0491157
1	0xbee236e3	-0.441825
2	0xc01d33aa	-2.4562783
3	0xbe9942b7	-0.29933712
4	0xbfa239d8	-1.2673903
5	0x3f27cf5c	0.6555078
6	0x3f90fd15	1.1327235
7	0xbecc2b03	-0.39876565
8	0xbf1f5215	-0.6223462
9	0x3e4b6ebd	0.19866462
10	0xbead8c0a	-0.33895904
11	0x401731c5	2.3624127
12	0x3de24432	0.110481635
13	0x4013a7b6	2.3071113
14	0xbeb1a1a8	-0.34693646
15	0x3c40cfef	0.011768325
16	0x3fbea357	1.4893597
17	0xc01e8134	-2.476636
18	0xbf4902b8	-0.78519773
19	0x40022543	2.0335243
20	0x3fbd3489	1.4781657
21	0xc00b529c	-2.176917
22	0x3f892f9e	1.0717657
23	0x3fa1be77	1.263625
24	0xbf13ca31	-0.57730395
25	0xbfca1aeb	-1.5789465
26	0x3e4258dd	0.18979211
27	0xbf85ec12	-1.0462668
28	0xbe680e4c	-0.22661704
29	0xbf864f87	-1.049302
30	0x3f172073	0.5903389
31	0xbf0302a0	-0.5117588

weight f4 [64, 32]
0	0xbe89a09c	-0.26880348
1	0xbe0af545	-0.13570125
2	0xbe873d7b	-0.26414093
3	0x3dd548ec	0.10414299
4	0xbe8fbb57	-0.28072616
5	0x3e84426e	0.25831932
6	0x3e5c08de	0.21487758
7	0xbdbdaf00	-0.09261894
8	0x3b593ea7	0.0033148916
9	0x3d655fdb	0.055999618
10	0xbe037963	-0.12839274
11	0xbd049801	-0.032371525
12	0xbe9124ae	-0.28348297
13	0xbcc65c29	-0.024213867
14	0xbd5c401f	-0.05377209
15	0xbe5c1604	-0.21492773
16	0x3c03aa0f	0.008036151
17	0xbe13b923	-0.14426093
18	0xbe0ba2b5	-0.13636287
19	0xbc8397d9	-0.016063618
20	0xbe20c185	-0.15698822
21	0x3e4f7a04	0.20261389
22	0x3d29dd2a	0.041470684
23	0xbe38e26d	-0.18055125
24	0xbe961e00	-0.29319763
25	0xbe838db9	-0.25694063
26	0xbe4c9f70	-0.19982696
27	0xbe20e004	-0.15710455
28	0x3e011065	0.1260391
29	0xbe17f56e	-0.14839718
30	0xbddbd842	-0.10734607
31	0xbe42a958	-0.19009912
32	0xbe67dc52	-0.2264264
33	0xbec833b8	-0.39101958
34	0x3e84dce2	0.2594977
35	0xbeee59c6	-0.46552867
36	0xbe1b0f44	-0.15142542
37	0x3c17ba54	0.009260733
38	0xbeb2c073	-0.34912452
39	0xbe052141	-0.13000967
40	0xbec9493c	-0.39313686
41	0xbcd19867	-0.025585366
42	0xbe99ab98	-0.30013728
43	0xbe942375	-0.28933302
44	0xbeb6f7de	-0.35735983
45	0x3d264340	0.04059148
46	0xbd39f1b9	-0.04539654
47	0xbe5b8801	-0.214386
48	0xbdcb62d1	-0.09930957
49	0xbdd85625	-0.10563306
50	0xbe24b68b	-0.1608526
51	0xbd916324	-0.07098988
52	0xbed7f081	-0.42175677
53	0xbed0e85a	-0.4080227
54	0xbc839d0b	-0.016066095
55	0xbdc849cd	-0.097797014
56	0xbebba041	-0.36645702
57	0x3e23a801	0.15982057
58	0xbf1fed58	-0.6247153
59	0xbeac5d42	-0.336649
60	0xbe28d607	-0.16487895
61	0xbe0a0c0c	-0.13481158
62	0xbcc014ad	-0.023447359
63	0xbf3e284a	-0.74280226
64	0xbe3f911d	-0.187077
65	0xbde10f1b	-0.10989209
66	0xbe240562	-0.16017678
67	0x3c5a9e1c	0.01334336
68	0xbe37d383	-0.17951779
69	0x3cca2304	0.0246749
70	0xbe4e281a	-0.20132485
71	0x3d137611	0.03600127
72	0x3abd3ab9	0.0014437056
73	0xbda1c901	-0.078996666
74	0xbcbc93ee	-0.023019757
75	0xbe076cb8	-0.13225067
76	0xbd5bffa0	-0.05371058
77	0x3cdc5e8a	0.026900548
78	0x3d2cd250	0.042192757
79	0xbe0e20e6	-0.13879737
80	0xbd882abd	-0.06648777
81	0xbdd90f86	-0.10598664
82	0x3dec889f	0.11549496
83	0x3e348630	0.17629313
84	0xbd14d7a7	-0.036338475
85	0x3d48edd2	0.049054928
86	0xbc0fed9e	-0.00878468
87	0xbd6df5f6	-0.058095895
88	0xbdb0b80f	-0.086288564
89	0xbd215eae	-0.039396934
90	0xbe27f9bb	-0.16403858
91	0xbc4de2c4	-0.012566272
92	0x3da1d8b4	0.07902661
93	0x3d69e803	0.05710603
94	0xbe043031	-0.12909009
95	0xbe2e134a	-0.16999546
96	0xbf072138	-0.5278506
97	0xbfa1e7cb	-1.2648863
98	0x3fd6daa4	1.6785474
99	0xbf8a1ce0	-1.0790062
100	0x3e9d46e2	0.30718142
101	0xbf1aeb0d	-0.6051491
102	0x3fa76c0b	1.3079847
103	0xbd417dbc	-0.04723905
104	0x3f097292	0.53690445
105	0xbedb744f	-0.42862174
106	0x3f822b72	1.0169508
107	0x3d32d413	0.04365928
108	0xbfc66454	-1.5499368
109	0x3de2cd27	0.11074286
110	0x3e21c4a0	0.15797663
111	0x3fa15119	1.2602874
112	0xbd151f1e	-0.03640663
113	0x3fa4f0b6	1.2885959
114	0xbfe2447a	-1.7677147
115	0xbf1aeb50	-0.6051531
116	0x3f272ac2	0.6529962
117	0x3ed39473	0.41324195
118	0xbf08ca74	-0.5343392
119	0x3f379496	0.717111
120	0xbe9ec0c1	-0.31006435
121	0x3f2a2b4d	0.6647232
122	0xbd86085d	-0.06544564
123	0xbd80eb9f	-0.06294941
124	0x3f3e51eb	0.74343747
125	0x3dc1216f	0.09430205
126	0x3cd0da43	0.0254947
127	0x4014f9b8	2.3277416
128	0xbeb8bf52	-0.36083466
129	0xbeac02a4	-0.33595765
130	0x3e5cc1af	0.2155826
131	0x3edc3557	0.43009445
132	0x3ded1ab6	0.1157736
133	0x3dc57178	0.09640783
134	0xbf279e0d	-0.6547554
135	0xbd70eca2	-0.05881942
136	0xbe0511e1	-0.12995102
137	0xbebcca05	-0.3687288
138	0xbedac295	-0.4272658
139	0xbed85da5	-0.42258945
140	0xbe852876	-0.26007432
141	0xbdb7d89d	-0.089768626
142	0x3e0013f1	0.12507607
143	0x3db989f5	0.09059516
144	0xbdc8844a	-0.09790857
145	0xbe695ac9	-0.22788538
146	0xbe0aede8	-0.13567317
147	0xbe24a9c4	-0.16080385
148	0xbf1f286a	-0.6217104
149	0xbe90bfa7	-0.2827122
150	0x3ebb7865	0.3661529
151	0xbecdec43	-0.40219316
152	0xbe7389b7	-0.23783003
153	0x3f196771	0.59923464
154	0xbee8a81b	-0.45440754
155	0xbecd1d84	-0.4006158
156	0x3e1a8b9e	0.15092322
157	0x3e1a1c21	0.15049793
158	0xbec9380e	-0.3930058
159	0xbefe2071	-0.49634126
160	0x3d323f27	0.043517258
161	0xbce2cff1	-0.027687045
162	0xbe60c5ad	-0.21950407
163	0xbd86bd60	-0.06579089
164	0xbe57ca18	-0.21073186
165	0x3dda2288	0.106511176
166	0xbdf587e7	-0.11988812
167	0xbce9d5a0	-0.028544247
168	0xbe2ba803	-0.1676331
169	0x3be09324	0.006853478
170	0x3dee0b15	0.116232075
171	0xbd9c0049	-0.07617242
172	0xbe691769	-0.22762837
173	0xbe707546	-0.23482236
174	0xbe1876f2	-0.14889124
175	0xbe2b9017	-0.16754185
176	0xbe79cfac	-0.24395627
177	0xbc99631b	-0.018724015
178	0xbde0017d	-0.10937784
179	0x3e309dd5	0.17247708
180	0xbe3ea44b	-0.1861736
181	0x3dd81995	0.105517544
182	0xbe76801f	-0.24072312
183	0xbdf296f9	-0.11845202
184	0xbe7b756c	-0.24556512
185	0x3d78d31b	0.0607482
186	0x3b2ef794	0.002669786
187	0x3d56844c	0.052372262
188	0xbe8485f5	-0.2588345
189	0xbe1197aa	-0.14218011
190	0xbe87ae31	-0.26500085
191	0xbdc80d79	-0.09768195
192	0xbf554262	-0.8330442
193	0x3ed38d2e	0.4131865
194	0x3f6978f0	0.9120016
195	0xbef3f22e	-0.47645706
196	0x3c0c998d	0.008581531
197	0x3ee18ed7	0.4405429
198	0x3eaad46b	0.33365187
199	0xbd392421	-0.04520047
200	0x3ec3342d	0.38125744
201	0x3f2a56b3	0.6653854
202	0x3f748c38	0.95526457
203	0xbf5ab962	-0.8543912
204	0x3f8586e8	1.0431795
205	0x3d1daf8f	0.038497504
206	0x3d20bada	0.039240696
207	0x3f6cb41b	0.9246232
208	0x3f8438e6	1.0329864
209	0x3c79a47d	0.015236971
210	0xbe2cbf5e	-0.16869876
211	0xbdd5a63c	-0.10432097
212	0x3f1f7426	0.62286603
213	0x3da344e6	0.07972126
214	0x3f58ce98	0.8469024
215	0x3e80d1cc	0.25160062
216	0x3e66fffe	0.22558591
217	0x3f8f3b00	1.118988
218	0x3f05c0f5	0.52247554
219	0x3ec5ca1e	0.38630766
220	0x3e89494a	0.26813728
221	0xbede74a0	-0.43448353
222	0x3f78ef57	0.97240204
223	0x3f60c2f2	0.8779746
224	0x3f90dc64	1.1317258
225	0x4002a3a3	2.0412376
226	0x3e76c971	0.24100281
227	0xbd83c22b	-0.06433519
228	0x40ab0e42	5.3454905
229	0x3fe22714	1.7668176
230	0x3fb93498	1.4469175
231	0x3e405c32	0.1878517
232	0x401c287b	2.4399707
233	0x3ff3ccf9	1.9046928
234	0x3fb1f2e5	1.390225
235	0x4088ce20	4.2751617
236	0x401bc698	2.4339962
237	0x3e30aab1	0.17252614
238	0xbe1a7896	-0.15085062
239	0x3ea9c877	0.33160755
240	0xbf8a462e	-1.0802667
241	0x3cb6f201	0.022332193
242	0x3ffe43fe	1.98645
243	0xbe025afb	-0.12730019
244	0x40114678	2.269926
245	0x3fd64aab	1.6741537
246	0x3f765fd9	0.9624
247	0x3fdb263c	1.7121043
248	0x405115de	3.2669597
249	0x3f93b27a	1.1538842
250	0x3ff3c4fa	1.9044487
251	0x4086e2dd	4.2151933
252	0xbf5402ee	-0.8281697
253	0x3f96773e	1.175514
254	0x40198509	2.3987448
255	0x4029c4a0	2.652626

bias f4 [64]
0	0xbda7cffc	-0.08193967
1	0xbe0c29f5	-0.1368788
2	0xbe2b217f	-0.16711996
3	0xbe6133f1	-0.2199247
4	0xbf06cca6	-0.5265602
5	0xbe859a99	-0.2609451
6	0xbf2d734e	-0.67754066
7	0x3e343c00	0.17601013
8	0x40bb1b5e	5.8470907
9	0x3e4b02ff	0.19825362
10	0xbf582a85	-0.8443988
11	0xbeb06598	-0.3445251
12	0x3ebee0a2	0.37280756
13	0xbf94e3fb	-1.1632074
14	0xbed2a46f	-0.41141078
15	0xbf8ecc21	-1.1156045
16	0xbe46aad0	-0.19401097
17	0xbf114e92	-0.56760514
18	0xbe89f695	-0.2694594
19	0xbe80522f	-0.250627
20	0xbf7b9edf	-0.98289293
21	0xbf35bf66	-0.70995176
22	0x3df2b490	0.11850846
23	0xbe6e958b	-0.23299234
24	0x3f8e0401	1.1094972
25	0xbfb0e267	-1.3819093
26	0x3e95d073	0.29260597
27	0xbd07b217	-0.033128824
28	0xbe78b6c9	-0.24288477
29	0xbe1f44d4	-0.155536
30	0xbf9a958a	-1.2076886
31	0x3f9773f9	1.1832267
32	0xbee72ec8	-0.4515288
33	0xbe80b194	-0.2513548
34	0xbe99df93	-0.30053386
35	0xbf300da6	-0.68770826
36	0x3f72daa2	0.9486486
37	0x407753f6	3.8644996
38	0xbf29c5d0	-0.6631746
39	0x3ff33880	1.9001617
40	0xbf39f95e	-0.7264613
41	0xbf0a042a	-0.53912604
42	0xbfc934fa	-1.5719292
43	0xbe81b2e3	-0.25331792
44	0x3f26fe77	0.6523203
45	0xbf46aaf8	-0.7760463
46	0xbf1cdbd9	-0.6127296
47	0xbf60991f	-0.87733644
48	0xbe7ee5f3	-0.24892406
49	0xbf92fdb3	-1.1483673
50	0xbf55344c	-0.83282924
51	0xbf4b5d70	-0.7943945
52	0xbf2fd9e6	-0.6869186
53	0x3bbf9320	0.005846396
54	0x40b91148	5.7833595
55	0xbea8e2e5	-0.32985607
56	0x3e938188	0.28809762
57	0x3fabef1a	1.3432343
58	0xbe3a8b5f	-0.18217228
59	0xbf28eaa4	-0.65983033
60	0xbe860d0a	-0.26181823
61	0xbf159441	-0.5842934
62	0xbe8e435c	-0.27785766
63	0xbe5b25c7	-0.2140113

weight f4 [4, 64]
0	0x3d3898d2	0.045067616
1	0x3e994a13	0.29939327
2	0xbd9bce4b	-0.07607707
3	0x40816caf	4.044517
4	0x3d48adb8	0.048993796
5	0x3d35b306	0.044360183
6	0x401266f6	2.2875342
7	0xbdb01f19	-0.085996814
8	0xbe8f8f5d	-0.28039065
9	0xbf3323db	-0.69976586
10	0x3e5ca5df	0.2154765
11	0x3db63e5b	0.08898612
12	0xbe9ffd6e	-0.3124804
13	0x407b1204	3.9229746
14	0xbde3d4ae	-0.1112455
15	0x40883ea2	4.2576456
16	0xbddda6ff	-0.108228676
17	0x3f208937	0.62709373
18	0x3ce6a671	0.028155537
19	0xbd1ce00c	-0.038299605
20	0x400c3d17	2.1912286
21	0x3f8e8f9a	1.1137574
22	0xbce90f1d	-0.02844959
23	0x3d2470a8	0.0401465
24	0x3e32254f	0.17397045
25	0x3f2ea7ed	0.68224984
26	0x3db3e7a0	0.08784413
27	0x3f63dc25	0.8900779
28	0x3d0b066e	0.03394168
29	0x3c894eb4	0.016761161
30	0x4056ea85	3.358064
31	0x3fc01eca	1.5009396
32	0xbf08dde3	-0.5346357
33	0x3d483ca7	0.048885968
34	0xbde82e3d	-0.11336944
35	0x3e2dc58f	0.16969894
36	0x3fb3d181	1.404831
37	0xbea3b5c3	-0.3197461
38	0xbda7670d	-0.08173952
39	0x3ea667ba	0.32501012
40	0x3fffc346	1.9981468
41	0x3faa7e4e	1.3319795
42	0x3fc066f8	1.5031424
43	0xbdfce152	-0.12347664
44	0xbe091d5f	-0.1339011
45	0x3db05431	0.08609808
46	0xbea4dce7	-0.32199785
47	0xc009ac8c	-2.1511564
48	0x3cc35e45	0.023848662
49	0x40178873	2.3677032
50	0xbb0ace72	-0.002118018
51	0x3f675060	0.9035702
52	0x3fa1973a	1.2624276
53	0xbd9116db	-0.070844375
54	0xbeda33d6	-0.42617673
55	0xbc92c8e0	-0.01791805
56	0xbebbfa1d	-0.3671426
57	0xbeec6f69	-0.4617875
58	0x3d1b5d2a	0.037930645
59	0xbd12a173	-0.0357985
60	0x3d8f30bf	0.069917195
61	0x3d818d30	0.063257575
62	0xbfbe8bba	-1.4886391
63	0xbdb784b7	-0.0896086
64	0xbd4940ca	-0.049134053
65	0x3dd460f4	0.10370055
66	0x3c06ba17	0.008223078
67	0xbfced40b	-1.615846
68	0x3d613b25	0.054988045
69	0x3d468968	0.048470885
70	0x4001a574	2.0257235
71	0x3d32a036	0.04360982
72	0x3b6db286	0.0036269738
73	0xbe924f5d	-0.28576174
74	0x400238bf	2.0347135
75	0x3eaec8fb	0.3413771
76	0xbd876eea	-0.06612952
77	0xbfe07f43	-1.7538837
78	0x3a818308	0.0009880969
79	0x3f346463	0.7046568
80	0xbd99cf2e	-0.075102195
81	0x3e899d9b	0.26878056
82	0x3d285744	0.041098848
83	0xbcb1fd92	-0.021727357
84	0x3f4a4cfc	0.7902372
85	0x401b0d5f	2.422691
86	0xbe36d621	-0.17855121
87	0xbdf459ec	-0.11931214
88	0xbe822fb6	-0.25427026
89	0x3ee34705	0.4439012
90	0x3f8c0db0	1.0941677
91	0x3f5ecc84	0.87030816
92	0x3e866a69	0.2625306
93	0x3d0567bf	0.032569643
94	0x3f7c8738	0.9864383
95	0xbed10b1c	-0.40828788
96	0x3e51aeef	0.20476888
97	0x3cab4ef2	0.020911667
98	0xbe5143ca	-0.20436016
99	0x3f28f8ad	0.6600445
100	0x3fcc272c	1.5949454
101	0xbb8fabe3	-0.004384504
102	0xbd6ea4f2	-0.058262773
103	0x3dde5c10	0.10857403
104	0x40164223	2.3477867
105	0x3fa9ae6e	1.3256357
106	0x3e633381	0.22187616
107	0xbdde91ce	-0.10867654
108	0x3c9aa912	0.018879447
109	0x3f0de3ba	0.5542561
110	0x3d84652c	0.064646095
111	0x4035a0fe	2.8379512
112	0x3d717388	0.05894807
113	0xbee7770b	-0.4520801
114	0x3d907578	0.070536554
115	0x3fe4a571	1.7862989
116	0x3e9dcff9	0.30822733
117	0x3d20c687	0.03925183
118	0xbda731d5	-0.081638016
119	0xbd6b9afc	-0.05752085
120	0x3e780fc7	0.24224769
121	0xbe8305ae	-0.2559027
122	0xbd89f737	-0.067366056
123	0x40069283	2.1026924
124	0xbca9500a	-0.020668048
125	0x3c4dbdb6	0.012557438
126	0xbf8d9b3d	-1.1063
127	0xbd957100	-0.07296944
128	0xbe49064c	-0.19631308
129	0xbf5860ac	-0.8452251
130	0xbd03ea07	-0.032205608
131	0x400c234b	2.189654
132	0xbfb328b8	-1.3996801
133	0xbd311674	-0.043234304
134	0xbf184439	-0.594791
135	0x3f064eef	0.52464193
136	0xbe388b13	-0.18021803
137	0x3fa60391	1.2969838
138	0x3fa8c600	1.3185425
139	0xbf8273a1	-1.0191537
140	0x3f694fe6	0.9113754
141	0x4094d632	4.651147
142	0xbdf83789	-0.121199675
143	0x3f35b303	0.70976275
144	0x3cb0b785	0.021571884
145	0x3e2b6616	0.16738161
146	0xbbb65f60	-0.005565569
147	0x3ca8f7e8	0.020626023
148	0x4065c336	3.5900397
149	0x3fff1d96	1.9930904
150	0x3969e797	0.00022306886
151	0xbe08f986	-0.13376436
152	0xbe0b9bfa	-0.13633719
153	0xbefb2733	-0.49053344
154	0x401509bf	2.3287199
155	0x3f71a5bf	0.94393533
156	0xbf41ba40	-0.7567482
157	0xbd9cefde	-0.076629385
158	0x3f9a06a1	1.2033273
159	0xbf186c08	-0.5953984
160	0xbe43adfb	-0.19109337
161	0x3d1dd1dc	0.038530216
162	0x3dbbacb8	0.09163803
163	0xbf53d254	-0.8274281
164	0x405b1c12	3.4235883
165	0xbe5247b6	-0.20535168
166	0xbd35103d	-0.04420494
167	0x3c74656d	0.01491676
168	0x400232cf	2.034351
169	0x3e70e57a	0.23525038
170	0x3fd44358	1.6583052
171	0x3c08f51c	0.00835922
172	0x3e7329bb	0.23746388
173	0xbf4e3c20	-0.80560493
174	0x3e3e4c2c	0.18583745
175	0x3fc71b21	1.5555154
176	0x3d8af541	0.0678506
177	0x406468e5	3.5689023
178	0xbf85f9f2	-1.0466902
179	0x405821d3	3.3770645
180	0x3f5c8e44	0.8615458
181	0xbdf77796	-0.12083356
182	0xbe0ff89b	-0.14059679
183	0xbbb6680e	-0.0055666035
184	0x3fa7ce85	1.31099
185	0x3eebc76c	0.46050584
186	0x3d84ba90	0.064808965
187	0x3e75e444	0.24012858
188	0x3dcbb920	0.09947419
189	0xbf617e74	-0.8808358
190	0x401e96f6	2.477964
191	0xbc2883b1	-0.010285304
192	0x3ea4a0e9	0.32154015
193	0x3def74d0	0.11692202
194	0x3d6aa8c7	0.057289865
195	0x406a8133	3.6641357
196	0x3e61a8f1	0.22037102
197	0x3cc7f900	0.024410725
198	0xbf994dfd	-1.1976925
199	0xbe04b044	-0.12957865
200	0xbda222ea	-0.079168156
201	0xbe6bb297	-0.23017345
202	0x3f346c0c	0.70477366
203	0x3e7ce57c	0.24696916
204	0x3f2682d7	0.65043396
205	0x3fd999e3	1.7000087
206	0xbe1eb647	-0.15499221
207	0x406d1e3e	3.7049708
208	0x3d25e130	0.04049796
209	0x3eec7fdd	0.46191302
210	0x3d20fae2	0.03930176
211	0x3ca1aa18	0.019734427
212	0x3f2a9171	0.66628176
213	0x3e1df70c	0.15426272
214	0xbdf09afd	-0.11748312
215	0x3d5a3e1f	0.0532819
216	0x3f3bff03	0.7343599
217	0x3eaf7002	0.34265143
218	0x3e567ae2	0.20945314
219	0x3f08f434	0.53497624
220	0x3e00d7ae	0.12582275
221	0x3d8050e9	0.062654324
222	0x3f3cc0ec	0.73731875
223	0x3e0b3199	0.13593139
224	0xbdd37eb2	-0.103268996
225	0xbd49c871	-0.04926342
226	0xbdee44c2	-0.11634208
227	0x3f784710	0.9698343
228	0x3ea51b64	0.3224746
229	0xbc07a571	-0.00827919
230	0x3e014c7c	0.12626833
231	0xbe268221	-0.16260578
232	0x3f0388c2	0.5138055
233	0x3f6e5fbe	0.9311484
234	0x3fb69b0e	1.4266069
235	0xbde06c38	-0.10958141
236	0xbd4ec5f4	-0.05048175
237	0x3f018515	0.5059369
238	0x3f877685	1.0583044
239	0x4029aa85	2.6510327
240	0x3d94509e	0.07241939
241	0x40448492	3.0705914
242	0x3ea5d0b3	0.32385787
243	0x3ffe2781	1.9855806
244	0xbff6c5e6	-1.9279144
245	0xbc407283	-0.011746052
246	0xbd8c4445	-0.06848959
247	0xba190ddb	-0.00058385514
248	0xbe327b64	-0.17429882
249	0x3baa9b00	0.0052064657
250	0x3cf709ef	0.030156104
251	0x3f1febd8	0.62469244
252	0xbdd439eb	-0.103626095
253	0x3e3a78c6	0.18210134
254	0x3f83aedb	1.0287737
255	0x3d74a0db	0.059723716

bias f4 [4]
0	0x3d632630	0.05545634
1	0xbf105ada	-0.5638863
2	0x3e74a527	0.23891126
3	0xbf418c5b	-0.7560479
