saves/kevin/kevin_nn_2025-02-22_14-52-53.pt (torch, 17468 bytes, 8 tensors)

weight f4 [16, 16]
000000 90 eb 92 3c 94 5e 1e be 88 62 40 3e ca ab 43 be
       0.01793459 -0.15465766 0.18787587 -0.19108501
000010 aa 94 66 3e 88 11 dc 3d f4 05 a1 bd c8 a1 22 be
       0.22517648 0.10745531 -0.078624636 -0.15882027
000020 b6 4a 2f 3e 42 3b 07 3e 72 8b 5c be e6 ee 67 be
       0.17118344 0.13206199 -0.21537569 -0.22649726
000030 40 0e 7f 3c 3e 21 13 be f0 00 7d 3e 00 ca ed bd
       0.015567362 -0.1436815 0.24707389 -0.11610794
000040 73 3a 17 3e 9d 0f d2 bb 13 73 c2 3d f7 ff 32 bd
       0.1476839 -0.0064105527 0.09494605 -0.04370114
000050 40 73 33 3e 46 f4 e6 3d a2 ee 97 bd 94 be 47 be
       0.17524433 0.1127706 -0.074185625 -0.19506294
000060 c0 3f 63 bc 66 f1 ae bd a7 c5 36 be 2b 56 40 be
       -0.01387018 -0.08542137 -0.17848836 -0.1878287
000070 60 27 86 bc a1 c3 8e be 8c 26 d4 3d bd 84 e0 bd
       -0.016376197 -0.27883628 0.10358915 -0.10962818
000080 dc 35 18 be 21 45 15 3e da 73 9a 3e f5 09 cf bd
       -0.14864296 0.14577152 0.30166513 -0.10109321
000090 d8 a2 05 bd ee a2 8c 3d 68 a0 aa bd f8 34 68 3e
       -0.032626003 0.06867014 -0.08331376 0.22676456
0000a0 1b 3f f8 bd 42 91 59 3e 54 18 1f 3c 16 f6 ce bd
       -0.121214114 0.21246818 0.00971039 -0.10105531
0000b0 2c 75 ef bd f4 9a 66 3e 60 78 c5 be ec e8 2f 3e
       -0.11692271 0.22520047 -0.385684 0.17178696
0000c0 cf f1 83 3e ce f5 00 3e 77 f5 cf 3e 4d fc 62 3e
       0.25770423 0.12593767 0.40616962 0.22166558
0000d0 8a 9d f8 bc 83 8a c4 bd 25 c1 cc 3e 3e dc 4d 3e
       -0.030348558 -0.095967315 0.39991108 0.20103547
0000e0 aa 93 88 be 80 ec 55 3e 5d a0 d6 be b0 6c d2 3e
       -0.2667516 0.20890999 -0.41919222 0.41098547
0000f0 14 67 bd bd 4a b4 62 be d0 ea 36 3e 4c c0 06 bc
       -0.09248176 -0.22139087 0.17863011 -0.008224558
000100 49 24 9b 3d 60 e8 37 bc ad 46 3d bf 51 ef 47 3e
       0.0757528 -0.011224836 -0.7393597 0.19524886
000110 d0 32 91 be 64 e3 19 3e 30 ae df 3e 81 b3 6b 3e
       -0.2835908 0.15028149 0.43687582 0.23017694
000120 99 34 18 be 43 b3 5c bd 5a 4a 27 3e 77 4a 66 3e
       -0.14863814 -0.053881895 0.16336957 0.22489344
000130 94 65 6b 3e fb 4d 00 3e a3 5c 0d 3f 90 18 36 be
       0.22987968 0.12529747 0.5521948 -0.17782807
000140 20 8b 50 3e f5 43 46 3e 50 7c fa bc ba 46 14 be
       0.20365572 0.19361861 -0.030576855 -0.14480105
000150 1c ca b3 3d 5a c7 00 3e f8 3a 58 be 1e 7a 60 be
       0.08778784 0.12576047 -0.21116245 -0.21921584
000160 08 ce 49 bd f0 93 43 3e f6 ad 74 3e 8c 7f 78 be
       -0.049268752 0.19099402 0.23894486 -0.24267405
000170 c0 38 5b bd da 92 4f be b6 69 15 3e f3 6a a3 bd
       -0.053520918 -0.20270863 0.14591107 -0.07979383
000180 3f 8c de bd c2 5c bb 3a 6f 63 1b 3e da 0a 9f 3e
       -0.108665936 0.0014294612 0.1517465 0.31062967
000190 c5 2c 52 bd 5a 1b cc 3d 3c e0 39 3e 5e d2 74 3e
       -0.051312227 0.099661544 0.18151945 0.23908374
0001a0 d1 13 b0 be c8 12 82 bc 34 f7 22 bd 73 cf 47 be
       -0.3439012 -0.015878096 -0.039786533 -0.1951273
0001b0 6b 94 84 3e 5b d9 db 3d d3 8a df be ab 51 d5 3d
       0.25894484 0.10734817 -0.43660602 0.104159676
0001c0 31 c9 b4 3d 07 7a fe 3d 10 1e 01 3f b8 3b 77 bc
       0.08827437 0.124256186 0.50436497 -0.015089922
0001d0 ce ba 7d 3d a4 32 9a 3d f8 7b 7c bd 84 07 93 3d
       0.06194573 0.0752919 -0.061641663 0.07179168
0001e0 2c 12 60 be 54 a4 96 3e 08 93 7a be b9 26 b3 bd
       -0.21881932 0.29422247 -0.2447015 -0.0874762
0001f0 3d 5a 31 be df a8 70 3e 53 e9 d0 be 6a f3 85 3e
       -0.1731958 0.23501919 -0.40803012 0.26162273
000200 0e 8a 84 3e 32 ec 77 3e 6d 7b 9d 3e 4e 8d 59 3e
       0.25886577 0.24211195 0.3075823 0.2124531
000210 16 a6 da bd 6c cb ea bc 0f 43 c6 3e e5 3d a2 3d
       -0.1067621 -0.028661452 0.38723037 0.07921962
000220 24 8f 60 3e f3 38 a9 bd cc 70 a0 be 5b 87 58 3e
       0.21929604 -0.08262815 -0.31336057 0.21145384
000230 91 1d 4c 3e d8 0e 7d 3e 0c 5f a6 bc 53 97 b2 bd
       0.19933154 0.24712694 -0.020308994 -0.08720269
000240 12 e1 a6 bc b1 2d 0d 3d fb 4d 7b 3e aa 2b 6b 3d
       -0.020370994 0.034467403 0.24541466 0.05741469
000250 e8 37 c2 be 22 ba f2 3d 07 ea e1 bd 31 d7 8b be
       -0.37933278 0.11851908 -0.11030965 -0.27312616
000260 05 d8 ca bb 29 08 97 be 23 2f 87 be b5 b3 4a be
       -0.0061903023 -0.29498413 -0.2640315 -0.19795115
000270 39 e5 85 bd 80 27 c4 3d 65 b3 1a be 6c 3f 60 3e
       -0.065378614 0.095778465 -0.15107496 0.21899194
000280 4d 91 c3 bc b8 47 92 3e 4b 06 99 3e 41 9a e0 bd
       -0.023872996 0.28570342 0.29887614 -0.109669216
000290 ee ea 1b be 27 bf 8d be ca b8 4e bb 8a 74 dc bd
       -0.15226337 -0.276849 -0.0031543248 -0.107644156
0002a0 c7 20 24 3e dd 44 62 3e 00 7a ed 3d d2 bd 57 be
       0.16028129 0.22096582 0.11595535 -0.21068504
0002b0 66 4f 09 3e fc 17 48 3e 1f 65 2b be 3b 4c 95 3e
       0.13409194 0.195404 -0.16737793 0.29159722
0002c0 4b 03 6e bd 25 99 0d bd e1 3f 33 be c6 6e 0e 3e
       -0.05810861 -0.034569878 -0.17504837 0.13909444
0002d0 41 59 8f bd 5f 60 dc 3e a9 c8 0b 3f 54 a8 25 3e
       -0.06999446 0.43042275 0.5460306 0.16177493
0002e0 ab 7f 5c 3e c7 a8 07 bc 47 a0 27 be 19 47 9e 3e
       0.21533076 -0.008279986 -0.16369735 0.30913618
0002f0 0b a2 0b 3d 5e 95 a1 bc 72 13 8b 3e c5 16 8d 3e
       0.034090083 -0.019724544 0.27163273 0.27556434
000300 a5 04 6c be 50 24 b6 be 81 8e 8f 3e 32 38 81 be
       -0.23048647 -0.3557458 0.2803841 -0.25238186
000310 11 dc 15 be 40 19 ae bd bf 71 a7 3e c0 a6 f1 3d
       -0.1463473 -0.0850091 0.3270397 0.11799383
000320 60 82 04 bc b7 ce 96 3d 75 34 d5 be fd c8 63 3e
       -0.008087724 0.073636465 -0.41641584 0.2224464
000330 9c cf 4f be 35 87 26 be 0e 7d 8a 3e ec ac 71 3e
       -0.2029404 -0.16262515 0.27048534 0.2360112
000340 cf da ac bd b5 49 10 3e 29 7d a9 3e 58 1b b9 3e
       -0.08440172 0.14090617 0.33103302 0.36153674
000350 c3 bf a6 be ca 40 02 bd ad 59 17 3c c2 29 54 bd
       -0.32568178 -0.03180007 0.009237689 -0.051797636
000360 a3 fe 7d be 95 16 d5 be b0 e5 4a be 82 8b 11 be
       -0.24804167 -0.4161879 -0.19814181 -0.14213374
000370 12 d2 09 bd b4 11 1e 3e a6 4a 5d be cf ac d3 bd
       -0.033647604 0.1543644 -0.21610507 -0.10335695
000380 8f 14 aa 3e 45 06 36 be d4 70 a0 3e 83 ac 8e bd
       0.3321881 -0.17775829 0.3133608 -0.06966498
000390 66 9a f6 bd ec f5 99 3e 5a 98 b8 3d f3 0c 4d 3e
       -0.12041168 0.30070436 0.09013434 0.20024471
0003a0 bd 67 23 be 52 9c 4e 3e 05 da 05 bf b5 6a 31 3e
       -0.15957542 0.20176819 -0.52285796 0.17325862
0003b0 4c 95 c6 3d d5 c4 90 be 3d 1e b5 3d 68 e1 fb 3d
       0.09696445 -0.2827517 0.08843658 0.12298852
0003c0 eb 90 47 3e 05 b9 5f be 57 97 11 3f 14 30 1b be
       0.19488876 -0.21847923 0.5687155 -0.15155059
0003d0 ea 6d 8e be 3e ef 14 bd 8e a8 0d be 3d db ab 3e
       -0.27818233 -0.03636097 -0.1383383 0.33565703
0003e0 62 93 0a be 19 96 0d 3e a3 22 c7 be f3 19 d5 3e
       -0.13532785 0.13826789 -0.38893613 0.4162136
0003f0 a8 76 23 3e d5 46 23 be e0 16 d4 3e 0d 6a bd bd
       0.15963233 -0.15944989 0.41423702 -0.09248743

bias f4 [16]
000000 68 ad 65 bd b6 03 97 3d 1a 45 a0 bd 2f f8 1e 3e
       -0.056073576 0.07373755 -0.0782568 0.15524362
000010 0e db 62 be 70 2b 62 be 6d 2a 88 3e 2f 02 ae 3e
       -0.22153875 -0.22086883 0.26594868 0.3398604
000020 f6 34 9b 3e f6 71 c0 bd f0 df 32 3c 1c 05 45 3d
       0.30313843 -0.09396736 0.010917649 0.048100576
000030 37 61 f8 3c 0e 32 8c 3e 56 4e 67 bd 64 dd db 3b
       0.030319793 0.2738194 -0.05647119 0.0067097414

weight f4 [32, 16]
000000 40 8a 57 3c 45 d2 67 be be 30 31 be 0c 6f 25 3e
       0.01315552 -0.22638805 -0.1730375 0.16155642
000010 23 e0 13 be 78 63 9c 3d 4f 5b 7f 3d 50 b8 04 3e
       -0.1444097 0.0763616 0.062342938 0.12960935
000020 87 1c 78 3d d2 07 06 3e 00 df cf bd a2 11 45 be
       0.06057408 0.1308892 -0.10149956 -0.19245008
000030 bc 93 89 3e 02 de 63 bc d8 c4 dc 3d d2 e4 9b 3e
       0.26870525 -0.013907911 0.107797325 0.30448014
000040 c0 42 6f 3e 8b 9e 8f bc 67 64 0c 3d 64 7a 00 3e
       0.23365307 -0.017531654 0.03427544 0.12546688
000050 e0 85 2c 3e 94 ef ae bd 82 d6 a2 3e b9 d3 4f bd
       0.16847944 -0.0854179 0.3180428 -0.050739024
000060 8f b3 e0 3c e1 36 7f 3d bf 94 d1 3c 95 bb 7e 3e
       0.02742937 0.062308196 0.025583623 0.24876244
000070 7e ba 8e 3e 3b b6 91 3e 3b 7f 71 3e 5c 99 70 3c
       0.27876657 0.28459343 0.23583691 0.014685001
000080 c8 f8 31 3e 91 98 0c be 06 64 46 3e 04 c6 1a 3e
       0.17380059 -0.13730074 0.19374093 0.151146
000090 2f f8 2d be d5 b2 88 3e 81 45 b4 3e 66 83 97 3e
       -0.16989206 0.26698938 0.35209277 0.29592437
0000a0 5d f1 8b 3e 14 44 94 3e de 4b 3b 3e 86 77 69 3e
       0.27332583 0.2895819 0.1829066 0.22799501
0000b0 17 1c 40 3e 76 dd 39 3e a2 45 2b be 7d 61 4e 3e
       0.18760715 0.18150887 -0.16725782 0.20154376
0000c0 f0 2f e9 bc 7d d2 2c 3e 8c 95 cf bd 24 e7 8b 3e
       -0.028465241 0.1687717 -0.10135946 0.27324784
0000d0 1a f5 3a bd e5 18 66 be dd 80 66 be c6 ae d4 3d
       -0.045643903 -0.22470434 -0.22510095 0.10384898
0000e0 63 c6 6a 3e 3e 3e 44 3e df 1a b4 3e de 8e 11 3e
       0.22927241 0.19164369 0.3517675 0.14214656
0000f0 d0 8b 9c 3e da 80 98 bd 97 b9 bf 3e ff e3 d5 3e
       0.30575418 -0.074464515 0.3744628 0.4177551
000100 96 3f 07 be c1 45 9b ba 83 db 3f 3e 66 8d ec bd
       -0.1320785 -0.001184635 0.18736081 -0.11550407
000110 a6 8d 8e be f7 a9 88 3e ed 34 3a be 40 76 39 be
       -0.27842444 0.26692173 -0.18184252 -0.18111515
000120 4e 98 de 3d 95 cf f2 3d 35 df ca bd d0 55 8d 3d
       0.108688936 0.118559994 -0.099058546 0.06901133
000130 01 37 9d bd 28 f9 28 3e e5 0e 88 be fb fa 0c bd
       -0.07676507 0.16501296 -0.26573864 -0.03441904
000140 ee 9e 7c be a9 e4 1b be 67 85 ec 3d b4 88 ba bd
       -0.24670002 -0.15223946 0.11548882 -0.09108105
000150 bd cb 35 3c c4 cb af bd 90 ae ad bc 98 42 3f 3e
       0.011095938 -0.08583787 -0.021201402 0.18677747
000160 37 41 4c 3e fe b6 f6 3e 39 22 06 3e f0 11 87 bd
       0.19946752 0.48186487 0.13098992 -0.06595218
000170 19 af c3 3e 56 3b 32 3e 06 ef 11 be 5c 7c f2 3d
       0.38219526 0.17405447 -0.14251336 0.11840126
000180 24 1f 55 3e e5 ee 38 3c 46 7d 0a 3e b4 be d7 3c
       0.2081266 0.011287426 0.1352435 0.026336052
000190 70 6b e3 3d c6 66 82 bd f1 da ad bd 79 ea 5c be
       0.111044765 -0.06367259 -0.084890254 -0.21573819
0001a0 58 aa 1a be 1a 65 4d be 66 10 c2 3d 9a 8f 1c be
       -0.15104043 -0.20058098 0.09475784 -0.15289155
0001b0 5e a2 38 be 77 f2 2b be 7a d4 cb 3d 9f 65 6e 3d
       -0.18030688 -0.16791712 0.09952636 0.058202382
0001c0 e8 4f 4f be c3 aa 1d be a0 5d 4d be fa e2 72 3e
       -0.20245326 -0.15397172 -0.20055246 0.23719397
0001d0 a5 2f 47 3d 71 27 03 3e 10 e4 48 3e bc 94 40 be
       0.04862942 0.12808014 0.19618249 -0.18806738
0001e0 2d 31 6a 3d e6 7e f3 3d c6 e5 1d be 7a eb 5c 3e
       0.057175804 0.11889438 -0.15419683 0.21574202
0001f0 ee e8 d7 3c 68 3a 2b be 27 38 2f 3d 1f db 47 3c
       0.026356187 -0.16721499 0.04277816 0.012198239
000200 58 ad eb bd 79 14 a1 bd 09 30 5c bd fd 64 1e 3d
       -0.11507672 -0.07865233 -0.053756747 0.03867053
000210 de 92 c9 3d 62 ac 07 3e e5 73 b0 3e db cb d7 3d
       0.09842466 0.13249353 0.3446342 0.10536929
000220 74 0e e3 3d 2f 97 28 3f d4 a9 60 3e 47 0a 02 be
       0.11086741 0.6585569 0.21939784 -0.12699233
000230 47 1c bf be 9e a7 04 3f 5b d6 81 3d 76 7c e5 be
       -0.3732626 0.51818264 0.06339713 -0.4482152
000240 3c 48 1b 3e 40 5c 28 3d 77 0a 22 be 32 9e 30 be
       0.15164274 0.0411036 -0.15824305 -0.17247847
000250 6e 4e 63 be a6 d2 09 3e c0 18 09 3c fb 46 2f 3e
       -0.22197887 0.13459262 0.008367717 0.1711692
000260 3c 94 ca bd 2c ea 37 be 55 28 27 3e a7 56 27 be
       -0.09891555 -0.17960423 0.16323979 -0.16341649
000270 d4 55 35 3e 7c 8a ec bd c5 19 13 3e 58 03 57 bc
       0.17708522 -0.11549851 0.14365299 -0.013123356
000280 50 f8 f2 3c 71 8a 5f 3d e9 ac fd 3d 90 a0 00 3e
       0.02965942 0.054575387 0.123864956 0.1256125
000290 b3 c5 e6 bd 16 e5 78 be 20 8c da 3c 2b 70 83 3d
       -0.11268177 -0.2430614 0.026678145 0.06417879
0002a0 d9 08 18 3d b5 75 31 3e 5c 00 a0 3e 83 93 6a 3e
       0.037117813 0.17330058 0.31250274 0.22907834
0002b0 0e 20 d2 3e 82 62 54 be bf d5 d8 3d 2f 7e c1 3e
       0.4104008 -0.20740703 0.10587644 0.37791583
0002c0 c0 54 83 bc 5b b2 ac 3b ca 82 2f 3d 37 f2 8c 3c
       -0.016031623 0.005270285 0.04284934 0.01720534
0002d0 43 cd 83 be 48 d9 cc bd c1 3c a1 3e fe 4e 22 3e
       -0.2574254 -0.100023806 0.31491664 0.15850446
0002e0 3a a0 10 3e 7b d4 42 3e ad f4 8b 3e e0 da 35 bd
       0.14123622 0.19026367 0.2733511 -0.04439819
0002f0 dc 35 9c be 4b ea a2 3e b9 7d 1d 3b 06 50 d8 be
       -0.3050984 0.31819376 0.0024031235 -0.42248553
000300 20 52 ee bd 45 b2 ac bd 17 05 3c 3e 5a a2 12 3d
       -0.11636758 -0.0843244 0.18361317 0.03579936
000310 d1 50 88 3d 98 09 3a 3e 4f 3e 01 3e 59 0f 92 3e
       0.066560395 0.18167722 0.12621425 0.28527334
000320 93 22 a5 bd de ad be 3e be 51 d7 3c ad a5 9b bd
       -0.08063235 0.37242025 0.026284095 -0.075999595
000330 bb 72 86 be 0b 14 7b 3e 94 82 83 bd 06 4a 94 3d
       -0.26259407 0.24519365 -0.0642139 0.07240681
000340 b4 63 a9 bd 30 1a f5 bd b5 44 52 3c ae 81 46 3e
       -0.0827097 -0.119678855 0.012833764 0.19385406
000350 85 71 a9 3e 02 5d 21 3b f2 63 7a 3d 12 fb cb 3d
       0.3309442 0.0024622087 0.06113047 0.09959997
000360 b8 f2 33 3e 63 e3 d8 3d e4 e7 56 3e 22 0c 7a 3e
       0.17573059 0.105902456 0.20986897 0.24418691
000370 52 1d 2f 3e 48 16 71 3e 02 ec c1 bd 87 9d 18 be
       0.17101029 0.23543656 -0.09468843 -0.14903842
000380 18 50 6a be 74 17 0e be 62 75 1b 3e 12 9c 8d 3d
       -0.22882116 -0.13876134 0.15181497 0.06914534
000390 d4 cf 35 bd 98 85 01 bd 9f a6 87 3e 7a 6d af bd
       -0.044387653 -0.031621546 0.2649431 -0.08565803
0003a0 67 1e 1f 3e d8 12 ec 3e 0a d1 b9 bc 64 f7 2f 3e
       0.15538941 0.46108127 -0.022682685 0.17184216
0003b0 73 66 ee bc cb e0 80 3e 59 3a a8 bc 5f 2b 2c bd
       -0.029101586 0.25171503 -0.020535635 -0.04203355
0003c0 44 1a d4 bd 2b a9 3a 3d 25 32 de 3d 6d d5 13 3d
       -0.10356572 0.045571487 0.10849408 0.03609221
0003d0 e0 de 4d 3e c8 d2 75 bd ba d1 86 3c 69 f9 47 3e
       0.20104551 -0.06001547 0.016457427 0.19528736
0003e0 82 e7 5c 3d b2 5b 17 bc b9 4b 53 3e 36 0c 01 3e
       0.05393172 -0.00923817 0.20634355 0.12602314
0003f0 9a 7b 94 3e b9 e3 e2 bd 34 48 d5 3d 03 8e 02 be
       0.2900055 -0.11078591 0.10414162 -0.12749486

bias f4 [32]
000000 6a b3 ff bd c7 9a 8e 3e 85 56 85 3e bd 56 78 3e
       -0.124853924 0.2785246 0.26042572 0.24251838
000010 a8 86 90 bd c4 c2 92 3e 18 a3 07 3e c9 cb 3e 3e
       -0.07056934 0.2866422 0.13245809 0.18632425
000020 08 c1 92 bc 52 3c 3d 3c d2 47 52 3e a2 54 1d 3e
       -0.01791431 0.011550026 0.2053521 0.15364316
000030 73 b5 92 3d d1 fa 13 3e 29 33 ad 3e 8a ff e6 3c
       0.07163515 0.14451148 0.33828095 0.028198022
000040 08 89 37 bd 95 20 1d 3e 46 d9 18 bd ab 0d 6d bd
       -0.044808418 0.1534446 -0.037316583 -0.057874363
000050 fc af 05 be d1 f2 5a be 38 83 84 3e ee 02 76 be
       -0.13055414 -0.2138169 0.25881362 -0.24024555
000060 0a 8b 06 be 50 3f cf 3a bc c3 06 3e 3f 9e 7b 3e
       -0.13138977 0.0015811715 0.13160604 0.24572085
000070 25 2f 0a be 63 be 23 be 9d 27 3e bd 67 10 84 3d
       -0.13494547 -0.15990596 -0.046424497 0.06448441

weight f4 [64, 32]
000000 e3 5f 02 3e 16 4c 80 3c c8 f1 38 3e 75 0b 75 3e
       0.1273189 0.01566128 0.18060982 0.23930152
000010 e6 49 d3 3d f8 40 62 3e d4 6d c2 bd 55 86 6e 3e
       0.103168294 0.22095096 -0.09493604 0.23293431
000020 05 e7 79 be 90 74 06 be d6 60 d7 3d 7f ed e5 bd
       -0.24404533 -0.13130403 0.10516517 -0.112269394
000030 4e dd ed bd 6e 1a 9e 3d 76 72 25 bc f4 d9 20 3e
       -0.11614476 0.07719885 -0.01009809 0.15708143
000040 d0 7f 86 bc 18 a1 f9 bd 0c c2 d7 bd 4c da 2e 3d
       -0.016418368 -0.12188929 -0.105350584 0.042688653
000050 69 d2 6a 3c c5 1f b2 bd eb b9 16 bd e0 8f 17 bd
       0.014332392 -0.08697466 -0.0367984 -0.037002444
000060 d3 fa a3 3e da 40 af 3d 3a c4 19 be a6 81 d9 3e
       0.320273 0.08557291 -0.1501626 0.42481726
000070 9f da 96 3d 56 03 f4 bd b1 ab 1b 3d d7 98 34 be
       0.073659174 -0.11914699 0.038005535 -0.17636429
000080 8d 00 ea bd aa 67 b8 3d 7c 12 ef 3c 3e a9 1d be
       -0.11425886 0.09004147 0.029183619 -0.15396592
000090 ea 0b b3 3c 6d 5f 6f 3d 8b b1 03 be 40 f2 42 3d
       0.021856267 0.058440614 -0.12860696 0.04759431
0000a0 35 79 dd 3e 3b 39 63 bd b3 5a 83 be 77 82 90 bd
       0.43256536 -0.0554745 -0.25655136 -0.07056134
0000b0 fc d4 a5 3d 44 96 11 3e 86 61 8c bd 69 02 1a 3e
       0.08097264 0.14217478 -0.068545386 0.15039982
0000c0 23 98 af 3d 5e b9 99 3d a6 f0 85 bc 21 d7 1b 3e
       0.0857394 0.07506059 -0.016350102 0.15218784
0000d0 57 97 eb 3d e9 9a 08 be d4 70 cc 3d 31 ea e2 3c
       0.11503475 -0.13340344 0.09982458 0.027699562
0000e0 63 1a a4 3d 73 ea 18 bd 57 ad 0f be 1a a2 14 be
       0.08012845 -0.037332963 -0.14030968 -0.14514962
0000f0 d3 36 00 be f1 b0 33 be ab 06 7f 3d f2 21 07 be
       -0.12520914 -0.17547967 0.06226222 -0.13196543
000100 0d ba a2 3e 75 8a 13 3e 91 58 64 3e 29 fa bd 3e
       0.3178257 0.14408286 0.2229941 0.3710492
000110 39 b0 92 bc 4a 12 2f 3e ed a3 3b 3d 25 ed 76 3e
       -0.017906295 0.1709682 0.04581063 0.24113901
000120 92 48 0e be 32 da 3a 3e f6 02 9c 3e 1b 40 ad bd
       -0.13894871 0.18247297 0.3047101 -0.08459493
000130 a0 fa 94 bc 1b f9 ed 3d 87 b5 46 3e ae a3 ef 3d
       -0.018185914 0.11619779 0.19405185 0.11701141
000140 a7 de 7c bd ef a0 81 3d ac 28 b9 bc 90 ae 23 be
       -0.061735775 0.06329524 -0.022602402 -0.15984559
000150 13 6e 2e 3e 4a 9e 9a 3b 49 6e 19 3e ac f8 a6 3d
       0.17034177 0.0047185766 0.14983477 0.08152899
000160 d8 e7 5e 3d f7 0d 32 3e db da e9 bd 1b 77 c9 3e
       0.054420322 0.1738814 -0.114186965 0.39348683
000170 45 8c fa bd ff df fe 3c 4a 5e 36 bd d8 84 2d 3e
       -0.122337855 0.031112669 -0.044523515 0.16945207
000180 04 90 14 be 8c 09 df bc 22 cf c7 bd 71 22 f1 bd
       -0.14508063 -0.027226232 -0.09756304 -0.11774147
000190 f2 19 2c be 41 3a 22 be fd 0d 12 be ea ae a1 3d
       -0.16806772 -0.15842535 -0.14263149 0.0789469
0001a0 24 58 f1 bd f8 1b 0c 3d 56 23 d4 3d bc 40 27 3e
       -0.117843896 0.03420636 0.10358302 0.16333288
0001b0 b5 3b 97 3d 78 75 11 be da b0 e6 bd 47 65 9f 3d
       0.07384435 -0.14204967 -0.112642005 0.07782989
0001c0 00 b1 86 bb ba f4 b9 3d 45 6e b0 3b 99 13 30 be
       -0.0041104555 0.09079881 0.005384239 -0.17194976
0001d0 90 1b 16 3d f9 14 1b be 61 a5 da bd d5 e9 63 bd
       0.03664738 -0.15144719 -0.10676075 -0.05564292
0001e0 46 cc 14 3e 00 88 eb bd 31 37 8a 3d ff 79 1d be
       0.14531049 -0.11500549 0.06748808 -0.15378569
0001f0 4c a6 d1 3d b4 bd 14 3e 51 66 16 be 89 50 a4 bd
       0.10236797 0.14525491 -0.14687468 -0.08023173
000200 e5 58 cc 3d ac 14 ae bb 6b 17 30 be c4 57 d5 bd
       0.09977893 -0.005312523 -0.17196433 -0.104171306
000210 8e e1 09 3d 4d 60 93 3d eb 3f d2 bd 62 59 22 bb
       0.03366237 0.07196102 -0.10266098 -0.0024772515
000220 3f 3f 6c 3d 59 a9 0c 3d a6 99 9f 3d bb 83 37 be
       0.057677504 0.03434119 0.07792978 -0.17921345
000230 55 e5 dd 3c a0 d7 c7 bc 2c c8 3b bd 27 28 a0 bd
       0.027086893 -0.02439481 -0.045845196 -0.078201585
000240 0b 01 ba 3d f6 86 5a be c3 b9 e1 3a ca d4 1a 3e
       0.0908223 -0.21340546 0.0017221499 0.15120235
000250 9a 19 82 bd dd b7 93 bc c8 14 49 3c 16 0c 0f be
       -0.06352539 -0.018032009 0.012273021 -0.13969454
000260 f8 63 b1 bd 49 ec 0d be 56 9a 18 be e5 3f 22 3e
       -0.08661646 -0.13859667 -0.14902624 0.15844686
000270 fa 07 06 3e 5b 55 fc 3d 91 d6 41 be b5 a9 9c bd
       0.1308898 0.12320968 -0.18929507 -0.076495565
000280 c6 d4 52 bd 50 1f 2c be 53 d1 02 be 77 e6 de bd
       -0.051472448 -0.1680882 -0.12775163 -0.108838014
000290 63 e1 10 be 01 93 99 3c 0a 99 10 3c f5 90 5f bd
       -0.14148478 0.018746855 0.00882555 -0.0545816
0002a0 2a 31 29 3d 92 f4 ca bc 56 43 66 bd bb 00 ac bc
       0.041306652 -0.024774823 -0.05621656 -0.020996442
0002b0 7e 70 de 3d bc 1a ee bd 05 57 0f 3d cf 70 6b bc
       0.108613 -0.11626193 0.034995098 -0.014370157
0002c0 17 3c 1e 3d 42 90 77 3d f3 92 c5 bc 52 64 c4 3d
       0.038631525 0.06044031 -0.024117922 0.09589447
0002d0 96 7a 15 be 58 52 91 3d 4f 06 80 3d 40 f8 72 3d
       -0.14597544 0.07095784 0.06251203 0.05931878
0002e0 68 60 c6 3b fc ff 26 3e 8e 1d 0a be b2 32 b2 3d
       0.006053973 0.16308588 -0.13487837 0.087010756
0002f0 9c 4c 1b 3e 55 3f df 3d 07 eb c3 3d 83 7c 36 3d
       0.15165943 0.109007515 0.09566312 0.044552337
000300 6c d5 79 bc 11 bf 01 be 5e f7 bd 3c d9 68 56 be
       -0.015248638 -0.12670542 0.023189243 -0.20938434
000310 fc 2f 37 be 58 df c9 bd 34 96 4d be e7 c2 38 bb
       -0.17889398 -0.098570526 -0.20076829 -0.0028192343
000320 be 51 1c bd 1f 70 c6 3d 38 16 54 be 48 21 45 bd
       -0.038163893 0.09689354 -0.20711601 -0.048127443
000330 8c 59 55 bd 36 08 6b 3c e1 7b e7 bd 3f 21 07 3e
       -0.05208735 0.014345219 -0.11302925 0.13196276
000340 e0 60 fc 3d 91 93 a5 bd 26 96 0f be 99 3e 00 be
       0.12323165 -0.08084787 -0.14022121 -0.12523879
000350 2a 60 13 be 94 57 fb bc c2 2b 87 bc 94 91 0a bd
       -0.14392152 -0.030681409 -0.016500358 -0.03383024
000360 76 07 20 3e 2d 14 f3 3d 8c 79 2f be f8 88 09 3c
       0.15627846 0.118690826 -0.1713621 0.008394472
000370 48 5a a2 3d 38 af 8b bd 98 e2 6e 3d 3d cb df bd
       0.07927376 -0.0682053 0.058321565 -0.109274365
000380 91 e4 05 3e 57 66 e4 bb 1c d6 99 3c 28 14 af 3d
       0.13075472 -0.0069702077 0.018778853 0.085487664
000390 11 7c a2 3d 5b 3c 44 3d 70 95 88 bd 85 b2 88 3e
       0.0793382 0.047909122 -0.06669128 0.266987
0003a0 c3 2e 29 bd 60 73 34 3d f2 1a 5e 3d dc e2 41 be
       -0.04130436 0.044055343 0.054224916 -0.18934196
0003b0 01 a6 54 be e3 2d 0f 3e dd 62 d6 3d 31 c7 5d 3e
       -0.2076645 0.13982348 0.104680754 0.21658017
0003c0 ee 20 38 bd 39 28 22 3d 62 cb 80 be 2b 92 4f 3e
       -0.04495328 0.03958914 -0.2515517 0.20270602
0003d0 f4 95 e8 3d bf e3 18 be 8a 7e e4 3d d3 89 38 3d
       0.11356726 -0.14930628 0.11156948 0.045053314
0003e0 4f 86 90 3e d6 ea 36 3e 53 9e 81 3d ed 13 ea bd
       0.2822747 0.1786302 0.06329026 -0.11429582
0003f0 0e 4a 95 bc dc d1 28 bd eb 2f 67 3e 58 73 a0 3d
       -0.018223789 -0.041215762 0.22576873 0.078345

bias f4 [64]
000000 97 4b 5e 3e c3 89 98 bb 52 ba 27 3e ca 7d 04 bc
       0.21708523 -0.0046550944 0.1637967 -0.008086631
000010 00 52 54 3c 69 82 eb 3d be 81 30 3d 5e b5 1a 3e
       0.012959003 0.11499483 0.04309248 0.15108249
000020 4d d1 33 3d b6 d1 df 3d f0 e2 8c 3d 65 8e dc 3d
       0.043900777 0.10928671 0.068792224 0.10769347
000030 9e 44 b4 b8 8e 36 14 3e 2b c4 28 3e 32 c5 03 3e
       -8.59585e-05 0.14473936 0.16481082 0.12868193
000040 96 53 21 3e ef 82 1b be 10 e3 58 bd 98 9d fa bd
       0.15754542 -0.15186666 -0.05295092 -0.1223709
000050 e7 a5 cf bd 2f 53 07 be 18 b8 97 3e 79 32 bb bd
       -0.10139065 -0.13215326 0.2963264 -0.09140486
000060 c5 68 02 be b6 bb fc bd 9a 08 5b bd e1 ef 1b 3e
       -0.12735279 -0.123404905 -0.053475 0.15228225
000070 bd 92 6b 3e b0 d8 89 3e 63 54 83 be 08 8a 83 3e
       0.23005195 0.26923132 -0.2565032 0.25691247
000080 3f 9c 1a be d6 39 98 3e ec 46 08 3e 68 7b 03 3e
       -0.15098666 0.29731625 0.13308305 0.12840044
000090 44 02 c2 3d c1 84 2f bd 07 ae 00 3e ac 50 6c bd
       0.094730884 -0.042851213 0.12566386 -0.057694122
0000a0 d1 69 fe 3c da 9c 76 bb 7f 28 8e bd 2c 14 8a 3e
       0.031056317 -0.0037630112 -0.06941318 0.26968515
0000b0 1e f1 87 3e 6f be 48 3e eb 53 8c 3d dd 81 f8 bd
       0.26551145 0.19603895 0.068519436 -0.121341445
0000c0 c9 b0 05 3e ea 1c ba 3c 68 47 9a 3c d5 bf d3 bb
       0.1305572 0.022718865 0.018832877 -0.006462077
0000d0 49 b7 93 3d 87 20 8d 3e b7 0a 3a 3e 30 d2 e2 3d
       0.07212693 0.2756388 0.1816815 0.11075246
0000e0 f4 4d 25 3e 25 6a f0 bd 3d 89 81 3d dc c9 d6 bd
       0.16143018 -0.117389955 0.06325004 -0.1048772
0000f0 df 3e 3c bc a9 11 82 bd 6c a2 e0 3c 45 41 d5 bd
       -0.011489599 -0.06351025 0.027421199 -0.1041284

weight f4 [4, 64]
000000 b3 cb 94 be 46 e2 fd 3d aa d9 5a be e0 74 7a 3d
       -0.2906166 0.12396674 -0.21372095 0.061146617
000010 1b c0 08 bc 00 e3 bb 3a 59 48 84 bc 1d 7a 65 bc
       -0.008346583 0.0014334619 -0.01614778 -0.014006165
000020 43 8d 60 bc 54 99 37 be 61 5b 41 3c f5 7c 0a 3e
       -0.013705554 -0.17929584 0.011801572 0.1352423
000030 98 79 9c 3d cd a8 0b be dd fd 78 bd 21 49 f2 bd
       0.0764038 -0.13638611 -0.060788978 -0.118303545
000040 4f e3 d4 bd 9e 93 80 bd 8f b2 e1 bc cf 10 94 bd
       -0.10394918 -0.06278156 -0.027550964 -0.072297685
000050 3a 81 89 3d 4a b8 bc 3d 20 5b 80 be cc 59 ba bd
       0.06714101 0.09214838 -0.25069523 -0.09099159
000060 fe 27 a9 3d 31 91 aa bc 36 9b 85 3d 83 1f 09 3e
       0.08259581 -0.020821186 0.06523745 0.13390927
000070 00 35 6d be a4 c8 35 be 55 a7 ef bd d5 2b f7 bd
       -0.23164749 -0.1775232 -0.11701838 -0.12068907
000080 72 f2 f2 3d 77 f0 e0 bc 20 45 46 3d 0e f1 93 be
       0.11862649 -0.027458413 0.048405766 -0.28894848
000090 05 0f d8 bd e3 cc f2 3c b5 bc 4f 3d c1 8e 4b bd
       -0.1054974 0.029638713 0.050717074 -0.049696688
0000a0 0d da 1f 3e 03 10 cc bd 80 05 54 be e9 ac 44 be
       0.15610524 -0.099639915 -0.20705223 -0.19206585
0000b0 94 7b 0d be 52 4b 9b bc 8c 87 bb be c8 63 06 be
       -0.13816673 -0.018956814 -0.36626852 -0.13124001
0000c0 d0 e5 84 bd d9 a0 45 3c dd 32 87 bc 16 bb dc bb
       -0.06489146 0.012062275 -0.016503746 -0.0067361696
0000d0 91 a8 ac 3d 10 11 31 be d5 b9 f3 bd 41 2b 5c be
       0.08430589 -0.17291665 -0.11900679 -0.21500875
0000e0 69 0b e4 3c 46 b3 57 3d 9e b6 0a 3d e9 b9 89 bd
       0.027837472 0.052661203 0.033865564 -0.06724913
0000f0 a4 b8 4a be 15 15 38 3e a6 61 98 3d 3f 03 67 be
       -0.19796997 0.17976792 0.074405 -0.22559832
000100 6c 98 8a be 6a b6 5d be fc 4d 86 be b2 f0 ed bd
       -0.27069414 -0.21651617 -0.26231372 -0.116181746
000110 89 5a 36 bd ba 24 86 3d e1 5f 8e 3d d6 9d 99 be
       -0.044519935 0.06549974 0.06951881 -0.30003232
000120 5d 72 db ba a4 89 b5 bd 88 e7 a6 3d 7a 8e 55 be
       -0.0016742457 -0.088641435 0.0814963 -0.20855132
000130 24 06 cf bd bf 12 fe 3d 00 53 8a be 95 d1 50 be
       -0.10108593 0.12405919 -0.2701645 -0.20392449
000140 e6 a8 93 be 78 db 42 3d b3 da 8b bd 43 96 3c bb
       -0.28839797 0.047572583 -0.06828823 -0.0028776086
000150 10 ae 52 bc 68 6f e9 3d 67 32 1e be ac 94 3f 3d
       -0.012858883 0.11398202 -0.15448914 0.046772644
000160 80 8b d0 3d 61 16 83 3d 43 fc e5 bc 3d 74 90 be
       0.101828575 0.06400753 -0.02807439 -0.28213683
000170 59 d3 4c be c7 d9 4e be 67 e1 a9 3d c2 c0 15 be
       -0.20002498 -0.20200263 0.08294945 -0.14624313
000180 4c 9f bd 3d 37 b2 a1 be 12 c7 82 be ba 6d 3f be
       0.09258899 -0.3158128 -0.25542504 -0.18694201
000190 e4 37 04 be a7 59 65 be 0d c4 76 be eb ac 82 bd
       -0.12911946 -0.22397481 -0.24098225 -0.06380638
0001a0 61 dd ac be 36 65 09 be 51 4d 63 be 46 60 bf bd
       -0.3376265 -0.13417515 -0.22197463 -0.093445346
0001b0 98 ba 4d be 36 3b ac be ff 8d e5 3b 02 18 0a 3d
       -0.20090711 -0.33638924 0.0070054526 0.033714302
0001c0 88 a9 9a be 97 53 39 3d 85 66 1c 38 45 59 d6 3c
       -0.30207467 0.045245733 3.7288777e-05 0.026165614
0001d0 23 e3 83 be b6 7d 9c be cb 95 4a be bc 36 62 be
       -0.2575923 -0.3056466 -0.19783704 -0.22091192
0001e0 bf 0a 6f be a1 bd 7d bc 08 eb ea 3c 87 7a 99 3d
       -0.23343943 -0.015487106 0.028676525 0.07494073
0001f0 c8 c3 16 be 9b d2 da 3c 60 cc cc bd d4 d7 7f be
       -0.14723122 0.026711753 -0.09999919 -0.24984676
000200 42 ab 06 3e 2f a1 b9 bd 23 76 ea 3d 00 ca 2e 3b
       0.13151267 -0.090639465 0.11448314 0.0026670694
000210 0e 5e dd 3c c0 30 ac 3d ef 2b 28 be 30 b3 e2 3c
       0.027022388 0.08407736 -0.1642301 0.027673334
000220 47 15 85 bd 36 08 e6 bd 52 5e a3 3d a2 08 7f be
       -0.06498199 -0.11232035 0.079769745 -0.24905637
000230 64 dc fb 3d f8 72 0c 3d f4 34 0d be 11 c0 4f bd
       0.122978956 0.03428933 -0.13789731 -0.05072028
000240 85 47 51 bd d0 10 12 bd 94 9d 5e 3d e3 3b f2 bd
       -0.051093597 -0.035660565 0.054349497 -0.11827829
000250 c8 94 21 bd a8 3b 33 3d e2 be d6 bd 80 4d 23 bc
       -0.03944853 0.043758065 -0.10485627 -0.009967208
000260 e4 29 4d bd d4 2c 81 3d 04 79 aa 3d ad 27 8f bd
       -0.05008878 0.063073784 0.08323863 -0.069899894
000270 b6 4d d0 bc 16 4e 16 be d8 dc 8c bc 4d 1c 10 be
       -0.02542768 -0.14678225 -0.01719515 -0.14073296
000280 30 66 60 3c 1f f2 e8 3d da 7d e6 bc 70 27 aa bd
       0.013696238 0.11374306 -0.028136183 -0.08308303
000290 c8 05 2b bd f6 75 8c bc 7e 50 6e be 67 2d 04 3c
       -0.04175356 -0.017146092 -0.23272893 0.008067465
0002a0 f7 49 fa bd 96 15 71 be a3 3b 26 3d f2 b0 a7 bd
       -0.12221139 -0.2354339 0.040584218 -0.081880465
0002b0 b1 17 a6 3d c4 8c 08 be fa f9 bf 3d ed 05 e7 3c
       0.081099875 -0.13334948 0.09373851 0.028201068
0002c0 84 de b0 3c 4a 69 e6 bd ae 93 ca 3b 4c 59 05 be
       0.021590479 -0.11250551 0.0061821556 -0.13022345
0002d0 91 69 cf bd fd d5 5a 3d 7c 80 c7 bd 8e b1 ae 3b
       -0.10127557 0.05342673 -0.09741303 0.0053312248
0002e0 24 e7 8b be 5e b6 8c bd 8c e0 d9 bd 54 4a 81 bd
       -0.27324784 -0.06870721 -0.10638532 -0.06313005
0002f0 e1 8f a9 bd cc 87 35 3d f9 77 95 bd 0d b4 3d 3e
       -0.08279396 0.04431896 -0.072982736 0.18525715
000300 99 10 48 be 70 a5 03 3e 4c 7e 01 be d8 ca b3 3c
       -0.19537582 0.12856078 -0.12645835 0.02194731
000310 9a 22 2e bc 98 a4 b1 3d d1 46 d3 3c 84 13 54 be
       -0.010628367 0.08673972 0.025790604 -0.2071057
000320 3c d8 08 be d2 bd dd bc 1d 44 44 bd 43 6b 65 bd
       -0.13363737 -0.027068052 -0.04791652 -0.056010496
000330 d0 82 31 3d 48 99 9a 3c 76 fd 0b 3e ed b1 12 bd
       0.043337643 0.018871918 0.13670906 -0.035814214
000340 34 17 c0 3d 40 45 1f bc 10 c2 b8 bd d2 a9 e8 3c
       0.09379426 -0.0097211 -0.090213895 0.02840129
000350 64 05 cd bd 38 ec 1a bd cc 58 a4 bd 9a ea 97 bd
       -0.10010794 -0.037822932 -0.08024749 -0.074177936
000360 d0 88 52 bd 00 9d 9a bd 96 d9 8d bd a5 67 ad bd
       -0.051400006 -0.075494766 -0.06926267 -0.08467034
000370 ab 98 87 bd c4 c5 18 3d f7 39 5a 3d fe 7b ce bd
       -0.06620916 0.03729798 0.053277936 -0.100822434
000380 30 d8 13 bd 79 48 60 be 0b 67 bb bc a1 c2 d8 bd
       -0.036094844 -0.21902646 -0.022876283 -0.105839975
000390 34 7d d5 bd b3 09 0b be 7f 8d f4 3d e3 39 ad bd
       -0.10424271 -0.13577919 0.11941051 -0.08458307
0003a0 c9 34 97 bd 35 e9 ca 3e 46 ca a3 3b d3 a5 93 bd
       -0.07383115 0.39631048 0.004998478 -0.07209363
0003b0 f2 b2 2a be 5a a6 0a 3e 5a 7a 5a be ed 76 42 3d
       -0.16669825 0.1354002 -0.21335736 0.047476698
0003c0 5a 57 74 be a6 3d 04 3c fb 86 3b 3d 20 ef 0d be
       -0.23861447 0.008071339 0.045783024 -0.1386075
0003d0 3e 5c 3d be b2 6c 5a be 9e 67 c6 bc b4 46 ea bd
       -0.18492219 -0.21330526 -0.02421933 -0.11439267
0003e0 c5 b3 a3 3d e0 28 55 3d 88 6f b6 3d 88 0f a1 bd
       0.07993273 0.052040935 0.08907992 -0.078642905
0003f0 9b ad 81 bd 9b fa d1 bd 83 9c 23 3d c0 b3 03 3b
       -0.06331941 -0.10252877 0.039944183 0.0020096153

bias f4 [4]
000000 54 be a1 3b 5b 6a 3c be af ed e6 bd 62 2a a0 bd
       0.004936019 -0.18399946 -0.11275803 -0.07820584
