saves/kevin/kevin_nn_2025-02-22_14-55-33.pt (torch, 17468 bytes, 8 tensors)

weight f4 [16, 16]
00000000: c6fa 28bb e1ab 5f3f 87ed e33f fb68 2fbe
00000010: dbb7 16bd a7e8 3d3d 6ba7 a7bf 372c a03e
00000020: 42a2 2cbd d836 803e 65c6 92bf 0499 13be
00000030: 8f84 13bd 4eab 853e 902d 5ebe 6cdf 493e
00000040: 1190 b1be 95fc 71bf 476d 11be 3a9b 0ebf
00000050: 6fdb 2f3c fd5a 3fbe ea05 e4be a538 98bc
00000060: b67c 13be 910d 9b3d f5e0 4dbf 5b8a f13d
00000070: ce7a 803e a4e5 8cbf 9550 ed3e e424 61bf
00000080: 2344 e4be 5e94 ea3d f779 90be 958a dcba
00000090: 67f4 6cbd 6f47 84bd d775 2c3f 3ee7 37be
000000a0: 67ea 0cbf 7207 d7be de55 f6be cfba 36bf
000000b0: 931e dabe 857f b3be b967 55bf f3cb 92be
000000c0: 18b4 7bbd 9bea b9bd d4aa 91bd e67d 9abe
000000d0: a5d1 fc3d 563a 2dbe 5170 bd3e 3b3a c9be
000000e0: 251c 73be 55a2 a8bd 0878 8bbf 3332 85be
000000f0: f418 f4bc 03be 10bc 6ed4 1cbe 02ea 043e
00000100: d89c 7a3e 0bf7 913e 9afa 7b3f 2ec4 18be
00000110: c013 873d 56f9 49be 4a46 ba3f dab6 12be
00000120: 9267 963d ff72 3b3e 9b86 683f 7b49 453e
00000130: 54d1 ed3d 572f f6bf a91a 47be fcd9 13be
00000140: d0d5 80be f8d2 b7c0 86b4 df3d c24a a73d
00000150: d4bb e5bd 60eb a7be 7a86 973f c7ba db3e
00000160: 1dec 69be 4a42 02bf 04a2 d3be e937 4ebe
00000170: 32f6 19be 7af7 0fbf 737e 37c0 10af 193f
00000180: 2af2 53be 455d 0abf 78f0 9cbf 5943 293e
00000190: acff 0abe a8a8 04bf 2a22 1140 c80e 22be
000001a0: 2873 a7be 8707 0bbe 4cb9 c3bf fb52 873d
000001b0: d0e0 45be e850 853f ff90 b7bf d99e 303e
000001c0: 5e8b afbd 1535 cd3f ef56 5ebf a8cb 983d
000001d0: 686c abbd 5774 9ebe 5249 503f 4c3f 413e
000001e0: d5f7 30bd 52a1 8cbe b8fc 0f3f 61cd 06bd
000001f0: e224 1cbe 9bee d7be 077b 58c0 41e3 bf3e
00000200: c864 99bd 336e 3ac0 4ee8 09bf d4b5 b33e
00000210: d7ba 33be dd62 82bc 031e 86bf 2c3e 513e
00000220: bfd5 4a3a cdaa 903d 0db8 84be a07f 7c3e
00000230: 8639 95bc f115 c8c0 21d5 c8bd cc16 383e
00000240: e155 cd3e d599 08c0 4f76 2d3f ac12 4bbe
00000250: 9ad3 a83e f4dc 893b 54d6 10bf 9a3e 373d
00000260: 684a a63d 97ce b33e d6d6 673f 601a 1b3f
00000270: 3338 5a3d d928 0b3f c8e9 2fbe 6f64 53bd
00000280: e763 5bbe 8f68 6b3f 2625 f3bf 6c58 443e
00000290: d8de 9cbd 9c9d 9bbb b5bc f4bd 9c12 853d
000002a0: 37f9 e0bc 5771 8abf 4a67 f13e 2b16 5a3c
000002b0: 6262 7ebd 22d0 6fbe 77d9 a3bf f4b4 223e
000002c0: 8bab d2bb 9277 d6bf eba0 893f 5b51 83be
000002d0: 0d2a edbb 8ba7 97be 3992 933f 30a0 6e3e
000002e0: 14e8 21be a8d4 bd3e 40d3 2cc0 4553 743e
000002f0: d88a 01be 05c1 86be 3944 74bf e32d c83e
00000300: 9d50 09bf be79 87bf f272 62be 0ea3 98bd
00000310: 0cbd 1c3d c505 66be e3cb 6cbf f6de ed3d
00000320: 462e 64be 5a72 09bf 4024 70be 50af afbe
00000330: c439 c23d a686 f0bf 5ad9 b6bf f7c7 fbbe
00000340: 22ba 183d 38e2 1b40 3464 11c0 f110 923e
00000350: ebfc 2d3e a415 f1bd aea0 b03f 7101 5c3b
00000360: 6138 a1bd b5a0 e83e 487b 0cbf c2b2 003f
00000370: 48e0 ae3c 3966 a2be e2f2 473d d541 613d
00000380: 269b 8fbe 50d7 0d3e ea62 4a3e 7a70 a8be
00000390: c529 983c 3a16 a9be 96eb 8e3e 65fc abbe
000003a0: 3c5b 43be ec15 ddbd 1b8f 2fbf ac0d 4dbe
000003b0: 8247 9cbc b30e 39be d50e e7be bd96 193e
000003c0: 88a1 69bd 30c8 a9bd b8c5 34be deef b4bd
000003d0: 00eb bcba cfba f8bc 7d91 5bbe 1a67 6cbd
000003e0: 8056 b33c c89b 1ebd 3a01 3abe 315f 713d
000003f0: 582c 203d ac37 cf3d a44e df3d 33e6 87be
-0.0025784238 0.8737164 1.7806863 -0.1712989 -0.036796432 0.046364453 -1.3097967 0.31283733
-0.04214693 0.25041842 -1.1466795 -0.1441384 -0.03601509 0.26107258 -0.21697068 0.19714135
-0.34680226 -0.94526035 -0.14201842 -0.55705607 0.010733469 -0.18687053 -0.44535762 -0.018581698
-0.14403042 0.07570947 -0.8042138 0.11793967 0.25093693 -1.1007581 0.46350542 -0.87946916
-0.44583234 0.1145408 -0.28218052 -0.0016825969 -0.057850268 -0.064589374 0.6736731 -0.17959306
-0.5504517 -0.41997868 -0.48112386 -0.713788 -0.4260145 -0.35058227 -0.83361393 -0.28671226
-0.061451048 -0.090779506 -0.07112661 -0.30174178 0.12344674 -0.16916785 0.36999753 -0.3930224
-0.23741205 -0.082340874 -1.0896006 -0.2601486 -0.029797055 -0.008834365 -0.1531541 0.12979892
0.24473894 0.2850879 0.9842926 -0.14918587 0.06595564 -0.1972402 1.45527 -0.14327565
0.07343973 0.18305586 0.9083039 0.19266312 0.11612192 -1.9233197 -0.19443764 -0.14438623
-0.25163126 -5.744503 0.10923104 0.08168556 -0.11217466 -0.32796764 1.1837914 0.42915937
-0.22843976 -0.508824 -0.41334546 -0.20138516 -0.15035322 -0.56236994 -2.8670928 0.6003275
-0.20697847 -0.5404857 -1.2260885 0.16529597 -0.13574094 -0.5181985 2.2677102 -0.15825951
-0.32705045 -0.1357709 -1.5290923 0.06607624 -0.1932404 1.0415316 -1.4341124 0.17248096
-0.08571504 1.6031824 -0.868514 0.07460719 -0.08370286 -0.30948135 0.8136188 0.18871802
-0.0432051 -0.27466828 0.56244993 -0.03291071 -0.15248445 -0.4217423 -3.382509 0.37478068
-0.074899256 -2.912976 -0.53870094 0.3509966 -0.17551742 -0.015916282 -1.0477909 0.20433873
0.0007737539 0.07063828 -0.2592167 0.2465806 -0.018215906 -6.2526784 -0.09806276 0.17977446
0.40104583 -2.1343892 0.6775865 -0.19831342 0.3297394 0.004207248 -0.5657704 0.044737436
0.081196606 0.35118553 0.9056219 0.6058712 0.053276252 0.54359204 -0.17179024 -0.051609453
-0.21424828 0.9195642 -1.8995712 0.19174355 -0.076596916 -0.004749013 -0.119500555 0.0649769
-0.027462585 -1.0815839 0.47149116 0.013310949 -0.062105544 -0.2341924 -1.280074 0.1588934
-0.006429141 -1.675524 1.0752233 -0.25648007 -0.007237679 -0.29620013 1.1528999 0.23303294
-0.15811187 0.37076306 -2.7003937 0.2385989 -0.12650621 -0.26319137 -0.954166 0.3909751
-0.5363863 -1.0584028 -0.2211416 -0.07452975 0.038266227 -0.22463138 -0.92498606 0.11614792
-0.22283277 -0.5369011 -0.23451328 -0.3431344 0.09483674 -1.8791091 -1.428508 -0.49176
0.037286885 2.4356823 -2.271741 0.2852855 0.16991012 -0.11771706 1.3799036 0.0033570195
-0.078720815 0.4543511 -0.5487561 0.5027276 0.02134718 -0.31718615 0.048815615 0.054994423
-0.28048056 0.13851666 0.19764295 -0.32898313 0.018574605 -0.3302477 0.27914113 -0.33591
-0.19077772 -0.10795197 -0.68577737 -0.20024747 -0.019077066 -0.18072014 -0.45128503 0.14998908
-0.057038814 -0.08290136 -0.17653549 -0.088348135 -0.0014413297 -0.030362515 -0.21442218 -0.057715513
0.021891832 -0.038722783 -0.1816453 0.058928672 0.03910479 0.101180404 0.109036714 -0.26542816

bias f4 [16]
00000000: 89e0 b3be d605 75be 17f7 89be 85b8 8cbe
00000010: e29f 83be dd2b 093f 7a43 ad3e 24a8 85bd
00000020: 114e 003f b726 873c fdb2 36bd 8b25 0dbe
00000030: db11 803d 7196 b63d 82c9 73be bbe4 233e
-0.35132244 -0.23928007 -0.26946327 -0.27484527 -0.25707918 0.53582555 0.33840543 -0.06526211
0.5011912 0.016497953 -0.04460429 -0.13783853 0.06253406 0.08915413 -0.23807338 0.16005222

weight f4 [32, 16]
00000000: 8e7d dabe 4558 05bf f021 443f 5dab 8a3e
00000010: 171d e23e 8324 453f 30f0 c9bd 0073 7cbe
00000020: 9a3e c7bf 2056 0cbf 4b28 e43e 8496 8dbe
00000030: b87b 06be 4848 a4bd b587 f13e 04d3 d63d
00000040: c350 243e 807c f63e cf5b 843f 4efd 643b
00000050: 7d92 733f b51a 153e cbe2 9fbd d255 273e
00000060: c475 dbbd 5443 dbbd 1afb 0a3f 2e0b 41bf
00000070: c9d8 c43e 2083 153e 712c a23e 5cb2 59be
00000080: 3909 2abe fa02 3bbe 7353 8abe 0931 183e
00000090: a986 28be 865f 833b b83c 70be 3a09 bebd
000000a0: b1ed 993d d215 b1be 736a e9bd 22ab c4ba
000000b0: b2de ab3d 4917 e1be b207 f9bd 40ae 1d3c
000000c0: 622c 9ebe 9986 d3be 594d 613e 201e c73e
000000d0: 9d5a a33d f574 033f eed5 823e 7939 48bc
000000e0: 1ee0 abbf cf27 69be 5add 3f3d 9a27 cd3e
000000f0: f645 0abf ce83 0e3d 6a19 ef3e b38a 3dbe
00000100: cdca 65bc c20a 02be ae89 f1bd 4711 083e
00000110: 8a58 97bd 7a2f 753d 2de2 80be fb57 98be
00000120: 005c 96be 82cc 02be da7d e1bc 2988 0cbd
00000130: 9881 1f3c 04b5 08bd c608 ca3d 04a9 163e
00000140: 3b77 a0be 0a3d b53d 48df 243f eae6 af3d
00000150: 78e1 603e d6f6 9ebd 29b6 33bf 48d8 4a3e
00000160: ae99 cb3e f354 813d 1234 fd3e 9c40 d0be
00000170: 91a0 363f 9b7b 703e 118f 323e d969 59be
00000180: 45df a4bd 7edb 863e 96ac d7bd e428 f93d
00000190: d924 573f 6e93 123e f9cc 043f 3f6c 2e3d
000001a0: 0aab cebe a8c8 49bf 63e7 773d 837f 9cbf
000001b0: 3ab0 803e 8da6 ab3e 80b4 aabd 523c 7e3e
000001c0: 2361 aabe 963a 26bf edee 123f 66a7 0b3e
000001d0: 197b b43c e300 313e ce72 b4be b158 82bd
000001e0: 92dd bdbe 73ed 8cbe 76fd 363e fd33 363f
000001f0: a5cf 82be d0db fa3e e288 7a3e a5a8 55be
00000200: df12 54bc fa0f 72be de85 0d3f 5719 623e
00000210: 8607 553f 3dbd 5d3f 6f83 a83f 7d7f fa3e
00000220: c1ac 113f 8b61 3cbc 05bd 363f 0323 9dbe
00000230: e636 0a3f 801a 093f be3c b73e b255 423e
00000240: ef80 c43e 787f 103f d0a9 1e3e 5bd6 c03e
00000250: e61f 703f c55f dabd c08d 213f d777 0b3d
00000260: 7b57 e93e 5212 9cbe d51e bfbc ae4e d53e
00000270: 6a97 c93e 3935 ec3e ad63 963e d2a2 833b
00000280: 8db3 9e3d 8e7a 9b3e 6f1b fa3e 8ff8 e63e
00000290: 06a3 113f 2859 5b3e fa17 353f 0f48 093f
000002a0: ffd6 a63e 494c e1bd d05c 443f c7e3 2dbf
000002b0: a1d1 353f bf41 123e 0f5b d7bd 8188 5f3e
000002c0: 5866 52be 4e8d bebe 313d a5be e8e9 cbbd
000002d0: 1ce5 233e 93a8 52bf 14bc 13bf 9710 543f
000002e0: 9ed3 583f efe3 23be 6a6d ba3e 14b1 28bf
000002f0: bd62 3ebe 2614 a03e dc9c 9c3d b8ef 5cbe
00000300: e0c8 7abf e987 16bf b827 2e3f f978 1e3e
00000310: de4c 41be 344a 9bbc 1281 053e 8bdd debd
00000320: d140 95bf 4539 1fbe e723 083f 1064 20bf
00000330: 6cdd aebb f8de e63d d397 6e3e de5a 41bd
00000340: 7e50 74bd 3c09 b73e eb83 933f c66c 3ebe
00000350: 4b87 9c3f 2770 013f 105c 803f a857 1c3e
00000360: c41a d23e 59e7 323f 2b36 0a3f d870 d7be
00000370: 44aa eebd c4f9 0cbf 66f5 8abe 2013 41be
00000380: 8678 a63e 6364 c23d 00ce 6abd 1204 863e
00000390: f06d 01bf e7b2 46bf e7f9 fbbd 86c2 11be
000003a0: 9192 2e3f b622 6ebc 6dc1 acbd 25ef be3d
000003b0: 2bae b73e 18d8 86bb 4710 ca3d e627 23be
000003c0: 8a44 a9bd 510c 333d f095 f63d 4ebe 413d
000003d0: e69f f93c b3a7 87be b992 24be ad31 88be
000003e0: 9aae 08be 3486 0dbc f1af 59be 1419 7bbe
000003f0: a03c 2d3c 9c36 d7bd 3351 283e 2476 f5bd
-0.42673916 -0.52087814 0.76614285 0.27083865 0.4416282 0.7700884 -0.09860265 -0.24653244
-1.556598 -0.54818916 0.4456199 -0.27653897 -0.13133132 -0.08021599 0.4717385 0.10489467
0.16046433 0.4814186 1.0340518 0.003494102 0.951454 0.14560969 -0.07806929 0.16341332
-0.107158214 -0.10706201 0.542894 -0.75407684 0.38446644 0.14600801 0.3167453 -0.21259445
-0.1660508 -0.18262854 -0.27016792 0.14862455 -0.16457619 0.00400919 -0.23460662 -0.092791036
0.07516039 -0.3458696 -0.11397257 -0.0015004615 0.08392085 -0.43963078 -0.12159671 0.009624064
-0.30893236 -0.41313627 0.22002162 0.3889017 0.079762675 0.5135034 0.2555384 -0.012220734
-1.342777 -0.22769092 0.046841957 0.40069276 -0.54013 0.034793667 0.46699077 -0.18509941
-0.014025402 -0.12699416 -0.117938384 0.13287841 -0.07389934 0.05985973 -0.25172558 -0.29754624
-0.29367065 -0.12773326 -0.027525831 -0.03430954 0.009735487 -0.033375755 0.09864955 0.14712912
-0.31340966 0.08849533 0.644032 0.08588965 0.2196101 -0.07761924 -0.7019983 0.19809067
0.39765686 0.06315031 0.4945379 -0.40674293 0.71338755 0.23484652 0.17437388 -0.21231784
-0.08050398 0.26339334 -0.10530965 0.121660024 0.840406 0.14314052 0.51875263 0.0425837
-0.40364867 -0.788218 0.060523402 -1.2226413 0.2513445 0.33525506 -0.08335209 0.24827698
-0.33277234 -0.64933145 0.5739582 0.13638076 0.022031354 0.17285495 -0.3524384 -0.06364573
-0.37083107 -0.2752491 0.17870125 0.7117308 -0.25549045 0.4899583 0.24466279 -0.20865114
-0.012943952 -0.23638907 0.5528239 0.22079979 0.83214605 0.8661688 1.316511 0.4892539
0.56904227 -0.011497865 0.7138217 -0.30690774 0.5399002 0.5355606 0.3578853 0.18978003
0.3837962 0.564445 0.15494466 0.3766354 0.93798673 -0.10662798 0.6310692 0.034049835
0.45574555 -0.30482727 -0.023330132 0.4166159 0.39373332 0.46134356 0.29372922 0.0040172124
0.0774909 0.3036694 0.48849055 0.4511151 0.5688938 0.21420729 0.7073971 0.5362558
0.32585904 -0.11000878 0.7670412 -0.67925686 0.71022993 0.14282893 -0.10515415 0.21829416
-0.20546854 -0.37217182 -0.32273248 -0.099567235 0.16005367 -0.82288474 -0.5770886 0.82837814
0.846979 -0.16004919 0.364116 -0.658952 -0.18592353 0.31265372 0.07647106 -0.2157582
-0.9796276 -0.5880113 0.68029356 0.15475835 -0.18876979 -0.018956281 0.13037518 -0.108821
-1.1660405 -0.1554919 0.5317978 -0.62652683 -0.005336454 0.11272997 0.23300104 -0.0472058
-0.059647076 0.35749233 1.1524633 -0.18596181 1.2228788 0.50561756 1.0028095 0.15267813
0.41036046 0.6988426 0.53988904 -0.4207828 -0.11653569 -0.5506861 -0.2714035 -0.18854952
0.32513827 0.094918035 -0.057325363 0.2617498 -0.50558376 -0.77616733 -0.123035245 -0.14234361
0.6819239 -0.014534643 -0.084353305 0.09322957 0.35875067 -0.004115116 0.09866386 -0.15933189
-0.08265026 0.043712918 0.12040317 0.04730063 0.030471753 -0.26495132 -0.16071595 -0.266004
-0.13347855 -0.008637954 -0.21258523 -0.24521285 0.010573536 -0.10508463 0.16437225 -0.11985424

bias f4 [32]
00000000: 063d 81bd 8b83 e43e 058e 70bd 2e43 e1be
00000010: 4d7f 8cbe 744f 043f 09f7 5ebd cf78 bbbe
00000020: ce3e 013f c1da 013f 84fa a63e 5c5f 363f
00000030: df0b 483d 4bde 4a3f 7b58 99be 51e6 92be
00000040: ffa3 383e 61cb 103d 7525 5f3f d53d 293d
00000050: b8d5 2ebc 168b 8a3e 0381 30be f46e fa3d
00000060: e345 b1be 0f6f e83c 1e69 69be e514 aa3e
00000070: 98d7 05bf 2827 ebbb 2c49 e2bd 79da 1ebf
-0.063104674 0.4463161 -0.05872919 -0.43996567 -0.27440873 0.51683736 -0.05443481 -0.36615607
0.5048646 0.50724417 0.32613003 0.71239257 0.048839446 0.7924544 -0.29950318 -0.28691342
0.1803131 0.035350207 0.8716653 0.041318733 -0.010671072 0.2705924 -0.17236714 0.12228194
-0.34623632 0.02837327 -0.22794005 0.33219066 -0.52282095 -0.0071762986 -0.11049113 -0.6205211

weight f4 [64, 32]
00000000: 946c afbd 589e 7c3f 3fae 72bd 1ab2 ad3e
00000010: e518 2c3c 7d66 e2be f76e 043f 3435 f53e
00000020: e1d9 acbe dfe0 343f 6016 ebbd bf10 2fbf
00000030: 199c bc3e 62ed 1e3f 3e89 4ebe 5bf5 833e
00000040: e8fd da3f 6f73 10be 16e8 aabe 2c82 ccbf
00000050: 5bfb febd 47ba 703f f1aa 323f 3236 b03f
00000060: e67f 06be f360 48bd 6c81 a1bf f1ec b63f
00000070: a935 c03f 2a1e 893f d6d9 bf3f 6528 363f
00000080: f5ec e73c 607a a1be 8e0a fa3d a70d 63bd
00000090: fa65 0a3e 80ff 3dbe e4cb 703c 8b94 bfbb
000000a0: a5e1 9c3d b34f 70be 23eb 53be 2a58 58be
000000b0: 1d5c 90be d3f0 a4be 1943 e1bd 880f b13c
000000c0: c597 143e cc7e 0cbe aa48 72be 1450 3b3e
000000d0: 3452 2c3d ea92 6e3d 282c 44be f325 8dbd
000000e0: 89bd d53d f6c0 163e 50c9 85bd 9b9b 383d
000000f0: 9b21 f5bd bca9 4bbd 2cc6 52be 2e71 debd
00000100: c236 17be 0412 7dbd 0443 253e fe05 fdbe
00000110: 93fc f7bc 4767 48bd 7c06 a03b 9d07 80be
00000120: 74bd 57be 2f56 b0be ef3e 0ebc a296 263e
00000130: bfa0 e0be e132 763e e7e7 adbd cd23 32be
00000140: 528b b9be 32ff fabe 8689 b9bd 14b1 56be
00000150: 9f38 c03d 6ca0 49be 97ba dfbe 4f2b 12bf
00000160: 4487 09be f6ec bfbb 6bb5 5ebe 87f7 ddbe
00000170: b5fa f4be 3e47 dbbd 6e4d 63be 1903 ebbe
00000180: 654d f4bc 03e4 a53e 8b2a f1bc 6097 c13e
00000190: 73e2 963d af4d 4abe 1c69 2fbf 2cd5 a1bc
000001a0: ec20 113f 98b3 043f a92d f83e 417f 45bf
000001b0: 782b f2be 7439 94be 07d1 c6bf 00b3 8cbd
000001c0: 979f 49bf d8b7 363f 8249 6dbe a23a 6cbf
000001d0: f0b0 333d db23 dfbd 92d7 01be cad1 f53c
000001e0: 7985 01be 565e 303e 7ed8 03bf 7ced ef3d
000001f0: c3e9 8fbf eda9 83bf 3e95 67bf 6bbd 8cbe
00000200: aa5f 903f e59e a63f 6e76 1a3e 1578 413f
00000210: bc8d ff3d 6915 b5bd 77d5 793f 3857 573f
00000220: cf99 d9bb a9ef 1bbf 1bf2 6fbe 6f46 0ebf
00000230: a398 22be 2107 fbbc 02a8 973e 21c6 fb3d
00000240: 6107 2f3f 77f7 32bf cc2a a9be 7395 88bf
00000250: b79c 08be 4626 c6be 015f a33e 0c3d b7bd
00000260: cefb 29be f722 1bbe 6377 0abf df83 463e
00000270: a4c7 443f 6f51 debd 1945 3f3f cf2d 383f
00000280: ba9d 8cbd 05e2 c4bd 0a16 27bd a8d3 e5bb
00000290: 7072 4bbe b271 4dbe 0fd7 c4bd b926 72bd
000002a0: e2c9 903d 3f47 56bd fda7 343a e2ea ae3c
000002b0: 46c7 a73b f1a7 e7bd 3679 e1bd 1a23 363c
000002c0: 4279 aa3d c066 f9bc 1d95 2ebe 075e d73d
000002d0: 40f2 babd c24d 67be 9858 c73c 4c26 14be
000002e0: 0fd0 21bd 41ca 893d 93c9 28be 6220 cebb
000002f0: 58eb 8cbe 8256 40be dc44 13be 078f 30be
00000300: 4643 5ebf 3916 61bd 13b8 aa3d 6659 8d3e
00000310: 9330 e1bd ebb9 8fbe 1682 e23e ce2b 1a3f
00000320: 852a 983c 856f 35be 99fb 9cbd 522a ac3c
00000330: 0292 e2bd 7123 c2bf 1fb3 61bf 62e4 14be
00000340: 5fc7 4e3e d2da 1d3f efa1 1dbf 2f6c adbf
00000350: cb35 3fbe a6da aa3e b5f0 d7be be85 043f
00000360: b63d ca3e 466f 1cbe 6001 cdbe 821d 1c3f
00000370: 890e 0cbf adf4 c3bd d55a e4bd 7f62 5fbe
00000380: fe7d 433e 9955 943f 72e5 17be 6997 9d3e
00000390: db26 ccbd f63f 813f d79a b13f 9366 1f3e
000003a0: f525 f43e 83a2 693f cd7b 273f 6136 c23d
000003b0: 85df 423f 4ed1 403f d85b b9bd 199b 31be
000003c0: bbdb 203f 9886 363e 897e 933f accc f33e
000003d0: 7b75 62be 2b03 723f fb26 283e 9176 283f
000003e0: 7cb0 613d f987 223e 7ec7 ff3e 4af6 cf3e
000003f0: cc02 0d3e 447a 0f3f 8da3 073f 3d3c 48bf
-0.085656315 0.98679113 -0.059248205 0.33924943 0.010503982 -0.44218817 0.5173182 0.47892153
-0.33759978 0.70655626 -0.11478877 -0.6838493 0.36837843 0.6208097 -0.20169541 0.2577313
1.7108736 -0.14106534 -0.33380193 -1.5977225 -0.12450286 0.94034237 0.69792086 1.3766539
-0.13134727 -0.048920583 -1.2617621 1.4291059 1.5016376 1.071233 1.4988353 0.7115539
0.028311232 -0.31538677 0.122090444 -0.05543294 0.13515463 -0.18554497 0.014697049 -0.005846565
0.07660226 -0.23467903 -0.20695166 -0.21127382 -0.28195277 -0.32214984 -0.10999126 0.021613851
0.1451102 -0.13720244 -0.23660532 0.18292266 0.042070583 0.058245577 -0.1915747 -0.06892004
0.104365416 0.14722046 -0.06532538 0.045070272 -0.119693 -0.04972242 -0.20583409 -0.10861431
-0.14766982 -0.06178476 0.16138846 -0.49418634 -0.030271804 -0.048926618 0.0048835855 -0.25005808
-0.21068364 -0.34440753 -0.008681997 0.162684 -0.4387264 0.24042846 -0.084914975 -0.1739647
-0.36239105 -0.49022824 -0.09059434 -0.20965987 0.093857996 -0.19690102 -0.43697044 -0.57097334
-0.13430506 -0.0058571054 -0.21748893 -0.4335291 -0.47847524 -0.10706948 -0.22197506 -0.459008
-0.02982206 0.32400522 -0.029439231 0.37810802 0.073674105 -0.19756196 -0.6851976 -0.019754969
0.5669086 0.5183654 0.48472336 -0.771473 -0.4729879 -0.28950083 -1.553254 -0.06870079
-0.7875914 0.71374273 -0.23172572 -0.92276967 0.043869913 -0.10895511 -0.1267989 0.030007262
-0.12648572 0.17223486 -0.51502216 0.117152184 -1.1243213 -1.0286232 -0.904621 -0.27488264
1.1279194 1.3017241 0.1508424 0.75573856 0.124782056 -0.08841974 0.97591347 0.8411746
-0.00664065 -0.6091257 -0.234322 -0.55576223 -0.15878539 -0.030643048 0.29620367 0.122936495
0.68370634 -0.6990885 -0.33040464 -1.0670608 -0.13341032 -0.38701075 0.3190842 -0.08947191
-0.16599962 -0.15150057 -0.5408842 0.19386242 0.7686713 -0.10855376 0.7471481 0.719449
-0.068660215 -0.09613422 -0.040792502 -0.007013757 -0.19867873 -0.20062903 -0.09611332 -0.05911896
0.07069756 -0.05231404 0.0006891487 0.021352235 0.005120191 -0.11311329 -0.11009447 0.011116767
0.08323909 -0.030444503 -0.1704907 0.10515981 -0.09128237 -0.22588256 0.024334237 -0.14467734
-0.03950506 0.0672803 -0.16483144 -0.0062904814 -0.27523303 -0.18783 -0.14381737 -0.1724206
-0.868214 -0.054952834 0.083358906 0.27607268 -0.10995593 -0.28071532 0.44239873 0.6022309
0.018574962 -0.17718323 -0.07665176 0.021016274 -0.11063005 -1.5167066 -0.8816394 -0.14540246
0.20193242 0.6166202 -0.61575216 -1.354864 -0.18672864 0.3336994 -0.42175832 0.51766574
0.39500207 -0.15276822 -0.40040112 0.60982525 -0.5470968 -0.095681526 -0.11150137 -0.21814917
0.19091031 1.1588622 -0.1483362 0.3077958 -0.099683486 1.0097644 1.3875378 0.15566473
0.4768521 0.912636 0.6542328 0.09483028 0.76122314 0.75319374 -0.09050721 -0.17344321
0.6283528 0.17824781 1.152299 0.4761709 -0.22115128 0.94536084 0.1642112 0.6580592
0.05509995 0.15872182 0.49956888 0.4061759 0.13770598 0.5604594 0.52983934 -0.78216916

bias f4 [64]
00000000: 7905 4b3f 836a 2a3d 04fe efbe 31de dbbe
00000010: 9f74 8cbe 0789 64be 1326 633d 4e0c 233f
00000020: 488c 5dbe 6b97 323d 3f95 993f 85fb 5abe
00000030: a9db 85be 41f6 86be e71a 84be 6e8f 823c
00000040: feef 58bd ef44 8abe 2ab1 173f 4912 a63e
00000050: cf73 223e 90f6 d83e 9efa 19be c499 1bbe
00000060: 4210 993c 4525 293f 1044 1b3d 8bb1 283e
00000070: 2e59 12be ba17 f8bd d7de 923e 5230 913c
00000080: dca3 11be 0f3c 95be 88fb a6be f164 5f3c
00000090: b20a 333f c9da 0c3f d62a 16be 9012 323e
000000a0: a41d d03c 1c59 b93d 07f2 12bf ef92 87bd
000000b0: f717 693b 71ed 823e f5bb 6bbd 7564 eb3e
000000c0: 2e05 5abe b68c 3bbf 6274 2e3f d3e2 f5bc
000000d0: 4494 8bbe 1dc9 103f 16be cd3d 23b3 833e
000000e0: 0d5d 88be f8cd a93e 35af db3e 5c07 aabd
000000f0: 2a87 493e 03de 873f 15bd 4bbd 9b06 21bc
0.79305226 0.041605484 -0.46873486 -0.42942956 -0.27432725 -0.22317897 0.055456232 0.6369065
-0.21635544 0.043601435 1.1998671 -0.2138501 -0.2614415 -0.26359752 -0.25801775 0.015937533
-0.05296325 -0.27005717 0.59254706 0.32435825 0.1586449 0.42375612 -0.15037009 -0.15195376
0.01868451 0.66072494 0.037906706 0.16473977 -0.14291832 -0.121139005 0.28685638 0.017723236
-0.14222664 -0.29147384 -0.32613778 0.013634906 0.69938195 0.5502134 -0.14664778 0.17389894
0.025404759 0.090501994 -0.57400554 -0.06619822 0.0035567263 0.25571778 -0.057552297 0.4597508
-0.21291038 -0.7326158 0.68146336 -0.030015385 -0.27261555 0.56556875 0.10046022 0.25722608
-0.26633492 0.33164954 0.4290711 -0.08302185 0.19680467 1.0614628 -0.04974087 -0.009828235

weight f4 [4, 64]
00000000: aa63 1dbf 8c87 1cbe fe53 b7bc 53ce de3e
00000010: 57c9 273d 1f61 0abe a18c 4dbe b249 0ebe
00000020: 6224 453c eebe 623d baab 44be 9117 47bf
00000030: 9464 3cbd 4340 3b3e 3907 9e3d 2328 fe3c
00000040: 764b 303f 44e4 49be a6aa 883f 1535 b0be
00000050: b7d1 8bbe 7201 6abd be33 95bc ab6d 103d
00000060: 9c87 3ebd aaf7 6dbe b42a 933d 6c3a ac3f
00000070: 5462 303d fe83 1fbf 158e 59bf 8824 ac3e
00000080: c8bd 393f e68f b53d d545 d13b 1731 a83c
00000090: 235c 283f aa38 08be 7f12 1cbd 3516 d33e
000000a0: 495b 70bd 2cd4 ff3e 06aa bb3e 8804 053c
000000b0: b71f a83c 2193 64bf 7d33 8bbc ceb7 743f
000000c0: 2ab3 acbd c12f 87bf 80a5 13bc b7fa 4ebe
000000d0: 121e bbbc c7be b4bd 74bd 05be 5a53 5a3f
000000e0: 9dbd ac3d e1e6 32bf 6810 21be 6b5b 053d
000000f0: 4751 7c3f 0e36 dabd 7721 75bd 5e6a 323d
00000100: 2ea9 96be 7e30 99be c49f 32be 44b4 b53b
00000110: c141 a93f 9f9f c83c b01e 473e cdd4 2a3d
00000120: 1be6 36bd d3c5 72bd e255 f6bc ba68 393f
00000130: c373 653d 9188 473d eaf8 8bbb e9d8 febc
00000140: 3c94 173f c86b b23d 8924 86be aaab 6b3d
00000150: d084 b43d c974 30bd ac94 93bd 9e30 9f3d
00000160: 5765 83bd 19f4 853e 64d6 93bd e902 5cbe
00000170: 4591 18bd bbd8 0d3f 836b 003e 68c1 6abc
00000180: af9e 383e e062 943c 72b5 40bc 6c2d 96bf
00000190: 5162 17bf cf06 47bd c2c1 72bd 537d 8abb
000001a0: 99b8 02be 91d1 9fbd 0c65 dabf bad7 753d
000001b0: 019c 5c3b ec80 7e3e 830b 1c3e c189 2e3f
000001c0: 5653 d73c a6c0 df3e 3296 c9bd f95a 873e
000001d0: 45b8 2a3c 7328 683e 1706 8bbd 7737 bebe
000001e0: 20aa 253c 6ba4 603e 4ba2 05bd 7f62 9ebd
000001f0: b1f8 5dbe a5d5 91bc f811 35bb 71fc c33c
00000200: b4da 51be 517b a93c 65f1 303e c62a 96bd
00000210: 8209 58bf 8a11 5bbd a462 de3d cb6b b8bc
00000220: 2941 d9bd 30a0 533d cbdb 603b 6a17 edbf
00000230: e533 803d 5e86 75bd 00eb 86bd 8900 7b3d
00000240: 0471 eabe 76ea 80bc d4e6 b5bd 9af2 113f
00000250: 9a46 003d ce6b 0bbe 20f1 74bd 8a7c a73d
00000260: 8567 3a3e d8cb cdbc b252 f5bd 2f3b a8bf
00000270: 89a2 e0bc 5b12 0bbf 95f9 3d3f 83e1 fd3e
00000280: 2d17 a2bd 5e66 ef3d 03e8 9dbd 2e93 c3bf
00000290: 9382 973d e04e a6bd 7f52 7f3c 0f7d 373f
000002a0: 6ab6 0cbf 9265 d3be 1105 8dbd f0e6 883c
000002b0: 7311 e93a a95d a03d c0a2 e7bb 3ce6 dcbe
000002c0: 0382 e7bd f846 42bf 8522 9ebd a17c 9dbd
000002d0: 79d1 a23d 5579 1cbe 55a8 483f 2aef 163c
000002e0: 0e5f 9e3d 600f 7e3c e885 063f 82a8 853d
000002f0: 1526 5dbe 4975 42be d2cd a43d 4892 093d
00000300: 55d3 1c3f a478 bbbc d87c 41bd 8662 9c3e
00000310: 83f5 b83f a723 113d 3565 a53e e486 0fbf
00000320: 556e 33bd 996b cf3d b062 0dbf 8f5b 563f
00000330: 9dd0 173d 4322 35be 57b4 79bd 5771 9c3d
00000340: 5946 09bf 06c5 393d 27a9 323f be00 e4be
00000350: fd8c 30bf daa0 e13e bae1 413d 47f2 d5bc
00000360: e252 a63d bbc0 d3be 60ea fcbd 4315 16bf
00000370: 5298 883d c2c7 153f 42eb a7bf 241a 10be
00000380: 0dba 7b3e 1283 3d3d 35e9 cdbd aa86 193f
00000390: 2c44 0dbf 0e73 723e 24ea d43d d974 d73c
000003a0: 8a4f 463e 47a0 fa3e 81e1 723f f1a2 3ebd
000003b0: f5c6 40bd 2499 f0bd 4d11 3fbd 242b 1d40
000003c0: c4ed 30bd 3a40 f23f c633 e53d a22a 503f
000003d0: 5f73 3abd 5479 c4be a79a b93e a8fc 7e3e
000003e0: c05b d4bd c79b abbe f775 01bc 39e4 8f3c
000003f0: 1e4e c73e 08b6 4c3c 44e1 81bd 086a ac3d
-0.614802 -0.15286082 -0.022378918 0.43516788 0.040963497 -0.13513611 -0.20073177 -0.138953
0.0120326 0.055357866 -0.19206133 -0.77770334 -0.045994356 0.18286233 0.07716221 0.031024998
0.68865144 -0.19715983 1.0677078 -0.34415498 -0.27308437 -0.057130285 -0.01821315 0.035260838
-0.046516046 -0.23239008 0.07185879 1.3455329 0.043062523 -0.6231078 -0.84982425 0.3362162
0.7255521 0.08865337 0.0063864985 0.02053122 0.6576559 -0.13302866 -0.038103577 0.4122788
-0.058680806 0.49966562 0.36653155 0.008118756 0.020522935 -0.89287 -0.016992325 0.95592964
-0.0843261 -1.0561448 -0.009011626 -0.20212828 -0.022841487 -0.088254504 -0.13060552 0.85283434
0.08434603 -0.69883543 -0.15728915 0.032557886 0.9856152 -0.10654841 -0.059846368 0.04355847
-0.2942595 -0.2991981 -0.17443758 0.005545171 1.3223191 0.024490176 0.194453 0.04170685
-0.04465304 -0.05927069 -0.030070249 0.72425425 0.056018602 0.048714224 -0.004271616 -0.03110929
0.5921056 0.08711964 -0.2619975 0.05753676 0.088143945 -0.043080125 -0.07206091 0.07772945
-0.064158134 0.26162794 -0.07218626 -0.21485485 -0.037247915 0.5540883 0.12541012 -0.014328338
0.18029283 0.018113554 -0.01176201 -1.1732612 -0.59134394 -0.048590478 -0.059266813 -0.0042263656
-0.12765731 -0.078036435 -1.7062087 0.060020186 0.0033662322 0.24853867 0.15238766 0.68178946
0.026284855 0.43701667 -0.098431006 0.26436594 0.01041991 0.2267168 -0.06788271 -0.3715169
0.010111362 0.2193772 -0.032625478 -0.077336304 -0.216769 -0.017802069 -0.0027629118 0.023924084
-0.20493585 0.020688685 0.17279585 -0.07332377 -0.8438951 -0.053483523 0.10858658 -0.022512337
-0.106081314 0.05166644 0.0034310694 -1.852277 0.06259898 -0.059942596 -0.065877914 0.061279807
-0.4578935 -0.0157368 -0.088819176 0.57010806 0.03131733 -0.13615343 -0.059800267 0.08178051
0.18203552 -0.025121614 -0.119786635 -1.3143061 -0.027421253 -0.54324883 0.74208957 0.49586114
-0.07914577 0.11689447 -0.07710268 -1.5279291 0.07397952 -0.08120513 0.015583633 0.716752
-0.5496584 -0.4128843 -0.06885732 0.016711682 0.001778169 0.07830364 -0.007068962 -0.43144405
-0.11304095 -0.7588954 -0.07721428 -0.07689787 0.0795011 -0.1528066 0.78381854 0.009212295
0.07732974 0.015506595 0.52548075 0.06526281 -0.21596558 -0.18990053 0.080470696 0.03358677
0.6125997 -0.022884674 -0.0472382 0.30543917 1.4449924 0.03543439 0.32303777 -0.560652
-0.043806393 0.101279445 -0.5522871 0.8373346 0.037064184 -0.17688851 -0.060963 0.07638805
-0.53622967 0.04535391 0.69789356 -0.44531816 -0.6896513 0.44068033 0.04733441 -0.026116503
0.081212774 -0.4135798 -0.12349391 -0.5862619 0.06669678 0.5850793 -1.311867 -0.14072472
0.24582691 0.046267577 -0.10054246 0.59971106 -0.5518215 0.23676702 0.10396221 0.026300834
0.19366279 0.48950407 0.9487534 -0.04654211 -0.04706474 -0.11747959 -0.04664736 2.455758
-0.0431955 1.892585 0.111915156 0.8131505 -0.045520183 -0.38373816 0.36250803 0.24901068
-0.103690624 -0.33517286 -0.00790166 0.01756488 0.38926786 0.0124945715 -0.06341794 0.08418661

bias f4 [4]
00000000: fac0 cb3d de8a c73e d512 113b 0e11 3abe
0.09948917 0.38973135 0.002213647 -0.18170568
