saves/kevin/kevin_nn_2025-02-22_17-09-34.pt (torch, 17468 bytes, 8 tensors)

weight f4 [16, 16]
-0.34339377 -1.6143488 -1.2177962 -0.45779416 -0.42744794 -0.09992513 -0.036577005 0.04765677
0.07036932 -0.52131504 0.24483857 0.26520482 0.3156611 -0.6206251 0.5685253 -0.69622797
0.020407645 -0.1660962 -0.2530209 0.015826544 0.41533187 -1.586122 0.01456017 -0.44301784
-0.110320285 -0.9008482 -0.37808862 -0.09639696 -0.058551256 0.21459237 -0.40775582 0.23065011
0.01849235 -1.7205281 0.50263816 -0.26593947 -0.13970123 0.060925346 -1.3938543 0.18275064
-0.005354396 0.08095061 -1.6876473 0.15597993 0.01134712 -0.88962126 -0.32339075 0.08146663
-0.32236937 -0.027637754 -2.9075353 0.43081224 -0.20862047 -0.109811306 0.5940941 -0.009761127
0.018407943 0.4643856 0.49747813 0.18108493 -0.12126495 -0.49415928 0.6226748 -0.26220876
-0.030714158 -2.949412 0.13736713 0.050335538 -0.06495515 -0.03972427 -0.12672484 0.05247088
-0.024103126 -0.595325 -0.089550816 0.08333284 -0.18326302 -0.046451792 -0.42012978 0.05087539
-0.19218352 -0.398348 -0.021981062 -0.039528813 0.053514883 0.03359401 -0.23173457 -0.013778943
-0.024590915 -0.3160734 0.09850602 -0.07326223 0.019865476 -0.13029148 -0.2341528 0.020010507
-0.027726138 -0.14708948 0.10900092 -0.22489794 0.12494702 -0.32364342 -0.6278422 -0.37137863
0.19376843 -0.0651036 0.024342407 -0.3770829 -0.38582382 0.024213044 0.003980436 0.15870994
-0.1385464 -0.9163733 0.25214356 -0.26485386 -0.2618549 -0.034885485 -0.5801642 0.013305397
0.033554383 0.77872026 0.8155837 0.03771209 -0.07543053 0.05878538 -1.0989263 0.018552467
-0.26611158 -0.89694655 0.4803726 0.09282847 -0.1281097 -0.18516585 0.849462 0.0012910757
-0.1378862 -0.08925985 -1.9845014 0.48115838 -0.114132985 0.25868422 -0.2653803 0.03940472
-0.17397435 -0.39505976 0.7619727 0.1121403 -0.40432283 -0.037439115 -0.20353377 -0.1168822
-0.14822751 0.43456173 -2.487388 0.21935965 -0.52037144 0.015062484 0.39937228 -0.20705616
0.016980221 -0.20484 -0.9203753 -0.10263119 -0.0763577 -0.039907146 -0.11400344 -0.12671882
0.1563565 -1.5059626 0.68009335 -0.3701047 -0.08024571 -0.3188796 -0.67138183 -0.05705257
-0.2754414 -2.5835676 -1.3558284 -0.17137791 0.0027422982 -0.09954847 -0.66349244 0.55247664
-0.033947237 -1.8487074 0.16192335 -0.30222514 -0.124486975 -1.735541 0.0007457113 -0.6022652
-0.10634181 -0.5405346 0.3408488 0.09574977 -0.4815906 -0.016272806 -2.5242674 -0.014279231
-0.19607824 -0.37046412 0.36324462 0.25296658 -0.2240741 -0.114811614 -3.2340703 -0.07766614
-0.2892164 0.44361264 -0.047180735 -0.18165573 -0.26326796 -0.07390527 -0.2191411 0.20874265
-0.06369899 -0.4034563 -0.7002428 -0.09568459 -0.114799686 0.009993427 -1.1997517 0.24741693
-0.27980152 -0.044460315 0.09822111 -0.031888153 -0.14769992 -0.2914628 -0.20048513 -0.15210442
-0.28872487 0.056299888 -0.26356933 0.12561652 0.049696274 -0.079803385 0.027756572 -0.20748322
-0.16532901 -0.38914317 -0.74864465 0.06362226 -0.08906429 -0.038944878 -0.34482703 0.31591293
-0.00812876 -4.267928 0.31808406 -0.110567935 -0.31134343 -0.101885 -0.81174713 0.33337593
00000000: 4fd1 afbe fba2 cebf bfe0 9bbf ff63 eabe
00000010: 75da dabe 8ca5 ccbd c5d1 15bd bf33 433d
00000020: ca1d 903d e774 05bf f6b6 7a3e edc8 873e
00000030: 559e a13e 49e1 1ebf e08a 113f ff3b 32bf
00000040: ef2d a73c 1f15 2abe f58b 81be aba6 813c
00000050: 61a6 d43e 0c06 cbbf c78d 6e3c 3cd3 e2be
00000060: 9aef e1bd fd9d 66bf d594 c1be c56b c5bd
00000070: 71d3 6fbd 1abe 5b3e 5fc5 d0be 8b2f 6c3e
00000080: 457d 973c 443a dcbf e5ac 003f 3829 88be
00000090: d70d 0fbe db8c 793d d169 b2bf fc22 3b3e
000000a0: ee73 afbb 6fc9 a53d d404 d8bf 34b9 1f3e
000000b0: 45e9 393c 38be 63bf 7993 a5be fad7 a63d
000000c0: 990d a5be 9268 e2bc 0f15 3ac0 6c93 dc3e
000000d0: 9ba0 55be c0e4 e0bd 8d16 183f 22ed 1fbc
000000e0: 41cc 963c f3c3 ed3e 74b5 fe3e 546e 393e
000000f0: c259 f8bd 7202 fdbe 9e67 1f3f 3a40 86be
00000100: 429c fbbc 2bc3 3cc0 f8a9 0c3e a32c 4e3d
00000110: 3507 85bd ebb5 22bd 28c4 01be b5eb 563d
00000120: eb73 c5bc 3867 18bf 6b66 b7bd 68aa aa3d
00000130: 4da9 3bbe 3c44 3ebd 401b d7be b762 503d
00000140: c2cb 44be 45f4 cbbe a111 b4bc f7e8 21bd
00000150: 6c32 5b3d df99 093d d44b 6dbe 13c1 61bc
00000160: e372 c9bc 5fd4 a1be 86bd c93d 820a 96bd
00000170: ecbc a23c 216b 05be c0c5 6fbe 13ed a33c
00000180: ed21 e3bc a09e 16be e03b df3d a54b 66be
00000190: 39e4 ff3d 97b4 a5be 44ba 20bf 5725 bebe
000001a0: 3b6b 463e 0955 85bd ba69 c73c 0311 c1be
000001b0: b38a c5be 6f5a c63c 516e 823b dc84 223e
000001c0: 1cdf 0dbe 7197 6abf f618 813e ed9a 87be
000001d0: d811 86be 15e4 0ebd a485 14bf e1fe 593c
000001e0: 5270 093d 365a 473f 18ca 503f fe77 1a3d
000001f0: 527b 9abd f0c8 703d 9ea9 8cbf 58fb 973c
00000200: c73f 88be 4a9e 65bf 66f3 f53e da1c be3d
00000210: 302f 03be 1e9c 3dbe 5776 593f 5039 a93a
00000220: 0a32 0dbe decd b6bd 2404 febf 645a f63e
00000230: 8ebe e9bd 4272 843e eddf 87be d866 213d
00000240: 5526 32be 4645 cabe a510 433f d0a9 e53d
00000250: 6703 cfbe c259 19bd 286b 50be ef5f efbd
00000260: f4c8 17be e07e de3e 5d31 1fc0 d19f 603e
00000270: 1037 05bf a3c8 763c 867a cc3e 8806 54be
00000280: 1b1a 8b3c 94c1 51be b79d 6bbf 4d30 d2bd
00000290: 6d61 9cbd ad75 23bd a37a e9bd 94c2 01be
000002a0: eb1b 203e 62c3 c0bf 991a 2e3f 5d7e bdbe
000002b0: dd57 a4bd 3044 a3be aedf 2bbf f5af 69bd
000002c0: a806 8dbe 2c59 25c0 c98b adbf b17d 2fbe
000002d0: 21b8 333b 11e0 cbbd a4da 29bf 1c6f 0d3f
000002e0: 420c 0bbd 72a2 ecbf 3ccf 253e 41bd 9abe
000002f0: 07f3 febd 3526 debf d77b 433a 0d2e 1abf
00000300: bcc9 d9bd 7a60 0abf bc83 ae3e 7518 c43d
00000310: 0b93 f6be 8c4e 85bc 998d 21c0 70f3 69bc
00000320: bcc8 48be 79ad bdbe 33fb b93e d684 813e
00000330: ae73 65be 5a22 ebbd 02fb 4ec0 6d0f 9fbd
00000340: 2c14 94be 3221 e33e 9640 41bd f603 3abe
00000350: 0fcb 86be a55b 97bd 8666 60be a2c0 553e
00000360: 9e74 82bd d391 cebe 1d43 33bf 48f6 c3bd
00000370: 191c ebbd 79bb 233c 7791 99bf dd5a 7d3e
00000380: 2542 8fbe 051c 36bd 2628 c93d 279d 02bd
00000390: a63e 17be 9d3a 95be f94b 4dbe 43c1 1bbe
000003a0: bfd3 93be b69a 663d 8ff2 86be 9ea1 003e
000003b0: 528e 4b3d f56f a3bd c061 e33c 7b76 54be
000003c0: 024c 29be c63d c7be 2da7 3fbf 634c 823d
000003d0: 5767 b6bd aa84 1fbd 2b8d b0be 57bf a13e
000003e0: 7e2e 05bc de92 88c0 eadb a23e 7171 e2bd
000003f0: 6868 9fbe 15a9 d0bd a9ce 4fbf 40b0 aa3e

bias f4 [16]
0.12416462 -0.11876129 -0.018546157 0.13944384 -0.09620063 -0.22987431 0.029039651 -0.06383466
0.25482067 -0.048527017 0.20880757 0.36428434 -0.24502866 0.38430578 -0.008165044 0.14037137
00000000: 054a fe3d 1f39 f3bd 1cee 97bc 5eca 0e3e
00000010: d604 c5bd 2c64 6bbe 90e4 ed3c bfbb 82bd
00000020: db77 823e 44c4 46bd a7d1 553e 7a83 ba3e
00000030: cbe8 7abe bac3 c43e adc6 05bc 83bd 0f3e

weight f4 [32, 16]
-0.27333835 1.7180102 -0.15668711 0.784296 -0.018052418 0.07708303 0.027097864 0.9389384
0.2546556 0.74429303 0.8260079 0.8712321 -0.18446824 -0.14295691 -0.009141783 1.6100594
1.3790985 0.55713737 0.7388064 0.6196658 0.40772435 0.1977193 0.380315 0.021950943
0.45420375 0.21742465 -0.75478595 1.0860013 0.7743627 0.4733484 0.035396677 -1.0333182
-0.3974141 -0.5005974 -0.22686885 0.06281946 -0.9126406 0.21879521 0.20595 0.25432286
0.2852971 -0.6757485 0.20262071 -0.40433744 1.0746223 -0.31467578 -0.062585674 0.41406217
0.56762755 0.42209622 -0.74183434 0.09328802 1.0801091 0.029477576 -0.04028915 -0.43478945
-1.6333667 -0.4046961 0.633782 0.67333543 -0.47051764 0.32999834 -0.10306105 0.2633206
1.0027952 -1.279117 0.25628477 -0.083923556 0.6602169 -0.3136748 0.1269828 1.3932475
0.22028819 0.17945112 0.6193414 0.6612047 -0.3168215 -1.3303014 0.063502245 0.16836637
0.26533175 -0.7312446 0.049849726 -0.6376458 0.078443274 0.30029032 0.20254925 0.15407741
-0.34910995 0.3784246 0.265179 -0.2591375 0.575093 0.47588184 -0.0059617693 0.47731072
0.765231 0.037569385 0.6188152 -0.14461605 0.47951186 0.20630054 0.4208462 -0.644179
0.51294184 0.009195518 -1.289239 0.25441968 0.30810001 0.77117985 -0.12782212 -1.2976825
-0.12703314 -0.019570202 -0.19844931 0.0010860031 -0.21028447 -0.09501034 -0.10113016 -0.2520466
-0.07523349 0.10702069 0.15821782 0.11697053 -0.18547079 -0.14822292 -0.055708677 -0.14364654
0.42362025 0.320499 0.30108786 -0.22080868 0.9948903 0.33724004 0.51980567 -0.09984239
0.5114499 -0.04826371 -0.93814796 -0.14785586 0.5674474 0.23341127 0.25216034 -1.7572259
0.33263257 -0.6271521 0.45886874 -0.5758164 0.20261188 0.2183635 0.21743228 0.72014624
-0.049657416 0.67481756 0.08285233 -0.09970858 0.89263445 0.3473117 -0.1135779 0.47590497
1.0744656 -0.06289128 0.4994662 -0.24798279 0.6901656 0.075924814 0.5937892 -0.06329858
0.27253202 0.060430627 -1.0342549 0.23284261 0.27571845 0.20671874 -0.051056914 -2.4359815
1.1632483 0.67143714 0.009733003 0.17066596 1.0396717 -0.12759824 0.25554603 0.46389854
0.3363051 0.05400749 -0.5127005 1.5437016 0.0037446753 -0.108267374 0.122263454 -0.4325802
0.94495434 -0.16999638 0.013297705 -0.29604042 -0.06159283 0.26302293 0.54550016 0.1965151
-0.39946848 -0.21309336 0.813132 1.0018268 -0.2701141 -0.71334326 -0.09090475 0.33014384
-0.39160958 0.31740496 -0.4859935 0.51716983 -1.5483054 0.11231508 0.3631555 1.0825045
0.12693667 -0.010764476 0.29870412 0.36256874 0.47122693 0.36361885 0.037061095 0.5800014
-0.12947288 0.025605597 -0.19590782 -0.0070958897 -0.36353326 0.01958121 0.031745523 -0.16764778
-0.09396064 -0.042006705 -0.19064166 -0.281125 0.0026112664 -0.057127606 -0.22475447 -0.075215995
0.7345361 0.708689 -0.5998692 0.4776092 -1.5306338 -0.11881946 0.01990294 0.04956154
-0.06870258 -0.4645774 0.5601059 1.0779734 0.6482912 -0.21312863 0.23366027 0.2737867
00000000: 01f3 8bbe c2e7 db3f 9672 20be 9fc7 483f
00000010: aae2 93bc b5dd 9d3d 57fc dd3c 445e 703f
00000020: 3862 823e fd89 3e3f 4175 533f 1109 5f3f
00000030: 3ee5 3cbe 4c63 12be 6bc7 15bc 6d16 ce3f
00000040: 4d86 b03f 8ea0 0e3f 6b22 3d3f 6ba2 1e3f
00000050: 3fc1 d03e ee76 4a3e a6b8 c23e 77d2 b33c
00000060: 658d e83e 91a4 5e3e a739 41bf 1702 8b3f
00000070: a23c 463f b95a f23e 1bfc 103d c543 84bf
00000080: dc79 cbbe 2727 00bf 4f50 68be 7da7 803d
00000090: d0a2 69bf da0b 603e 8fe4 523e 9b36 823e
000000a0: 7612 923e dbfd 2cbf ce7b 4f3e 5105 cfbe
000000b0: 398d 893f 2f1d a1be eb2c 80bd f5ff d33e
000000c0: 0a50 113f ff1c d83e dbe8 3dbf ca0d bf3d
000000d0: 0441 8a3f f57a f13c 3c06 25bd b99c debe
000000e0: 2912 d1bf 5434 cfbe 8a3f 223f b65f 2c3f
000000f0: b0e7 f0be 8bf5 a83e ac11 d3bd f5d1 863e
00000100: 985b 803f 1bba a3bf c237 833e 1de0 abbd
00000110: fa03 293f fc99 a0be c707 023e ef55 b23f
00000120: 3a93 613e 09c2 373e 288d 1e3f b644 293f
00000130: 6d36 a2be 5147 aabf 770d 823d 3c68 2c3e
00000140: 90d9 873e d932 3bbf 3a2f 4c3d c13c 23bf
00000150: dea6 a03d a7bf 993e 1269 4f3e 78c6 1d3e
00000160: 8abe b2be dfc0 c13e 8bc5 873e acad 84be
00000170: 4b39 133f c9a6 f33e f25a c3bb 1262 f43e
00000180: 2ee6 433f 5be2 193d ac6a 1e3f 3b16 14be
00000190: 9482 f53e 7340 533e 2779 d73e eae8 24bf
000001a0: 2850 033f cca8 163c c905 a5bf 4c43 823e
000001b0: 49bf 9d3e 0b6c 453f cde3 02be 761a a6bf
000001c0: fa14 02be b051 a0bc 4c36 4bbe 3858 8e3a
000001d0: d054 57be c894 c2bd 541d cfbd 410c 81be
000001e0: 0414 9abd aa2d db3d da03 223e 3f8e ef3d
000001f0: 0eec 3dbe c0c7 17be c82e 64bd 1418 13be
00000200: c1e4 d83e 7218 a43e 3028 9a3e ac1b 62be
00000210: 21b1 7e3f baaa ac3e fc11 053f 2b7a ccbd
00000220: 61ee 023f 2bb0 45bd 772a 70bf 8767 17be
00000230: 3c44 113f 5d03 6f3e 291b 813e c7ec e0bf
00000240: d14e aa3e 0a8d 20bf d8f0 ea3e b468 13bf
00000250: 7d79 4f3e ae9a 5f3e 91a6 5e3e 815b 383f
00000260: 9365 4bbd d8c0 2c3f 7bae a93d 0334 ccbd
00000270: b183 643f d7d2 b13e 889b e8bd d1a9 f33e
00000280: 1788 893f 25cd 80bd 09ba ff3e 33ef 7dbe
00000290: b1ae 303f 787e 9b3d 9202 183f b0a2 81bd
000002a0: 5189 8b3e 1b86 773d 7762 84bf 4b6e 6e3e
000002b0: f82a 8d3e 14ae 533e 0e21 51bd 1fe7 1bc0
000002c0: 52e5 943f 4ee3 2b3f 2c77 1f3c 0fc3 2e3e
000002d0: f613 853f 1da9 02be eed6 823e 1c84 ed3e
000002e0: 2f30 ac3e f536 5d3d 5740 03bf 0498 c53f
000002f0: 3a69 753b 49bb ddbd 4365 fa3d 277b ddbe
00000300: 87e8 713f 8813 2ebe 9ede 593c 9c92 97be
00000310: c348 7cbd f1aa 863e e6a5 0b3f 413b 493e
00000320: 2287 ccbe 2535 5abe 6b29 503f dc3b 803f
00000330: 654c 8abe aa9d 36bf 452c babd 9d08 a93e
00000340: 0d81 c8be e782 a23e 24d4 f8be 3e65 043f
00000350: df2e c6bf 7305 e63d 85ef b93e 828f 8a3f
00000360: b0fb 013e 7c5d 30bc bfef 983e 9ca2 b93e
00000370: a844 f13e 402c ba3e 60cd 173d f97a 143f
00000380: 8a94 04be d4c2 d13c 0f9c 48be a384 e8bb
00000390: 0821 babe c668 a03c 9807 023d dcab 2bbe
000003a0: 706e c0bd 390f 2cbd 9137 43be 9eef 8fbe
000003b0: c821 2b3b a3fe 69bd 0926 66be d80a 9abd
000003c0: 8f0a 3c3f a46c 353f 0791 19bf 3189 f43e
000003d0: cfeb c3bf 9e57 f3bd 7e0b a33c 0b01 4b3d
000003e0: f0b3 8cbd 17dd edbe 1a63 0f3f 08fb 893f
000003f0: 69f6 253f 643e 5abe a344 6f3e c52d 8c3e

bias f4 [32]
0.4262423 0.7415777 -0.38035047 0.17677113 -0.28272 -0.1728757 0.7036745 -0.27617636
0.35654646 0.2912477 0.3744439 0.82978904 -0.21386142 0.19435008 -0.34693646 0.17566396
0.6940982 -0.378887 0.07506097 -0.30261925 0.41527697 -0.47544694 -0.06900913 0.7144194
0.10396125 -0.5325353 0.61275816 -0.037832715 -0.21744326 0.4147725 0.9642974 0.95664173
00000000: 6e3c da3e 09d8 3d3f 4cbd c2be 7e03 353e
00000010: adc0 90be 5406 31be 0324 343f fd66 8dbe
00000020: 428d b63e 6b1e 953e 1cb7 bf3e 0e6d 543f
00000030: 7dfe 5abe b503 473e a8a1 b1be 41e1 333e
00000040: 6bb0 313f 7afd c1be 91b9 993d e9f0 9abe
00000050: 2f9f d43e c86d f3be a954 8dbd 31e4 363f
00000060: a3e9 d43d 3c54 08bf b8dd 1c3f 7af6 1abd
00000070: 72a9 5ebe 105d d43e 32dc 763f 79e6 743f

weight f4 [64, 32]
-0.2398664 -0.11328589 -0.18226574 0.028215181 -0.19252999 0.29247534 0.23134902 -0.09261894
0.0095726205 0.10824355 -0.14105438 -0.039107617 -0.14153844 -0.021370104 -0.05377209 -0.25520086
-0.03948404 -0.15068173 -0.18700704 -0.016063618 -0.12054459 0.28632987 0.07197237 -0.13728759
-0.17306545 -0.28034887 -0.18201639 -0.12071564 0.08072262 -0.14876427 -0.09312607 -0.27014622
-0.106699936 -0.2912888 0.37971026 -0.46552867 -0.1245558 0.12936302 -0.32225433 -0.13000967
-0.36626667 0.0939709 -0.30013728 -0.17309918 -0.23682675 0.16109176 -0.04539654 -0.09386296
0.021191366 0.0140426615 -0.067188784 -0.07098988 -0.30238292 -0.2874893 0.10393088 0.022482457
-0.24599397 0.28034356 -0.5043516 -0.24298532 -0.044379216 -0.13481158 0.09620416 -0.62301147
-0.11872917 -0.04154419 -0.16017678 0.01334336 -0.17951779 0.0246749 -0.13297705 0.03600127
0.06979151 -0.078996666 0.045325786 -0.06390296 -0.05371058 0.09524847 0.042192757 -0.07045032
0.0018599684 -0.03763878 0.11549496 0.17629313 0.032009445 0.11740248 0.059562914 0.010252006
-0.086288564 -0.039396934 -0.09569161 -0.012566272 0.07902661 0.12545393 -0.12909009 -0.101647645
-0.41741234 0.1301736 -0.086536475 -0.07074286 -0.6804208 -0.39025602 0.17630742 -0.04723905
0.50030047 -0.32887173 0.4354025 0.27462396 -0.23898362 -0.6119721 0.15797663 0.11588731
-0.041846994 0.45730224 -0.7196398 0.0054832837 0.109193236 0.32080647 -0.8271337 -0.17346907
-0.9956857 -0.8555587 0.084621444 -0.869391 -0.679759 0.32909283 -0.20256637 -0.05062272
-0.17151628 -0.21388952 0.3948787 0.43009445 0.30619562 0.105119504 -0.6206887 -0.05881942
0.010386954 -0.19098929 -0.4198093 -0.22933024 -0.08431478 0.098975405 0.12507607 0.27469718
0.07978965 -0.032352407 -0.112859376 -0.16080385 -0.46855494 -0.11772474 0.56939316 -0.21115217
-0.21501721 0.80566996 -0.32848337 -0.17983554 0.3357335 0.23595543 -0.27006695 -0.30509877
0.043517258 -0.027687045 -0.21950407 -0.06579089 -0.21073186 0.106511176 -0.11988812 -0.028544247
-0.1676331 0.006853478 0.116232075 -0.07617242 -0.22762837 -0.23482236 -0.14889124 -0.16754185
-0.24395627 -0.018724015 -0.10937784 0.17247708 -0.1861736 0.105517544 -0.24072312 -0.11845202
-0.24556512 0.0607482 0.002669786 0.052372262 -0.2588345 -0.14218011 -0.26500085 -0.09768195
-0.048403133 0.14221163 0.1027291 -0.085327335 0.08771524 0.17091766 0.27365747 -0.05080025
0.28139037 0.24883021 0.5143754 -0.10085379 0.46668607 -0.15950674 0.039240696 0.18606631
0.44089684 0.061840836 -0.076803364 0.08711836 0.21330407 0.30643046 -0.004196129 -0.14642116
0.15943304 0.29745662 0.1066459 -0.016388658 0.09344077 -0.38056102 0.024922153 -0.01636878
0.6187957 1.3334583 -0.20309459 0.4727923 1.2350228 0.22103718 1.018357 0.06567517
1.505392 0.41321725 1.2333598 1.5149695 0.4946624 0.0903645 -0.15085062 0.23654425
0.016774036 0.26237234 0.09835915 0.21653502 1.2246163 -0.34179097 0.74912715 0.5672061
0.7241766 0.50193924 0.57550454 1.0284741 -0.046444956 0.12866826 0.9205878 1.2885404
00000000: 8a9f 75be 6f02 e8bd dfa3 3abe 8623 e73c
00000010: 9526 45be 54bf 953e c2e6 6c3e 00af bdbd
00000020: 7bd6 1c3c cbae dd3d 8f70 10be 4f2f 20bd
00000030: 74ef 10be 5b10 afbc 1f40 5cbd b0a9 82be
00000040: 04ba 21bd 504c 1abe c67e 3fbe d997 83bc
00000050: 15e0 f6bd d499 923e 4066 933d 1e95 0cbe
00000060: 1238 31be e389 8fbe 8162 3abe c339 f7bd
00000070: e751 a53d a955 18be e2b8 bebd 9b50 8abe
00000080: 7f85 dabd ce23 95be 6269 c23e c659 eebe
00000090: 1c17 ffbd bd77 043e 85fe a4be 4121 05be
000000a0: 4e87 bbbe d173 c03d 98ab 99be e940 31be
000000b0: b682 72be 3df5 243e b9f1 39bd 393b c0bd
000000c0: 8499 ad3c 3113 663c 469a 89bd 2463 91bd
000000d0: efd1 9abe cc31 93be b7d9 d43d 212d b83c
000000e0: d8e5 7bbe 3189 8f3e 301d 01bf 25d1 78be
000000f0: fbc6 35bd 0c0c 0abe b006 c53d ae7d 1fbf
00000100: 4728 f3bd 3e2a 2abd 6205 24be 1c9e 5a3c
00000110: 83d3 37be 0423 ca3c 232b 08be 1176 133d
00000120: daee 8e3d 01c9 a1bd 88a7 393d 8edf 82bd
00000130: a0ff 5bbd a111 c33d 50d2 2c3d 4248 90bd
00000140: 2fca f33a 1f2b 1abd 9f88 ec3d 3086 343e
00000150: 561c 033d b670 f03d 3ef8 733d 08f8 273c
00000160: 0fb8 b0bd ae5e 21bd f6f9 c3bd c4e2 4dbc
00000170: b4d8 a13d ff76 003e 3130 04be a42c d0bd
00000180: 12b7 d5be 3a4c 053e 093a b1bd a2e1 90bd
00000190: 0f30 2ebf a3cf c7be ef89 343e bc7d 41bd
000001a0: b113 003f e061 a8be 14ed de3e 839b 8c3e
000001b0: 1fb8 74be 34aa 1cbf a0c4 213e 5356 ed3d
000001c0: c167 2bbd 8523 ea3e 503a 38bf 1ead b33b
000001d0: b4a0 df3d bf40 a43e 09bf 53bf e0a1 31be
000001e0: 42e5 7ebf e505 5bbf 024e ad3d 6990 5ebf
000001f0: b004 2ebf db7e a83e 8f6d 4fbe c559 4fbd
00000200: f7a1 2fbe db05 5bbe 8a2d ca3e 5735 dc3e
00000210: acc5 9c3e e548 d73d 74e5 1ebf a2ec 70bd
00000220: 0b2e 2a3c b292 43be 3ff1 d6be 8cd5 6abe
00000230: 3aad acbd 9eb3 ca3d f113 003e 1ca5 8c3e
00000240: c268 a33d f583 04bd d122 e7bd c4a9 24be
00000250: 6fe6 efbe ab19 f1bd c0c3 113f 4638 58be
00000260: 792d 5cbe 6340 4e3f f92e a8be cf26 38be
00000270: 43e5 ab3e 4d9e 713e 3746 8abe e835 9cbe
00000280: 273f 323d f1cf e2bc adc5 60be 60bd 86bd
00000290: 18ca 57be 8822 da3d e787 f5bd a0d5 e9bc
000002a0: 03a8 2bbe 2493 e03b 150b ee3d 4900 9cbd
000002b0: 6917 69be 4675 70be f276 18be 1790 2bbe
000002c0: accf 79be 1b63 99bc 7d01 e0bd d59d 303e
000002d0: 4ba4 3ebe 9519 d83d 1f80 76be f996 f2bd
000002e0: 6c75 7bbe 1bd3 783d 94f7 2e3b 4c84 563d
000002f0: f585 84be aa97 11be 31ae 87be 790d c8bd
00000300: 5d42 46bd ed9f 113e a263 d23d 19c0 aebd
00000310: 0ca4 b33d 0a05 2f3e d51c 8c3e ec13 50bd
00000320: 6612 903e 59cd 7e3e 1bae 033f 6f8c cebd
00000330: 7af1 ee3e bc55 23be daba 203d 2b88 3e3e
00000340: 3bbd e13e d14c 7d3d 154b 9dbd 1c6b b23d
00000350: 626c 5a3e 74e4 9c3e ae7f 89bb 6eef 15be
00000360: 6a42 233e 3c4c 983e 2a69 da3d 8241 86bc
00000370: e05d bf3d e5d8 c2be 8b29 cc3c d217 86bc
00000380: 6569 1e3f c3ae aa3f 07f8 4fbe d511 f23e
00000390: 3a15 9e3f 9257 623e 8659 823f b480 863d
000003a0: afb0 c03f 3691 d33e bcde 9d3f 85ea c13f
000003b0: 6444 fd3e 0611 b93d 9678 1abe a838 723e
000003c0: b469 893c ab55 863e 8670 c93d 5bbb 5d3e
000003d0: 3ac0 9c3f 3aff aebe ccc6 3f3f 6b34 113f
000003e0: a363 393f 177f 003f 4454 133f 0aa5 833f
000003f0: 113d 3ebd 9dc1 033e a4ab 6b3f e4ee a43f

bias f4 [64]
-0.09880116 -0.016901435 -0.09877256 -0.08355566 -0.3630474 -0.2609451 -0.07191418 0.39333084
2.4365294 0.31184277 -0.028728256 -0.19811994 0.4785404 -0.04338413 -0.41141078 0.02643514
-0.19401097 0.18532535 -0.20131083 -0.250627 0.12193777 0.05220913 0.11850846 -0.15506881
-0.01484257 -0.23949964 0.22172895 -0.14198571 -0.18696098 -0.155536 -0.15948711 0.0016081738
0.3051856 -0.1823453 -0.30053386 -0.6497921 0.32910663 1.6929728 -0.5656546 1.5946093
-0.21597964 0.05018363 -0.53325754 -0.25331792 0.84064406 -0.6304196 -0.053131405 -0.40891582
-0.18285145 0.09745951 -0.6113441 -0.010707811 -0.0012705615 0.005846396 1.9996037 -0.23787269
0.3735565 0.6895936 -0.0918817 0.14187452 -0.18849126 -0.33141795 -0.2500611 -0.2140113
00000000: 4358 cabd e174 8abc 4549 cabd 3b1f abbd
00000010: 59e1 b9be 999a 85be be47 93bd a962 c93e
00000020: 19f0 1b40 dba9 9f3e 8557 ebbc f4df 4abe
00000030: 3f03 f53e 8fb3 31bd 6fa4 d2be 828e d83c
00000040: d0aa 46be eec5 3d3e 6d24 4ebe 2f52 80be
00000050: 82ba f93d 3ed9 553d 90b4 f23d 5cca 1ebe
00000060: 402e 73bc 653f 75be ea0c 633e b464 11be
00000070: b372 3fbe d444 1fbe 9750 23be 5cc9 d23a
00000080: 4941 9c3e bab8 3abe 93df 99be c658 26bf
00000090: aa80 a83e 55b3 d83f bdce 10bf 281c cc3f
000000a0: c429 5dbe 5a8d 4d3d 9183 08bf e3b2 81be
000000b0: 7334 573f 2e63 21bf 51a0 59bd 6a5d d1be
000000c0: 693d 3bbe da98 c73d 0c81 1cbf d16f 2fbc
000000d0: f888 a6ba 2093 bf3b 04f3 ff3f e694 73be
000000e0: cc42 bf3e 3589 303f 792c bcbd 8e47 113e
000000f0: da03 41be 9daf a9be 0208 80be c725 5bbe

weight f4 [4, 64]
-0.028538056 0.29939327 -0.07607707 -0.5785953 0.03519442 0.044360183 0.49559483 -0.0012670445
-0.07200033 -0.7178063 -0.7314284 0.08898612 -0.3310999 -0.07423433 -0.1112455 -1.3052955
-0.108228676 -0.089016944 0.112967506 -0.038299605 0.5687127 0.45144096 -0.02844959 -0.072971806
-0.01423546 -0.067786425 -0.98148704 0.06910427 0.03394168 0.016761161 1.5243098 1.9074731
-0.20691024 0.048885968 -0.11336944 0.07474049 -0.99302644 -0.034473207 -0.042312767 0.42168748
0.8595182 0.22886004 0.48919725 -0.12347664 -0.098229446 0.08609808 -0.77127016 -1.3422977
0.08992076 1.5579396 -0.03078539 -0.8162328 0.011463441 -0.070844375 -0.21192636 -0.01791805
-0.3338583 -0.09004007 0.037930645 -0.2630447 -0.016368981 -0.046134602 -0.6863708 -0.0896086
-0.1978132 0.10370055 0.008223078 -0.10755785 0.054988045 0.048470885 0.2699076 -0.0058148685
-0.03543089 -0.23385628 1.1471572 0.3413771 0.14369538 -0.35674274 0.0009880969 -0.6255234
-0.075102195 -0.13847594 0.041098848 -0.021727357 0.074785486 0.2969782 -0.17855121 -0.02607357
-0.09400518 0.24742992 0.16454197 -0.11885664 0.2625306 0.032569643 0.61403966 -0.19180338
-0.00044301825 0.020911667 -0.20436016 0.6600445 0.17641844 -0.034359004 -0.11443419 -0.016970208
0.19480082 0.03247439 -0.21301721 -0.10867654 0.00074495573 0.5542561 0.30635443 0.56649697
0.05894807 -0.06086656 0.13180149 0.00056462485 0.03534391 0.03925183 -0.17518939 -0.05752085
0.32153833 -0.089193955 0.022926675 1.7630967 0.0051071346 0.07927507 -0.06785929 -0.07296944
-0.23051801 -0.8452251 -0.10055128 1.0494108 -1.3435975 -0.043234304 0.0145847555 0.0991901
-0.07196789 1.4408767 0.008891989 -1.0191537 1.0272262 0.63352096 -0.121199675 0.9791735
0.021571884 -0.18620953 -0.005565569 0.020626023 0.18091369 -0.97420347 0.00022306886 -0.019851955
-0.058567703 -0.21646741 1.391355 0.009522295 -0.7567482 -0.076629385 -2.0681043 -1.6437463
-0.23862009 -0.030483216 0.09163803 -0.8274281 1.3667148 -0.0035269316 0.11404477 0.029160963
-0.109634034 -0.7099104 -0.7716315 0.00835922 0.13795881 -0.80560493 0.38718665 0.20319572
0.0678506 0.32016253 -1.1415126 0.14857279 0.09308003 -0.12083356 -0.13401075 -0.0055666035
1.398236 0.051629327 0.064808965 -0.10125756 0.013188086 -0.8808358 1.2509642 -0.010285304
0.31944445 0.23607244 0.057289865 0.051030062 0.44635028 0.024410725 -0.3000332 -0.025536235
-0.05889663 -0.4404237 0.81947285 0.39383927 0.4682865 0.80455416 -0.15499221 0.89247644
0.04049796 0.3415347 0.03930176 0.019734427 0.09387893 0.061442174 -0.11748312 -0.039954312
0.11152907 0.33280396 -0.067819715 0.05522257 0.18174662 0.062654324 0.2251378 -0.42222726
0.15957838 -0.04926342 -0.11634208 1.0206003 -0.1617358 -0.027982727 0.10874591 -0.10529072
-0.2666228 0.14541154 -0.040963635 -0.10958141 -0.076152794 0.61509144 1.1814278 1.0187323
0.07241939 0.7391073 0.41229606 0.6516134 0.06826577 -0.011746052 -0.00066051184 0.09139961
-0.26006708 0.012406596 0.030156104 0.37977386 -0.017339826 0.38092065 0.2750973 0.059723716
00000000: a4c8 e9bc 134a 993e 4bce 9bbd d21e 14bf
00000010: 0628 103d 06b3 353d 9bbe fd3e f512 a6ba
00000020: e974 93bd 27c2 37bf e43e 3bbf 5b3e b63d
00000030: ed85 a9be 2b08 98bd aed4 e3bd ec13 a7bf
00000040: ffa6 ddbd 844e b6bd 825b e73d 0ce0 1cbd
00000050: 2897 113f 4523 e73e 1d0f e9bc 3e72 95bd
00000060: d93b 69bc 9cd3 8abd bc42 7bbf 8a86 8d3d
00000070: 6e06 0b3d b44e 893c 951c c33f 1428 f43f
00000080: 47e0 53be a73c 483d 3d2e e8bd 8b11 993d
00000090: fb36 7ebf c733 0dbd 2750 2dbd 6ce7 d73e
000000a0: 6209 5c3f 495a 6a3e 1078 fa3e 52e1 fcbd
000000b0: 852c c9bd 3154 b03d f671 45bf 69d0 abbf
000000c0: 6028 b83d 916a c73f a431 fcbc a2f4 50bf
000000d0: 28d1 3b3c db16 91bd 3903 59be e0c8 92bc
000000e0: 7aef aabe ee66 b8bd 2a5d 1b3d cbad 86be
000000f0: 3e18 86bc a3f7 3cbd ffb5 2fbf b784 b7bd
00000100: 8b8f 4abe f460 d43d 17ba 063c 4a47 dcbd
00000110: 253b 613d 6889 463d 5431 8a3e a78a bebb
00000120: fb1f 11bd 0578 6fbe 0cd6 923f fbc8 ae3e
00000130: e224 133e fca6 b6be 0883 813a 4d22 20bf
00000140: 2ecf 99bd a3cc 0dbe 4457 283d 92fd b1bc
00000150: 2229 993d 870d 983e 21d6 36be 3d98 d5bc
00000160: ca85 c0bd 455e 7d3e b17d 283e 1c6b f3bd
00000170: 696a 863e bf67 053d b431 1d3f 1b68 44be
00000180: e744 e8b9 f24e ab3c ca43 51be adf8 283f
00000190: 09a7 343e 07bc 0cbd 795c eabd 1b05 8bbc
000001a0: de79 473e de03 053d 2f21 5abe ce91 debd
000001b0: 2249 433a bae3 0d3f 7dda 9c3e f205 113f
000001c0: 8873 713d 374f 79bd f8f6 063e 5503 143a
000001d0: c7c4 103d 87c6 203d d964 33be fc9a 6bbd
000001e0: aca0 a43e 52ab b6bd b9d0 bb3c 27ad e13f
000001f0: c059 a73b f85a a23d d0f9 8abd 0071 95bd
00000200: ea0c 6cbe ac60 58bf d4ed cdbd 1853 863f
00000210: 01fb abbf 7416 31bd e6f4 6e3c 2e24 cb3d
00000220: e763 93bd a66e b83f b4af 113c a173 82bf
00000230: 267c 833f 6e2e 223f 8937 f8bd 1dab 7a3f
00000240: 85b7 b03c b6ad 3ebe 605f b6bb e8f7 a83c
00000250: 7041 393e 6665 79bf 97e7 6939 91a0 a2bc
00000260: b0e4 6fbd a2a9 5dbe ec17 b23f 6603 1c3c
00000270: 40ba 41bf deef 9cbd d25b 04c0 4766 d2bf
00000280: d358 74be f0b7 f9bc b8ac bb3d 54d2 53bf
00000290: 83f0 ae3f 1824 67bb 4e90 e93d f9e2 ee3c
000002a0: cf87 e0bd b0bc 35bf a489 45bf 1cf5 083c
000002b0: 1345 0d3e 203c 4ebf 543d c63e 8a12 503e
000002c0: 41f5 8a3d 58ec a33e 161d 92bf 7723 183e
000002d0: bea0 be3d 9677 f7bd 1d3a 09be 0e68 b6bb
000002e0: 66f9 b23f 4679 533d 90ba 843d 2060 cfbd
000002f0: d812 583c 747e 61bf 981f a03f b183 28bc
00000300: 398e a33e f9bc 713e c7a8 6a3d e604 513d
00000310: 0688 e43e 00f9 c73c f49d 99be 5e31 d1bc
00000320: 983d 71bd 377f e1be f9c8 513f 4da5 c93e
00000330: 40c3 ef3e 43f7 4d3f 47b6 1ebe 5679 643f
00000340: 30e1 253d a3dd ae3e e2fa 203d 18aa a13c
00000350: 9943 c03d caaa 7b3d fd9a f0bd 22a7 23bd
00000360: 5a69 e43d 4865 aa3e 10e5 8abd 1031 623d
00000370: c91b 3a3e e950 803d 868a 663e 2c2e d8be
00000380: 8468 233e 71c8 49bd c244 eebd 08a3 823f
00000390: 129e 25be 083c e5bc 2db6 de3d a9a2 d7bd
000003a0: c982 88be c3e6 143e 7cc9 27bd 386c e0bd
000003b0: fff5 9bbd a276 1d3f 0739 973f d265 823f
000003c0: 9e50 943d 2336 3d3f 7818 d33e 23d0 263f
000003d0: edce 8b3d 8372 40bc 3326 2dba b82f bb3d
000003e0: 8327 85be 0945 4b3c ef09 f73c b871 c23e
000003f0: 400c 8ebc 0808 c33e 8ed9 8c3e dba0 743d

bias f4 [4]
-0.0757706 -0.37834767 0.53191596 -0.5908219
00000000: 9e2d 9bbd c9b6 c1be a52b 083f 1b40 17bf
