saves/kevin/kevin_nn_2025-02-22_16-24-25.pt (torch, 17468 bytes, 8 tensors)

weight f4 [16, 16]
000000 9c 1a 5f be 68 d0 a5 3d 5b 7a 92 3e b6 59 a9 3d
       -0.21787494 0.08096391 0.28608975 0.08269064
000010 08 f9 42 3e ce 79 78 3e ab 4a 3b 3e 4d 27 93 3e
       0.1904031 0.24265215 0.18290202 0.28740922
000020 3f 22 3a be 82 a6 11 3e 74 44 c0 be 2d 35 11 3e
       -0.18177126 0.14223674 -0.37552226 0.14180441
000030 f6 54 6b 3c c6 01 a1 3e cc ce 36 bd 44 ab 94 3e
       0.014363518 0.31446666 -0.04463081 0.29036915
000040 ac 11 e8 bd 3e 75 5e 3e 94 ea 0f 3e 1f c2 88 3e
       -0.11331496 0.21724412 0.14054328 0.26710603
000050 27 80 a3 bc 9d fc 47 3e 43 3c 5d bd e6 0e a4 3d
       -0.019958569 0.19529958 -0.05401255 0.08010654
000060 4b e4 25 be 2c 18 53 3e a8 5a c4 be 4c f8 fe 3c
       -0.16200368 0.2061469 -0.38350415 0.031124257
000070 16 1a 04 3d 40 e1 9e bc 56 e4 3f be 06 3d 3f bc
       0.03225144 -0.019394517 -0.18739447 -0.011672264
000080 f0 d4 a2 bc 30 92 72 bd ca 3b 19 be 0c e3 e9 3d
       -0.019876927 -0.059221447 -0.14964214 0.11420259
000090 c0 8c 3a bd 50 2d 73 3d e8 11 27 3d 78 6f 1a be
       -0.045544386 0.059369385 0.04078856 -0.15081584
0000a0 94 7b 51 be 30 a4 c4 3c 26 c3 12 3e 5a f0 20 be
       -0.20457298 0.024004072 0.14332256 -0.15716687
0000b0 e0 57 60 bc 90 32 dd bc 80 f1 b6 bc 7c 45 3f be
       -0.013692826 -0.02700165 -0.022331953 -0.1867885
0000c0 a7 49 9c be 3a 80 12 3e c1 ee 49 3d 52 1f 97 bc
       -0.30524942 0.14306727 0.04929996 -0.018447552
0000d0 7d d8 1d be fa 30 a6 be ad 5b 84 3d 2d 12 d5 3d
       -0.15414615 -0.3245924 0.06462798 0.104038574
0000e0 76 51 43 be 4e 60 7a be 98 aa ad bd 19 8a 7a 3d
       -0.19074044 -0.244508 -0.08479804 0.061166856
0000f0 8a 54 90 bd 1d e2 eb 3d a6 2c 3e be 8b 75 2e 3d
       -0.070473745 0.11517737 -0.1857172 0.042592566
000100 32 ac d4 be f8 57 99 bd 6f 36 f1 3d cf 40 03 be
       -0.41537625 -0.07487482 0.117779605 -0.12817691
000110 69 61 d8 3d d1 c6 7b 3c e5 15 b0 bc 3a 3f 92 3e
       0.105654545 0.015367226 -0.021494815 0.28563863
000120 77 c8 7c be 48 17 6e bd 28 5a 2c be 8b 86 78 3e
       -0.24685846 -0.05812767 -0.16831267 0.24270074
000130 ea 5a 6f 3d 05 b3 02 be 92 8c ef 3b b8 cc 1b 3e
       0.05843631 -0.12763603 0.0073104585 0.15214813
000140 e3 ea cb 3c 18 9e 92 3e 3d 6b 51 3c 98 63 49 3e
       0.024892276 0.2863624 0.012781915 0.19666898
000150 89 93 9d bd c0 c7 eb 3d 1a fe 14 be 9e e0 c3 bd
       -0.07694156 0.11512709 -0.14550057 -0.09564327
000160 76 a4 11 bd 8f 63 a5 be 34 4f 80 3e c3 65 ac be
       -0.035557233 -0.3230252 0.25060427 -0.33671388
000170 79 1c 62 bd 76 21 1b 3d 92 b8 e7 3c a2 99 6a 3e
       -0.055202935 0.037873708 0.028286252 0.22910169
000180 1a 6d 38 be b5 77 15 be 80 04 bc bd f8 db c5 bd
       -0.18010369 -0.14596446 -0.09180546 -0.09661096
000190 8e fa 5a be d1 3d 25 3e 60 77 d4 3d 2a cc 69 be
       -0.21384642 0.16136862 0.103743315 -0.22831789
0001a0 d8 42 3c 3d ff 59 3b be 62 3b ac 3d a7 88 3c be
       0.045962185 -0.1829605 0.08409764 -0.18411504
0001b0 4d 98 54 3e 66 c0 78 bd 3e f1 d7 bc 6a fd 80 3b
       0.20761223 -0.06073036 -0.02636015 0.0039364593
0001c0 ea 36 94 bd 74 ef 5d bd 70 1a b8 bd b3 a4 a6 3e
       -0.072370365 -0.05418344 -0.089894176 0.3254753
0001d0 06 88 b1 3d c2 9e a7 bd 96 15 76 3e 8e e4 1c 3e
       0.086685225 -0.081845775 0.24031672 0.15321562
0001e0 34 08 4b be f8 e4 cc bd d4 14 55 bd 73 2d c5 bb
       -0.19827348 -0.1000461 -0.052021816 -0.006017381
0001f0 5f 4d 06 be f3 52 97 3e ca 5a c5 3d fd 99 06 be
       -0.13115452 0.29555473 0.09636457 -0.1314468
000200 70 04 ea bd 00 e8 b0 ba 10 30 8e bd f5 1a f7 bd
       -0.11426628 -0.0013496876 -0.06942761 -0.120656885
000210 54 00 71 3e 84 ee e4 bd ba e0 42 be 00 70 89 be
       0.23535281 -0.11178306 -0.19031039 -0.26843262
000220 30 9e 63 3d bb b2 ee 3d 59 c1 9c 3d e8 f4 8c be
       0.05557078 0.11655184 0.07654066 -0.275306
000230 00 a6 79 bd 93 9d 3a bd 00 a6 05 bc 85 4e 10 3e
       -0.060949326 -0.04556043 -0.008157253 0.14092453
000240 93 b8 47 3d 10 cb 5b 3e 04 06 8d bd f8 03 ba 3b
       0.048760008 0.21464181 -0.06885913 0.0056767426
000250 98 50 1d 3e 52 c0 24 be b3 8e 22 3e 4a af da bd
       0.15362775 -0.1608899 0.15874748 -0.10677965
000260 76 e0 4a bd 2f e3 61 bd 1d 83 25 3e b2 f8 84 bc
       -0.04953047 -0.0551483 0.16163297 -0.016231868
000270 e8 96 44 be 4a 14 59 3d 86 75 81 be 14 94 2e 3e
       -0.19198191 0.052997865 -0.25284976 0.17048675
000280 a0 29 b9 3d 07 cf 00 3e 81 9a 9c 3e af 0f fc bd
       0.090411425 0.12578975 0.30586627 -0.12307679
000290 60 2c 90 be 55 8e 69 bd d8 6c de 3c b5 4a 9a 3e
       -0.28158855 -0.057020504 0.02715151 0.30135122
0002a0 cf df 36 3b ac 86 ef bc b9 ad 2c 3e 1e ca 5c 3c
       0.0027904396 -0.029239021 0.16863145 0.013475923
0002b0 d2 ab 2b be c1 4d 84 be 4a 3c 9c be 46 00 57 bd
       -0.16764763 -0.25840572 -0.30514747 -0.052490495
0002c0 d1 bc 80 be f6 b2 7f be 44 18 38 3e 86 52 17 3d
       -0.25144055 -0.24970612 0.17978007 0.036943935
0002d0 af 13 08 3e 61 54 d7 3d 66 48 85 3e 97 6e 8d bd
       0.13288759 0.10514141 0.26031798 -0.06905859
0002e0 1d ee 78 3d 46 10 41 bd 02 ea f8 b9 44 d3 75 3e
       0.060773958 -0.04713466 -0.00047476596 0.24006373
0002f0 27 d9 8c be 15 4b 69 be 86 64 2a bd 93 6b 70 be
       -0.27509424 -0.22782548 -0.041599773 -0.23478536
000300 70 f3 26 be bb cb d8 bd e2 d9 b5 bd c9 18 49 3e
       -0.16303802 -0.105857335 -0.088794485 0.19638361
000310 17 f7 e9 bc db 0c 7d 3e a0 19 88 3e 2e 5c 2e 3e
       -0.028560204 0.24711935 0.2658205 0.17027351
000320 ad 9e 1d 3d 03 ec 46 bd ec e2 03 3e d6 7f 01 bc
       0.038481403 -0.048564922 0.12879533 -0.007904014
000330 23 c7 3a 3e d1 25 8b be 39 1f b6 be 44 1d 85 be
       0.18240027 -0.2717729 -0.35570696 -0.2599889
000340 84 32 1e 3e 46 57 c3 bd 44 e6 19 3e 5b 56 d4 bc
       0.15448958 -0.095381305 0.15029246 -0.025920084
000350 b2 9f df bd 4e ad 7f 3e e9 9d 20 bd 20 00 33 3e
       -0.10919131 0.24968454 -0.039213095 0.17480516
000360 98 e6 a2 3d 70 51 21 3e 93 ea c4 be 7a 6d 55 be
       0.079541385 0.15753722 -0.38460216 -0.20842543
000370 8f 93 9a be 6b f9 0b be 29 35 58 bd 20 ff 8b bd
       -0.30190703 -0.13669364 -0.052785072 -0.068357706
000380 24 44 a0 3d fb 3b f8 3d f4 2c 89 bd 7d bc bb 3e
       0.07825497 0.12120815 -0.06698027 0.36667243
000390 7a 9a ee bc 1f ee 4a 3d 4c 5d 50 3e b4 76 e1 3d
       -0.029126395 0.049543496 0.2034809 0.11008969
0003a0 c0 22 82 bd fe b8 78 3e 21 ff 2b be 50 4f 83 3e
       -0.06354284 0.24289319 -0.16796543 0.25646448
0003b0 1d f8 46 be 3e 55 4d 3e 17 b7 87 be 52 ae 26 3e
       -0.19430585 0.20052049 -0.26506874 0.16277435
0003c0 06 d4 00 be 40 1b 45 3e aa 56 91 3d 01 43 07 3d
       -0.1258088 0.19248676 0.07096608 0.033022884
0003d0 7d fd 98 bd e5 ee 05 be 6d 1b 21 3e 83 43 88 3e
       -0.07470224 -0.13079412 0.15733118 0.26614007
0003e0 a7 1b bf 3d 8d 08 3a be c5 1e a7 3d 0f 78 1d 3e
       0.09331446 -0.18167324 0.08160166 0.1537783
0003f0 74 38 c1 3d b2 0f 3f 3e 38 43 a1 be 41 e1 b7 3e
       0.09434596 0.18658331 -0.31496596 0.35914043

bias f4 [16]
000000 be 13 f8 3c 3f 7d a8 3e 5e f1 69 be 90 5f 2e 3e
       0.030282851 0.32908055 -0.2284598 0.17028642
000010 cf 6f 11 be d8 37 93 bc 62 8a 93 bd 69 10 88 3e
       -0.14202808 -0.017970964 -0.07204129 0.2657502
000020 00 ea 57 be 2d 47 0e 3e 7f c5 c3 3d 07 07 48 bd
       -0.21085358 0.13894339 0.09559154 -0.048834827
000030 34 07 73 3e 16 a9 0e 3e 1c 33 aa bc 2e 3d 5d 3e
       0.23733217 0.13931689 -0.020776324 0.2160537

weight f4 [32, 16]
000000 08 11 55 3c fd 50 36 be 6e 2c 01 3e 44 68 72 3e
       0.013004549 -0.17804332 0.12614605 0.23672587
000010 6a 26 41 3e 63 10 e8 bd f9 c9 74 3d 74 44 b1 bd
       0.1886231 -0.113312505 0.05976293 -0.086556345
000020 ee b7 33 be a9 75 89 3e 28 ab a2 bd dc 41 df b8
       -0.17550632 0.2684758 -0.07942802 -0.00010645736
000030 c3 33 18 3e 75 b2 48 3e 13 0e 5d 3e f5 f8 88 3e
       0.14863496 0.19599326 0.215874 0.2675244
000040 94 82 5a 3e 2d 79 7a 3e 38 61 4b bd f4 38 3d 3e
       0.21338874 0.24460287 -0.049653262 0.18478757
000050 e1 b0 45 3e e1 0e 90 3e 56 9c b5 bc 69 8c 60 3e
       0.19305755 0.28136352 -0.022169273 0.21928562
000060 e2 ba 27 3e fe 59 49 3e f2 0e 1c 3e f5 b3 ed 3d
       0.16379884 0.19663236 0.15240076 0.1160659
000070 d2 90 ba 3d 93 09 18 3d e8 4a 30 bb 05 3d 3d 3e
       0.091096535 0.037118506 -0.0026900116 0.18480308
000080 77 c3 a3 3e 86 e0 13 be 7c 88 c9 bd 5b 7f b0 3b
       0.31985065 -0.14441118 -0.098404855 0.0053862757
000090 3d 64 a6 bd 4a 06 3e 3e 36 05 4e 3e 83 a4 7e 3e
       -0.08124588 0.18557087 0.20119175 0.24867444
0000a0 64 17 db bd dc 4e 48 3e a0 75 8b 3e 25 60 08 bc
       -0.10697821 0.19561332 0.27238178 -0.008323704
0000b0 ca 69 fb 3d 45 43 8e 3e 93 b9 8c 3e 0d 0c 9f 3e
       0.12276037 0.27785698 0.27485332 0.31063882
0000c0 bc 92 25 3e 23 cc 8d 3e 88 18 85 bd d9 81 27 3d
       0.16169256 0.27694806 -0.064988196 0.040895317
0000d0 e2 79 e0 bd 3f 75 bd 3e 13 54 14 3e c9 a2 0f bd
       -0.10960747 0.37003514 0.14485197 -0.035067353
0000e0 d2 12 f3 3d 94 6a b4 3e ca 19 9b 3e f6 24 88 3e
       0.11868824 0.35237563 0.30293113 0.265907
0000f0 69 a2 9a 3e 4d ab b3 3c 43 78 b3 3e 5c bd a5 3e
       0.30202034 0.021932269 0.3505269 0.32371032
000100 b8 c7 dc bd f0 f4 be bc 0a 7a 43 3e ad 9f dc bd
       -0.10780281 -0.023310155 0.19089523 -0.10772643
000110 64 ce 26 3e b5 00 de 3e 2d 22 19 be 3c 67 37 3e
       0.1628967 0.43359914 -0.14954443 0.17910475
000120 30 6b 2b 3d 7d 51 38 3d 3e d0 3f 3e de 8d 37 bd
       0.04185027 0.04499959 0.18731782 -0.04481303
000130 e6 a8 5d 3e a0 0d 50 bc 4f 9b 38 3e 3b 81 80 3e
       0.21646461 -0.012698561 0.18027996 0.25098595
000140 2e bd de bd 49 f8 27 3e 5c 69 68 3e 71 dd 65 be
       -0.10875927 0.16403307 0.22696441 -0.22447754
000150 12 a1 15 3d 4c bb 04 3e 30 ce 73 be a6 23 0c 3e
       0.03653056 0.12962073 -0.23809123 0.13685474
000160 92 4e 57 be 48 de 7d be 64 b3 05 be fc d0 96 3d
       -0.21026066 -0.24791825 -0.13056713 0.07364079
000170 a6 fb cb bd c0 2d 68 3d f9 28 40 be ec 7d a5 3d
       -0.099601075 0.056684256 -0.1876563 0.08080658
000180 ef 43 c4 3e c2 91 da 3d 40 bc 40 be ac 1a 52 3e
       0.3833308 0.10672332 -0.18821812 0.20517987
000190 14 8a 13 3e 6e 80 90 3d 27 ef e6 bd e3 16 09 3e
       0.14408141 0.07055746 -0.112760834 0.13387637
0001a0 24 54 f1 3d b7 fe b7 3d 6e 93 19 be ec 3c 9d 3e
       0.11783627 0.0898413 -0.14997646 0.30710542
0001b0 b6 e2 36 be 06 0e a1 3e 2a 71 97 3d b1 a2 69 3d
       -0.17859921 0.31456012 0.07394631 0.05703992
0001c0 49 79 15 3e b4 1c 37 3e f0 41 f8 3c da 2c 41 be
       0.14597048 0.17882043 0.030304879 -0.18864766
0001d0 f1 42 46 be c6 b6 4f be 24 02 79 be e9 20 ed 3d
       -0.19361474 -0.20284566 -0.24317223 0.11578543
0001e0 a8 8f f6 bd 34 c7 aa 3d ee 1d a0 bc 23 42 24 be
       -0.12039119 0.08338776 -0.019545522 -0.16040854
0001f0 14 05 c5 bc 5d 40 24 3e 00 b3 57 be fd 22 46 be
       -0.024050273 0.16040178 -0.21064377 -0.19349284
000200 b0 86 79 bd b0 fd 37 3d ac 05 a2 3d 1c a6 49 be
       -0.060919464 0.04491967 0.07911238 -0.19692272
000210 ac cf 45 be 02 85 7e 3e 94 19 a0 bd f8 94 39 be
       -0.19317502 0.24855426 -0.07817379 -0.18123233
000220 70 30 ff 3c f4 cd db bd 78 bc 8b 3d 3c b1 a1 3d
       0.031151026 -0.10732642 0.06823057 0.07895133
000230 b0 ab 8e 3d e6 b5 63 be 56 4e 63 be 34 1a d9 bd
       0.069663405 -0.22237357 -0.22197852 -0.10600701
000240 ca ad 73 3e fc a2 95 be 00 b5 df 3d a5 86 0a 3e
       0.23796764 -0.2922591 0.10923195 0.13527925
000250 de 6b 55 3e 35 da ca 3d 38 6c ce 3d ac da 7a be
       0.2084193 0.09904901 0.10079235 -0.24497479
000260 19 11 c9 bb 60 e0 1d 3e 04 a9 9c 3d 79 10 84 3d
       -0.0061360714 0.15417624 0.07649425 0.064484544
000270 b2 a8 fe bd 05 c3 19 3e fa b2 03 3e fe 64 de bd
       -0.1243452 0.150158 0.12861243 -0.108591065
000280 20 f3 49 bc bc 02 ef bd 60 50 08 3e bc 05 c3 3d
       -0.012326032 -0.116704434 0.1331191 0.09522578
000290 c2 2e 37 be d4 b9 3f 3e 50 6b 3b bd 10 09 23 bd
       -0.1788893 0.18723232 -0.045756638 -0.039803565
0002a0 20 ee 5a 3d f8 d2 29 be 80 17 05 bb 3e 21 56 be
       0.05344975 -0.16584384 -0.0020308197 -0.20911118
0002b0 98 ab 29 bd 5e 67 6e 3e be c5 3d be 68 69 95 3d
       -0.04142341 0.23281619 -0.18532464 0.07295495
0002c0 89 a0 ae 3e 61 94 95 3e e8 39 74 3d 7c e1 7e bd
       0.34106854 0.29214767 0.059625536 -0.062226757
0002d0 67 e1 df bb 2d 01 52 3d 8d e3 26 3e 8c d9 7f 3e
       -0.00683229 0.051270653 0.16297741 0.24985331
0002e0 81 bb 11 3e 05 e3 a8 3e 4f 1a a5 3e 87 78 85 3e
       0.14231683 0.32985702 0.32246634 0.26068518
0002f0 e9 a8 24 3e 8d d0 f3 3d 9c 50 8e 3e 9e 49 0b 3e
       0.16080059 0.11905012 0.27795875 0.13602301
000300 f8 ec 20 3d 6b 24 3b 3e 4a a9 6a be 3b d9 21 3e
       0.03928849 0.18275611 -0.22916141 0.15805523
000310 5b 26 53 be e5 ea df 3e 83 e4 32 be 4f 0d 6d 3d
       -0.206201 0.43733898 -0.17469983 0.05787402
000320 60 c8 9d bc ed 39 c9 3e a5 85 f9 3d ff ae 4e 3e
       -0.019260585 0.39302006 0.12183694 0.20183943
000330 b0 c0 a9 bd 3b 94 fa bc f6 95 5b 3c 0c 8f 06 3e
       -0.08288705 -0.03058826 0.013402453 0.13140506
000340 db 83 fa bd 64 65 90 bb 30 ca b7 3d 04 4b 39 be
       -0.12232181 -0.004406618 0.08974111 -0.18095022
000350 0d d9 24 3e 61 eb 90 be ab b2 f1 bd e7 b2 de bb
       0.16098423 -0.2830458 -0.11801656 -0.006796229
000360 d8 a2 df bd 0f 4a 02 3e 69 78 90 be 80 ef 34 be
       -0.10919732 0.12723564 -0.28216866 -0.17669487
000370 ae 7d bd be 52 47 a2 be d3 03 fa 3d 05 5a 78 3d
       -0.37009948 -0.31695038 0.12207761 0.060632724
000380 f9 ee 7f 3e 12 92 0b be f8 92 91 3d 72 df 19 bd
       0.24993505 -0.1362994 0.0710811 -0.03756661
000390 c9 f0 33 3e 1e 73 86 3d 1d 62 84 3d 57 c4 4e 3e
       0.17572321 0.065649256 0.06464026 0.20192085
0003a0 f7 b5 0f 3e b9 9b e3 bd e8 4a 69 3e 25 a7 a2 3e
       0.14034258 -0.11113686 0.2278248 0.31768146
0003b0 f2 c4 0c 3e f7 aa c5 3d 66 4a c5 3c e9 cc df 3d
       0.13747004 0.096517496 0.024083328 0.109277554
0003c0 e9 98 ce bd 73 e5 d8 3d f0 66 5d 3d 6d ab 01 be
       -0.10087759 0.10590639 0.054053247 -0.1266305
0003d0 79 e7 8b 3e 19 27 85 bd 71 ba 05 3e e3 5c fa 3b
       0.27325037 -0.06501598 0.13059403 0.0076404675
0003e0 60 df 61 3d 3f a4 f0 3d 14 08 74 bd 29 cf 1d 3e
       0.055144668 0.117500775 -0.059578016 0.15411057
0003f0 22 bb 63 3e 96 dd 8f 3e 0b 85 ca bd 3f 5c 93 3e
       0.22239354 0.28098744 -0.09888657 0.28781316

bias f4 [32]
000000 b9 9f 8c 3e ff b6 c1 3e 16 6f af 3b 28 4f 7f 3e
       0.2746561 0.37834927 0.0053538186 0.2493254
000010 e1 e4 47 3e ee c9 84 be 5a 44 01 3d 02 b4 fd 3d
       0.19520904 -0.2593531 0.031559326 0.123878494
000020 d8 f9 29 3d 61 2b 1e be c0 28 b1 bc bd d5 a9 3d
       0.041498035 -0.15446235 -0.021625876 0.082927205
000030 6b 63 8f 3e 5e b6 48 3d 61 f9 a1 3e 7f fb 35 3e
       0.28005537 0.049002044 0.31635574 0.1777172
000040 58 37 3f 39 c7 f4 87 3e 60 b2 3a 3d 4d e1 f6 3c
       0.00018235797 0.26553938 0.045580268 0.030136729
000050 6e 0e 8a 3e 04 af d8 bd a8 3e ef bd 72 4c 3f 3d
       0.26964134 -0.105802566 -0.116818726 0.046703763
000060 7c 1a dd 3d 2c 1f 86 3e 2b e8 96 3e c2 b2 dd 3c
       0.10796067 0.26195657 0.29474005 0.027062777
000070 97 1f 03 3e b4 30 91 3d 54 32 94 3e 3d 12 25 3e
       0.1280502 0.070893675 0.28944647 0.16120239

weight f4 [64, 32]
000000 bf 0c 4a 3d 32 86 ba bd b0 41 b0 3d c4 c4 b4 bd
       0.049328562 -0.09107627 0.08606279 -0.088265926
000010 0f 08 4f be 46 71 1a 3e 9b 59 02 be cc be 09 be
       -0.20217918 0.15082273 -0.12729494 -0.1345169
000020 21 c0 ef 3d 56 24 4d be 4e d2 bc bd 3c 30 3c 3d
       0.117065676 -0.20033392 -0.092198 0.045944437
000030 69 90 75 bd 63 3a 5a 3d fb c1 2c 3d 06 0a 9f bb
       -0.059952173 0.05327834 0.04217718 -0.00485349
000040 e5 02 0a 3e 24 53 47 be 65 bc 9f bd af 23 24 bd
       0.13477667 -0.1946531 -0.07799605 -0.040073093
000050 57 ac f5 3d 35 5a 6a bd 1f 24 9f 3d 4e d4 69 3c
       0.11995762 -0.057214934 0.077705614 0.014271809
000060 15 56 55 be 7e be 5b 3d 13 d2 d6 bd 78 22 d8 bd
       -0.20833619 0.053648464 -0.10489287 -0.105534494
000070 02 64 70 bd 74 d6 d1 bb 9c 77 7a bc 74 ce ae bd
       -0.058689125 -0.0064037386 -0.015287306 -0.085354716
000080 e5 47 57 be c7 cd 94 3c 2d 41 3d be f0 42 37 3d
       -0.2102352 0.018164529 -0.18481894 0.04474157
000090 1c bb 71 be 9c 65 a5 bc 0a 57 78 3c 8d 1d 1a 3e
       -0.23606533 -0.020190053 0.0151574705 0.15050335
0000a0 04 f1 1f bd ec b3 c6 bd b2 ec 08 be 10 fd cc 3d
       -0.03904821 -0.09702286 -0.13371542 0.10009205
0000b0 85 50 00 be c1 63 38 be ad f2 1b be ee ec 64 bd
       -0.12530716 -0.18006803 -0.15229292 -0.055890016
0000c0 3c fa 7f 3d 27 8c f5 bd 83 60 80 3d 56 66 9a bd
       0.0624945 -0.119896226 0.06268408 -0.0753905
0000d0 9b b3 52 3e 06 8e 34 be 9e 6f 12 bb ed a3 4d 3d
       0.20576327 -0.17632303 -0.002234436 0.05020516
0000e0 d3 6c d9 bd 3d 1b eb bd 8d 9a 3f 3d a1 d7 ec bd
       -0.1061646 -0.11479805 0.04677825 -0.115645654
0000f0 bd 37 55 be dd 17 09 be b7 ff eb bd d6 ec 86 bd
       -0.20822044 -0.1338801 -0.11523383 -0.065881416
000100 ce 46 34 be 63 e7 28 3e f4 7d 0d be 12 8a 2c be
       -0.17605135 0.16494517 -0.13817579 -0.16849545
000110 c0 3c 4d 3d 44 5a d7 3d 2e 49 5c ba 55 1f 23 3e
       0.050106764 0.10515264 -0.00084032386 0.15929921
000120 cf f1 1d be e5 b2 6c bd b6 1b 63 bd 95 d9 54 bd
       -0.15424274 -0.057787795 -0.05544635 -0.051965315
000130 2f 04 1a 3e 0f 40 35 3d 70 7f 97 3d cb 0b 07 3e
       0.15040658 0.044250544 0.07397354 0.13188092
000140 8f c3 13 3d 37 8d 29 3e 1f e4 11 3e 5e e7 a6 bc
       0.03607517 0.16557775 0.14247178 -0.020373996
000150 a4 58 d9 bc b3 68 00 be e0 f8 0c bc 90 7c 26 be
       -0.026531525 -0.1253994 -0.008604258 -0.16258454
000160 ca 0d 0d be 02 46 b6 bd d1 a4 10 bd f2 5a cf 3d
       -0.13774791 -0.08900072 -0.03531343 0.10124768
000170 95 7b 07 be 37 99 90 bd 82 a5 24 bd 7a ee 8a 3d
       -0.13230737 -0.070604734 -0.040196903 0.06783767
000180 61 b7 18 be fd 67 c8 3d d0 2a 3c be 51 de 56 be
       -0.14913704 0.09785459 -0.18375707 -0.20983244
000190 55 35 7a bd 4c 71 f7 3d f6 0c 98 bc ed fa 57 be
       -0.061086018 0.120821565 -0.018560868 -0.21091814
0001a0 a7 39 28 3e 0b ba 92 bc 9d e6 6a bd f5 7f c5 3d
       0.16428243 -0.017910978 -0.057348836 0.096435465
0001b0 7a 09 90 3d 58 9a 6a 3d d4 df e4 bd d8 39 a5 bd
       0.070330575 0.0572761 -0.11175504 -0.080676734
0001c0 16 c0 dd bd 88 f9 06 be 21 26 e5 3d f8 74 21 be
       -0.10827653 -0.13181126 0.11188913 -0.15767276
0001d0 c3 2d 18 bd f4 fd d8 3c 41 bc 4b be 57 4a e6 3d
       -0.037153017 0.026488282 -0.19896032 0.11244648
0001e0 35 9b 8c 3d 53 7f 81 3d 6d 15 2b 3d e6 07 f2 3c
       0.06865541 0.06323113 0.04176848 0.029544782
0001f0 e1 82 b5 3d db 45 9b bc 39 4c dd bd 21 28 08 bd
       0.08862854 -0.018954208 -0.10805554 -0.033241395
000200 ca fc be 3d 2c 10 b1 3e 61 ee 58 3e 94 89 7b 3e
       0.093255594 0.3458265 0.21184684 0.245642
000210 34 9d a2 3e 4f b5 1c bc 47 4f 62 3d 4d 86 82 3d
       0.3176056 -0.009564712 0.055251386 0.06373272
000220 7b 19 ce 3d 14 5d 65 be 7e 07 0f bd b5 53 6d 3d
       0.10063454 -0.22398788 -0.034919254 0.057941157
000230 08 f6 57 b9 2c 23 dc 3c f8 18 02 3e 60 c1 7d 3e
       -0.00020595652 0.02687224 0.12704837 0.24780798
000240 04 c4 dd 3a b0 0f cd 3c bb 3d 12 be 39 c4 d9 3d
       0.0016919379 0.025031894 -0.14281361 0.106331296
000250 79 e1 7f 3e d6 25 dc 3d 7a 57 55 bd 7d 21 b5 bc
       0.24988355 0.10749404 -0.052085377 -0.022110695
000260 a7 7b 48 3e 9e 57 61 3e 3c dc 93 3d 78 7d bd 3d
       0.1957842 0.2200608 0.07219741 0.09252447
000270 25 d1 07 3e 05 5e 0d 3e 40 b4 ab 3e 1a 8d c1 3d
       0.13263376 0.13805397 0.33535957 0.09450741
000280 0d b3 1f 3e dc c6 55 3e 27 8e 08 bc 2a 6f 9b 3e
       0.15595646 0.2087664 -0.008334673 0.3035825
000290 a4 16 a7 bc 3e ea 61 3d 0a 2c 1e 3e 85 7e 4f 3e
       -0.020396538 0.05515503 0.15446487 0.20263107
0002a0 63 a0 16 3e 57 05 73 3e bd 5e b1 bd 28 16 51 3e
       0.1470962 0.23732506 -0.08660648 0.20418608
0002b0 0d 36 11 3c d8 37 c5 3a b9 44 9b 3e ee 88 46 3d
       0.008862984 0.001504655 0.3032587 0.04847043
0002c0 cc 84 5c 3e 93 87 6b 3e f0 26 da 3d 73 9e 34 3e
       0.21535033 0.23000936 0.10651958 0.17638569
0002d0 00 27 9e 3e c2 8a 2f 3c 36 7c ba 3d a0 38 c2 3c
       0.3088913 0.010714235 0.091057226 0.023708642
0002e0 23 43 e3 3d 29 50 91 3e dc 6b c9 bd 91 5a c7 3c
       0.1109679 0.2838147 -0.09835026 0.024335178
0002f0 f7 48 35 3e f7 a8 d1 bd 47 76 8d bd 99 3e e6 3b
       0.17703615 -0.102373056 -0.06907325 0.007026505
000300 b5 5d 37 3e e3 10 a4 3e 87 e3 a1 3e 39 8f a7 3e
       0.1790684 0.32044134 0.31618902 0.32726458
000310 08 df 11 3e 28 a3 67 bd ba d2 b7 3a 9f 81 16 3e
       0.14245236 -0.056552082 0.0014024593 0.14697884
000320 3b 66 5d 3d 6e 72 0a 3e 82 cb ae bd d2 bc 66 3e
       0.054052573 0.13520214 -0.0853491 0.22532967
000330 6a 06 b7 3e 7a 9b df 3d ac 4e 52 3e cf 15 63 bd
       0.3574708 0.10918327 0.20537823 -0.05544072
000340 c9 f4 78 3e 18 4d 65 3e 76 9b 9c 3d 87 3a 69 3d
       0.24312128 0.2239269 0.07646839 0.05694058
000350 5e f2 83 3e 9b 2e 06 bd 7c 1f 99 3b 01 fc 9a 3e
       0.2577085 -0.03275929 0.0046729427 0.3027039
000360 c6 fe 02 3e f5 b3 9e 3e e6 e4 e9 3c ae 5a ab 3d
       0.12792501 0.3099667 0.02855153 0.08366905
000370 49 35 a8 3d 0f 84 c7 bd 9a 2d 4b 3d 17 4d 22 3e
       0.08213288 -0.09741985 0.049604036 0.1584972
000380 af b8 3d 3e 57 a2 12 be 52 c4 1b 3e 82 75 85 3d
       0.18527482 -0.1431974 0.15211609 0.065165535
000390 93 61 e8 bd ce c4 13 be 85 f1 06 3e 47 60 ae 3d
       -0.11346736 -0.14430544 0.1317807 0.08514457
0003a0 df 3a 8e 3c 68 54 9e bc c8 e3 f5 3d 8e 15 27 3e
       0.017362056 -0.019327357 0.120063365 0.16316816
0003b0 6d c2 9f bd 62 68 80 be 55 b8 9b bd 34 05 f4 3d
       -0.07800756 -0.25079638 -0.07603518 0.11915055
0003c0 94 6d a7 bb 1e 4a 1d bd 01 c6 32 be 6b f5 8d 3d
       -0.0051094983 -0.03840076 -0.17458345 0.069315754
0003d0 6e 03 19 3e 85 20 34 3e 1b 6d 3f bb e1 27 e7 3d
       0.14942715 0.1759053 -0.002920932 0.11286903
0003e0 5e c7 5c bd 9b 86 38 3e a5 8e 5a bd 5c 6c 39 bd
       -0.05390107 0.18020098 -0.053358693 -0.045269355
0003f0 c6 b8 36 3e 97 6d dd 3d 5b 9d 98 be 65 f5 60 be
       0.17843923 0.10811918 -0.29807553 -0.2196861

bias f4 [64]
000000 08 da af bd a7 4c 9e bd 6d a1 19 3e ba a4 2a be
       -0.08586508 -0.07729464 0.15002985 -0.166644
000010 4b 50 18 3e 6f bb a3 3e 22 13 bd 3d 74 a6 2a 3e
       0.1487438 0.31978938 0.09232165 0.1666506
000020 df b2 5c bd cf c5 90 3e a3 70 7b 3c 29 2b 04 3e
       -0.053881522 0.28275916 0.015346679 0.1290709
000030 0b aa f3 3d 4b 2b 7b 3e a2 be 53 bd 7d 04 48 bd
       0.118976675 0.24528234 -0.051695473 -0.048832405
000040 5f e9 4a 3e 36 79 02 be d2 bd d5 bc 3a be 33 3c
       0.19815587 -0.12741551 -0.02609149 0.0109706465
000050 4e 22 6c 3e a7 d8 4e 3e 9a dc 7f bd fd 22 69 3d
       0.23059961 0.20199834 -0.06246624 0.056918133
000060 cf b5 bb bd df 07 86 3c 67 5b 85 3d 52 89 a9 3d
       -0.091655366 0.016361175 0.06511574 0.08278145
000070 d0 79 97 3d e3 77 1a 3b 2c 47 ce bd d5 04 59 bc
       0.07396281 0.0023569993 -0.10072169 -0.013245781
000080 55 13 ce bc 93 aa e4 bd d6 4b 17 be f6 e7 1e be
       -0.025155703 -0.11165347 -0.14775023 -0.15518174
000090 a8 81 24 3e d1 f4 35 3d 5f 72 3b be 04 11 09 3d
       0.16065085 0.04442293 -0.18305348 0.033463493
0000a0 d3 2a 73 be c0 fc cf 3c 6c b4 5c bc c6 9b f2 3d
       -0.23746805 0.025389075 -0.01347075 0.11846118
0000b0 9d 89 95 bd 47 ff 57 be 9c fc 76 3e db 39 fe 3d
       -0.07301638 -0.21093474 0.241198 0.12413379
0000c0 10 c5 93 3e 6c 7b 9e ba b3 e1 4d be fa 67 7c 3e
       0.28861284 -0.0012091226 -0.20105629 0.24649039
0000d0 a8 76 7f 3e 7f 07 22 3e 27 46 e7 bb 68 86 ca 3d
       0.24947608 0.15823172 -0.0070579234 0.09888917
0000e0 c1 b9 12 be 01 6e b5 3d 6e 53 4f 3e a8 e7 2a 3e
       -0.14328672 0.08858872 0.2024667 0.16689932
0000f0 29 eb 95 bd 58 a9 99 bd 4f 95 3a be d4 6d 02 3e
       -0.07320244 -0.07503003 -0.18221019 0.12737209

weight f4 [4, 64]
000000 00 af 47 bd d6 77 0c be 0a 03 f3 bd e1 39 97 3d
       -0.048750877 -0.13717589 -0.11865814 0.073840864
000010 74 da 8d bd 76 6c 33 be d5 c7 5a be 23 ff 83 be
       -0.06926432 -0.17521843 -0.21365292 -0.2578059
000020 4c 80 d1 bd 72 97 31 be d4 a6 1f bd 01 67 8b be
       -0.10229549 -0.17342928 -0.03897746 -0.27227023
000030 80 63 b1 bd 43 4c 21 be bf 6f 15 be 0c 7a 6c 3d
       -0.08661556 -0.15751748 -0.14593409 0.05773358
000040 c6 20 5d be 1c 9a 2c bd de 1d c4 bd 38 f3 c0 bc
       -0.21594533 -0.042139158 -0.09576009 -0.023553476
000050 fa 9a 16 be 58 4c 06 be 8e 75 36 bd 6c bb b9 3d
       -0.14707556 -0.1311506 -0.044545703 0.09068951
000060 25 7c f1 bd 96 ff a4 3d 6d 39 81 bc d8 78 45 be
       -0.11791257 0.08056562 -0.015774453 -0.1928438
000070 e4 da af 3d 4c 00 06 bd 43 34 8c bc 65 5d 83 be
       0.08586672 -0.032715127 -0.017114764 -0.25657192
000080 40 08 cf bc b8 35 89 3d a0 21 f4 bc 1b b4 9d 3c
       -0.025272489 0.06699699 -0.02980119 0.01925092
000090 4e 6a 69 be 52 df 3c be c0 35 07 bc 3d 34 7c 3d
       -0.22794458 -0.18444565 -0.008252561 0.061573256
0000a0 57 24 ab bc d9 ca 46 3d 9d 0e 20 3d ee 0b dc 3d
       -0.020891352 0.048533294 0.039076436 0.10744463
0000b0 44 a9 39 3d ee d9 1c 3d 54 9e 94 be d2 c9 85 3d
       0.04532744 0.03829377 -0.29027045 0.06532635
0000c0 d6 77 89 be 17 a6 03 be 90 00 aa 3d 1b f5 d5 bd
       -0.2684924 -0.12856327 0.083008885 -0.10447141
0000d0 a8 27 b7 bd 60 d1 3c bc 52 ed ba 3d 95 ce b1 3d
       -0.08943111 -0.011524528 0.091272965 0.086819805
0000e0 b1 ba 33 3d e8 d3 27 3c d6 c6 6c be 68 a8 ff bd
       0.043879215 0.0102433935 -0.23122725 -0.12483293
0000f0 1a a9 9b 3d 79 1e 10 3c d3 16 ec 3c 15 db 0d be
       0.07600613 0.008796328 0.028819477 -0.13853104
000100 b8 d5 0e bc 89 ac 98 bb 3a 5d ea bd a4 d7 3d bc
       -0.008717947 -0.0046592397 -0.11443563 -0.011587057
000110 c7 db 0a be 9d bd 7e be fe 0c 5f bd 48 1c c1 bd
       -0.13560401 -0.24877019 -0.05445575 -0.09429222
000120 20 9d f8 3d 85 be 52 bd 6c a6 79 bd 2a 1c e8 bd
       0.12139344 -0.051451225 -0.060949728 -0.11333497
000130 4f 8f 71 bd 5b b2 f2 bd e7 92 41 be ba 17 a5 bb
       -0.05897456 -0.11850425 -0.18903695 -0.005038229
000140 af 7d 16 be 16 ee 9d 3d a0 da 72 bd 3a 78 c6 3d
       -0.14696382 0.07711427 -0.05929053 0.096909
000150 a6 f6 3b be 56 bf 5a be f6 96 bd bd d9 8b 25 be
       -0.18355808 -0.21362051 -0.09257309 -0.16166629
000160 02 f5 9b bd c0 82 9a 3b 86 de 7d bd 29 fc 2b be
       -0.07615091 0.0047152936 -0.061979793 -0.1679541
000170 22 c9 96 bd 78 88 b3 3d 26 97 13 bc de 75 4c be
       -0.07362582 0.08766264 -0.009008205 -0.19966838
000180 e0 e4 6b 3c a8 31 aa bd 40 5e 11 3c 36 f7 49 be
       0.01439783 -0.083102524 0.008872569 -0.1972321
000190 f4 35 8e bd d3 7b 59 be a6 52 92 3d 8d 83 01 be
       -0.069438845 -0.21238641 0.0714467 -0.12647839
0001a0 b8 9b 69 3c 6c 5f 55 bd b1 a6 0d be 10 5e 43 3c
       0.014258318 -0.052092955 -0.13833119 0.011924282
0001b0 44 e1 fa 3d c1 6c 11 3d 81 2b 44 bd 4f 2e 36 3c
       0.12249997 0.035504106 -0.04789305 0.011119439
0001c0 13 b3 3c be 71 29 4f be f1 d3 a6 3d 30 f1 37 be
       -0.18427686 -0.20230652 0.08145893 -0.179631
0001d0 81 46 12 be 5c 2f 54 3d 5d 43 11 3d a8 9b 1d be
       -0.14284708 0.051802978 0.035464633 -0.1539141
0001e0 0c b9 9d bb 12 ac 2a bd cd 40 10 be 94 9a b4 bd
       -0.004813319 -0.041668005 -0.1408722 -0.08818546
0001f0 f8 57 76 3d 59 92 23 3e 18 93 af bd e1 67 3b be
       0.060142487 0.15973796 -0.08572978 -0.18301345
000200 dd 83 ee bd eb 93 33 bc 2e 23 d7 bd 65 76 35 bb
       -0.11646245 -0.010960559 -0.10504757 -0.0027688977
000210 b0 9a 5b be ca 1f 9c 3d 9d 8e cb bd 8a f8 40 3d
       -0.21445727 0.07623251 -0.09939311 0.047112025
000220 74 56 89 bc 7a 92 bd bd 18 e6 20 3d fb ca 84 3c
       -0.016764857 -0.09256454 0.039281934 0.01621007
000230 b0 ca 37 3d b9 23 26 3d 10 fb b1 3d fc c3 96 bd
       0.044871032 0.04056141 0.086904645 -0.073616
000240 ea ea 90 3d ae 5f 94 bd e6 14 cb bd c8 1a bd 3c
       0.07076056 -0.07244812 -0.099160954 0.02308406
000250 c8 28 45 3d 57 be 60 3d 55 4d d3 3d f1 45 fc 3b
       0.048134595 0.054869022 0.10317484 0.0076987674
000260 72 c8 14 3d 92 e3 e6 bd 95 af 29 3d 17 11 19 be
       0.036323972 -0.11273874 0.041427214 -0.14947926
000270 30 00 69 3c ac 3d f0 bd fd 16 1c bd d4 91 ff bd
       0.014221236 -0.11730513 -0.03810786 -0.124789864
000280 00 a6 87 bd dc f5 f3 bd 54 00 ae bd 5f 85 96 3d
       -0.06623459 -0.11912128 -0.08496156 0.07349657
000290 6f a1 10 be 80 cb 08 be f5 15 23 3d fa 30 e0 bb
       -0.14124082 -0.13358879 0.03981586 -0.006841776
0002a0 6b 61 92 bc e9 e2 86 3b b9 f1 27 3d 20 3b 93 3c
       -0.017868718 0.0041164053 0.04100201 0.017972529
0002b0 50 7c 70 3c 0b f1 4b bd 10 a7 2f be 34 7b 95 3d
       0.014678076 -0.049790423 -0.17153573 0.0729889
0002c0 93 a0 dc 3c ad 30 4d be 1e 4f 98 bd 83 b5 f4 bc
       0.026932037 -0.200381 -0.074369654 -0.029871708
0002d0 c6 d5 3e be f0 a1 aa bd 5b 13 0c be 07 66 ce bd
       -0.18636236 -0.083316684 -0.13679259 -0.10078054
0002e0 7b ce a8 bd 80 89 e5 3c 4e b5 52 3d 09 0b 21 be
       -0.08242508 0.028019667 0.051442437 -0.15726866
0002f0 36 2c c9 bd 3c 84 88 3b 56 9e f2 3c e8 f7 23 be
       -0.09822886 0.004166154 0.029616516 -0.16012537
000300 f9 0b 06 3c 48 5d 65 3d 00 c8 8d b8 39 eb 3b 3c
       0.008181565 0.055997163 -6.760657e-05 0.011469656
000310 f7 2d b3 3b 98 45 c5 ba c9 7d 95 bd cd ed 6c 3d
       0.005468126 -0.0015050648 -0.07299382 0.057843972
000320 e0 bf 0f 3c 5a 27 9a bd 76 10 8a bd cf 25 6c 3d
       0.008773774 -0.07527037 -0.06741421 0.057653245
000330 1e 53 06 bc ba 80 cf bd 49 ed 03 3e 4b 1b b8 bb
       -0.008198528 -0.101319745 0.12883486 -0.005618488
000340 8c 2d 07 be d0 77 33 3d 82 2f 85 3b 5f 85 ff bd
       -0.13200969 0.043815434 0.0040645013 -0.124766104
000350 6e a5 aa bd 96 e2 b2 bd d4 f4 ac 3d 48 97 f1 bc
       -0.083323345 -0.08734624 0.08445135 -0.029491082
000360 ef 4b 05 3d b8 12 e6 3c af 16 0b 3d 8b fc e7 3d
       0.03254312 0.028085098 0.03395718 0.113274656
000370 cc 73 c8 bd d6 5e 9d bd bb d6 a4 bd a3 5e ea 3d
       -0.097877115 -0.07684104 -0.08048769 0.11443832
000380 e5 c1 8d 3b 80 b8 72 bc 68 5b bd 3c 4f cb 4a bc
       0.0043260925 -0.014814496 0.023114875 -0.012377574
000390 23 d5 06 bc de d9 14 3d a2 ce 8d bd 1a cf 32 bb
       -0.008229527 0.036340587 -0.06924178 -0.0027284087
0003a0 f7 03 cb 3b 28 b7 44 3d 05 97 44 bd a0 82 db bb
       0.006195541 0.048026234 -0.047995586 -0.0066989213
0003b0 10 44 ed bd 0e e5 fc 3a 04 80 22 3d c4 51 ee 3d
       -0.115852475 0.0019294338 0.039672866 0.11636689
0003c0 fc 68 93 bd fc 1c e1 3d cf e3 8c bd e3 0c c7 bd
       -0.071977586 0.109918565 -0.068793885 -0.09719255
0003d0 41 a0 3f bd fc f6 8d 3d 76 1d 4c 3c e4 fe 6e 3d
       -0.04678369 0.06931874 0.012458196 0.05834855
0003e0 00 fe 41 bd 03 c0 5d 3d e7 59 dd bd 05 35 0c be
       -0.047361374 0.054138195 -0.10808163 -0.136921
0003f0 60 77 f4 bb 22 df 20 3e 9d 0b 05 be c3 f7 cd bd
       -0.0074605197 0.15710118 -0.12992711 -0.100570224

bias f4 [4]
000000 92 9f e2 bd ff ce 67 3b 40 4e 95 bd aa 38 ef bb
       -0.11065592 0.0035371182 -0.07290316 -0.007300456
