saves/kevin/kevin_nn_2025-02-22_17-22-53.pt (torch, 17468 bytes, 8 tensors)

weight f4 [16, 16]
0	0xbeafd14f	-0.34339377
1	0xbfcea2fb	-1.6143488
2	0xbf99cbef	-1.201536
3	0xbf133470	-0.5750189
4	0xbee1d5ce	-0.44108433
5	0xbe2afa3c	-0.1669702
6	0xbde52e50	-0.11190474
7	0xbd6ca799	-0.05777702
8	0xbd4b9f8c	-0.049712703
9	0xbed4bcbb	-0.4155024
10	0xbd032c3c	-0.032024607
11	0x3e2585bb	0.16164295
12	0x3e9783fe	0.2959289
13	0xbf2877a9	-0.65807587
14	0x3f344983	0.7042467
15	0xbf4cfb04	-0.8007052
16	0x3b929e78	0.0044744574
17	0xbd0ab980	-0.033868313
18	0xbe6eaaf1	-0.23307396
19	0x3eddf0bf	0.43347737
20	0x3b272808	0.0025506038
21	0xc05bc9ec	-3.4341993
22	0xbc07a1d4	-0.008278329
23	0xbea7b8a9	-0.32758072
24	0x3c0ce06c	0.008598428
25	0xbd6cc114	-0.05780132
26	0xbf1fe93f	-0.6246528
27	0x3ee52102	0.44751745
28	0xbc81a06c	-0.015823565
29	0x3d2f99cd	0.042871285
30	0xbe636a95	-0.22208627
31	0xbe8d75b3	-0.2762886
32	0xbc7b826e	-0.015350921
33	0xc04bae65	-3.1825192
34	0xbf6191de	-0.881132
35	0x3ecf0785	0.40435424
36	0xbcc2e1fd	-0.0237894
37	0xbe02b9f2	-0.12766245
38	0xbfa3cf46	-1.279763
39	0x3de278ea	0.11058219
40	0x3beaf53a	0.0071703466
41	0xbebbe89d	-0.36700907
42	0xbfc1443d	-1.509895
43	0x3f20ce39	0.6281467
44	0xbc3cf99b	-0.01153412
45	0xc0ed0956	-7.4073896
46	0x3f2f6bda	0.68523943
47	0x3ac5778e	0.0015065537
48	0x3ad83796	0.0016496058
49	0x3f635564	0.8880217
50	0xc0787263	-3.8819816
51	0x3f10456d	0.56355935
52	0x3cc3e3dc	0.023912363
53	0x3d563105	0.052292842
54	0x3ecbf153	0.39832553
55	0xbf15e240	-0.58548355
56	0x3c52b6d6	0.012860974
57	0x3ec40523	0.3828517
58	0x3f12f476	0.5740427
59	0x3f0e9809	0.5570074
60	0x3cde2dea	0.027121503
61	0xbd9a8d73	-0.075465105
62	0x40098fd7	2.1494043
63	0xbf1e66a1	-0.6187535
64	0x3aafe228	0.001341884
65	0xc04a51ab	-3.1612346
66	0x3e04639d	0.12928624
67	0xbe99fadf	-0.30074212
68	0xbbf9eb29	-0.00762691
69	0xbd20ce3a	-0.039259173
70	0xbe7d4191	-0.24732043
71	0x3effc6ce	0.49956363
72	0x3cb87c1d	0.02252012
73	0xbe9f23e0	-0.31082058
74	0xbeaeb89e	-0.34125227
75	0xbe754861	-0.23953392
76	0xbbc32249	-0.005955015
77	0xbee9e9c7	-0.4568617
78	0xbfd15b26	-1.6355941
79	0x3f05b8c2	0.52235043
80	0xbe44cbc2	-0.19218352
81	0xbecbf445	-0.398348
82	0xbcb411a1	-0.021981062
83	0xbe093904	-0.13400656
84	0xbd27c8b1	-0.04096288
85	0xbd79613d	-0.06088375
86	0xbea7054b	-0.32621226
87	0xbdddb5b3	-0.10825672
88	0xbcc972e3	-0.024590915
89	0xbea1d45f	-0.3160734
90	0x3b83ff38	0.004028227
91	0xbe2bc407	-0.16773997
92	0x3ca2bcec	0.019865476
93	0xbe056b21	-0.13029148
94	0xbe6fc5c0	-0.2341528
95	0xbd98824c	-0.07446727
96	0xbce321ed	-0.027726138
97	0xbe169ea0	-0.14708948
98	0x3ddf3be0	0.10900092
99	0xbe664ba5	-0.22489794
100	0x3dffe439	0.12494702
101	0xbea5b497	-0.32364342
102	0xbf20ba44	-0.6278422
103	0xbebe2557	-0.37137863
104	0x3e466b3b	0.19376843
105	0xbd855509	-0.0651036
106	0x3cc769ba	0.024342407
107	0xbec11103	-0.3770829
108	0xbec58ab3	-0.38582382
109	0x3cc65a6f	0.024213044
110	0x3b826e51	0.003980436
111	0x3e2284dc	0.15870994
112	0xbc8e8611	-0.017397912
113	0xbfc1e599	-1.5148193
114	0xbe18e9ff	-0.14933012
115	0xbe81e70f	-0.25371596
116	0xbd93c427	-0.072151475
117	0xbde0cf84	-0.109770805
118	0xbf0cf95f	-0.5506801
119	0x3eccf4a4	0.40030396
120	0x3b8387ac	0.004013976
121	0x3f1c2ad1	0.6100283
122	0x3eb4ddad	0.35325375
123	0xbe3b8d29	-0.18315567
124	0xbab840be	-0.0014057381
125	0xbf0aa6d1	-0.5416079
126	0xc03481a4	-2.8204126
127	0x3edd56a6	0.4323017
128	0xbce209f5	-0.027592639
129	0xbdaf050b	-0.08545884
130	0xbf0f3f32	-0.55955803
131	0x3ee5dbdd	0.44894305
132	0x3b5dfe62	0.0033873548
133	0x3f10b2c6	0.56522787
134	0x40245f7c	2.568328
135	0xbeb89d2f	-0.36057422
136	0x3c08007b	0.008300896
137	0xbcc2efe7	-0.023796035
138	0xbfa8c193	-1.3184074
139	0x3eddba84	0.43306363
140	0xbc4244d6	-0.011857232
141	0xbdea9b05	-0.11455349
142	0xbf98a3e8	-1.192502
143	0xbebffa7f	-0.374958
144	0xbcc10db5	-0.023566106
145	0xbe03add3	-0.12859277
146	0x3e478239	0.1948327
147	0x3e0cc503	0.13747029
148	0xbbe195d8	-0.006884318
149	0xbf172732	-0.5904418
150	0xbfa90c5e	-1.3206899
151	0xbd8cd64c	-0.068768114
152	0x3d187ea0	0.037230134
153	0xbce95c18	-0.028486297
154	0xc036ac87	-2.8542802
155	0x3e371e27	0.17882596
156	0xbd467d08	-0.048459083
157	0x3e987bde	0.29782003
158	0x403ed095	2.9814808
159	0xbd2ef1f8	-0.042711228
160	0xbd8a7d28	-0.06762153
161	0xbec33e2e	-0.38133377
162	0xbf6b9db7	-0.9203753
163	0xbe72cedd	-0.23711725
164	0xbd9c616d	-0.0763577
165	0xbd2375ad	-0.039907146
166	0xbe14fbd3	-0.14549188
167	0xbe83d555	-0.25748697
168	0x3e201beb	0.1563565
169	0xbfc0c362	-1.5059626
170	0x3f15eee4	0.58567643
171	0xbef8f73a	-0.4862612
172	0xbdadc330	-0.08484495
173	0xbece76ea	-0.403251
174	0xbf2bdfae	-0.67138183
175	0xbe4422b3	-0.19153862
176	0xbe299cf8	-0.16563785
177	0xc023cc27	-2.5593355
178	0xbf068f26	-0.5256218
179	0xbee02d58	-0.43784595
180	0x3d8c5906	0.068529174
181	0xbd3de033	-0.04635639
182	0xbe8964e3	-0.26834783
183	0x3ef5c15a	0.47999078
184	0xbe08b2c0	-0.13349438
185	0xbff69a91	-1.926592
186	0xbf2721af	-0.6528577
187	0xbec135f4	-0.37736475
188	0xbe47436b	-0.19459312
189	0xbfe923c4	-1.821404
190	0xbe82533a	-0.25454122
191	0xbf87e404	-1.061646
192	0xbd082cb7	-0.03324577
193	0x3f4ff667	0.81235355
194	0xbf7c5324	-0.9856436
195	0x3e9e9546	0.30973262
196	0xbc2b525b	-0.010456647
197	0xbdce2a56	-0.10066669
198	0xc004976c	-2.071742
199	0x3e152bd7	0.14567505
200	0xbcaa13e4	-0.020761438
201	0x3e3a4af7	0.1819266
202	0x3d1e63a6	0.03866925
203	0x3e47514b	0.19464605
204	0xbd37ff0a	-0.04492096
205	0xbe38aa4d	-0.18033715
206	0xbff667a0	-1.9250374
207	0x3e055f79	0.13024701
208	0xbd0992d2	-0.033587284
209	0x3fbdc121	1.4824563
210	0x3f6e27fc	0.9302976
211	0xbd917603	-0.07102587
212	0xbdc9991d	-0.09843657
213	0xbe651622	-0.22371724
214	0xbf20d501	-0.6282502
215	0x3df92603	0.12165453
216	0x3c369cea	0.01114581
217	0xbe0e5602	-0.13899997
218	0xbe95c8e2	-0.29254824
219	0xbe812bed	-0.25228825
220	0xbdc568a1	-0.09639097
221	0xbec11aee	-0.37715858
222	0xc019abcf	-2.4011114
223	0x3e69f64a	0.22847858
224	0xbe8f4225	-0.27980152
225	0xbd361c05	-0.044460315
226	0x3dc92826	0.09822111
227	0xbd029d27	-0.031888153
228	0xbe173ea6	-0.14769992
229	0xbe953a9d	-0.2914628
230	0xbe4d4bf9	-0.20048513
231	0xbe1bc143	-0.15210442
232	0xbe93d3bf	-0.28872487
233	0x3d669ab6	0.056299888
234	0xbe86f28f	-0.26356933
235	0x3e00a19e	0.12561652
236	0x3d4b8e52	0.049696274
237	0xbda36ff5	-0.079803385
238	0x3ce361c0	0.027756572
239	0xbe54767b	-0.20748322
240	0xbd342e52	-0.043989487
241	0x3da0758d	0.07834921
242	0xc015e001	-2.341797
243	0x3e6a2cee	0.22868702
244	0xbc9c8f89	-0.019111412
245	0x3e352692	0.17690495
246	0x3f42949c	0.7600801
247	0x3e171448	0.1475383
248	0x3d52b41e	0.051441304
249	0xc0bb7d9e	-5.859084
250	0x3eb28d09	0.34873226
251	0x3e2534ed	0.16133471
252	0x3c8be176	0.017075282
253	0xbda8d303	-0.08243372
254	0xbf057950	-0.52138233
255	0x3e8b3371	0.27187684

bias f4 [16]
0	0x3cd6fb64	0.02624292
1	0x3f11c307	0.56938213
2	0x3f7cad43	0.98701876
3	0x3ef2178f	0.472836
4	0x3ed7c4d0	0.42142344
5	0xbea61177	-0.324352
6	0x3cede490	0.029039651
7	0x3e69618b	0.22791116
8	0x3d83c5d9	0.06434221
9	0x3d77bfb2	0.06048555
10	0x3dd7368a	0.105084494
11	0x3db3301f	0.08749413
12	0xbee57004	-0.44812024
13	0x3ee56cfd	0.44809714
14	0xbc05c6ad	-0.008165044
15	0xbede6c77	-0.43442127

weight f4 [32, 16]
0	0xbe8b774c	-0.27239454
1	0x4026f5af	2.6087453
2	0x3f5b4b48	0.85661745
3	0x3fef41ac	1.8691916
4	0xbd2db2d2	-0.042406864
5	0x3e2fada2	0.1715608
6	0x3cddfc57	0.027097864
7	0x3fe3568f	1.776079
8	0x3f804882	1.0022128
9	0x3f7a9107	0.97877544
10	0x3f773414	0.9656384
11	0x40452a71	3.0807154
12	0x3f0bd20e	0.54617393
13	0x3f189ace	0.59611213
14	0xbc15c76b	-0.009141783
15	0x3fdd7e1a	1.7304108
16	0x3fbe3cc4	1.4862294
17	0xbec37be3	-0.38180456
18	0xbf60acd0	-0.8776369
19	0x3e77fa99	0.24216689
20	0x3e08a5eb	0.13344543
21	0x3e4a76ee	0.1977193
22	0x3ec2b8a6	0.380315
23	0xbff17e0f	-1.8866595
24	0xbc869673	-0.016429162
25	0x3e00247e	0.1251392
26	0xbf56de29	-0.8393274
27	0x3f4fa23d	0.8110693
28	0x3f50dee6	0.81590116
29	0x3f64b05d	0.8933161
30	0x3d10fc1b	0.035396677
31	0xbf5131ae	-0.8171643
32	0xbf0b0bda	-0.5431496
33	0xbf66368f	-0.89927
34	0xbd8bc814	-0.06825271
35	0xbebe9859	-0.37225607
36	0xbd4147b9	-0.04718754
37	0x3dfe9a1d	0.124317385
38	0x3e52e48f	0.20595
39	0x3ed0d91c	0.4079064
40	0x3e1edd81	0.15514185
41	0x3ec8fe76	0.39256638
42	0x3e0c9278	0.13727748
43	0xbf9cbb83	-1.2244724
44	0x3f36bfdb	0.713865
45	0xbe287224	-0.16449791
46	0xbd802ceb	-0.062585674
47	0x3ecf998b	0.4054683
48	0x3f0df4f7	0.5545191
49	0xbdf6d785	-0.12052826
50	0xbfc5fcb4	-1.5467744
51	0x3f794069	0.9736391
52	0x3fa7e83e	1.311775
53	0x3dfddc48	0.12395531
54	0xbd25063c	-0.04028915
55	0xbf81f863	-1.0153927
56	0xbea6ac81	-0.32553485
57	0xbfec7e7d	-1.8476101
58	0x3f038b4b	0.5138442
59	0x3f57e749	0.8433729
60	0xbdcd447f	-0.1002283
61	0x3fe405ef	1.7814311
62	0xbdd311ac	-0.10306105
63	0x3f1e2d0f	0.61787504
64	0x3f780469	0.9688173
65	0xbc744cd5	-0.014910896
66	0xbeec33d0	-0.4613328
67	0xbe4f6d13	-0.20256452
68	0xbe7e6e0e	-0.2484667
69	0xbe607531	-0.21919705
70	0x3e0207c7	0.1269828
71	0x3fb1a80a	1.3879406
72	0x3e6c2307	0.23060237
73	0xbe546418	-0.20741308
74	0x3efaa8e1	0.4895697
75	0xbf3560eb	-0.7085101
76	0xbd0a75ce	-0.033803754
77	0xbfa4c18e	-1.2871568
78	0x3d820d77	0.063502245
79	0xbd12686d	-0.03574412
80	0x3e72b445	0.2370158
81	0xbfb2f65b	-1.3981432
82	0xbe205d05	-0.15660484
83	0xbf80268c	-1.0011764
84	0x3e905caf	0.28195712
85	0x3eca1f06	0.39476794
86	0x3e4f6912	0.20254925
87	0x3e389455	0.18025334
88	0xbe8515aa	-0.2599309
89	0x3f3ca6e2	0.7369214
90	0x3ea5e7db	0.32403454
91	0xbdb7bc02	-0.089714065
92	0x3f705d92	0.93892777
93	0x3e93f12e	0.28894943
94	0xbbc35af2	-0.0059617693
95	0x3e42159d	0.18953557
96	0x3f5ce0ec	0.86280704
97	0xbf732faf	-0.94994634
98	0x3c0d65ef	0.00863026
99	0xbed16136	-0.4089448
100	0x3fb72b23	1.4310039
101	0x3e534073	0.20630054
102	0x3ed77927	0.4208462
103	0xbfd0b993	-1.6306633
104	0x3edfe857	0.4373195
105	0x3f2c460a	0.6729437
106	0xbfa505c9	-1.289239
107	0x3eca72d5	0.39540735
108	0x3f111bf9	0.5668331
109	0x3e4e8863	0.20169215
110	0xbe02e3cd	-0.12782212
111	0xc0217601	-2.5228274
112	0xbe0214fa	-0.12703314
113	0xbd9dff60	-0.077147245
114	0xbe4b364c	-0.19844931
115	0xbdf8d713	-0.12150397
116	0xbe5754d0	-0.21028447
117	0xbdc294c8	-0.09501034
118	0xbdcf1d54	-0.10113016
119	0xbe810c41	-0.2520466
120	0xbe0f9cf4	-0.14024717
121	0xbc7f1a4e	-0.015570236
122	0x3e2203da	0.15821782
123	0x3def8e3f	0.11697053
124	0xbe3dec0e	-0.18547079
125	0xbe17c7c0	-0.14822292
126	0xbd642ec8	-0.055708677
127	0xbe131814	-0.14364654
128	0x3f1dafda	0.61596453
129	0x3f044b57	0.5167746
130	0xbb778f9c	-0.0037774807
131	0xbfe37159	-1.7768966
132	0x3f8796a3	1.0592846
133	0x3eacaaba	0.33724004
134	0x3f0511fc	0.51980567
135	0xbf431853	-0.7620899
136	0x3e2e45ef	0.17018865
137	0x3f22a55d	0.63533574
138	0xbf702a77	-0.93814796
139	0xbe8688dd	-0.26276293
140	0x3f889a5a	1.0672104
141	0x3df1c6fa	0.1180553
142	0x3e811b29	0.25216034
143	0xbf7abf2a	-0.97947943
144	0x3e6fb78d	0.23409863
145	0xbfd00f0b	-1.6254591
146	0x3effeb57	0.49984238
147	0xbf1d287a	-0.6138989
148	0x3d6ea4d2	0.058262654
149	0x3ea02cb6	0.31284112
150	0x3e5ea691	0.21743228
151	0x3f4631bf	0.77419657
152	0xbf8599fd	-1.0437618
153	0x3ecef8cd	0.40424195
154	0xbd44ed45	-0.04807784
155	0xbfe7235f	-1.8057669
156	0x3f875021	1.0571328
157	0x3e3aef62	0.1825538
158	0xbde89b88	-0.1135779
159	0x3e6ac340	0.22926044
160	0x3f9c8aad	1.222982
161	0x3ee416e3	0.4454871
162	0xbea130d5	-0.31482568
163	0x3edf3a60	0.43599224
164	0x3fd00d36	1.6254032
165	0x3d9b7e78	0.075924814
166	0x3f180292	0.5937892
167	0xbe59693e	-0.21231553
168	0x3f366e00	0.71261597
169	0x3bd0a14f	0.0063668857
170	0xbf846277	-1.0342549
171	0x3e89bc83	0.26901636
172	0x3f6c3fde	0.92284954
173	0xbee582c6	-0.44826335
174	0xbd51210e	-0.051056914
175	0xc07c514b	-3.9424617
176	0x3faa0c10	1.3284931
177	0x3f585ef8	0.8451991
178	0xbe7663ed	-0.24061556
179	0xbf7fdd8a	-0.99947417
180	0x3cb7a76f	0.022418706
181	0xbe02a91d	-0.12759824
182	0x3e82d6ee	0.25554603
183	0x3e763e18	0.24047124
184	0x3d805ecd	0.06268082
185	0x3e0f1d20	0.13975954
186	0xbf034057	-0.5127005
187	0x3ff1427f	1.8848418
188	0x3d8a8e39	0.06765408
189	0xbff3ef6a	-1.9057438
190	0x3dfa6543	0.122263454
191	0xbf1ad80a	-0.604859
192	0x3f6e86d5	0.9317449
193	0x3f0af941	0.5428658
194	0xbf1b1b93	-0.6058895
195	0xbf0bfaf6	-0.5467981
196	0xbeb8bea6	-0.36082953
197	0x3eb70a53	0.35750064
198	0x3f0ba5e6	0.54550016
199	0x3e5983a6	0.21241626
200	0xbf58cf6f	-0.8469152
201	0x3ee5a939	0.4485567
202	0x3f8196c3	1.0124134
203	0x3fd9b948	1.7009668
204	0xbba2b82d	-0.004965803
205	0xbfb8719b	-1.440967
206	0xbdba2c45	-0.09090475
207	0x3f2a9db8	0.6664691
208	0xbea72d13	-0.32651576
209	0x3f8b2d6a	1.0873234
210	0xbf063491	-0.5242396
211	0x3f952b7e	1.1653898
212	0xc004035e	-2.0627055
213	0x3c921f90	0.017837316
214	0x3eb9ef85	0.3631555
215	0x3f76d452	0.96417725
216	0x3f286553	0.6577961
217	0xbec75f6c	-0.3893999
218	0x3ed1daaa	0.4098714
219	0x3fe5472a	1.7912343
220	0x3f3b0479	0.730537
221	0x3f409fb3	0.7524368
222	0x3d17cd60	0.037061095
223	0x3f871b52	1.0555212
224	0xbe04948a	-0.12947288
225	0x3cd1c2d4	0.025605597
226	0xbe489c0f	-0.19590782
227	0xbbe884a3	-0.0070958897
228	0xbeba2108	-0.36353326
229	0x3ca068c6	0.01958121
230	0x3d020798	0.031745523
231	0xbe2babdc	-0.16764778
232	0xbdc06e70	-0.09396064
233	0xbd2c0f39	-0.042006705
234	0xbe433791	-0.19064166
235	0xbe8fef9e	-0.281125
236	0x3b2b21c8	0.0026112664
237	0xbd69fea3	-0.057127606
238	0xbe662609	-0.22475447
239	0xbd9a0ad8	-0.075215995
240	0x3f3461e7	0.7046189
241	0x3f06b77c	0.52623725
242	0x3dd23ecf	0.10265886
243	0x3ef05f5e	0.4694776
244	0xc0299cc8	-2.6501942
245	0xbe5a6a92	-0.21329716
246	0x3ca30b7e	0.01990294
247	0x3d50d8dd	0.050988067
248	0xbbe1fd49	-0.006896649
249	0xbdb21bb9	-0.08696694
250	0x3f43f3dc	0.76543975
251	0x3fc706f5	1.5548998
252	0x3f08ea53	0.5348255
253	0x3e948f84	0.29015744
254	0x3e6f44a3	0.23366027
255	0x3e930e84	0.28722012

bias f4 [32]
0	0x400ec01d	2.2304757
1	0x3e931afa	0.2873152
2	0xbfc5b0a8	-1.5444536
3	0xbea7df6d	-0.32787648
4	0xbf3b6f3a	-0.73216593
5	0x3f377fb2	0.7167922
6	0x3f58b1b6	0.84646165
7	0xbecc2b03	-0.39876565
8	0x3dade80a	0.084915236
9	0x3f1f1451	0.62140375
10	0x3ec837da	0.3910511
11	0x3ffb315b	1.9624437
12	0x3f06e5ef	0.526946
13	0x3f9d81ac	1.2305198
14	0xbeb1a1a8	-0.34693646
15	0x3e939d39	0.2883089
16	0x3fcaad7e	1.5834196
17	0xbfb85f66	-1.4404113
18	0xbee2321f	-0.44178864
19	0x3f6ef2eb	0.93339413
20	0x3fa9f2ed	1.327726
21	0xbfc1271b	-1.5090059
22	0x3e0c7ed0	0.1372025
23	0x3fa4f409	1.2886974
24	0xbd815f49	-0.06317002
25	0xbf7fff2c	-0.99998736
26	0x3f74a9af	0.95571417
27	0xbf21a8fe	-0.63148487
28	0xbd594db4	-0.05305262
29	0xbf12b107	-0.5730137
30	0x3fd31480	1.6490631
31	0x3ec03f77	0.3754842

weight f4 [64, 32]
0	0xbe89a09c	-0.26880348
1	0xbe0af545	-0.13570125
2	0xbe873d7b	-0.26414093
3	0x3dd548ec	0.10414299
4	0xbe8fbb57	-0.28072616
5	0x3e84426e	0.25831932
6	0x3e5c08de	0.21487758
7	0xbdbdaf00	-0.09261894
8	0x3b593ea7	0.0033148916
9	0x3d655fdb	0.055999618
10	0xbe037963	-0.12839274
11	0xbd049801	-0.032371525
12	0xbe9124ae	-0.28348297
13	0xbcc65c29	-0.024213867
14	0xbd5c401f	-0.05377209
15	0xbe5c1604	-0.21492773
16	0x3c03aa0f	0.008036151
17	0xbe13b923	-0.14426093
18	0xbe0ba2b5	-0.13636287
19	0xbc8397d9	-0.016063618
20	0xbe20c185	-0.15698822
21	0x3e4f7a04	0.20261389
22	0x3d29dd2a	0.041470684
23	0xbe38e26d	-0.18055125
24	0xbe961e00	-0.29319763
25	0xbe838db9	-0.25694063
26	0xbe4c9f70	-0.19982696
27	0xbe20e004	-0.15710455
28	0x3e011065	0.1260391
29	0xbe17f56e	-0.14839718
30	0xbddbd842	-0.10734607
31	0xbe42a958	-0.19009912
32	0xbe67dc52	-0.2264264
33	0xbec833b8	-0.39101958
34	0x3e84dce2	0.2594977
35	0xbeee59c6	-0.46552867
36	0xbe1b0f44	-0.15142542
37	0x3c17ba54	0.009260733
38	0xbeb2c073	-0.34912452
39	0xbe052141	-0.13000967
40	0xbec9493c	-0.39313686
41	0xbcd19867	-0.025585366
42	0xbe99ab98	-0.30013728
43	0xbe942375	-0.28933302
44	0xbeb6f7de	-0.35735983
45	0x3d264340	0.04059148
46	0xbd39f1b9	-0.04539654
47	0xbe5b8801	-0.214386
48	0xbdcb62d1	-0.09930957
49	0xbdd85625	-0.10563306
50	0xbe24b68b	-0.1608526
51	0xbd916324	-0.07098988
52	0xbed7f081	-0.42175677
53	0xbed0e85a	-0.4080227
54	0xbc839d0b	-0.016066095
55	0xbdc849cd	-0.097797014
56	0xbebba041	-0.36645702
57	0x3e23a801	0.15982057
58	0xbf1fed58	-0.6247153
59	0xbeac5d42	-0.336649
60	0xbe28d607	-0.16487895
61	0xbe0a0c0c	-0.13481158
62	0xbcc014ad	-0.023447359
63	0xbf3e284a	-0.74280226
64	0xbe3f911d	-0.187077
65	0xbde10f1b	-0.10989209
66	0xbe240562	-0.16017678
67	0x3c5a9e1c	0.01334336
68	0xbe37d383	-0.17951779
69	0x3cca2304	0.0246749
70	0xbe4e281a	-0.20132485
71	0x3d137611	0.03600127
72	0x3abd3ab9	0.0014437056
73	0xbda1c901	-0.078996666
74	0xbcbc93ee	-0.023019757
75	0xbe076cb8	-0.13225067
76	0xbd5bffa0	-0.05371058
77	0x3cdc5e8a	0.026900548
78	0x3d2cd250	0.042192757
79	0xbe0e20e6	-0.13879737
80	0xbd882abd	-0.06648777
81	0xbdd90f86	-0.10598664
82	0x3dec889f	0.11549496
83	0x3e348630	0.17629313
84	0xbd14d7a7	-0.036338475
85	0x3d48edd2	0.049054928
86	0xbc0fed9e	-0.00878468
87	0xbd6df5f6	-0.058095895
88	0xbdb0b80f	-0.086288564
89	0xbd215eae	-0.039396934
90	0xbe27f9bb	-0.16403858
91	0xbc4de2c4	-0.012566272
92	0x3da1d8b4	0.07902661
93	0x3d69e803	0.05710603
94	0xbe043031	-0.12909009
95	0xbe2e134a	-0.16999546
96	0xbdff4c40	-0.124657154
97	0xbf3200f4	-0.69532704
98	0x3f0415b6	0.5159563
99	0xbfb1d3ff	-1.3892821
100	0x3f02b626	0.51059186
101	0xbef5219f	-0.47877213
102	0x3efd242a	0.49441653
103	0xbd417dbc	-0.04723905
104	0x3e55cf0f	0.20879768
105	0xbefa15b9	-0.48844698
106	0x3f614eb0	0.8801069
107	0x3de3cae0	0.1112268
108	0xbfd01c28	-1.6258593
109	0x3e73f082	0.23822215
110	0x3e21c4a0	0.15797663
111	0x3f6ec031	0.9326201
112	0xbeb1f885	-0.34759918
113	0x3f7e6e46	0.99387014
114	0xbfdd79a2	-1.7302744
115	0xbf26c6b2	-0.65146935
116	0x3e5138a0	0.20431757
117	0xbc2a00a4	-0.010376129
118	0xbec9307e	-0.3929481
119	0x3bc08201	0.0058748727
120	0xbf26a472	-0.65094674
121	0x3f537a59	0.8260856
122	0xbeb8abcd	-0.36068574
123	0xbd87e584	-0.066355735
124	0x3ebf3548	0.37345338
125	0x3ef71efa	0.4826582
126	0x3dc20c39	0.094749875
127	0x3fc69c99	1.551654
128	0xbeb8bf52	-0.36083466
129	0xbeac02a4	-0.33595765
130	0x3e5cc1af	0.2155826
131	0x3edc3557	0.43009445
132	0x3ded1ab6	0.1157736
133	0x3dc57178	0.09640783
134	0xbf279e0d	-0.6547554
135	0xbd70eca2	-0.05881942
136	0xbe0511e1	-0.12995102
137	0xbebcca05	-0.3687288
138	0xbedac295	-0.4272658
139	0xbed85da5	-0.42258945
140	0xbe852876	-0.26007432
141	0xbdb7d89d	-0.089768626
142	0x3e0013f1	0.12507607
143	0x3db989f5	0.09059516
144	0xbdc8844a	-0.09790857
145	0xbe695ac9	-0.22788538
146	0xbe0aede8	-0.13567317
147	0xbe24a9c4	-0.16080385
148	0xbf1f286a	-0.6217104
149	0xbe90bfa7	-0.2827122
150	0x3ebb7865	0.3661529
151	0xbecdec43	-0.40219316
152	0xbe7389b7	-0.23783003
153	0x3f196771	0.59923464
154	0xbee8a81b	-0.45440754
155	0xbecd1d84	-0.4006158
156	0x3e1a8b9e	0.15092322
157	0x3e1a1c21	0.15049793
158	0xbec9380e	-0.3930058
159	0xbefe2071	-0.49634126
160	0x3d323f27	0.043517258
161	0xbce2cff1	-0.027687045
162	0xbe60c5ad	-0.21950407
163	0xbd86bd60	-0.06579089
164	0xbe57ca18	-0.21073186
165	0x3dda2288	0.106511176
166	0xbdf587e7	-0.11988812
167	0xbce9d5a0	-0.028544247
168	0xbe2ba803	-0.1676331
169	0x3be09324	0.006853478
170	0x3dee0b15	0.116232075
171	0xbd9c0049	-0.07617242
172	0xbe691769	-0.22762837
173	0xbe707546	-0.23482236
174	0xbe1876f2	-0.14889124
175	0xbe2b9017	-0.16754185
176	0xbe79cfac	-0.24395627
177	0xbc99631b	-0.018724015
178	0xbde0017d	-0.10937784
179	0x3e309dd5	0.17247708
180	0xbe3ea44b	-0.1861736
181	0x3dd81995	0.105517544
182	0xbe76801f	-0.24072312
183	0xbdf296f9	-0.11845202
184	0xbe7b756c	-0.24556512
185	0x3d78d31b	0.0607482
186	0x3b2ef794	0.002669786
187	0x3d56844c	0.052372262
188	0xbe8485f5	-0.2588345
189	0xbe1197aa	-0.14218011
190	0xbe87ae31	-0.26500085
191	0xbdc80d79	-0.09768195
192	0xbec8d93d	-0.3922824
193	0x3efb1db2	0.49046093
194	0x3f021ad3	0.5082218
195	0xbf2b0d0f	-0.668168
196	0xbe9de6ba	-0.30840093
197	0x3e027b58	0.12742364
198	0x3e0e2b53	0.13883714
199	0xbd392421	-0.04520047
200	0xbe842fd9	-0.25817755
201	0x3f1336b6	0.5750536
202	0x3f3143c4	0.6924403
203	0xbfb5c700	-1.4201355
204	0x3f7f3944	0.99696755
205	0xbe781af6	-0.24229035
206	0x3d20bada	0.039240696
207	0x3f1cd6aa	0.6126505
208	0x3f7c457c	0.98543525
209	0xbe9fffab	-0.31249747
210	0xbeb1b233	-0.34706268
211	0xbf6b33d2	-0.91875947
212	0xbd83b27d	-0.06430528
213	0xbe35cceb	-0.17753951
214	0x3e807c6f	0.25094935
215	0x3ddcfb14	0.10790077
216	0x3dbec4ff	0.09314918
217	0x3f0f906a	0.56079733
218	0x3f42a8fb	0.76039094
219	0xbe31549b	-0.1731743
220	0xbd962f2f	-0.07333218
221	0xbe99bc51	-0.30026487
222	0xbd364275	-0.044496972
223	0x3d1354f0	0.035969675
224	0x3f118d4c	0.56856227
225	0x3fd5b226	1.6694992
226	0xbf0b6c26	-0.54461896
227	0xbe96affd	-0.29431143
228	0x405f7778	3.4916668
229	0x3f9587b9	1.1682044
230	0x3f8f041e	1.1173131
231	0x3e405c32	0.1878517
232	0x3ff67a56	1.9256084
233	0x3f778252	0.9668323
234	0x3ed4791d	0.41498652
235	0x40596c26	3.3972259
236	0x40109132	2.258862
237	0x3d49dbdc	0.04928194
238	0xbe1a7896	-0.15085062
239	0xbe8b6d84	-0.2723199
240	0xbf645659	-0.89194256
241	0xbe2142d7	-0.15748154
242	0x3f0aaab6	0.54166734
243	0xbf7c7847	-0.9862103
244	0x3fa97c75	1.3241106
245	0x3ef7a7f1	0.48370317
246	0x3f6ea67b	0.9322278
247	0x3f1fb30f	0.62382597
248	0x40066cbb	2.1003864
249	0x3e006c81	0.12541391
250	0x3f753c83	0.9579546
251	0x403245c6	2.7855086
252	0xbf7ddbb6	-0.9916338
253	0x3cdbac6c	0.026815616
254	0x3fc7034d	1.5547882
255	0x3fd6e61c	1.6788974

bias f4 [64]
0	0xbda7cffc	-0.08193967
1	0xbe0c29f5	-0.1368788
2	0xbe2b217f	-0.16711996
3	0xbd2d83a5	-0.042361874
4	0xbf06cca6	-0.5265602
5	0xbe859a99	-0.2609451
6	0xbdcddfe6	-0.10052471
7	0xbd38a8a4	-0.045082703
8	0x409dc90a	4.930791
9	0x3e4b02ff	0.19825362
10	0xbf24bcb8	-0.6435046
11	0xbeb06598	-0.3445251
12	0x3ebee0a2	0.37280756
13	0xbf5fa1b1	-0.87356097
14	0xbed2a46f	-0.41141078
15	0xbf17f38d	-0.59356004
16	0xbe46aad0	-0.19401097
17	0xbe1a5829	-0.15072693
18	0xbe89f695	-0.2694594
19	0xbe80522f	-0.250627
20	0xbf55bdac	-0.8349254
21	0xbebedfa8	-0.3728001
22	0x3df2b490	0.11850846
23	0xbe1eca5c	-0.15506881
24	0x3e4e7af5	0.20164092
25	0xbf598ad1	-0.8497744
26	0x3efa7fba	0.48925573
27	0x3e885ad0	0.26631784
28	0xbe78b6c9	-0.24288477
29	0xbe1f44d4	-0.155536
30	0xbf610786	-0.87902105
31	0x3ed9fd62	0.42576128
32	0xbe3c9b11	-0.18418528
33	0xbe80b194	-0.2513548
34	0xbe99df93	-0.30053386
35	0xbf300da6	-0.68770826
36	0x3f54f23d	0.83182126
37	0x4059cbde	3.403068
38	0xbf29c5d0	-0.6631746
39	0x3fefe627	1.8742112
40	0xbf32166a	-0.6956545
41	0xbe1daa39	-0.15396966
42	0xbfa85b1f	-1.3152808
43	0xbe81b2e3	-0.25331792
44	0x3f571080	0.8400955
45	0xbf46aaf8	-0.7760463
46	0xbeff3a61	-0.49849227
47	0xbf41654d	-0.755452
48	0xbe7ee5f3	-0.24892406
49	0xbf4a7b87	-0.7909474
50	0xbf55344c	-0.83282924
51	0xbf1308e2	-0.5743543
52	0xbea0a734	-0.31377566
53	0x3bbf9320	0.005846396
54	0x409422eb	4.6292624
55	0xbe7394e6	-0.23787269
56	0x3e938188	0.28809762
57	0x3f3b26e5	0.73106223
58	0xbe3a8b5f	-0.18217228
59	0xbe2ecb86	-0.17069826
60	0xbe860d0a	-0.26181823
61	0xbf159441	-0.5842934
62	0xbe9d5078	-0.30725455
63	0xbe5b25c7	-0.2140113

weight f4 [4, 64]
0	0x3d3898d2	0.045067616
1	0x3e994a13	0.29939327
2	0xbd9bce4b	-0.07607707
3	0x40182ac7	2.377611
4	0x3d48adb8	0.048993796
5	0x3d35b306	0.044360183
6	0x3ff155af	1.8854274
7	0xbdba7e5b	-0.09106132
8	0xbe6dea47	-0.23233901
9	0xbf3323db	-0.69976586
10	0xbd7d0d72	-0.0617804
11	0x3db63e5b	0.08898612
12	0xbe9ffd6e	-0.3124804
13	0x40029ae9	2.040705
14	0xbde3d4ae	-0.1112455
15	0x3ffada10	1.9597797
16	0xbddda6ff	-0.108228676
17	0x3ed824b7	0.4221551
18	0x3ce6a671	0.028155537
19	0xbd1ce00c	-0.038299605
20	0x3fd97e39	1.6991645
21	0x3f8d17de	1.1022909
22	0xbce90f1d	-0.02844959
23	0xbd95723e	-0.072971806
24	0x3d743bf9	0.059627507
25	0x3f53459c	0.8252809
26	0xbf00aaaa	-0.5026041
27	0x3e71606f	0.23571943
28	0x3d0b066e	0.03394168
29	0x3c894eb4	0.016761161
30	0x4020468a	2.5043054
31	0x3fb8eb93	1.4446892
32	0xbe5f576a	-0.2181069
33	0x3d483ca7	0.048885968
34	0xbde82e3d	-0.11336944
35	0x3e2dc58f	0.16969894
36	0x3f24a131	0.6430846
37	0xbe891253	-0.26771793
38	0xbda7670d	-0.08173952
39	0x3e9ec706	0.31011218
40	0x3fc3656a	1.5265324
41	0x3f5653f9	0.8372188
42	0x3fa7a85e	1.3098257
43	0xbdfce152	-0.12347664
44	0xbdffd726	-0.12492208
45	0x3db05431	0.08609808
46	0xbe7603c3	-0.24024872
47	0xbfbe2854	-1.4856057
48	0x3cc35e45	0.023848662
49	0x4035c470	2.8401146
50	0xbb0ace72	-0.002118018
51	0xbe5f2889	-0.21792807
52	0x3e5114a2	0.20418027
53	0xbd9116db	-0.070844375
54	0xbec46822	-0.38360697
55	0xbc92c8e0	-0.01791805
56	0xbebbfa1d	-0.3671426
57	0xbec403c4	-0.38284123
58	0x3d1b5d2a	0.037930645
59	0xbdf9d604	-0.12199023
60	0x3d8f30bf	0.069917195
61	0x3d818d30	0.063257575
62	0xbf50bc11	-0.81536967
63	0xbdb784b7	-0.0896086
64	0xbd4940ca	-0.049134053
65	0x3dd460f4	0.10370055
66	0x3c06ba17	0.008223078
67	0xbfdb2ec1	-1.7123643
68	0x3d613b25	0.054988045
69	0x3d468968	0.048470885
70	0x3fafbc08	1.3729258
71	0xbd2bfd58	-0.041989654
72	0xbc9a5dd9	-0.018843578
73	0xbe924f5d	-0.28576174
74	0x3fc7eb6c	1.561872
75	0x3eaec8fb	0.3413771
76	0xbd876eea	-0.06612952
77	0xc01ad914	-2.4194994
78	0x3a818308	0.0009880969
79	0xbe02a557	-0.12758385
80	0xbd99cf2e	-0.075102195
81	0xbe131b6b	-0.14365928
82	0x3d285744	0.041098848
83	0xbcb1fd92	-0.021727357
84	0xbd435611	-0.0476895
85	0x3f7a09b1	0.9767104
86	0xbe36d621	-0.17855121
87	0xbcd5983d	-0.02607357
88	0xbe90d04c	-0.28283918
89	0x3edda81d	0.43292323
90	0x3df9347a	0.12168212
91	0xbd5220af	-0.0513007
92	0x3e866a69	0.2625306
93	0x3d0567bf	0.032569643
94	0x3f1d5884	0.6146319
95	0xbf072be1	-0.5280133
96	0x3e8b799d	0.2724122
97	0x3cab4ef2	0.020911667
98	0xbe5143ca	-0.20436016
99	0x3f28f8ad	0.6600445
100	0x3eef14fe	0.46695703
101	0x39c1d935	0.0003697366
102	0xbd6ea4f2	-0.058262773
103	0xbb9b9cbc	-0.004748909
104	0x3f9e9ed0	1.2392216
105	0x3e98a5ff	0.29814145
106	0xbf3cc4e6	-0.73737943
107	0xbdde91ce	-0.10867654
108	0xbb10432a	-0.002201269
109	0x3f0de3ba	0.5542561
110	0x3cce3444	0.025171407
111	0x3feeb0c5	1.8647696
112	0x3d717388	0.05894807
113	0xbf06101e	-0.5236834
114	0x3d907578	0.070536554
115	0x3f4973c1	0.7869225
116	0xbc8834b4	-0.016626693
117	0x3d20c687	0.03925183
118	0xbe2d2864	-0.16909939
119	0xbd6b9afc	-0.05752085
120	0x3e780fc7	0.24224769
121	0xbeab2281	-0.33424762
122	0xbd89f737	-0.067366056
123	0x4002c883	2.0434883
124	0xbca9500a	-0.020668048
125	0x3c4dbdb6	0.012557438
126	0xbf2a3964	-0.6649382
127	0xbd957100	-0.07296944
128	0xbe49064c	-0.19631308
129	0xbf5860ac	-0.8452251
130	0xbd03ea07	-0.032205608
131	0x3fcc4e55	1.5961405
132	0xbfb328b8	-1.3996801
133	0xbd311674	-0.043234304
134	0x3f195761	0.59898955
135	0x3ef58db7	0.47959682
136	0xbe2a3080	-0.16620064
137	0x3fa60391	1.2969838
138	0x3f240d9b	0.6408326
139	0xbf8273a1	-1.0191537
140	0x3f694fe6	0.9113754
141	0x4026d5c7	2.606798
142	0xbdf83789	-0.121199675
143	0x3fb4bbf7	1.4119862
144	0x3cb0b785	0.021571884
145	0x3d8370f9	0.06418032
146	0xbbb65f60	-0.005565569
147	0x3ca8f7e8	0.020626023
148	0x401683a3	2.3517845
149	0x3f32114f	0.6955766
150	0x3969e797	0.00022306886
151	0xbca2a091	-0.019851955
152	0xbe3c5106	-0.18390283
153	0xbe162b38	-0.14664924
154	0x3fe90b4b	1.8206571
155	0x3e339f96	0.17541346
156	0xbf41ba40	-0.7567482
157	0xbd9cefde	-0.076629385
158	0x3f5cd3e4	0.8626082
159	0xbf4106b5	-0.7540086
160	0xbd342936	-0.043984614
161	0x3d1dd1dc	0.038530216
162	0x3dbbacb8	0.09163803
163	0xbf53d254	-0.8274281
164	0x404eacff	3.2293088
165	0xbdc87553	-0.09788003
166	0xbd35103d	-0.04420494
167	0xbd917699	-0.07102699
168	0x3f940a49	1.1565639
169	0x3f089a23	0.53360194
170	0x3fa4cc85	1.2874914
171	0x3c08f51c	0.00835922
172	0x3e9a45c1	0.30131343
173	0xbf4e3c20	-0.80560493
174	0x3e91cd2d	0.2847685
175	0x3f97fd66	1.1874206
176	0x3d8af541	0.0678506
177	0x40255993	2.5835922
178	0xbf85f9f2	-1.0466902
179	0x3fe40c9d	1.7816349
180	0x3f1bcd5a	0.60860217
181	0xbdf77796	-0.12083356
182	0xbe21618b	-0.15759866
183	0xbbb6680e	-0.0055666035
184	0x3fa7ce85	1.31099
185	0x3eca6923	0.39533338
186	0x3d84ba90	0.064808965
187	0x3ceb1265	0.028695295
188	0x3dcbb920	0.09947419
189	0xbf617e74	-0.8808358
190	0x4015a1ac	2.3379927
191	0xbc2883b1	-0.010285304
192	0x3ea4a0e9	0.32154015
193	0x3def74d0	0.11692202
194	0x3d6aa8c7	0.057289865
195	0x401c4dea	2.4422555
196	0x3e61a8f1	0.22037102
197	0x3cc7f900	0.024410725
198	0xbf3db2cb	-0.7410094
199	0x3ccebf7d	0.025237793
200	0xbd5ca42f	-0.053867515
201	0xbe6bb297	-0.23017345
202	0x3e96a230	0.29420614
203	0x3e7ce57c	0.24696916
204	0x3f2682d7	0.65043396
205	0x3faf5790	1.3698597
206	0xbe1eb647	-0.15499221
207	0x401fbe8a	2.4960046
208	0x3d25e130	0.04049796
209	0x3dfb1615	0.12260071
210	0x3d20fae2	0.03930176
211	0x3ca1aa18	0.019734427
212	0x3f778491	0.96686655
213	0x3e93468f	0.2876477
214	0xbdf09afd	-0.11748312
215	0xbd23a722	-0.039954312
216	0xbcce1443	-0.025156146
217	0x3ef63e02	0.48094183
218	0xbee4b7e4	-0.44671547
219	0xbe1f87cb	-0.15579145
220	0x3e00d7ae	0.12582275
221	0x3d8050e9	0.062654324
222	0x3e22d9ab	0.15903346
223	0xbc1b3a03	-0.00947428
224	0x3e0c89e4	0.13724476
225	0xbd49c871	-0.04926342
226	0xbdee44c2	-0.11634208
227	0x3f784710	0.9698343
228	0xbeffc4c3	-0.49954805
229	0xbb9833c4	-0.004644843
230	0x3e014c7c	0.12626833
231	0xbe3e0832	-0.18557814
232	0x3ea898e6	0.32929152
233	0x3e69164d	0.22762413
234	0x3f99bb29	1.2010242
235	0xbde06c38	-0.10958141
236	0xbdddb5c0	-0.10825682
237	0x3f018515	0.5059369
238	0x3fae68c3	1.3625721
239	0x3fef3892	1.8689139
240	0x3d94509e	0.07241939
241	0x40095f0f	2.146427
242	0x3ea5d0b3	0.32385787
243	0x3f69a642	0.91269314
244	0xbf96d53d	-1.1783825
245	0xbc407283	-0.011746052
246	0xbdb0b790	-0.08628762
247	0x3dbb2fb8	0.09139961
248	0xbe327b64	-0.17429882
249	0xbc40d563	-0.011769625
250	0x3cf709ef	0.030156104
251	0x3ef62422	0.48074442
252	0xbdd439eb	-0.103626095
253	0x3e3a78c6	0.18210134
254	0x3f63f68c	0.89048076
255	0x3d74a0db	0.059723716

bias f4 [4]
0	0xbd7e3124	-0.062058583
1	0xbf18689d	-0.5953463
2	0x3dd4ce39	0.10390896
3	0xbf834b74	-1.0257401
