saves/kevin/kevin_nn_2025-02-22_17-07-47.pt (torch, 17468 bytes, 8 tensors)

weight f4 [16, 16]
000000 fd 58 da bd f2 14 1a 3e 23 35 da be 56 b7 64 3e
       -0.106615044 0.15047053 -0.42618665 0.22335562
000010 f8 45 42 bc 2d 5d 1c be 3b c1 70 3f f6 8d 86 bd
       -0.011857502 -0.15269919 0.94044846 -0.06570046
000020 0b 43 5d 3e d1 e4 19 be 0b e3 5e 3f 32 4a 00 be
       0.21607606 -0.15028693 0.8706519 -0.12528303
000030 41 54 2b 3d 9f 00 d6 3e 28 e1 b0 bf ca 72 a1 3e
       0.041828398 0.4179735 -1.3818712 0.3153289
000040 56 fb d5 bd 4b 43 76 be 94 a9 44 be 73 42 96 bd
       -0.10448329 -0.24049108 -0.19205314 -0.07336893
000050 03 16 2b be 50 57 52 3c 43 d4 da be 2f 26 58 3e
       -0.16707616 0.0128382 -0.42740068 0.21108316
000060 68 0c c7 bd 20 8e 19 bf 9a cb 06 be df 9e 99 be
       -0.09719163 -0.5998249 -0.13163605 -0.30004022
000070 25 fa 62 be ba 01 06 bf 20 41 17 be 6b 87 3c bf
       -0.22165735 -0.52346385 -0.14770937 -0.7364413
000080 58 17 42 3e 05 9d e6 3d 98 23 70 bf ba c0 40 3e
       0.18954217 0.11260418 -0.9380431 0.1882352
000090 66 b6 bf be fd e1 09 be aa fa 84 3f e3 37 b4 bd
       -0.37443846 -0.13465114 1.0388997 -0.08799722
0000a0 23 a1 45 3e 5c 8a 2b be 0e d5 54 3f e6 f3 e1 be
       0.1929975 -0.16751999 0.83137596 -0.44131392
0000b0 06 bc ed bd 90 48 2a 3d e0 65 90 bf 84 ba 3d 3d
       -0.11608128 0.041573107 -1.128109 0.046320453
0000c0 ba e1 9b be 31 90 dc be 95 62 07 3f 54 4d a3 be
       -0.30445653 -0.4307876 0.528848 -0.31894934
0000d0 35 cd 7c be 1e 4a 00 3e 96 1a 1e bf 63 58 5e 3e
       -0.24687655 0.12528273 -0.61759317 0.21713404
0000e0 a8 f7 68 be 50 2a ba bd d8 58 96 3d 98 fd 8c 3e
       -0.22750723 -0.09090102 0.07341164 0.27537227
0000f0 ff 3a a8 3c cd aa 06 3e 28 64 03 3c 72 4a 7a be
       0.020535944 0.13151093 0.008019485 -0.24442461
000100 db b1 50 be ec 33 90 3c 62 fb 29 3d 65 98 44 be
       -0.20380346 0.017602883 0.041499503 -0.19198759
000110 f8 d9 43 3d fc 62 12 bc a4 93 1e 3d 40 32 20 3d
       0.047815293 -0.0089347325 0.03871502 0.039110422
000120 ea d5 d4 bd d4 a6 81 bd a5 59 f3 bc 38 e6 81 be
       -0.10392363 -0.06330648 -0.029705832 -0.25370955
000130 a3 ae a6 bb 22 da 50 be c1 12 2f 3c 1f ae 2a 3e
       -0.0050867363 -0.20395711 0.010685624 0.16667984
000140 7b 22 97 3e b3 29 6b 3e 92 80 05 be ca c1 c8 3b
       0.29518494 0.22965126 -0.13037327 0.006126617
000150 89 37 8b 3e 59 f8 15 3d 7b b0 d6 3d e6 0f 59 be
       0.27190807 0.036613796 0.1048288 -0.21197471
000160 b2 24 4f 3e 49 e0 3a bd af 04 9e 3e 55 37 dd bc
       0.20228842 -0.04562405 0.30862948 -0.027003923
000170 fe 9e 62 3d 43 4d 9f 3e 84 5d e4 3d 7f 8e c6 3e
       0.055327408 0.31113634 0.11150649 0.3878059
000180 fc 79 99 bd 94 5e dc 3d 32 14 13 3e 16 a3 8a bd
       -0.0749397 0.10760227 0.14363173 -0.067693874
000190 20 b6 6b 3d a6 47 5c bd c8 c1 a4 bd 44 17 72 3e
       0.057546735 -0.053779267 -0.08044773 0.23641688
0001a0 06 74 12 be 46 a4 14 be 44 53 7a bf e8 41 49 be
       -0.14302072 -0.1451579 -0.97783303 -0.19654047
0001b0 36 11 64 3e ce 8c 8b bf e1 88 0e 3d 88 26 38 bf
       0.2227219 -1.0902345 0.034798507 -0.71933794
0001c0 dc 93 7f be 48 11 98 bd dc 94 87 bd 74 d0 38 be
       -0.24958748 -0.07425171 -0.066201895 -0.18048269
0001d0 2c a5 8f bd c6 20 44 bd 20 e3 23 3e 42 a0 78 bc
       -0.07013926 -0.047882818 0.1600461 -0.015174927
0001e0 77 c7 be 3d 29 51 20 3c 27 28 7a be 73 8b 8c bd
       0.09315389 0.009784975 -0.2442938 -0.06862535
0001f0 ce d3 01 be a8 44 21 be 10 4a a2 3c f9 26 02 be
       -0.12678453 -0.15748847 0.019810706 -0.1271018
000200 2a 38 17 be a8 8c fe 3d b2 eb 23 bf d2 97 ae 3e
       -0.14767519 0.12429172 -0.6403152 0.34100205
000210 29 c4 fe 3d 48 15 b0 bc be cc b5 3f a2 64 aa bd
       0.12439758 -0.021494523 1.4203107 -0.083199754
000220 c3 07 82 be c7 ce 74 bd 81 48 09 3f 00 40 c9 bd
       -0.25396547 -0.05976751 0.5362626 -0.0982666
000230 5b 5e 3c be 35 9a 9b 3e 68 76 b1 bf 77 a1 b2 3e
       -0.18395369 0.30391088 -1.386426 0.34888813
000240 a1 f9 17 be 8d 71 09 bf f4 9c 83 3f 65 3a 43 be
       -0.1484132 -0.5368889 1.0282273 -0.19065244
000250 b2 0c ee be 43 35 5b 3e 5b 8f 6a be 31 c0 cd bd
       -0.4649406 0.21407036 -0.22906248 -0.10046423
000260 6f cf 42 be ab 49 69 3e 7d 91 a1 bf 03 8a 0f 3e
       -0.19024442 0.22782008 -1.2622524 0.14017491
000270 a4 6b 94 3c ad dc 1e 3e 63 2c 0c 3f 0f b2 b1 3e
       0.018117733 0.15513869 0.5475523 0.3470616
000280 68 21 3e 3d 1f 49 36 3e 4e f6 7b be dc d2 96 be
       0.046418577 0.17801331 -0.24605677 -0.29457748
000290 3a 9b cf 3d d1 02 db 3a 40 0c 9f bd 0c 9d 38 3d
       0.10137029 0.0016709213 -0.077660084 0.045071647
0002a0 c4 78 67 be 37 fc 99 3d f5 6c f3 3d 39 dd 37 be
       -0.22604662 0.07518809 0.11886016 -0.17955483
0002b0 76 83 3a be 18 04 0b 3d 80 0f c2 bb 7e 40 83 be
       -0.18214211 0.03393945 -0.005922258 -0.2563514
0002c0 77 c4 dd bd 6c 87 a8 be 48 78 42 3f 04 63 3f 3c
       -0.10828488 -0.3291582 0.75964785 0.011681322
0002d0 2f f8 d9 bd 6d 4e 84 3d ee 3d 17 bf d9 c4 31 3e
       -0.106430404 0.06460271 -0.5907887 0.17360248
0002e0 1f 01 80 be 33 b0 88 3e 1a 2d d9 bf 7a db d2 3c
       -0.25000855 0.2669693 -1.6966889 0.02573942
0002f0 6c 88 17 bd 8e 7a ef 3c e9 f6 68 3f 25 e8 44 3e
       -0.036995336 0.029233243 0.91001755 0.19229181
000300 3c 06 87 3d 93 99 e5 3d 30 b9 1f bc 5a 4d 1e 3e
       0.06592986 0.112109326 -0.009748742 0.15459195
000310 c1 7f 3e be 7f 39 85 3e b6 71 dd 3e 90 ac c9 3c
       -0.18603422 0.2602043 0.43250817 0.024618417
000320 68 cd 5b 3e 93 7d a1 3d db f9 a3 3f 73 36 44 3e
       0.21465075 0.078852795 1.2810625 0.19161396
000330 d6 38 81 3e 12 a2 f4 3d 74 49 c8 bf 59 06 ed bc
       0.25238675 0.11944975 -1.5647416 -0.02893369
000340 55 75 66 be 6e e0 22 be 71 ec 17 bf d5 e6 9c 3e
       -0.22505696 -0.15905926 -0.59345156 0.3064486
000350 f0 4b 43 be 41 74 50 be 60 50 70 3e e3 e9 90 3e
       -0.19071937 -0.20356847 0.2346816 0.2830344
000360 07 01 1f be c2 64 d4 bc 7f 83 4d 3f 57 cf 7e 3d
       -0.15527736 -0.025926951 0.8027877 0.062209453
000370 23 1c 41 bd f3 03 a2 be bb 4a 23 3e 79 67 53 be
       -0.047145974 -0.31643638 0.15946476 -0.2064494
000380 22 50 13 3d bc c8 90 3e ec 4d 58 bf d4 27 c3 3e
       0.035965092 0.28278148 -0.844939 0.38116324
000390 f2 2e 5f bd 68 a9 cf 3d 38 88 e7 3e 7a 9d 9f 3e
       -0.05448813 0.101397336 0.45221114 0.31174833
0003a0 9b 78 1c bd ef 04 12 bf d2 12 35 3f 84 84 59 be
       -0.038200956 -0.5703878 0.7073184 -0.21241957
0003b0 14 62 9b bd 8b e1 18 bf 4f d2 a6 bd e0 bc 99 be
       -0.07587066 -0.5971915 -0.08145582 -0.30026913
0003c0 54 d2 f2 bd 37 35 1a 3d 87 21 13 3f 20 d9 34 3b
       -0.11856523 0.037648406 0.57473034 0.0027595237
0003d0 3a 34 cc 3b 3d 67 ad bd 01 1a 18 3f d3 e4 eb 3d
       0.006231812 -0.08466957 0.5941468 0.11518254
0003e0 45 1f b2 3c 92 ac 42 bd 3c 58 df bf 0d 71 f0 3d
       0.021743426 -0.047527857 -1.7448802 0.11740313
0003f0 78 5a 6c 3d e3 4a 36 3d 9e 61 16 bf d1 87 b2 3d
       0.057703465 0.04450501 -0.587427 0.08717311

bias f4 [16]
000000 59 56 95 3e 4f fb e0 bd 3f f8 49 3e 52 ca 4c bc
       0.2916744 -0.10985433 0.19723605 -0.012499409
000010 0f 1a 4a be 26 80 a2 3d ab 7f 12 3e 69 29 94 3d
       -0.19736503 0.079345986 0.14306514 0.07234461
000020 91 af c0 3e 93 6f ab 3c b8 05 e5 bc 87 33 2f 3d
       0.37633947 0.020927226 -0.027956828 0.04277375
000030 22 12 13 bd 39 be bc 3d f2 b1 19 3e b8 92 bc bc
       -0.035905965 0.092159696 0.15009287 -0.02301918

weight f4 [32, 16]
000000 9e 66 cd 3e 97 20 48 be 6d a3 38 3e 7a c2 9b bd
       0.40117353 -0.19543682 0.18031092 -0.07605453
000010 1d 08 83 bd 5e 00 e7 bc 1f e6 e6 be b4 a1 5b be
       -0.06398032 -0.028198417 -0.45097443 -0.21448404
000020 38 d8 4a 3e 82 60 50 be a0 6a 4d 3d 8d 02 cb be
       0.19809043 -0.20349315 0.050150514 -0.39650384
000030 cb 3b 05 be 8b a8 62 3e 25 0e a6 3e 47 70 ca be
       -0.1301109 0.22134607 0.32432666 -0.39538786
000040 cf fd f2 bd bc d1 88 3e 5f 68 c1 be 21 c2 e4 3e
       -0.118648164 0.26722515 -0.3777494 0.4467936
000050 07 ca a7 3d fa 3a 17 3e 76 5c e6 3e 89 7d 94 bd
       0.081928305 0.14768592 0.44992417 -0.072505064
000060 b9 47 c5 be b7 ea 7d be 63 5d a7 bd 26 12 ca bd
       -0.38531283 -0.24796568 -0.08172109 -0.09866743
000070 c2 4b ef 3c 7e be b8 3e 71 91 4e 3e 4a 54 43 be
       0.029210929 0.36082834 0.20172669 -0.19075122
000080 be 3d 37 3e b4 1d 9d 3e ed f0 4b 3e 70 ec 15 3f
       0.17894647 0.30686724 0.19916125 0.585639
000090 4b 7d 19 bd eb e1 b0 3e 89 31 75 3e 0e bc 52 bc
       -0.037473004 0.34547362 0.23944677 -0.012862219
0000a0 a8 46 88 be fd e4 60 3e e1 12 d2 bd f6 11 bd 3d
       -0.26616406 0.21962352 -0.10257507 0.092319414
0000b0 26 5e 86 be 51 bd 95 3c e8 4a 14 be 6a 89 15 be
       -0.26243705 0.01827875 -0.144817 -0.146032
0000c0 62 a0 a9 be 2f 81 81 3d 9c 2a 6e bd 21 e4 dc bd
       -0.33130175 0.06323468 -0.058146104 -0.107857
0000d0 0d 55 22 3e eb 28 74 3e 10 a2 bf 3e 37 05 3e be
       0.15852757 0.23843734 0.3742833 -0.18556677
0000e0 b9 fa ba be 04 e1 66 3e dc 24 1e be 58 ca 88 3e
       -0.3651941 0.22546774 -0.15443748 0.26716876
0000f0 30 6c 0a be bd b3 4d 3e 4c f7 d5 bc 8f 9f 50 3e
       -0.13517833 0.20088096 -0.026118897 0.20373367
000100 e3 0a c9 3e 2b 0c 3d bf 8e 17 55 3d da 99 5e be
       0.39266118 -0.7384669 0.052024417 -0.21738377
000110 dd 6c 06 be 19 c2 9e 3e 59 09 dd be 63 19 a6 3d
       -0.13127466 0.3100746 -0.43171194 0.08110311
000120 52 a0 07 3f cf 78 d8 3e e9 85 76 be a8 2b 7d 3d
       0.52979004 0.4227967 -0.2407452 0.061809212
000130 69 9e 82 3e 12 b0 33 bd 48 84 b1 bc 9b ef 0a 3f
       0.25511482 -0.043869086 -0.021669522 0.5427186
000140 71 10 d2 bd ed f5 c0 3e a6 9b 04 be 89 c9 3d 3f
       -0.10257042 0.37687626 -0.1295 0.74135643
000150 b6 f4 2a 3e c1 0a f9 3e 2d 4b 13 3e 4c be 5c 3e
       0.16694912 0.48641017 0.14384146 0.21556967
000160 08 2a ad be 70 5c 97 3d 82 bb 0c 3e 4c d7 26 3e
       -0.3382113 0.07390678 0.13743404 0.16293067
000170 0d 06 70 3e c6 36 8b 3c 94 43 a0 3e 86 60 64 be
       0.23439808 0.016993891 0.31301558 -0.22302446
000180 3f 90 df 3d 4e d5 a6 3e 67 56 ab 3e 3f 35 d9 3b
       0.10916185 0.32584614 0.33464357 0.006628662
000190 04 54 36 be 36 05 27 3f ca 86 3c 3e 9d c2 77 bd
       -0.17805487 0.65242326 0.18410793 -0.060488332
0001a0 68 b6 95 bc b1 cc 9f 3d 62 5f 22 3e 6d 42 1c 3e
       -0.018275455 0.07802714 0.15856698 0.15259714
0001b0 af 74 50 be eb 3b 34 3e 95 67 de 3d 99 a9 88 be
       -0.20357011 0.17600982 0.108596005 -0.26691893
0001c0 c0 d6 2e be 77 fd 4b be e7 e2 b0 3d 1c 2f cc 3d
       -0.17074108 -0.19920908 0.08637028 0.09969923
0001d0 b4 42 8a 3d e2 ec 47 be b5 74 c2 3b 27 4c 17 be
       0.06751004 -0.19523957 0.0059343227 -0.14775144
0001e0 70 22 9a be 08 f0 f6 3c 30 36 21 be 67 22 62 be
       -0.301044 0.030143753 -0.15743327 -0.22083436
0001f0 3a d2 5b 3d 9a f2 7a be a3 70 e3 bd 16 be d3 3d
       0.053667285 -0.24506608 -0.11105468 0.103389904
000200 00 d9 af 3d 96 98 95 3c 97 dc 26 be 47 5b 9d 3e
       0.08586311 0.018261235 -0.16295086 0.30733702
000210 5a c9 28 bd 78 82 a2 3e 21 67 15 bb 54 d6 a1 bd
       -0.04120765 0.31740165 -0.0022797065 -0.07902208
000220 24 86 af 3d 65 90 fd 3e 40 25 83 3e 1e 7b 40 3e
       0.08570507 0.49524227 0.25614357 0.18796965
000230 e9 bd 6f be 5e 8e 21 3e 1e dc 1a bc 7d 22 a8 3e
       -0.23412289 0.15776965 -0.009451894 0.32838812
000240 b9 3f c9 bd 88 7c 72 3e 20 dc 0c be 77 b0 c1 3e
       -0.09826607 0.23680317 -0.13755846 0.37829944
000250 37 90 23 3e 35 e6 ae 3e 27 12 a6 3e 86 58 09 3d
       0.15972982 0.3416001 0.32435724 0.03353169
000260 b6 7f c7 be 88 a3 ae bd 6c 35 8f 3e e2 ef 54 3e
       -0.38964623 -0.08527285 0.27970445 0.20794633
000270 a5 62 f7 bd 40 c9 39 3e ef 28 66 bb 6d 38 69 bd
       -0.12079362 0.18143177 -0.0035119613 -0.056938577
000280 46 39 86 3e ea 33 33 bf 78 e4 09 3e d5 da 67 3d
       0.2621557 -0.7000109 0.1346606 0.05660518
000290 26 5c 21 be 77 96 f8 bd f8 06 30 bf 54 1c 41 be
       -0.15757808 -0.12138074 -0.68760633 -0.18858463
0002a0 e7 4f ef 3e 9f a2 36 3d 6b 13 59 bd 0e e2 17 3e
       0.46740648 0.04458868 -0.052997034 0.14832327
0002b0 a7 db 22 3e 08 40 f6 3b 17 33 a5 3d c9 be b8 3e
       0.15904103 0.0075149573 0.08066385 0.36083058
0002c0 f5 b0 a3 bd d4 1b 6b be 55 a3 83 be 01 a5 b5 3d
       -0.07992736 -0.22959834 -0.2571055 0.088693626
0002d0 a2 bc bd 3d 1f d3 00 3f 5b f3 07 bd ea 0e b4 3d
       0.092644945 0.50322145 -0.033191066 0.08791907
0002e0 68 56 95 be 75 d5 f4 3e 96 4e 63 3d 71 46 ab 3d
       -0.29167485 0.47819105 0.055494867 0.08363045
0002f0 c4 73 05 be 4c 38 3b 3d a2 a5 2d be ec 24 61 3e
       -0.13032442 0.045707986 -0.16957715 0.21986741
000300 f4 c2 f0 bd c8 fd fd bd 80 c0 10 3c 46 c1 03 3e
       -0.11755934 -0.124019206 0.008834958 0.12866697
000310 20 e0 1e be 49 03 83 bd 54 3c 1b 3e 42 aa 2a 3e
       -0.15515184 -0.06397111 0.15159732 0.1666651
000320 59 5f bf bd 6a da 1f bd da 73 00 be d3 46 28 be
       -0.09344358 -0.039026655 -0.12544194 -0.16433267
000330 f8 ee a8 bd 66 f2 41 be ac ea 53 be 2a 62 4e be
       -0.08248705 -0.18940124 -0.20694989 -0.20154634
000340 61 ee 0a 3f e1 19 23 be 84 54 01 3f 2d 5e 8f 3d
       0.5426999 -0.15927841 0.50519586 0.070003845
000350 0e 36 37 be 37 26 8c be f2 23 a7 3d 87 ae 09 3e
       -0.17891714 -0.27372906 0.08161153 0.13445483
000360 84 4b b8 3e 4f 4e 1c bf 56 a8 51 be d2 ff bd be
       0.35995114 -0.6105699 -0.20474371 -0.37109238
000370 bf 55 3c be 45 3d c5 3e 23 90 b1 3e 55 8a ad bc
       -0.18392085 0.38523307 0.3468028 -0.021184126
000380 c7 57 4f be fe 19 d1 3e 5f ff a4 bd e8 96 13 3f
       -0.20248328 0.40840143 -0.08056521 0.5765214
000390 4d 37 ac 3d dd 51 b1 3e 82 df b8 3e 5a 2e 28 3d
       0.08408985 0.3463277 0.36108023 0.04105983
0003a0 1c 35 92 3e 4f 40 a5 bd 72 9c 35 be d6 bb a5 3d
       0.28556144 -0.080689065 -0.1773546 0.080924675
0003b0 ed 1d 12 3e 95 57 e8 3e 62 31 40 bc 2b f0 8c be
       0.14269228 0.4537932 -0.011730524 -0.27526984
0003c0 5a 1f fc bc 87 e1 8f 3e f9 8b fd 3d 27 56 56 3f
       -0.030776668 0.2810175 0.12380213 0.8372521
0003d0 bc 35 47 be 0b 87 ee 3e 1a 20 8b 3e 2f ca 21 be
       -0.19454092 0.46587405 0.2717293 -0.15799783
0003e0 49 74 ad be 49 f8 58 3e ad 2a 28 bc 74 a4 28 bd
       -0.3387778 0.21188463 -0.010264081 -0.04117246
0003f0 5e 91 c7 3d 50 05 f9 3e ef c9 e0 bd c1 7d e6 be
       0.097445235 0.48636866 -0.10976016 -0.45017818

bias f4 [32]
000000 46 60 0f be 02 ca f8 3d b2 8f 6d be a4 86 04 be
       -0.14001569 0.12147905 -0.23199347 -0.12941986
000010 94 50 ce bc 85 fc 6d bd d9 c3 e1 bb 94 ff 3f 3d
       -0.025184907 -0.05810215 -0.006889802 0.046874598
000020 52 09 18 3e ac a6 80 3e 9d b1 ed 3d af 54 fa bd
       0.14847305 0.2512716 0.11606143 -0.12223183
000030 d2 87 82 be c1 03 66 be 6d b4 47 be 1b 43 9a 3d
       -0.25494248 -0.2246237 -0.1950242 0.075323306
000040 9c de 47 3e d0 b2 fb 3d f8 e9 55 3e 19 b5 47 3e
       0.19518512 0.12289965 0.20890033 0.19502677
000050 5e 7e cf bb a2 7a ca 3d 4f 00 16 3e 1d d7 04 3c
       -0.006332203 0.098866716 0.14648555 0.008107928
000060 ef 0a 82 bd db ae 43 3e f9 15 7d be b2 5d 39 bd
       -0.06349742 0.19109671 -0.24715413 -0.04525537
000070 60 da fe bd 46 20 57 be b6 af d0 3d 0e 92 5c be
       -0.124439955 -0.21008405 0.10189764 -0.2154009

weight f4 [64, 32]
000000 35 62 6d 3e 66 7e 26 3f 89 ae bd 3e 47 b8 97 3e
       0.23181994 0.6503662 0.37047222 0.2963278
000010 f7 7d 3a 3d 9e c5 c7 3e c0 16 29 3f 9b cc 48 3e
       0.045530286 0.39017957 0.6605034 0.19609301
000020 2f 51 03 bd a0 47 13 3f 2b 72 9d bd af 34 a9 bd
       -0.032059845 0.57531166 -0.076877914 -0.08262002
000030 59 23 e3 bb 20 dd ea 3e 6b 93 93 3e 22 4d 10 3f
       -0.006931704 0.4587183 0.28823408 0.56367695
000040 8f 36 b7 3d 96 93 05 be 04 c5 e5 3e 90 df d3 3e
       0.08945953 -0.13044581 0.44876873 0.41381502
000050 b4 bf 60 bd 22 c4 ea bd 50 bc 88 3e ff d9 5e 3e
       -0.054870322 -0.114631906 0.2670617 0.21762846
000060 78 13 05 3f 0a 21 c5 3e a9 3b d5 3d 34 6c d3 3e
       0.5198283 0.3850177 0.1041177 0.4129349
000070 34 04 ad 3d a0 16 b2 3e 80 33 01 3f 5e 9d 97 3e
       0.08448067 0.34782887 0.5046921 0.2961225
000080 4a fe 2b bd b5 f9 6c bd d4 b1 96 3d ac 55 2b be
       -0.041990556 -0.057855327 0.07358137 -0.167319
000090 e8 08 de bb 79 18 e7 bd e8 ec 81 bd a9 61 d5 3d
       -0.006775964 -0.11283965 -0.063440144 0.10419018
0000a0 6d 7f 1e be 76 9b 8a 3d d5 76 33 be 7c 89 b0 3d
       -0.15478297 0.06767933 -0.175258 0.08619973
0000b0 82 9f 26 bc 45 f5 d7 3d e5 df 08 be fd 8f 9c bd
       -0.010169866 0.10544828 -0.13366659 -0.07644651
0000c0 b1 fd 0b be 54 62 c0 3d 05 b1 35 3d 55 f7 42 be
       -0.13670994 0.093937546 0.044358272 -0.19039662
0000d0 6e 24 a1 3c 90 66 37 be 42 0b 8b bd 34 eb 22 bb
       0.019670691 -0.17910218 -0.06789257 -0.002485943
0000e0 77 ef 33 be cb cc 81 3d 15 c0 3a be ef a0 3d 3d
       -0.17571817 0.06337889 -0.18237336 0.046296056
0000f0 18 c4 32 be 8d f5 c9 3d 19 98 90 3d b4 63 ae 3c
       -0.17457616 0.09861288 0.0706026 0.021287777
000100 74 f5 45 be 35 cb 41 3f 6d c4 2c 3f 57 63 c0 3e
       -0.19331914 0.75700694 0.6748722 0.3757579
000110 02 20 0f bf ec 62 88 3e a6 11 12 3f 9e 28 72 bd
       -0.55908215 0.2663797 0.5705818 -0.059120767
000120 4f f8 30 3c e7 1f ef 3e c6 28 8e be 7d 9d ad 3e
       0.010801389 0.46704027 -0.27765483 0.33909217
000130 9c 55 11 3d b0 a7 a5 3d 0c d9 94 3e 48 94 4f 3f
       0.035482034 0.080886245 0.29071844 0.81085634
000140 c7 9a ce bd e1 c9 46 3d 78 ed 29 3f 69 2d 28 3f
       -0.10088115 0.04853237 0.66377974 0.6569429
000150 ca b4 e8 3d 9a 2c 43 be de 24 f6 3d de 89 7e be
       0.11362608 -0.19059983 0.120187506 -0.2485728
000160 e4 86 84 3e 69 e9 ba 3e 4d c0 20 be ef 01 f1 bd
       0.25884163 0.36506203 -0.15698357 -0.11767947
000170 fc f9 33 bd fd 16 ba 3e 23 4a 0d 3f 8c 90 be 3e
       -0.043939576 0.36345664 0.5519125 0.37219656
000180 11 40 8e be 50 85 0d 3f 03 a7 1a 3f 4c 55 ab 3e
       -0.27783254 0.55281544 0.6041109 0.33463514
000190 5b 0d c0 be f8 8b 0b 3f dc 3a 09 3f 61 1a 5b be
       -0.3751019 0.5451045 0.5360544 -0.21396782
0001a0 9b 32 15 3e 35 87 d9 3e e7 fa 99 be 5e 27 c3 3d
       0.14570086 0.42485967 -0.30074236 0.09528993
0001b0 a0 cd 5c 3a f9 ac d6 bd 7f 43 5a 3e 1a 14 ed 3e
       0.00084229745 -0.10482211 0.2131481 0.463044
0001c0 7c fd 1d be 43 2d 26 3e 65 c3 18 3f e8 99 a9 3e
       -0.15428728 0.16228203 0.5967315 0.33125234
0001d0 ba 72 6c 3e a8 b1 25 be 8b 7f 12 3e 2a 5e 95 be
       0.2309064 -0.16181052 0.14306466 -0.29173404
0001e0 46 9b 8c 3e 00 9c c4 3e af 6c 6b be 63 f6 65 3e
       0.27462214 0.3840027 -0.22990678 0.2245727
0001f0 a7 9c d4 bd 7f a9 08 3e 39 a1 1c 3f 70 1e c2 3e
       -0.103814416 0.13345908 0.61183506 0.37913847
000200 e7 cb 9e be ad 93 04 3f 68 eb 0d 3f 33 2d f6 3e
       -0.3101494 0.51787835 0.55437326 0.4808136
000210 ec cf da be ee 56 2f 3e 8d 86 9d 3e 6e 69 a7 bd
       -0.42736757 0.17123005 0.30766717 -0.08174406
000220 ea 7c 73 bd 80 6c 23 3f 94 21 bb be b0 82 e2 bc
       -0.0594453 0.6383743 -0.36549056 -0.027650207
000230 15 61 37 3e e3 18 c4 3b b9 67 c9 3e 71 98 48 3e
       0.17908128 0.005984412 0.39336947 0.19589402
000240 4c bf f1 bd a9 02 bd 3d 97 cf 40 3f c3 a3 28 bc
       -0.11804065 0.09229023 0.75316757 -0.01029295
000250 db 76 b6 bc 43 a8 11 bd a2 d5 5c 3e 0a b7 91 be
       -0.022273472 -0.035560858 0.2156587 -0.2845996
000260 13 f1 e0 3e aa ce 10 3f 9b 88 32 be 92 a3 df 3d
       0.43933925 0.56565344 -0.17434923 0.109198704
000270 0e 60 40 bd b0 be 68 3e c0 1b 85 3e df a9 cd 3e
       -0.046966605 0.22728992 0.25997734 0.40168664
000280 23 af 15 bd 7f 10 fe 3c 9a 0e 67 be c9 7f 5b be
       -0.036543977 0.031013725 -0.22564164 -0.21435465
000290 e2 4a 8c 3d 5c 83 57 3a f1 09 fa be 35 e4 f1 bd
       0.0685022 0.0008221173 -0.4883571 -0.11811105
0002a0 73 04 7b be f2 e6 f7 be fe 93 5d 3e 5b 15 97 be
       -0.24513416 -0.48418385 0.21638486 -0.2950848
0002b0 0e c9 e9 bd ba f7 95 3d d6 4b 13 3e d9 ae 79 3e
       -0.11415301 0.07322641 0.14384398 0.24383105
0002c0 f6 1d 0a 3e 1b c2 3c 3c 27 9a 9a bc 0f 0d dc bd
       0.13487992 0.011520888 -0.018872334 -0.10744678
0002d0 da 2f ec bd e9 44 f0 3d de 29 22 bd 46 9d f5 bc
       -0.115325645 0.117318936 -0.03959071 -0.02998222
0002e0 7b 6b 91 3e fa e3 02 be 06 ad fd bd c3 f8 33 3e
       0.28402314 -0.12782279 -0.12386517 0.17575364
0002f0 ce f6 bf 3e 2c 21 6d bd 26 ae 05 3e 04 76 35 be
       0.37492985 -0.057892963 0.13054714 -0.177208
000300 62 0e 62 bd 11 e5 2d 3d 89 ea 3c be dc df 14 be
       -0.055189498 0.042454783 -0.18448843 -0.1453852
000310 e1 36 8f 3d f5 5f 33 3d 9f d5 42 be ed 3f 42 bd
       0.06992889 0.043792684 -0.19026802 -0.047424246
000320 f2 5a 8a bd 5f b6 55 bd aa be 6a bc 0b f0 eb ba
       -0.06755628 -0.052175876 -0.014327684 -0.0018000616
000330 ac aa f3 3d 58 a1 1f bd 88 a8 28 be a8 7a fe bd
       0.118977875 -0.03897223 -0.1647054 -0.124257386
000340 d0 bf 59 bd 4e 12 55 bd 03 d5 a5 bd a3 7e 3d 3c
       -0.053161442 -0.05201941 -0.080972694 0.011565837
000350 05 23 9f be a6 28 46 3d c7 a5 2f be 72 0d be 3d
       -0.31081405 0.04837861 -0.17153083 0.09279908
000360 1a dd 8e 3d cd 69 6e be 6d 73 82 3d ae 12 24 3d
       0.069757655 -0.23282547 0.06369672 0.040056877
000370 a1 38 c0 bd da 35 bd bd 9f 96 63 be 17 ca 25 bd
       -0.09385801 -0.09238787 -0.22225426 -0.04047593
000380 82 13 83 be e9 df b0 3e b1 9b be 3e 32 e7 90 3e
       -0.2560082 0.3454583 0.37228158 0.28301388
000390 25 de 44 be 9a 3e 0d 3e b0 d0 d3 3e e0 eb 18 bd
       -0.19225366 0.13793412 0.41370153 -0.037334323
0003a0 3a f0 8b 3e 1a 23 06 3f 79 0c 63 be 9e 30 19 3e
       0.27331716 0.5239731 -0.22172727 0.14959952
0003b0 79 ad 56 3d b9 87 57 be 34 58 80 3e 3e 68 90 3e
       0.05241153 -0.21047868 0.25067294 0.2820453
0003c0 b3 d0 bf bd 90 37 d5 3d 4d 58 df 3e 26 c0 e0 3e
       -0.09365978 0.10410988 0.43622056 0.43896598
0003d0 17 ed 81 3e 67 86 b4 3c 51 ab 3b 3d b5 d4 4a 3d
       0.25376198 0.022036744 0.045817677 0.04951926
0003e0 e7 67 0d 3e c0 fd 28 bd 1a 95 62 be f1 b3 b7 bd
       0.13809167 -0.04125762 -0.2212719 -0.08969868
0003f0 f4 5b 25 be 70 a1 be bc 04 d5 2c 3e 6a 0e c6 3e
       -0.16148359 -0.023270339 0.16878134 0.38682872

bias f4 [64]
000000 c2 54 b4 3e 0a 57 5c be ea cf 8d 3e ae eb aa 3d
       0.35220915 -0.21517578 0.27697688 0.083457336
000010 34 96 53 3c 4c 2e 5f 3d d5 28 6e be d0 56 c2 3d
       0.012914229 0.05448751 -0.23257764 0.094892144
000020 6f 1d 9a bd 27 fe 9b 3d f0 06 de 3d 1d f4 23 bd
       -0.07525145 0.07616835 0.10841167 -0.040027726
000030 af 91 02 3d 68 86 0d 3e 42 be 9e 3d 1a 04 62 3e
       0.031877216 0.13820803 0.077511325 0.22071877
000040 d8 9d af 3e cf 9f 9a bd 75 25 01 bd be ad f5 bd
       0.34300113 -0.07550012 -0.031529862 -0.11996029
000050 c3 be b6 3e 2c e8 57 bd b7 d6 06 3e 4f 83 cd bd
       0.35692415 -0.05271165 0.13167845 -0.10034811
000060 68 f2 2a 3e 14 36 8a 3d 7a f6 61 3e f6 9e 48 bd
       0.16694033 0.06748596 0.2206668 -0.048979722
000070 65 23 44 3d f9 57 74 3b 9f 50 fe 3d 68 0b 69 3e
       0.047885317 0.003728388 0.12417721 0.22758257
000080 c6 b7 0a 3e fe 7e 20 3e 1f f4 9f 3e 36 c6 1e 3c
       0.13546667 0.15673444 0.31240937 0.009690812
000090 41 3f 18 3d 56 b7 ff 3d 3a fc 41 bd d3 48 f2 3b
       0.0371697 0.124861404 -0.047359683 0.007393935
0000a0 71 4c 21 3e 01 51 5b 3e e2 69 dc bc a8 ec 39 3e
       0.15751816 0.2141762 -0.026905958 0.18156683
0000b0 63 e0 68 3d bb 2f fd 3d af 90 e3 bc 88 55 f4 bd
       0.056854617 0.123626195 -0.027778951 -0.11930376
0000c0 cc 60 29 bd a3 61 d7 3b a9 67 3d 3e 02 0e 6d bc
       -0.04135208 0.0065729185 0.18496574 -0.014468672
0000d0 df 4c 82 3e 48 cd 80 3d ab 6c 75 be e1 87 c8 3d
       0.25449273 0.06289154 -0.23967235 0.09791542
0000e0 99 d4 2c 3d ee e9 f1 39 fe e5 d8 3e de 1f 34 be
       0.042194936 0.00046141393 0.4236297 -0.17590281
0000f0 05 1c 0c 3e 67 54 da bd f8 41 2b be f0 1d d5 3c
       0.13682564 -0.1066063 -0.16724384 0.026015252

weight f4 [4, 64]
000000 9b f1 c3 3c d6 0e 6e bb bd bf 40 be d5 b2 11 be
       0.023918917 -0.003632476 -0.18823142 -0.14228375
000010 fc d7 35 3e 34 9c c6 3e 69 88 3a bc 5c 49 a0 be
       0.17758173 0.3879105 -0.011385062 -0.3130597
000020 ea 94 dd bd e1 df 13 be 5a a0 6d be d9 c5 92 3d
       -0.10819419 -0.14440872 -0.232057 0.07166643
000030 3c 0a dd be a4 b7 4f bd 99 d4 69 3e ea ad d9 bd
       -0.4317187 -0.050712243 0.22835006 -0.106288746
000040 7a ea 0d bd a8 61 7f be 4a f8 a6 3e ca 09 f4 be
       -0.034647442 -0.24939597 0.32611305 -0.47663718
000050 e5 80 cb be b8 d3 9f bd cc c7 10 3d 7f 09 e9 be
       -0.39746776 -0.07804054 0.03534679 -0.45515057
000060 cb e8 55 3b 39 b1 87 3d 59 3c b2 bc c3 18 f1 3d
       0.0032639976 0.066255994 -0.021757292 0.11772301
000070 91 ed 7c bd 2e 87 c4 be 3a b7 6d be d5 55 3f be
       -0.06175 -0.38384384 -0.23214427 -0.18685086
000080 b8 39 8d bd 53 59 34 bc b0 ac 7e be 3c c5 51 3d
       -0.068957746 -0.011007625 -0.24870563 0.051213488
000090 70 c4 5c 3d 7f 46 f6 3c d9 74 b9 3d 92 6a 90 be
       0.053898275 0.030062912 0.0905549 -0.28206307
0000a0 91 c7 e0 be 37 4e 01 3f 50 68 a8 3d 93 2a 81 be
       -0.43902257 0.5050997 0.08223021 -0.25227794
0000b0 ac 3e 15 3d 4b d9 2f be 0d f4 b6 be 24 5e 71 bd
       0.03643672 -0.17172734 -0.3573307 -0.05892767
0000c0 de f1 c3 be e5 67 fd bc 2a 09 76 3e 98 51 1a 3d
       -0.38270468 -0.03093333 0.24026933 0.03767547
0000d0 87 f7 fe 3e bd 6c d1 bd 00 72 49 ba 21 51 13 be
       0.49798223 -0.10225818 -0.0007684529 -0.14386417
0000e0 77 7a 18 bd 3b cc 6d bd 9c f3 bc bc c5 f6 1d 3c
       -0.037226167 -0.058056097 -0.02306538 0.009641354
0000f0 57 b1 5d be 98 40 a2 bd dc 98 b5 3a 93 51 82 3e
       -0.21649681 -0.079224765 0.001385476 0.2545286
000100 e4 f1 d1 bd 12 15 da 3c c6 1d 9e 3e 41 c7 90 3e
       -0.10251215 0.026621375 0.3088209 0.2827702
000110 b4 fe 0f bd 1f 97 20 be e3 f9 0c 3d 67 49 33 3e
       -0.035155013 -0.15682648 0.034417998 0.1750847
000120 86 c2 76 bd 58 47 39 3d 87 bc d0 bd 3b 3e ee be
       -0.060244106 0.045234054 -0.10192209 -0.46531853
000130 1f d9 73 3e 9d 61 38 be f4 d4 ca be 4b ff a6 3e
       0.23813294 -0.18005987 -0.39615595 0.32616648
000140 52 96 f8 bc 93 48 fd 3d fd 33 d8 3e 65 ae 62 be
       -0.030345116 0.12367358 0.42227164 -0.22136839
000150 b1 60 bd be 3b 43 e7 be 18 77 ef bd b8 a9 50 3e
       -0.36987832 -0.4516848 -0.11692637 0.20377243
000160 8b ed 6c 3e ff 2f d3 bd 13 5e 90 be fe af 53 bd
       0.2313749 -0.10311889 -0.28196773 -0.05168151
000170 8b 86 4e 3c 70 d8 2b 3e 65 1b b4 be 19 fd 40 be
       0.01260532 0.16781783 -0.3517715 -0.18846549
000180 0b 3b f0 bc dc cd cd 3c de 48 a9 be 69 c4 a2 be
       -0.029325029 0.025122575 -0.33063406 -0.31790474
000190 70 34 9a 3d af e6 9a be 02 f6 8b 3d 9e bf a1 bc
       0.07529533 -0.30254123 0.06834032 -0.01974469
0001a0 34 0b 54 3d d1 d8 d2 be ee 72 fb 3d 6a 67 8a bd
       0.051768497 -0.41181043 0.122777805 -0.06758006
0001b0 9c 36 ed 3d a2 10 44 be a3 ae 74 3a 65 e4 bb 3d
       0.115826815 -0.1914697 0.0009333884 0.09174422
0001c0 39 6a f0 3d 46 e1 e0 bc dc 44 fa be c1 05 0f 3d
       0.1173901 -0.027451169 -0.4888066 0.034917597
0001d0 a4 e6 b0 bd 35 bd ce be 56 1e c5 3d c8 ae 01 be
       -0.08637741 -0.40378729 0.09624927 -0.1266433
0001e0 a4 e2 9a bc 66 13 80 bd 04 fc 83 be 0c d1 0c 3e
       -0.018906899 -0.062537 -0.2577821 0.1375162
0001f0 0d 95 2d 3d 3c db 69 bd 2d 93 a9 bb 5e 5b c7 be
       0.042378474 -0.057093844 -0.0051750154 -0.38936895
000200 12 2a 92 be 58 0c 3a bd 66 7c ce bd da 54 64 bc
       -0.28547722 -0.04542193 -0.10082321 -0.013936246
000210 ac 26 92 bd 72 3a ab be 9a fe 97 bd 17 79 83 bc
       -0.07136282 -0.33443028 -0.07421608 -0.016048951
000220 34 68 5d 3e a9 71 b6 3c 81 ea 00 3e 8d 34 46 be
       0.21621782 0.022270994 0.12589456 -0.19355984
000230 19 24 03 3e 61 f6 b9 be b1 c3 98 bd 44 85 d2 bd
       0.12806739 -0.36320785 -0.074592 -0.10279325
000240 82 03 91 be ae 16 0b be fc 9d 92 be 4d cc b0 3e
       -0.2832299 -0.1358287 -0.28636158 0.3453087
000250 48 e5 98 3e a3 1e af 3d 11 ed 53 3d a1 63 08 3e
       0.29862428 0.08550765 0.051739756 0.13319255
000260 83 a3 b7 bd 9e 42 e6 3d 1e 3b 92 be 88 d4 43 3e
       -0.08966734 0.11243175 -0.28560728 0.19124043
000270 ca 3d 15 3d fd 54 93 3e 3a 91 e7 3d 19 ba be 3e
       0.03643588 0.28775778 0.11306997 0.37251356
000280 0f 63 8c be b0 00 7d be 9c 27 a4 3d f0 a2 8e be
       -0.27419326 -0.24707294 0.080153674 -0.27858686
000290 ee 05 de bd ae e9 8f be 63 cd 79 bd 26 73 28 3e
       -0.10840975 -0.2810797 -0.060986888 0.16450176
0002a0 96 71 ca 3e 85 f2 a9 be e2 9f c0 3d d8 3b 0e be
       0.39539784 -0.3319284 0.09405495 -0.13890016
0002b0 ca 28 ea bd a9 2c 43 3e 12 1b 23 3e f8 84 92 3d
       -0.11433561 0.19060005 0.15928295 0.07154268
0002c0 0f d5 d1 3e 32 37 cc 3b 93 84 55 be d3 1f f7 3d
       0.40982863 0.0062321657 -0.20851354 0.12066617
0002d0 27 bc 31 bf 97 49 ba 3d 14 f6 39 bd a6 f5 b0 3e
       -0.6942772 0.090960674 -0.045400694 0.34562415
0002e0 55 84 d9 3c 77 29 ce be 21 4f b3 be d9 50 a1 be
       0.026552359 -0.4026601 -0.35021308 -0.31506994
0002f0 1f 66 3c be 9c e2 e4 3d 59 c8 84 bb e9 6d e4 bd
       -0.18398331 0.11176035 -0.0040522036 -0.11153776
000300 e6 09 ce be c9 10 50 3d 06 79 a5 be 07 41 0c bf
       -0.40241927 0.050797258 -0.32318896 -0.54786724
000310 af b7 31 bf 21 4b dc 3d 98 40 33 3e d0 6d 46 be
       -0.69420904 0.10756517 0.1750511 -0.19377828
000320 38 e6 e5 3c d5 08 1d bf 82 ff 96 be 07 2a 4c 3d
       0.028063878 -0.613416 -0.29491812 0.049844768
000330 e7 4d 29 3e d1 41 82 bc 1f 3b 97 3e d5 23 8a be
       0.16533624 -0.015900524 0.29537293 -0.26980463
000340 ec e4 9b be cc bc b4 be 64 c5 c9 be 3d 05 c0 3e
       -0.3044809 -0.3530029 -0.3940841 0.37503996
000350 c1 c6 bb 3e d5 bd ee 3d 8a 7f 13 3e a4 43 59 be
       0.36675075 0.11657301 0.14404121 -0.21217209
000360 5e 20 08 bf 10 49 78 3d 8c 8b 6b bd d2 0b 32 bf
       -0.5317439 0.060616553 -0.05750613 -0.69549286
000370 ed d4 28 bd 17 3a 9a be 1e f0 bc 3d 3c ec 91 3e
       -0.041218687 -0.30122444 0.09225486 0.28500545
000380 9d f9 45 be 3b 8c a8 be 2b 2c 6e bd 41 64 cd 3d
       -0.19333501 -0.32919487 -0.05814759 0.100288875
000390 53 a8 b2 3d 41 0b 24 bb d1 da 2a bc 78 16 eb be
       0.087235115 -0.0025031122 -0.010428146 -0.4591558
0003a0 59 77 53 3e a5 41 cb 3d 10 57 57 bd c7 f9 b6 be
       0.20650996 0.0992463 -0.052573264 -0.3573744
0003b0 7a fb a8 bd ab 4e 6f be 9f 88 85 be d0 35 ae ba
       -0.0825109 -0.23369853 -0.26080796 -0.0013291184
0003c0 80 ed b5 bc 70 bb 8a 3d 80 8c c6 3d 20 6a 72 3c
       -0.022207975 0.06774032 0.09694767 0.01479581
0003d0 a2 93 39 3e bb 5c af 3c 7a 5a ed bc 7b 7a 4d 3e
       0.18122724 0.021406522 -0.028973807 0.20066254
0003e0 c2 35 c7 bc 60 b7 e5 3e 7d da 17 bd f6 34 1d 3d
       -0.024317626 0.44866467 -0.0370736 0.038380586
0003f0 5b a9 8c be 90 a4 a1 bc d2 f6 5f 3e a2 21 15 bd
       -0.27472958 -0.01973179 0.21871498 -0.036409028

bias f4 [4]
000000 32 20 bf 3c b0 ed ab bd ec bd 2d bd 1c ec db bd
       0.023330782 -0.08394945 -0.04241745 -0.10738394
