saves/kevin/kevin_nn_2025-02-22_14-56-27.pt (torch, 17468 bytes, 8 tensors)

weight f4 [16, 16]
-0.026901377 0.85807645 2.1529312 -0.18598154 -0.083525695 -0.0072007473 -1.4844906 0.398368
0.00603572 -0.21595831 -1.9233499 -0.0078916205 0.008764126 0.24514529 0.1020205 0.34193745
-0.34680226 -0.94526035 -0.14201842 -0.55705607 0.010733469 -0.18687053 -0.44535762 -0.018581698
-0.14403042 0.07570947 -0.8042138 0.11793967 0.25093693 -1.1007581 0.46350542 -0.87946916
-0.44583234 0.1145408 -0.28218052 -0.0016825969 -0.057850268 -0.064589374 0.6736731 -0.17959306
-0.5504517 -0.41997868 -0.48112386 -0.713788 -0.4260145 -0.35058227 -0.83361393 -0.28671226
-0.061451048 -0.090779506 -0.07112661 -0.30174178 0.12344674 -0.16916785 0.36999753 -0.3930224
-0.23741205 -0.082340874 -1.0896006 -0.2601486 -0.029797055 -0.008834365 -0.1531541 0.12979892
0.04765536 0.33192426 1.3619934 0.10619403 0.009592251 -0.024610857 1.6592484 -0.12037928
0.052396573 0.0739775 0.7722008 0.16236277 0.08914392 -2.3387973 0.19515575 -0.13864858
-0.20651458 -6.6591387 0.26497316 -0.068894595 -0.07293741 -0.040789273 0.95475537 0.496604
-0.12110989 -0.4724804 -0.6139862 -0.33267704 -0.109636605 -0.52916527 -3.5432577 0.6962694
-0.08114061 -0.25401732 -1.5384979 0.26802695 -0.036561947 -0.09254923 2.9371452 -0.2255581
-0.08743585 -0.32858506 -2.274358 0.23057184 -0.12381035 0.95200896 -1.1216965 0.2085011
-0.020008663 1.5379138 -0.48472705 -0.027677616 0.024696907 -0.023665361 1.2593209 0.2217102
0.057722114 0.331762 0.6967813 -0.14060766 -0.032133237 0.01811087 -4.5599566 0.5368151
-0.053834368 -2.1590624 -0.85766864 0.30699742 -0.01706404 -0.004775546 -1.127807 0.091223985
-0.05208838 -0.08965779 -0.28023893 0.221028 0.02826752 -6.2526784 0.08411877 0.07361226
0.47453275 -2.5431328 0.65582573 -0.22125201 0.06710677 0.006495781 -0.45066887 0.06931615
0.06554416 0.671431 1.6768157 0.68805504 -0.049868695 0.83426595 -0.26710787 0.0034412157
-0.13535357 0.21659444 -1.3720033 0.18326555 -0.133381 -0.042732745 -0.9478986 0.21974513
-0.025378402 -3.507501 1.2545404 0.021122934 -0.057273265 -0.05804029 -1.1790291 0.29526794
0.1689081 -2.0319502 0.6166057 -0.26397577 -0.049665857 -0.03332196 1.226201 0.40547305
0.013032893 0.028322281 -2.7793074 0.31768057 -0.08366488 -0.1515798 -1.0596206 0.44380218
-0.5363863 -1.0584028 -0.2211416 -0.07452975 0.038266227 -0.22463138 -0.92498606 0.11614792
-0.22283277 -0.5369011 -0.23451328 -0.3431344 0.09483674 -1.8791091 -1.428508 -0.49176
0.07415377 2.6483207 -3.4192982 0.3781778 -0.0034496563 0.039478354 1.6087509 -0.08051729
0.06903151 0.60385585 -0.8030626 0.5780869 0.012032717 -0.26176137 0.9916866 -0.22712359
-0.28048056 0.13851666 0.19764295 -0.32898313 0.018574605 -0.3302477 0.27914113 -0.33591
-0.19077772 -0.10795197 -0.68577737 -0.20024747 -0.019077066 -0.18072014 -0.45128503 0.14998908
-0.057038814 -0.08290136 -0.17653549 -0.088348135 -0.0014413297 -0.030362515 -0.21442218 -0.057715513
0.021891832 -0.038722783 -0.1816453 0.058928672 0.03910479 0.101180404 0.109036714 -0.26542816
00000000: 4760 dcbc e6aa 5b3f a0c9 0940 f271 3ebe
00000010: 850f abbd 3ff4 ebbb ca03 bebf e4f6 cb3e
00000020: 4ac7 c53b 2d24 5dbe 5430 f6bf db4b 01bc
00000030: 6997 0f3c 5e07 7b3e 20f0 d03d 6d12 af3e
00000040: 1190 b1be 95fc 71bf 476d 11be 3a9b 0ebf
00000050: 6fdb 2f3c fd5a 3fbe ea05 e4be a538 98bc
00000060: b67c 13be 910d 9b3d f5e0 4dbf 5b8a f13d
00000070: ce7a 803e a4e5 8cbf 9550 ed3e e424 61bf
00000080: 2344 e4be 5e94 ea3d f779 90be 958a dcba
00000090: 67f4 6cbd 6f47 84bd d775 2c3f 3ee7 37be
000000a0: 67ea 0cbf 7207 d7be de55 f6be cfba 36bf
000000b0: 931e dabe 857f b3be b967 55bf f3cb 92be
000000c0: 18b4 7bbd 9bea b9bd d4aa 91bd e67d 9abe
000000d0: a5d1 fc3d 563a 2dbe 5170 bd3e 3b3a c9be
000000e0: 251c 73be 55a2 a8bd 0878 8bbf 3332 85be
000000f0: f418 f4bc 03be 10bc 6ed4 1cbe 02ea 043e
00000100: 4432 433d faf1 a93e cd55 ae3f 417c d93d
00000110: d128 1d3c b59c c9bc 4062 d43f 6989 f6bd
00000120: ca9d 563d 8481 973d f4ae 453f 6d42 263e
00000130: 1691 b63d dbae 15c0 e9d6 473e e5f9 0dbe
00000140: 8f78 53be aa17 d5c0 90aa 873e 9c18 8dbd
00000150: 3560 95bd a712 27bd d96a 743f e142 fe3e
00000160: 7608 f8bd f3e8 f1be 332e 1dbf a554 aabe
00000170: 2889 e0bd 6077 07bf bcc4 62c0 b63e 323f
00000180: 0c2d a6bd 8f0e 82be 80ed c4bf d43a 893e
00000190: fbc1 15bd 738a bdbd 30fa 3b40 b4f8 66be
000001a0: 9111 b3bd 4d3c a8be 158f 11c0 061b 6c3e
000001b0: 4890 fdbd dcb6 733f c093 8fbf 5081 553e
000001c0: 35e9 a3bc 5cda c43f 252e f8be 2bbc e2bc
000001d0: 2b51 ca3c dcdd c1bc 6d31 a13f 0008 633e
000001e0: 066e 6c3d b5dc a93e 4260 323f 74fb 0fbe
000001f0: 249e 03bd 3f5d 943c 2aeb 91c0 b76c 093f
00000200: 6d81 5cbd 142e 0ac0 2c90 5bbf c42e 9d3e
00000210: e3c9 8bbc 2f7c 9cbb fb5b 90bf a4d3 ba3d
00000220: a05a 55bd 819e b7bd 7a7b 8fbe 2a55 623e
00000230: 4991 e73c f115 c8c0 7646 ac3d 06c2 963d
00000240: f5f5 f23e b0c2 22c0 32e4 273f e38f 62be
00000250: 466f 893d 8fda d43b 12be e6be a0f5 8d3d
00000260: 043c 863d e7e2 2b3f e6a1 d63f 6024 303f
00000270: 1e43 4cbd 7492 553f 5dc2 88be 0586 613b
00000280: 209a 0abe efca 5d3e ce9d afbf f7a9 3b3e
00000290: 0795 08be 8808 2fbd 7ca9 72bf de04 613e
000002a0: 5ee6 cfbc e57a 60c0 c894 a03f 010a ad3c
000002b0: 5f97 6abd a8bb 6dbd 6dea 96bf 5c2d 973e
000002c0: 3ff6 2c3e 790b 02c0 dfd9 1d3f d527 87be
000002d0: 6d6e 4bbd 9c7c 08bd 28f4 9c3f 2a9a cf3e
000002e0: ea87 553c 2104 e83c 2ce0 31c0 07a7 a23e
000002f0: 7e58 abbd bc37 1bbe a6a1 87bf 0a3a e33e
00000300: 9d50 09bf be79 87bf f272 62be 0ea3 98bd
00000310: 0cbd 1c3d c505 66be e3cb 6cbf f6de ed3d
00000320: 462e 64be 5a72 09bf 4024 70be 50af afbe
00000330: c439 c23d a686 f0bf 5ad9 b6bf f7c7 fbbe
00000340: efdd 973d 167e 2940 c8d5 5ac0 85a0 c13e
00000350: a113 62bb 0eb4 213d 8deb cd3f 40e6 a4bd
00000360: 6460 8d3d 4c96 1a3f 8395 4dbf 81fd 133f
00000370: df24 453c 9605 86be 2cdf 7d3f 1693 68be
00000380: 269b 8fbe 50d7 0d3e ea62 4a3e 7a70 a8be
00000390: c529 983c 3a16 a9be 96eb 8e3e 65fc abbe
000003a0: 3c5b 43be ec15 ddbd 1b8f 2fbf ac0d 4dbe
000003b0: 8247 9cbc b30e 39be d50e e7be bd96 193e
000003c0: 88a1 69bd 30c8 a9bd b8c5 34be deef b4bd
000003d0: 00eb bcba cfba f8bc 7d91 5bbe 1a67 6cbd
000003e0: 8056 b33c c89b 1ebd 3a01 3abe 315f 713d
000003f0: 582c 203d ac37 cf3d a44e df3d 33e6 87be

bias f4 [16]
-0.32270926 -0.23928007 -0.26946327 -0.27484527 -0.028758626 0.49062312 0.5080833 -0.20372735
0.655278 0.12722862 0.04954266 -0.21725202 0.06253406 -0.07335842 -0.23807338 0.16005222
00000000: 263a a5be d605 75be 17f7 89be 85b8 8cbe
00000010: 3697 ebbc f432 fb3e bf11 023f e79d 50be
00000020: 4dc0 273f 3848 023e 3fed 4a3d 5077 5ebe
00000030: db11 803d f03c 96bd 82c9 73be bbe4 233e

weight f4 [32, 16]
-0.41961783 -0.52087814 0.76614285 0.27083865 0.22154774 0.97600764 -0.07510015 -0.15876111
-1.7594498 -0.39456618 0.4861688 0.07538668 -0.13133132 -0.123653606 0.4717385 0.10489467
0.0736407 0.4814186 1.0340518 0.003494102 0.39083123 0.18069191 -0.010611707 0.073241204
-0.12631759 -0.44093212 0.3784877 -0.8489187 0.38446644 -0.23074126 0.3167453 -0.21259445
-0.1660508 -0.18262854 -0.27016792 0.14862455 -0.16457619 0.00400919 -0.23460662 -0.092791036
0.07516039 -0.3458696 -0.11397257 -0.0015004615 0.08392085 -0.43963078 -0.12159671 0.009624064
-0.4015928 -0.41313627 0.22002162 0.3889017 0.24057715 0.43313318 0.36968192 -0.085866354
-1.1629105 -0.11899197 -0.06431661 0.6723815 -0.54013 0.12625946 0.46699077 -0.18509941
-0.014025402 -0.12699416 -0.117938384 0.13287841 -0.07389934 0.05985973 -0.25172558 -0.29754624
-0.29367065 -0.12773326 -0.027525831 -0.03430954 0.009735487 -0.033375755 0.09864955 0.14712912
-0.303937 0.08849533 0.644032 0.08588965 0.18193226 0.20775512 -0.506221 0.33888358
0.34847176 0.5920183 0.73666406 0.05218492 0.71338755 0.48143014 0.17437388 -0.21231784
0.21664883 0.26339334 -0.10530965 0.121660024 0.7567634 0.55478483 0.42740968 0.07909964
-0.83976364 -0.533537 -0.006025317 -0.9048607 0.2513445 0.33694917 -0.08335209 0.24827698
-0.27997676 -0.64933145 0.5739582 0.13638076 0.06547322 0.34217602 -0.32303625 -0.07423284
-0.27188948 -0.22797722 0.24934314 0.82362485 -0.25549045 0.3122911 0.24466279 -0.20865114
-0.35545808 -0.23638907 0.5528239 0.22079979 1.0865221 0.72589 1.245229 0.2621106
0.37645972 -0.13313119 0.64900297 -0.62332314 0.5399002 0.45610487 0.3578853 0.18978003
0.3690166 0.564445 0.15494466 0.3766354 1.4028693 0.21074063 0.7992078 -0.08922759
0.5341202 -0.26211077 -0.17346792 0.59772944 0.39373332 0.80943304 0.29372922 0.0040172124
-0.03400189 0.3036694 0.48849055 0.4511151 0.41846085 0.47253385 0.9116634 0.47732773
0.63158125 0.0049677137 0.9284141 -0.5105051 0.71022993 -0.0005037225 -0.10515415 0.21829416
-0.16917476 -0.37217182 -0.32273248 -0.099567235 -0.036404546 -1.0212291 -0.921569 0.487181
1.0114899 0.07048762 0.19362068 -0.34898278 -0.18592353 0.21642992 0.07647106 -0.2157582
-0.86973715 -0.5880113 0.68029356 0.15475835 -0.3723343 0.14170906 0.027286258 -0.136777
-2.1887362 0.12753591 0.4386129 -0.42120284 -0.005336454 0.288766 0.23300104 -0.0472058
0.07127681 0.35749233 1.1524633 -0.18596181 1.5604882 0.7614401 1.1657073 0.3679467
0.5425482 1.031812 0.8617337 -0.16207126 -0.11653569 -0.30183247 -0.2714035 -0.18854952
0.43578333 0.094918035 -0.057325363 0.2617498 -0.76262844 -0.7261103 0.09663764 -0.3927743
0.66352487 -0.042753987 -0.043790046 0.03135152 0.35875067 0.20949183 0.09866386 -0.15933189
-0.08265026 0.043712918 0.12040317 0.04730063 0.030471753 -0.26495132 -0.16071595 -0.266004
-0.13347855 -0.008637954 -0.21258523 -0.24521285 0.010573536 -0.10508463 0.16437225 -0.11985424
00000000: 26d8 d6be 4558 05bf f021 443f 5dab 8a3e
00000010: 69dd 623e a3db 793f 1cce 99bd 4692 22be
00000020: a735 e1bf 9404 cabe 1eeb f83e 5564 9a3d
00000030: b87b 06be 1a3e fdbd b587 f13e 04d3 d63d
00000040: efd0 963d 807c f63e cf5b 843f 4efd 643b
00000050: 081b c83e 4d07 393e badc 2dbc 7cff 953d
00000060: 6659 01be dbc1 e1be 24c9 c13e bc52 59bf
00000070: c9d8 c43e 7047 6cbe 712c a23e 5cb2 59be
00000080: 3909 2abe fa02 3bbe 7353 8abe 0931 183e
00000090: a986 28be 865f 833b b83c 70be 3a09 bebd
000000a0: b1ed 993d d215 b1be 736a e9bd 22ab c4ba
000000b0: b2de ab3d 4917 e1be b207 f9bd 40ae 1d3c
000000c0: 929d cdbe 9986 d3be 594d 613e 201e c73e
000000d0: db59 763e a2c3 dd3e f346 bd3e b3da afbd
000000e0: 40da 94bf 10b2 f3bd 6db8 83bd 3221 2c3f
000000f0: f645 0abf 294a 013e 6a19 ef3e b38a 3dbe
00000100: cdca 65bc c20a 02be ae89 f1bd 4711 083e
00000110: 8a58 97bd 7a2f 753d 2de2 80be fb57 98be
00000120: 005c 96be 82cc 02be da7d e1bc 2988 0cbd
00000130: 9881 1f3c 04b5 08bd c608 ca3d 04a9 163e
00000140: a19d 9bbe 0a3d b53d 48df 243f eae6 af3d
00000150: 734c 3a3e c2bd 543e b397 01bf 2682 ad3e
00000160: e46a b23e 838e 173f 0496 3c3f dbbf 553d
00000170: 91a0 363f 037e f63e 118f 323e d969 59be
00000180: 31d9 5d3e 7edb 863e 96ac d7bd e428 f93d
00000190: 3fbb 413f 6106 0e3f 71d5 da3e fefe a13d
000001a0: c0fa 56bf e195 08bf 0670 c5bb f3a4 67bf
000001b0: 3ab0 803e 9a84 ac3e 80b4 aabd 523c 7e3e
000001c0: 1d59 8fbe 963a 26bf edee 123f 66a7 0b3e
000001d0: d316 863d b231 af3e 0265 a5be 6307 98bd
000001e0: 1935 8bbe dc72 69be cf53 7f3e 14d9 523f
000001f0: a5cf 82be 9ee4 9f3e e288 7a3e a5a8 55be
00000200: 9afe b5be fa0f 72be de85 0d3f 5719 623e
00000210: 2813 8b3f edd3 393f aa63 9f3f 5c33 863e
00000220: 54bf c03e 8b53 08be 0f25 263f 1b92 1fbf
00000230: e636 0a3f 9486 e93e be3c b73e b255 423e
00000240: beef bc3e 787f 103f d0a9 1e3e 5bd6 c03e
00000250: 3991 b33f 64cc 573e e298 4c3f f4bc b6bd
00000260: 1abc 083f 6233 86be 93a1 31be cc04 193f
00000270: 6a97 c93e 0137 4f3f ad63 963e d2a2 833b
00000280: 9145 0bbd 8e7a 9b3e 6f1b fa3e 8ff8 e63e
00000290: 8040 d63e f5ef f13e c662 693f 4d64 f43e
000002a0: 4faf 213f 34c8 a23b 8cac 6d3f 76b0 02bf
000002b0: a1d1 353f 3f0c 04ba 0f5b d7bd 8188 5f3e
000002c0: 263c 2dbe 4e8d bebe 313d a5be e8e9 cbbd
000002d0: ef1c 15bd a3b7 82bf f2eb 6bbf ca6f f93e
000002e0: 8078 813f d05b 903d 8044 463e dfad b2be
000002f0: bd62 3ebe ce9f 5d3e dc9c 9c3d b8ef 5cbe
00000300: 18a7 5ebf e987 16bf b827 2e3f f978 1e3e
00000310: 9aa2 bebe 2e1c 113e 6e87 df3c 450f 0cbe
00000320: 4114 0cc0 c698 023e df91 e03e e6a7 d7be
00000330: 6cdd aebb 23d9 933e d397 6e3e de5a 41bd
00000340: 93f9 913d 3c09 b73e eb83 933f c66c 3ebe
00000350: 14be c73f bded 423f e635 953f 8363 bc3e
00000360: 70e4 0a3f 6a12 843f 949a 5c3f 02f6 25be
00000370: 44aa eebd c989 9abe 66f5 8abe 2013 41be
00000380: fe1e df3e 6364 c23d 00ce 6abd 1204 863e
00000390: 9e3b 43bf 5de2 39bf f4e9 c53d b719 c9be
000003a0: c4dc 293f ce1e 2fbd 315d 33bd 746a 003d
000003b0: 2bae b73e 0785 563e 4710 ca3d e627 23be
000003c0: 8a44 a9bd 510c 333d f095 f63d 4ebe 413d
000003d0: e69f f93c b3a7 87be b992 24be ad31 88be
000003e0: 9aae 08be 3486 0dbc f1af 59be 1419 7bbe
000003f0: a03c 2d3c 9c36 d7bd 3351 283e 2476 f5bd

bias f4 [32]
-0.046872772 0.54540294 -0.05872919 -0.6039318 -0.27440873 0.9908204 0.2817646 -0.42280897
0.32995093 0.7658838 0.6363719 0.42742288 0.35055178 1.1993161 -0.14623241 -0.28691342
0.11541772 -0.07102728 0.825553 0.3065823 -0.010671072 0.73239285 0.1740996 -0.054451536
-0.42683908 0.02837327 -0.0662159 0.14753322 -0.6103687 -0.016152002 -0.026447417 -0.7876636
00000000: aafd 3fbd 879f 0b3f 058e 70bd 469b 1abf
00000010: 4d7f 8cbe 68a6 7d3f 7343 903e 6b7a d8be
00000020: 54ef a83e f610 443f 45e9 223f 2cd7 da3e
00000030: 867b b33e 3183 993f f3bd 15be 51e6 92be
00000040: 2060 ec3d c076 91bd 7157 533f 5bf8 9c3e
00000050: b8d5 2ebc 197e 3b3f 2a47 323e 9308 5fbd
00000060: a78a dabe 0f6f e83c 349c 87bd f312 173e
00000070: 2041 1cbf 3451 84bc 41a8 d8bc 52a4 49bf

weight f4 [64, 32]
-0.54823124 1.027243 -0.059248205 0.5514429 0.010503982 -0.4657198 0.7553614 0.33113864
-0.19909205 0.73860824 0.1094166 -0.56358683 0.5760685 0.83536166 -0.40696552 0.2577313
2.125648 -0.036444914 -0.19523497 -1.5953153 -0.12450286 1.2201511 0.65349174 1.5786831
-0.05074647 -0.048920583 -1.4354844 1.690029 2.0079584 0.94899094 1.4906455 0.6894348
0.028311232 -0.31538677 0.122090444 -0.05543294 0.13515463 -0.18554497 0.014697049 -0.005846565
0.07660226 -0.23467903 -0.20695166 -0.21127382 -0.28195277 -0.32214984 -0.10999126 0.021613851
0.1451102 -0.13720244 -0.23660532 0.18292266 0.042070583 0.058245577 -0.1915747 -0.06892004
0.104365416 0.14722046 -0.06532538 0.045070272 -0.119693 -0.04972242 -0.20583409 -0.10861431
-0.14766982 -0.06178476 0.16138846 -0.49418634 -0.030271804 -0.048926618 0.0048835855 -0.25005808
-0.21068364 -0.34440753 -0.008681997 0.162684 -0.4387264 0.24042846 -0.084914975 -0.1739647
-0.36239105 -0.49022824 -0.09059434 -0.20965987 0.093857996 -0.19690102 -0.43697044 -0.57097334
-0.13430506 -0.0058571054 -0.21748893 -0.4335291 -0.47847524 -0.10706948 -0.22197506 -0.459008
-0.19158491 0.41599256 -0.029439231 0.019371029 0.073674105 -0.24421147 -0.54284245 -0.09999897
0.43670517 0.3779534 0.51992553 -0.5021162 -0.5860168 -0.22072631 -1.9083437 -0.06870079
-0.61207044 0.7106949 -0.042278342 -0.6834797 0.043869913 0.022538148 -0.19953427 -0.17083707
-0.12648572 0.17223486 -0.61689305 0.0077024815 -0.85213345 -0.71086633 -0.57928675 -0.60247433
0.5264284 1.1537241 0.1508424 0.8311625 0.124782056 0.055134144 0.8050315 1.0700811
-0.048052344 -0.50045574 -0.11423294 -0.51533806 -0.31537464 -0.0069152215 0.4995413 0.122936495
0.8461902 -0.48766446 -0.41483825 -0.8738129 -0.13341032 0.04038918 0.05957281 -0.0952348
-0.24660218 -0.15150057 -0.5954368 0.31131825 0.66489094 -0.15773039 0.75387216 0.78800297
-0.068660215 -0.09613422 -0.040792502 -0.007013757 -0.19867873 -0.20062903 -0.09611332 -0.05911896
0.07069756 -0.05231404 0.0006891487 0.021352235 0.005120191 -0.11311329 -0.11009447 0.011116767
0.08323909 -0.030444503 -0.1704907 0.10515981 -0.09128237 -0.22588256 0.024334237 -0.14467734
-0.03950506 0.0672803 -0.16483144 -0.0062904814 -0.27523303 -0.18783 -0.14381737 -0.1724206
-0.61739904 0.07674464 0.083358906 0.68146014 -0.10995593 -0.3506309 0.58562714 0.2943609
0.0029354042 -0.25034496 -0.011868031 -0.06866684 -0.10604571 -1.3892106 -1.5203831 -0.14540246
0.35437763 0.7094456 -0.6552001 -1.6746819 -0.18672864 -0.06152205 -0.38325116 0.47869602
0.39500207 -0.15276822 -0.74498373 0.6043897 -0.8377411 -0.17917134 -0.33129317 -0.69676805
0.6754098 1.1453491 -0.1483362 0.44945383 -0.099683486 1.0672483 1.4779848 0.19289583
0.44998688 0.995218 0.52224755 -0.2184666 1.1260555 0.842967 0.698538 -0.17344321
0.31994626 0.12591687 0.9235904 0.59198385 -0.22115128 0.79563445 0.18592718 0.6614212
-0.02548852 0.15872182 0.42356384 0.37774754 -0.070628166 0.6684416 0.094069004 -0.70648277
00000000: e258 0cbf b37c 833f 3fae 72bd 5d2b 0d3f
00000010: e518 2c3c d372 eebe 5d5f 413f 018b a93e
00000020: c9de 4bbe 6e15 3d3f cf15 e03d 3a47 10bf
00000030: 3a79 133f 43da 553f c95d d0be 5bf5 833e
00000040: 9e0a 0840 4347 15bd adeb 47be 4b33 ccbf
00000050: 5bfb febd e92d 9c3f 3c4b 273f 4a12 ca3f
00000060: 88db 4fbd f360 48bd f4bd b7bf df52 d83f
00000070: 6482 0040 12f1 723f 79cd be3f cd7e 303f
00000080: f5ec e73c 607a a1be 8e0a fa3d a70d 63bd
00000090: fa65 0a3e 80ff 3dbe e4cb 703c 8b94 bfbb
000000a0: a5e1 9c3d b34f 70be 23eb 53be 2a58 58be
000000b0: 1d5c 90be d3f0 a4be 1943 e1bd 880f b13c
000000c0: c597 143e cc7e 0cbe aa48 72be 1450 3b3e
000000d0: 3452 2c3d ea92 6e3d 282c 44be f325 8dbd
000000e0: 89bd d53d f6c0 163e 50c9 85bd 9b9b 383d
000000f0: 9b21 f5bd bca9 4bbd 2cc6 52be 2e71 debd
00000100: c236 17be 0412 7dbd 0443 253e fe05 fdbe
00000110: 93fc f7bc 4767 48bd 7c06 a03b 9d07 80be
00000120: 74bd 57be 2f56 b0be ef3e 0ebc a296 263e
00000130: bfa0 e0be e132 763e e7e7 adbd cd23 32be
00000140: 528b b9be 32ff fabe 8689 b9bd 14b1 56be
00000150: 9f38 c03d 6ca0 49be 97ba dfbe 4f2b 12bf
00000160: 4487 09be f6ec bfbb 6bb5 5ebe 87f7 ddbe
00000170: b5fa f4be 3e47 dbbd 6e4d 63be 1903 ebbe
00000180: d62e 44be fafc d43e 8b2a f1bc feaf 9e3c
00000190: 73e2 963d 9212 7abe b9f7 0abf 43cc ccbd
000001a0: d297 df3e 1c83 c13e d719 053f b08a 00bf
000001b0: 3205 16bf 1406 62be 9b44 f4bf 00b3 8cbd
000001c0: a6b0 1cbf 1af0 353f 0e2c 2dbd 87f8 2ebf
000001d0: f0b0 333d eca1 b83c b652 4cbe eaef 2ebe
000001e0: 7985 01be 565e 303e b4ec 1dbf 1965 fc3b
000001f0: 6b25 5abf 56fb 35bf 234c 14bf c23b 1abf
00000200: 03c4 063f 3bad 933f 6e76 1a3e 11c7 543f
00000210: bc8d ff3d 57d4 613d 8b16 4e3f 6bf8 883f
00000220: 89d2 44bd de1d 00bf f6f2 e9bd 32ed 03bf
00000230: c978 a1be 1599 e2bb e1c3 ff3e 21c6 fb3d
00000240: ec9f 583f 28af f9be ae65 d4be 34b2 5fbf
00000250: b79c 08be 206f 253d 9e02 743d 760a c3bd
00000260: 4885 7cbe f722 1bbe 8c6e 18bf 1b65 9f3e
00000270: 4b36 2a3f 1384 21be c4fd 403f 90ba 493f
00000280: ba9d 8cbd 05e2 c4bd 0a16 27bd a8d3 e5bb
00000290: 7072 4bbe b271 4dbe 0fd7 c4bd b926 72bd
000002a0: e2c9 903d 3f47 56bd fda7 343a e2ea ae3c
000002b0: 46c7 a73b f1a7 e7bd 3679 e1bd 1a23 363c
000002c0: 4279 aa3d c066 f9bc 1d95 2ebe 075e d73d
000002d0: 40f2 babd c24d 67be 9858 c73c 4c26 14be
000002e0: 0fd0 21bd 41ca 893d 93c9 28be 6220 cebb
000002f0: 58eb 8cbe 8256 40be dc44 13be 078f 30be
00000300: dd0d 1ebf 4b2c 9d3d 13b8 aa3d 2c74 2e3f
00000310: 9330 e1bd e585 b3be a9eb 153f 79b6 963e
00000320: e95f 403b 372d 80be 2172 42bc 33a1 8cbd
00000330: 7e2e d9bd a7d1 b1bf ea9b c2bf 62e4 14be
00000340: fc70 b53e 3a9e 353f 32bb 27bf fa5b d6bf
00000350: cb35 3fbe 8cfe 7bbd 7f39 c4be a517 f53e
00000360: b63d ca3e 466f 1cbe 41b7 3ebf 49b9 1a3f
00000370: 3376 56bf b178 37be 429f a9be 645f 32bf
00000380: a8e7 2c3f cd9a 923f 72e5 17be d01e e63e
00000390: db26 ccbd 989b 883f 9b2e bd3f 7c86 453e
000003a0: ae64 e63e 9bc6 7e3f 04b2 053f b5b5 5fbe
000003b0: 9622 903f afcc 573f 63d3 323f 199b 31be
000003c0: ffcf a33e 5af0 003e 6c70 6c3f 418c 173f
000003d0: 7b75 62be b3ae 4b3f b263 3e3e e652 293f
000003e0: 4dcd d0bc f987 223e 5cdd d83e 2068 c13e
000003f0: 80a5 90bd fd1e 2b3f 40a7 c03d 0edc 34bf

bias f4 [64]
0.76849157 0.041605484 -0.46873486 -0.54789716 -0.33624658 -0.22317897 -0.19747014 1.1175368
-0.21635544 0.043601435 1.7232552 -0.24805538 -0.2614415 -0.26359752 -0.25801775 0.015937533
0.23012498 -0.27005717 0.38888025 0.70471114 0.38658535 0.058430724 -0.15037009 -0.15195376
0.01868451 1.1353145 0.037906706 0.3499446 -0.14291832 -0.18446462 0.44222537 0.20353086
-0.3776736 -0.29147384 -0.32613778 -0.05795986 0.9806454 0.08733059 -0.14664778 0.14235786
-0.24620956 -0.069513865 -0.47725004 -0.06619822 0.0035567263 0.29201478 -0.057552297 0.42308584
-0.21291038 -0.63861686 0.35496503 -0.43300673 -0.27261555 1.1712806 -0.20732667 0.22082119
-0.26633492 0.4901329 0.48673198 -0.08302185 -0.003745375 1.0895234 -0.095316514 -0.009828235
00000000: ddbb 443f 836a 2a3d 04fe efbe fd42 0cbf
00000010: 8328 acbe 0789 64be 9d35 4abe 720b 8f3f
00000020: 488c 5dbe 6b97 323d a093 dc3f 3b02 7ebe
00000030: a9db 85be 41f6 86be e71a 84be 6e8f 823c
00000040: e2a5 6b3e ef44 8abe 501b c73e f367 343f
00000050: 84ee c53e 0e55 6f3d 9efa 19be c499 1bbe
00000060: 4210 993c fc51 913f 1044 1b3d f02b b33e
00000070: 2e59 12be 4be4 3cbe 5d6b e23e 656a 503e
00000080: 6f5e c1be 0f3c 95be 88fb a6be 5167 6dbd
00000090: 940b 7b3f 61da b23d d62a 16be 42c6 113e
000000a0: 5c1e 7cbe 495d 8ebd 1e5a f4be ef92 87bd
000000b0: f717 693b f682 953e f5bb 6bbd b59e d83e
000000c0: 2e05 5abe 657c 23bf fabd b53e 0fb3 ddbe
000000d0: 4494 8bbe 86ec 953f 714d 54be f31e 623e
000000e0: 0d5d 88be b3f2 fa3e ef34 f93e 5c07 aabd
000000f0: f774 75bb 8175 8b3f 4e35 c3bd 9b06 21bc

weight f4 [4, 64]
-0.66100734 -0.15286082 -0.022378918 0.729156 0.080321275 -0.13513611 -0.16696516 -0.19914277
0.0120326 0.055357866 -0.22622477 -0.21760221 -0.045994356 0.18286233 0.07716221 0.031024998
0.9473441 -0.19715983 1.6183915 -0.051028375 -0.19185555 -0.09032609 -0.01821315 0.035260838
-0.046516046 -0.2818112 0.07185879 1.4490793 0.043062523 -1.2582157 -0.65597 0.20728919
0.9428817 0.08865337 0.0063864985 -0.3359105 0.60257995 -0.12643932 -0.038103577 0.59710944
-0.13430528 0.746993 0.7890475 0.008118756 0.020522935 -0.91485196 -0.016992325 1.3051416
-0.0843261 0.5035407 -0.04350436 -0.18547463 -0.022841487 -0.13697979 0.1323423 1.1004419
0.08434603 -0.798915 -0.23064126 0.032557886 1.2524569 -0.16142368 0.104829684 0.04355847
-0.34340975 -0.2991981 -0.17443758 -0.5377635 1.3159945 0.024490176 0.3076633 0.055619575
-0.04465304 -0.05927069 0.03585831 0.76418537 0.056018602 0.048714224 -0.004271616 -0.03110929
0.76001585 0.08711964 -0.1897957 0.1424702 0.16177659 -0.018999796 -0.07206091 0.07772945
-0.064158134 0.27406007 -0.07218626 0.076134905 -0.037247915 0.62877303 -0.30376127 -0.053142443
0.0007689068 0.018113554 -0.01176201 -1.6287978 -0.68787426 -0.018217854 -0.059266813 0.05775713
-0.11529193 -0.27732906 -2.9789855 0.060020186 0.0033662322 0.40447876 0.15238766 0.26795134
0.026284855 -0.576406 -0.10462499 0.35197526 0.01041991 0.2389147 0.04540441 -0.40806878
0.010111362 0.25137606 -0.026947405 -0.077336304 -0.2800308 0.028287007 -0.20470577 0.023924084
-0.13234401 0.020688685 0.17279585 -0.032130122 -0.7167342 -0.053483523 0.22433303 0.07830776
-0.106081314 0.05166644 0.09349092 -2.292946 0.06259898 -0.059942596 -0.065877914 0.061279807
-0.58808243 -0.0157368 -0.4818197 0.8326921 0.17249075 -0.12174053 -0.059800267 0.08178051
0.18203552 0.05001524 -0.119786635 -1.2578781 -0.027421253 -0.53692245 0.39116094 0.6363693
-0.05041726 0.11689447 -0.07710268 -1.633724 0.110789806 -0.052079543 0.015583633 1.0665578
-0.6585368 -0.19580685 -0.29982617 0.016711682 0.001778169 0.25144908 -0.007068962 0.16057545
-0.11304095 -0.5551157 0.00051864865 -0.108765215 0.0795011 -0.03695515 0.9193242 -0.09179029
0.07732974 0.18415438 0.5864937 0.06526281 -0.20596178 -0.16918829 0.030752543 0.03358677
0.73755294 -0.022884674 -0.0472382 0.39647347 1.5342555 0.03543439 1.0327973 -0.5935826
-0.043806393 0.101279445 -0.5204604 1.5182166 0.037064184 -0.17688851 -0.060963 0.07638805
-0.6241009 0.04535391 0.60828286 -0.13288645 -0.74092853 0.53751165 0.04733441 -0.026116503
0.081212774 -0.48626587 -0.12349391 -0.71040356 0.06669678 0.9622984 -1.3593554 -0.13698937
0.3360716 0.046267577 -0.10054246 0.9004718 -0.4958158 0.33795136 0.10396221 0.107509375
0.2671234 0.6902396 1.1399541 -0.04654211 -0.04706474 0.43720925 -0.04664736 2.9951754
-0.0431955 2.6132443 0.18236324 0.9993111 -0.045520183 -0.36953184 0.57040536 0.25316903
-0.103690624 -0.09997909 0.04429957 0.01756488 0.56473964 0.02530725 -0.055962447 0.08418661
00000000: c737 29bf 8c87 1cbe fe53 b7bc f8a9 3a3f
00000010: 7b7f a43d 1f61 0abe eaf8 2abe 15ec 4bbe
00000020: 6224 453c eebe 623d 77a7 67be 1dd3 5ebe
00000030: 9464 3cbd 4340 3b3e 3907 9e3d 2328 fe3c
00000040: 2585 723f 44e4 49be 7427 cf3f 2103 51bd
00000050: c875 44be e3fc b8bd be33 95bc ab6d 103d
00000060: 9c87 3ebd 8f49 90be b42a 933d 6e7b b93f
00000070: 5462 303d 360d a1bf a6ed 27bf 9e43 543e
00000080: b260 713f e68f b53d d545 d13b 76fc abbe
00000090: ae42 1a3f 4f79 01be 7f12 1cbd 2adc 183f
000000a0: 5387 09be ef3a 3f3f 04ff 493f 8804 053c
000000b0: b71f a83c bd33 6abf 7d33 8bbc e10e a73f
000000c0: 2ab3 acbd 0be8 003f a131 32bd 10ed 3dbe
000000d0: 121e bbbc 6e44 0cbe bd84 073e 48db 8c3f
000000e0: 9dbd ac3d b285 4cbf 392d 6cbe 6b5b 053d
000000f0: 8250 a03f 404c 25be f2b0 d63d 5e6a 323d
00000100: 67d3 afbe 7e30 99be c49f 32be deaa 09bf
00000110: 8272 a83f 9f9f c83c 0b86 9d3e 5ad1 633d
00000120: 1be6 36bd d3c5 72bd 2ae0 123d a7a1 433f
00000130: c373 653d 9188 473d eaf8 8bbb e9d8 febc
00000140: 6690 423f c86b b23d ce59 42be b5e3 113e
00000150: c3a8 253e 76a5 9bbc ac94 93bd 9e30 9f3d
00000160: 5765 83bd 9a51 8c3e 64d6 93bd 9eec 9b3d
00000170: 4591 18bd 45f7 203f 9986 9bbe e4ab 59bd
00000180: 7690 493a e062 943c 72b5 40bc 727c d0bf
00000190: 8718 30bf 9c3d 95bc c2c1 72bd be92 6c3d
000001a0: 2d1e ecbd 13fe 8dbe b3a7 3ec0 bad7 753d
000001b0: 019c 5c3b d717 cf3e 830b 1c3e eb30 893e
000001c0: 5653 d73c 588f 13bf a045 d6bd 1a36 b43e
000001d0: 45b8 2a3c 0ea6 743e faf9 393d 64ee d0be
000001e0: 20aa 253c 5db4 803e cec0 dcbc 7f62 9ebd
000001f0: 3260 8fbe 27ba e73c 649e 51be 71fc c33c
00000200: 3085 07be 517b a93c 65f1 303e e09a 03bd
00000210: e47b 37bf 8a11 5bbd 8fb7 653e d25f a03d
00000220: 2941 d9bd 30a0 533d 2b78 bf3d a1bf 12c0
00000230: e533 803d 5e86 75bd 00eb 86bd 8900 7b3d
00000240: 928c 16bf 76ea 80bc 12b1 f6be 4f2b 553f
00000250: 6aa1 303e 1953 f9bd 20f1 74bd 8a7c a73d
00000260: 8567 3a3e c8dc 4c3d b252 f5bd 2602 a1bf
00000270: 89a2 e0bc c073 09bf 3f46 c83e 19e9 223f
00000280: 5482 4ebd 5e66 ef3d 03e8 9dbd de1d d1bf
00000290: c4e5 e23d 5c51 55bd 7f52 7f3c f784 883f
000002a0: de95 28bf 9781 48be d182 99be f0e6 883c
000002b0: 7311 e93a efbd 803e c0a2 e7bb e46d 243e
000002c0: 0382 e7bd 101c 0ebf ecf5 073a 4cc0 debd
000002d0: 79d1 a23d 495e 17bd d558 6b3f 8cfc bbbd
000002e0: 0e5f 9e3d f792 3c3e 7324 163f 82a8 853d
000002f0: a5e7 52be b23f 2dbe c2ec fb3c 4892 093d
00000300: 45d0 3c3f a478 bbbc d87c 41bd 92fe ca3e
00000310: 7c62 c43f a723 113d b432 843f 07f5 17bf
00000320: 556e 33bd 996b cf3d e53c 05bf ec54 c23f
00000330: 9dd0 173d 4322 35be 57b4 79bd 5771 9c3d
00000340: 14c5 1fbf 06c5 393d 6db8 1b3f 6313 08be
00000350: 7ead 3dbf 5d9a 093f bae1 413d 47f2 d5bc
00000360: e252 a63d d7f7 f8be 60ea fcbd 02dd 35bf
00000370: 5298 883d 3059 763f 5cff adbf f146 0cbe
00000380: 9411 ac3e 1283 3d3d 35e9 cdbd 5285 663f
00000390: 92db fdbe f607 ad3e 24ea d43d e02d dc3d
000003a0: 66c4 883e 8bb3 303f 04ea 913f f1a2 3ebd
000003b0: f5c6 40bd e4d9 df3e 4d11 3fbd f4b0 3f40
000003c0: c4ed 30bd 653f 2740 6ebd 3a3e dad2 7f3f
000003d0: 5f73 3abd 4733 bdbe 1606 123f 5f9f 813e
000003e0: c05b d4bd d6c1 ccbd 7773 353d 39e4 8f3c
000003f0: c792 103f 2651 cf3c e138 65bd 086a ac3d

bias f4 [4]
0.10279659 0.43504447 0.1223376 -0.5887447
00000000: 0587 d23d 26be de3e 238c fa3d f9b7 16bf
