saves/kevin/kevin_nn_2025-02-22_16-42-10.pt (torch, 17468 bytes, 8 tensors)

weight f4 [16, 16]
-0.06506463 -0.122405425 -0.12822644 -0.2006935 0.03297303 0.14354563 0.48071235 0.26124573
0.070526235 0.08127403 -0.119486086 -0.08994801 -0.09596432 -0.36518922 -0.18955036 -0.15204874
-0.012444017 -0.26553476 0.065283105 -0.26561427 -0.19689414 -0.006618931 0.12864807 0.21020412
-0.052245606 -0.03016213 0.022688737 0.105680324 -0.091915995 -0.24965383 -0.18133469 -0.28854716
-0.2992817 -0.4646631 0.24862081 -0.096489154 0.008659531 -0.13041829 0.058508012 0.27877468
-0.15899234 -0.2855168 0.0019122204 0.1642311 0.17430666 0.111736655 -0.12176035 -0.029919516
0.06315216 0.035905235 0.059656374 -0.23890828 0.09739573 -0.0061978884 0.3120968 0.23464105
-0.10544919 -0.023404093 0.011489692 0.04134056 -0.0721509 -0.43488836 -0.05867323 -0.33334395
0.015544609 0.25561363 -0.09390508 0.12104886 -0.25241333 -0.049235564 0.61570126 0.08212072
0.16459215 -0.33007827 0.078898445 -0.017837726 -0.04751969 -0.092828594 -0.26779413 0.1862181
-0.13118815 0.12463867 0.15013832 0.285377 -0.06783108 0.23227033 0.4012238 0.06668461
-0.028131947 -0.104113124 -0.28339997 0.051123533 -0.11422052 0.15762788 0.1499485 0.107303225
0.061487217 -0.36689165 0.36661428 -0.2716809 -0.081341006 -0.09955703 0.32459873 -0.07803588
-0.16999236 0.30976975 -0.29760295 -0.018179461 0.028728535 0.16938524 -0.044532496 0.3540359
-0.30439392 0.14027567 0.43053073 0.010975263 -0.07185665 -0.10767471 0.07217333 0.32798567
-0.21192797 0.13671455 -0.14327662 -0.26928496 0.113532715 -0.026001576 -0.52601177 -0.32632565
-0.24934061 0.13629301 -0.082853496 -0.1399771 0.063024946 0.020640634 0.020871073 -0.138856
0.26617026 0.23585936 -0.28388458 -0.22285345 0.16808389 -0.03180374 0.26643988 -0.055537164
0.10272166 0.04546246 0.027596384 -0.24653101 -0.23694783 -0.24696437 0.018125504 0.0191181
-0.13281602 -0.095287085 0.004079908 -0.20445457 -0.0109499395 0.16627508 0.03700596 -0.22395107
0.06730733 0.09055203 0.0016473758 -0.095750354 0.08580301 -0.26398364 0.18800583 0.18300046
-0.092551365 -0.189938 -0.03378927 -0.043080773 0.021287145 -0.2359121 -0.22717173 0.23852056
-0.16115439 0.18464175 0.081504256 -0.17205557 0.054405265 -0.19706413 0.17166655 -0.056452192
-0.16481417 -0.22454491 0.13928245 -0.1905993 0.05769503 0.069331914 -0.1306585 -0.22173318
-0.17552342 0.0045712567 -0.11945189 0.26960105 0.18639603 0.1533421 0.6955856 -0.1340958
0.24686494 0.0457438 0.07558182 -0.0026613558 0.19367738 0.04989399 -0.17227125 -0.06721906
-0.020566562 0.22597048 0.11995586 0.27898502 -0.030316394 -0.053675033 0.58294654 0.06246136
-0.22022675 0.047163904 0.06020616 -0.05556881 0.05071776 0.0017840466 -0.09923171 -0.007899101
-0.15176886 -0.11417479 0.017617362 -0.15593244 0.05291544 0.21573766 0.288759 0.25816137
0.21738051 0.014719782 0.028417226 -0.0467728 -0.19717905 -0.13085559 -0.22899297 -0.14791334
0.0351848 -0.22301014 0.3995197 -0.0099044535 -0.03270034 -0.14565015 0.603449 0.36008883
-0.25224304 0.14691281 0.034890592 0.21193676 -0.17721839 0.046291273 0.06524893 0.19155775
00000000: 9b40 85bd b2af fabd cb4d 03be 9982 4dbe
00000010: ba0e 073d a0fd 123e ee1f f63e 00c2 853e
00000020: 0f70 903d 0073 a63d 1fb5 f4bd aa36 b8bd
00000030: f188 c4bd 15fa babe 7d19 42be aab2 1bbe
00000040: fee1 4bbc 2cf4 87be 26b3 853d 98fe 87be
00000050: 9e9e 49be 9ee3 d8bb 52bc 033e c03f 573e
00000060: 7dff 55bd 9216 f7bc bbdd b93c ed6e d83d
00000070: 743e bcbd 41a5 7fbe cdaf 39be 74bc 93be
00000080: 733b 99be 52e8 edbe 7496 7e3e 1b9c c5bd
00000090: b5e0 0d3c 5f8c 05be 19a6 6f3d 8ebb 8e3e
000000a0: e3ce 22be 422f 92be 78a3 fa3a 332c 283e
000000b0: 727d 323e 30d6 e43d 7e5d f9bd c619 f5bc
000000c0: eb55 813d 5e11 133d 3e5a 743d 5fa4 74be
000000d0: 6a77 c73d a817 cbbb 27cb 9f3e be45 703e
000000e0: bff5 d7bd f1b9 bfbc 433f 3c3c b854 293d
000000f0: dac3 93bd b0a9 debe 5753 70bd 0fac aabe
00000100: d1ae 7e3c cadf 823e 4e51 c0bd 77e8 f73d
00000110: 523c 81be 3bab 49bd 999e 1d3f e82e a83d
00000120: d88a 283e 0500 a9be 8295 a13d 6c20 92bc
00000130: 02a4 42bd eb1c bebd 501c 89be f5af 3e3e
00000140: 3056 06be 8f42 ff3d dcbd 193e ef1c 923e
00000150: 05eb 8abd 46d8 6d3e 356d cd3e f191 883d
00000160: f874 e6bc 4339 d5bd cd19 91be e966 513d
00000170: 73ec e9bd 3469 213e 198c 193e cbc1 db3d
00000180: 05da 7b3d 39d9 bbbe deb4 bb3e c219 8bbe
00000190: 1d96 a6bd 8ee4 cbbd ce31 a63e 47d1 9fbd
000001a0: 7a12 2ebe 249a 9e3e 6a5f 98be 18ed 94bc
000001b0: 1b58 eb3c 5373 2d3e b567 36bd 3244 b53e
000001c0: 85d9 9bbe 6da4 0f3e 866e dc3e 97d1 333c
000001d0: 9429 93bd 8f84 dcbd 9ccf 933d bded a73e
000001e0: a503 59be e6fe 0b3e 1bb7 12be b8df 89be
000001f0: d783 e83d 4201 d5bc b5a8 06bf 2814 a7be
00000200: 2553 7fbe 6590 0b3e 18af a9bd 2856 0fbe
00000210: 3913 813d 8c16 a93c d0f9 aa3c 4430 0ebe
00000220: 7847 883e 1e85 713e 5259 91be b233 64be
00000230: 2f1e 2c3e a344 02bd cf6a 883e f07a 63bd
00000240: bc5f d23d d836 3a3d d011 e23c a072 7cbe
00000250: 74a2 72be 3ae4 7cbe f07b 943c 909d 9c3c
00000260: ec00 08be e025 c3bd c0b0 853b 8a5c 51be
00000270: 6067 33bc 0444 2a3e 9093 173d 6e53 65be
00000280: 6dd8 893d 5873 b93d c2ec d73a c318 c4bd
00000290: 7db9 af3d dd28 87be 9a84 403e 7964 3b3e
000002a0: 928b bdbd 1b7f 42be 9e66 0abd 7775 30bd
000002b0: 6162 ae3c f192 71be b59f 68be bc3e 743e
000002c0: a805 25be ba12 3d3e b4eb a63d 562f 30be
000002d0: 0ed8 5e3d 2ecb 49be 5bc9 2f3e 6a3a 67bd
000002e0: 0cc5 28be 1aef 65be 0fa0 0e3e 772c 43be
000002f0: a051 6c3d e4fd 8d3d 58cb 05be 060e 63be
00000300: 69bc 33be 7bca 953b 31a3 f4bd 2609 8a3e
00000310: 9ade 3e3e b605 1d3e e611 323f 6950 09be
00000320: 2aca 7c3e da5d 3b3d a4ca 9a3d 246a 2ebb
00000330: 5d53 463e a45d 4c3d e067 30be 26aa 89bd
00000340: 357b a8bc ce64 673e 6bab f53d 20d7 8e3e
00000350: 165a f8bc 5ada 5bbd fc3b 153f 7cd7 7f3d
00000360: 1f83 61be f02e 413d bc9a 763d 1f9c 63bd
00000370: 6dbd 4f3d acd6 e93a ff39 cbbd 3b6b 01bc
00000380: 4c69 1bbe 79d4 e9bd 4952 903c c1ac 1fbe
00000390: dcbd 583d 55ea 5c3e 38d8 933e ba2d 843e
000003a0: ff98 5e3e 3e2b 713c 3ecb e83c d694 3fbd
000003b0: 4ee9 49be 02ff 05be 227d 6abe 9876 17be
000003c0: f01d 103d c55c 64be d98d cc3e 4a46 22bc
000003d0: cbf0 05bd 5025 15be a27b 1a3f 905d b83e
000003e0: 0026 81be 5070 163e 70e9 0e3d f305 593e
000003f0: bd78 35be eb9b 3d3d 3ba1 853d b727 443e

bias f4 [16]
-0.09022615 0.14659974 0.3336098 0.3175129 0.29898608 -0.11313533 0.24129465 0.11877999
0.17385538 -0.13524735 0.2297522 0.1908539 0.36097938 0.056151614 -0.20801197 0.38521975
00000000: 7dc8 b8bd 3e1e 163e e7ce aa3e 0d91 a23e
00000010: b414 993e 7fb3 e7bd f215 773e ec42 f33d
00000020: 2507 323e 487e 0abe 2944 6b3e 346f 433e
00000030: 4ad2 b83e 3cff 653d 1701 55be 863b c53e

weight f4 [32, 16]
0.048651993 -0.018422171 0.023452338 0.0749517 0.0772928 -0.2393501 -0.2362279 0.1087038
-0.067679726 0.018462867 -0.24202342 -0.11955488 -0.13113907 0.08427754 0.058074344 -0.106865086
0.34895378 0.051245406 0.27958047 0.07212546 -0.038154714 0.052438706 0.5179817 0.18360414
0.34876314 0.14061493 -0.09320509 -0.24748312 -0.059055526 0.17959203 -0.13289455 0.30653375
-0.13354254 -0.073406905 -0.1174874 -0.124714494 -0.06898758 -0.061584443 -0.20682761 -0.14767238
0.15904164 0.12322605 0.19324392 -0.0972504 -0.18664041 -0.017459333 -0.21278962 -0.2108328
0.21886101 -0.12933451 -0.002070427 -0.048969597 0.01723693 -0.048665952 0.20944062 0.0073988065
-0.055623055 0.16366106 -0.048361905 0.24204355 -0.10908951 -0.092900604 -0.16668051 -0.19101892
0.20577064 0.04206561 0.13170654 0.2446898 0.31419474 -0.015606275 0.09858436 0.5216688
0.029555472 -0.1194064 0.17125104 0.14644574 0.27188542 0.18826665 0.3258069 0.07129526
0.13300946 0.19343135 -0.13692746 0.3829924 0.25816107 0.25785047 0.27463433 0.14951454
-0.016842628 -0.09116489 4.4662767e-05 0.17787606 -0.014779712 0.2747388 -0.067454144 0.009436607
-0.11690992 0.1943849 -0.09132561 -0.114785284 -0.22535989 -0.20416191 -0.20888746 0.24158183
-0.24001339 -0.078077555 -0.19436449 0.15907803 -0.18965802 0.03455323 0.15754676 -0.115056485
0.39667654 0.48473525 0.07977942 0.30516216 0.25802422 0.18422218 0.21597067 0.28617775
0.034427743 -0.18645853 0.104166806 -0.086697154 0.24741971 0.15070549 0.35539526 0.11190094
0.1643774 0.09962527 0.21038097 0.1786561 -0.039020557 0.16208798 0.54512006 0.0061425697
0.093061134 0.016619325 -0.021526508 0.21344624 0.29374272 0.18687384 0.02102726 0.16645157
0.013394445 -0.07120511 0.1772356 0.19960514 -0.012520105 -0.19816601 0.0951812 -0.07689959
0.23091084 0.045474708 -0.19815928 -0.23306736 0.11188996 -0.06416881 0.07728675 -0.16152924
-0.19418214 -0.21315321 -0.17303067 0.10368355 0.13257313 0.014882566 0.111067936 -0.26440358
-0.1650405 -0.05473253 -0.19602028 0.029139698 -0.09649533 -0.1530758 -0.049390342 -0.29253516
-0.20813668 -0.15878448 -0.2478244 -0.09788741 0.004270561 -0.18781075 -0.052957088 0.22011177
0.19358811 0.17324221 -0.060373932 -0.18974906 -0.2000226 -0.1575468 -0.14938495 -0.1611334
0.068357386 0.3861677 0.366783 0.24101223 -0.098785795 0.28716168 0.42598596 0.26856792
0.29367945 -0.06925523 -0.07930967 0.23204342 -0.2950054 -0.20777588 -0.017517393 0.012244229
-0.086576 0.52789086 -0.0875508 0.25552866 -0.16491346 0.2772023 0.3578096 0.43939567
0.24285287 -0.051430017 0.07334136 -0.18582231 -0.095711626 -0.17578413 -0.16191912 0.33449876
-0.04091593 0.02046526 0.09634316 0.39376348 0.17993905 -0.061112836 0.47613132 0.24530813
0.15663582 -0.1126298 -0.027947398 -0.2065189 0.007053746 0.11344595 0.1694353 0.10244609
-0.39150074 -0.34029192 -0.20036398 -0.087576166 0.23849034 -0.17130247 0.1527064 -0.014496562
0.14680426 -0.026046544 -0.08148692 -0.20485193 0.010541534 -0.3489811 -0.055333324 0.019672526
00000000: 5047 473d 18ea 96bc 1e1f c03c 4780 993d
00000010: b04b 9e3d 3118 75be bae5 71be 19a0 de3d
00000020: ab9b 8abd 703f 973c fdd4 77be 30d9 f4bd
00000030: 5249 06be b499 ac3d 5ddf 6d3d 15dc dabd
00000040: 12aa b23e b4e6 513d 2c25 8f3e 83b6 933d
00000050: 1e48 1cbd f8c9 563d 739a 043f b902 3c3e
00000060: 1591 b23e 5cfd 0f3e 4fe2 bebd 376c 7dbe
00000070: 35e4 71bd f9e6 373e 8215 08be fef1 9c3e
00000080: 60bf 08be 5c56 96bd 3c9d f0bd 506a ffbd
00000090: 5c49 8dbd f83f 7cbd 9eca 53be 6e37 17be
000000a0: d0db 223e f05d fc3d bce1 453e 382b c7bd
000000b0: aa1e 3fbe e006 8fbc 86e5 59be 8ee4 57be
000000c0: 1a1d 603e 4470 04be 00b0 07bb 5894 48bd
000000d0: 7634 8d3c f355 47bd 9a77 563e b071 f23b
000000e0: 00d5 63bd c496 273e 2217 46bd 44da 773e
000000f0: 526a dfbd ac42 bebd 4cae 2abe 779a 43be
00000100: 8ab5 523e fd4c 2c3d 14de 063e f78f 7a3e
00000110: 22de a03e 76b1 7fbc 99e6 c93d 168c 053f
00000120: 511e f23c 588b f4bd 6f5c 2f3e dff5 153e
00000130: 9134 8b3e f9c8 403e 29d0 a63e 4003 923d
00000140: a233 083e de12 463e b636 0cbe 9417 c43e
00000150: b02d 843e fa04 843e df9c 8c3e 571a 193e
00000160: 8df9 89bc a8b4 babd 4854 3b38 2425 363e
00000170: 9b26 72bc 90aa 8c3e 6625 8abd 009c 1a3c
00000180: 786e efbd d60c 473e ec08 bbbd 8c14 ebbd
00000190: bec4 66be d20f 51be 98e6 55be 3a61 773e
000001a0: 12c6 75be 20e7 9fbd 7c07 47be 5ae5 223e
000001b0: b635 42be b087 0d3d f053 213e bca2 ebbd
000001c0: 3019 cb3e 382f f83e 6463 a33d 373e 9c3e
000001d0: c01b 843e bda4 3c3e 6a27 5d3e e485 923e
000001e0: 1b04 0d3d fcee 3ebe 6855 d53d 478e b1bd
000001f0: 985b 7d3e 8a52 1a3e 5ef6 b53e 522c e53d
00000200: 8d52 283e 5508 cc3d 1c6e 573e a0f1 363e
00000210: 05d4 1fbd 64fa 253e fd8c 0b3f 9c47 c93b
00000220: d696 be3d 4025 883c 5c58 b0bc a791 5a3e
00000230: 7265 963e db5b 3f3e 5c41 ac3c 4872 2a3e
00000240: 6074 5b3c fcd3 91bd 407d 353e 4a65 4c3e
00000250: 2021 4dbc 08ec 4abe 5cee c23d 887d 9dbd
00000260: e473 6c3e b043 3a3d 44ea 4abe 36a9 6ebe
00000270: 9026 e53d f06a 83bd 8448 9e3d ec67 25be
00000280: afd7 46be d644 5abe f42e 31be 0b58 d43d
00000290: 40c1 073e 02d6 733c 9677 e33d e85f 87be
000002a0: 6000 29be 382f 60bd 8ab9 48be 60b6 ee3c
000002b0: 589f c5bd e7bf 1cbe 874d 4abd 2bc7 95be
000002c0: c821 55be 6698 22be aec5 7dbe 3279 c8bd
000002d0: 10f0 8b3b 7651 40be 88e9 58bd fb64 613e
000002e0: f63b 463e 6866 313e a84a 77bd 944d 42be
000002f0: b9d2 4cbe f353 21be 5ef8 18be 2700 25be
00000300: f5fe 8b3d c6b7 c53e fbca bb3e e9cb 763e
00000310: 3550 cabd db06 933e d51a da3e bc81 893e
00000320: 275d 963e b0d5 8dbd 1c6d a2bd ca9c 6d3e
00000330: f30a 97be 33c3 54be a380 8fbc 059c 483c
00000340: c24e b1bd db23 073f d54d b3bd a7d4 823e
00000350: 13df 28be 76ed 8d3e d232 b73e 78f8 e03e
00000360: 6cae 783e 48a8 52bd ff33 963d 3448 3ebe
00000370: 7504 c4bd c100 34be 20ce 25be 6c43 ab3e
00000380: 7697 27bd c3a6 a73c 904f c53d 5e9b c93e
00000390: f141 383e 7451 7abd 7cc7 f33e 0e32 7b3e
000003a0: 2465 203e 74aa e6bd f1f1 e4bc b179 53be
000003b0: 1c23 e73b 5a56 e83d 7380 2d3e 41cf d13d
000003c0: c972 c8be be3a aebe 372c 4dbe 225b b3bd
000003d0: d036 743e ea69 2fbe 115f 1c3e fd82 6dbc
000003e0: db53 163e 905f d5bc 9de2 a6bd b4c4 51be
000003f0: 66b6 2c3c a7ad b2be 32a5 62bd 4728 a13c

bias f4 [32]
0.1816228 0.005274688 -0.025672734 0.026728807 -0.025153466 0.071473986 -0.23097178 0.29096618
0.19958913 -0.06253633 0.118473865 0.21259846 0.010695148 -0.06907758 0.033122335 0.13357413
0.13465144 -0.046887677 5.2154064e-05 -0.046075977 0.15621828 -0.08193527 0.22586267 -0.13240677
0.20170285 -0.33747053 0.3375007 0.08599166 0.30432278 0.23071034 0.19298238 -0.04231055
00000000: 54fb 393e 4ad7 ac3b a04f d2bc 5ff6 da3c
00000010: a40e cebc f460 923d de83 6cbe 85f9 943e
00000020: 1861 4c3e 0c13 80bd 6da2 f23d 69b3 593e
00000030: b43a 2f3c 8c78 8dbd 49ab 073d a8c7 083e
00000040: 11e2 093e 4b0d 40bd 00c0 5a38 2aba 3cbd
00000050: aff7 1f3e aecd a7bd 8b48 673e a495 07be
00000060: 318b 4e3e f0c8 acbe e4cc ac3e 651c b03d
00000070: 32d0 9b3e 553f 6c3e 2c9d 453e d44d 2dbd

weight f4 [64, 32]
0.06549361 0.089650266 0.12159311 -0.02315649 -0.04574111 0.057197865 -0.050287805 -0.18177462
-0.18576418 -0.14556718 -0.17181483 0.010365765 0.14242479 0.122013636 0.15533064 -0.042209115
-0.0890566 0.1651606 -0.0706746 0.011025784 -0.1095402 -0.07971756 -0.13067794 0.12528633
-0.15694435 -0.17572103 0.16022463 0.015559669 -0.18015352 -0.033232946 -0.13488287 0.061028846
-0.04095607 0.027581234 -0.13685018 -0.14771484 -0.034440525 -0.06549947 0.12532504 -0.20231633
0.07087184 -0.109923236 -0.034144394 -0.15381429 0.01804228 -0.19623214 0.094949014 -0.13989623
-0.18812554 -0.18842813 -0.078078866 0.012738505 -0.1086439 -0.09210492 -0.11446927 -0.080056444
0.05309822 -0.0394675 -0.16739638 0.040629946 -0.1211115 0.089113 -0.1252549 0.08371004
0.16463031 0.02299614 -0.034998532 0.086659156 0.22233993 0.083187126 0.048512306 0.015983509
-0.01766818 -0.07545995 -0.05850615 -0.056113888 0.0070299404 -0.1531232 -0.1022773 0.046476725
0.06811858 -0.18322837 0.0097854445 -0.12234656 -0.16120303 0.07654478 0.089081556 -0.12035456
0.1566815 0.17544633 0.20284927 -0.050130397 -0.09329943 0.19915707 0.030043801 0.29722518
-0.13895433 0.21921907 -0.0723906 0.07185456 0.16107966 0.005195765 0.025038894 0.30081663
0.13729861 -0.10810399 0.048467617 -0.06661826 -0.04634709 0.09276903 -0.011870265 0.18884085
-0.08499573 0.1491094 0.16415848 -0.2022075 -0.18515393 0.023306586 0.277429 -0.15574385
0.10901071 -0.062284645 0.2693054 0.062186714 0.29128072 0.084355935 -0.13377903 0.16091982
-0.045443803 0.013380184 0.14399138 0.16948137 0.06553078 0.09286635 0.07502786 0.10211618
-0.16886109 0.037362464 -0.0025919715 0.034606133 0.14905003 -0.007874167 -0.17873688 0.1849964
-0.03929095 0.0725943 0.16686064 0.07713221 0.13592263 -0.06054106 -0.15645503 -0.11097054
-0.11291765 0.08379408 -0.16620772 0.13742103 0.04915539 -0.13185118 -0.11617103 0.122824945
0.08361627 0.09592226 0.14124201 0.1974727 0.18461436 0.29804245 -0.0039827507 0.2434967
0.2543166 -0.0021489414 0.12073227 -0.10010346 -0.16284885 0.15303184 0.2468951 -0.038044803
0.2357134 0.015659865 -0.114239074 0.026912695 -0.054313906 0.028725553 0.0464071 0.13017456
0.1275499 0.04114156 0.10865391 0.098643325 0.15074626 0.22860129 -0.14216582 0.1809009
-0.00664169 0.22352043 -0.05815281 -0.1337095 0.14210324 0.15856156 0.16723475 0.14424984
0.17080577 0.14218639 0.023125798 -0.06049803 0.40770552 0.33626136 0.1469104 0.2684279
0.3851001 0.34038606 -0.14675444 -0.08252132 0.16804218 0.015620875 0.09114034 0.15267183
0.1527384 0.21247983 0.24216755 0.254476 0.049369335 0.23705725 0.4145183 0.24196985
0.048271094 0.07951807 0.14542516 0.068385966 -0.02982599 -0.05697152 0.12617166 0.03608827
-0.20245767 0.08922311 -0.093591735 -0.017047124 0.12483305 -0.050763592 -0.013739597 -0.10780368
0.11060087 -0.11578552 0.16456342 0.029970922 0.03843002 -0.043301757 0.06354096 -0.12867229
-0.07565871 0.00020622164 -0.13601418 -0.20897792 -0.16411504 0.0023280438 0.053505383 0.0296637
00000000: 8421 863d 8f9a b73d cf05 f93d aeb2 bdbc
00000010: 085b 3bbd 4f48 6a3d 96fa 4dbd 2023 3abe
00000020: f738 3ebe 900f 15be 3af0 2fbe 2bd5 293c
00000030: ced7 113e 49e2 f93d ff0e 1f3e 77e3 2cbd
00000040: 4f63 b6bd dc1f 293e d8bd 90bd 7da5 343c
00000050: 9d56 e0bd f642 a3bd 70d0 05be 0f4b 003e
00000060: 05b6 20be 37f0 33be ed11 243e fbed 7e3c
00000070: 2a7a 38be 451f 08bd bc1e 0abe 62f9 793d
00000080: 8dc1 27bd 0af2 e13c 7422 0cbe 8f42 17be
00000090: 8211 0dbd 9624 86bd 3555 003e 032c 4fbe
000000a0: 4125 913d 6f1f e1bd feda 0bbd 7e81 1dbe
000000b0: 67cd 933c 14f1 48be a174 c23d f540 0fbe
000000c0: fba3 40be 4ef3 40be d0e7 9fbd 2ab5 503c
000000d0: b180 debd 81a1 bcbd dd6e eabd a2f4 a3bd
000000e0: 857d 593d aca8 21bd f569 2bbe 966b 263d
000000f0: 4e09 f8bd e080 b63d d242 00be 2b70 ab3d
00000100: d994 283e 6762 bc3c 9f5a 0fbd 5b7a b13d
00000110: 14ad 633e 035e aa3d d7b4 463d d9ef 823c
00000120: dcbc 90bc bf8a 9abd 25a4 6fbd add7 65bd
00000130: 6a5b e63b 54cc 1cbe c376 d1bd 615e 3e3d
00000140: c181 8b3d 38a0 3bbe 2153 203c d590 fabd
00000150: 6812 25be 82c3 9c3d 6470 b63d 747c f6bd
00000160: 1d71 203e 34a8 333e b8b7 4f3e 8855 4dbd
00000170: c613 bfbd d5ef 4b3e 6b1e f63c e62d 983e
00000180: 0b4a 0ebe f77a 603e 8641 94bd 7c28 933d
00000190: 11f2 243e 3c41 aa3b 5e1e cd3c a304 9a3e
000001a0: 0298 0c3e a065 ddbd fb85 463d 286f 88bd
000001b0: 72d6 3dbd b0fd bd3d 807b 42bc 7f5f 413e
000001c0: 3e12 aebd 22b0 183e 2919 283e 7c0f 4fbe
000001d0: fe98 3dbe 74ed be3c 2d0b 8e3e 517b 1fbe
000001e0: 0241 df3d 2f1e 7fbd 66e2 893e 7fb7 7e3d
000001f0: bf22 953e cec2 ac3d 5ffd 08be 2ac8 243e
00000200: 4823 3abd 8f38 5b3c 7a72 133e 868c 2d3e
00000210: 0035 863d b730 be3d 35a8 993d 4a22 d13d
00000220: ece9 2cbe 6209 193d 11de 29bb 29bf 0d3d
00000230: 92a0 183e a602 01bc cd06 37be b26f 3d3e
00000240: 8cef 20bd 52ac 943d 84dd 2a3e 7ef7 9d3d
00000250: 4d2f 0b3e e7f9 77bd bf35 20be 8644 e3bd
00000260: 5e41 e7bd 3b9c ab3d 5b32 2abe 19b8 0c3e
00000270: 2a57 493d ff03 07be 14eb edbd a58b fb3d
00000280: 023f ab3d e472 c43d bfa1 103e 4936 4a3e
00000290: 8c0b 3d3e 0599 983e bc81 82bb 3357 793e
000002a0: c935 823e 41d5 0cbb 7b42 f73d 0b03 cdbd
000002b0: d9c1 26be 61b4 1c3e 12d2 7c3e ded4 1bbd
000002c0: db5e 713e 1e49 803c 2df6 e9bd 0378 dc3c
000002d0: 4278 5ebd da51 eb3c 5f15 3e3d 7b4c 053e
000002e0: 719c 023e 0d84 283d f185 de3d 8305 ca3d
000002f0: 3a5d 1a3e 7516 6a3e eb93 11be 163e 393e
00000300: 89a2 d9bb 8ae2 643e a431 6ebd 25eb 08be
00000310: 8383 113e f65d 223e 963f 2b3e 3bb6 133e
00000320: b5e7 2e3e 4f99 113e 5072 bd3c c8cc 77bd
00000330: c7be d03e 732a ac3e ae6f 163e 626f 893e
00000340: d72b c53e 1547 ae3e cc46 16be f000 a9bd
00000350: 4013 2c3e b3ee 7f3c c9a7 ba3d 0156 1c3e
00000360: 7567 1c3e 5094 593e c5fa 773e ae4a 823e
00000370: 8037 4a3d 23bf 723e be3b d43e f2c6 773e
00000380: e9b7 453d 5fda a23d 55ea 143e f10d 8c3d
00000390: a255 f4bc f85a 69bd 2533 013e 4bd1 133d
000003a0: 1051 4fbe 9bba b63d 06ad bfbd 69a6 8bbc
000003b0: 78a8 ff3d 7ced 4fbd 0c1c 61bc 2dc8 dcbd
000003c0: b582 e23d f520 edbd 5083 283e 9485 f53c
000003d0: cc68 1d3d 2f5d 31bd c321 823d abc2 03be
000003e0: f4f2 9abd 333d 5839 4d47 0bbe 4ffe 55be
000003f0: c60d 28be 1892 183b 7628 5b3d 4a01 f33c

bias f4 [64]
0.11016775 0.016994309 0.025146093 0.22620969 -0.008264573 0.28051242 0.27123898 -0.07740388
-0.07421372 0.17230389 -0.08883057 0.22922009 -0.16879529 -0.16989112 -0.17109095 0.18169557
0.24310863 -0.031560898 -0.13771354 0.1446593 0.02999075 0.2737488 0.24909432 0.2957413
0.1385762 -0.18734886 -0.1481992 -0.0023751725 -0.22110102 0.3100662 -0.17367789 0.10107868
-0.16095962 -0.09775361 -0.007089647 0.13698803 -0.0024225519 -0.022053171 -0.12596591 -0.032263678
0.033130016 0.085729994 0.13074778 -0.035861626 -0.08984294 -0.014825809 -0.09246918 0.14102651
-0.102982976 -0.11770822 0.026585255 -0.021021012 0.06909528 0.04274116 0.008695464 -0.20671892
-0.10534363 -0.17561777 0.24389212 0.11113088 -0.117507204 0.11953226 0.16234864 0.08566887
00000000: a19f e13d a637 8b3c 2eff cd3c 83a3 673e
00000010: 2268 07bc 539f 8f3e d6df 8a3e ed85 9ebd
00000020: 5dfd 97bd 6e70 303e cdec b5bd acb8 6a3e
00000030: acd8 2cbe f0f7 2dbe 7732 2fbe 670e 3a3e
00000040: 78f1 783e 0046 01bd c704 0dbe 9121 143e
00000050: 29af f53c cd28 8c3e 9512 7f3e 676b 973e
00000060: ebe6 0d3e 61d8 3fbe 88c1 17be c8a8 1bbb
00000070: 4e68 62be ffc0 9e3e 9ed8 31be 5702 cf3d
00000080: 99d2 24be 0b33 c8bd 4550 e8bb 9746 0c3e
00000090: adc3 1ebb daa8 b4bc 35fd 00be eb26 04bd
000000a0: 57b3 073d 3593 af3d bfe2 053e a4e3 12bd
000000b0: 93ff b7bd f3e7 72bc 7b60 bdbd 4169 103e
000000c0: bde8 d2bd 0211 f1bd 52c9 d93c 4234 acbc
000000d0: d381 8d3d 5b11 2f3d 6b77 0e3c 20ae 53be
000000e0: 67be d7bd 25d5 33be dbbe 793e 9698 e33d
000000f0: 9ea7 f0bd 54cd f43d b93e 263e 2973 af3d

weight f4 [4, 64]
0.008226432 0.00413819 0.034843862 -0.09493344 0.020325212 -0.14149988 -0.21287848 -0.1015449
-0.1813203 -0.10419541 -0.060051687 -0.10577091 -0.06588188 0.076961726 -0.027595533 -0.20587566
-0.1796703 0.04432177 -0.060839757 0.063476644 -0.10738543 -0.35933477 -0.13162373 -0.24674645
-0.020133704 -0.07981705 0.05955802 -0.06654801 -0.08960666 -0.26944435 -0.0894234 0.20389596
0.03757614 -0.003709967 -0.032229245 -0.16277692 0.084685564 -0.040233605 -0.034067407 -0.118579745
-0.17197569 0.026858583 0.030096969 -0.1821519 0.024295753 0.03714601 0.082486026 -0.15922755
0.163859 -0.12356764 -0.15266508 0.005940526 -0.096266165 0.10522231 0.02803725 -0.14071286
0.02658633 -0.020719796 -0.18208061 -0.14378442 -0.124966994 -0.12251363 0.18101892 0.0057859747
-0.047924697 0.014590413 -0.27615917 -0.34357774 -0.13561141 -0.34432375 -0.33350265 0.028973987
-0.14972524 -0.3696131 -0.38087156 -0.31623587 -0.11748779 0.056225985 -0.28216544 -0.26096937
-0.20188521 -0.0728707 0.061236918 -0.31200433 -0.029389426 -0.18483625 -0.3408322 -0.19698009
0.06254618 -0.024869632 0.028147625 -0.037222043 -0.09150141 -0.06372087 0.026827633 -0.28006846
-0.24306154 0.00050269155 -0.12794721 -0.32167518 -0.01625736 -0.37483567 -0.06229144 -0.19134799
-0.27892444 0.031995222 -0.037875053 -0.3154682 -0.2593743 0.017285762 0.05838197 -0.29076362
-0.018167833 0.09522542 -0.3391819 -0.324445 -0.35777694 -0.18566947 -0.002599597 0.020465352
-0.03731061 0.009922829 -0.3264815 -0.32516897 0.034205317 -0.35047996 -0.3020735 -0.15005545
0.010084023 0.015990175 -0.07758832 -0.035497952 -0.05884518 -0.15382308 -0.07785704 0.053033397
-0.08236999 -0.11779447 -0.17845462 -0.13447368 0.12118679 0.07439597 0.019891517 0.0885679
-0.067286626 0.016760943 0.024580166 -0.25225303 -0.07823455 0.008992881 -0.026827607 -0.065000534
-0.05883567 0.018085869 -0.032298468 0.059389994 -0.02604407 -0.07843921 -0.0022028238 -0.14336985
-0.07482595 0.06623914 0.013583773 -0.000170441 -0.060010303 -0.124739714 -0.073186666 -0.02105885
-0.018522343 0.10465701 -0.06410524 -0.014063323 -0.18807417 0.08508296 -0.08727796 -0.101797864
0.037134457 0.095565304 -0.099295616 -0.14395747 -0.17311856 -0.33530653 0.014495477 0.03564399
-0.0014804732 0.022951296 -0.054357592 -0.1466456 0.09931782 0.003402567 -0.097287424 0.0635888
-0.01543399 -0.10041943 -0.008215412 0.04141385 0.050422076 0.064866304 -0.122973226 -0.045636736
-0.16581173 -0.113699116 -0.07929388 -0.048480093 -0.10783923 0.11142042 -0.026543343 -0.11036493
0.018647857 -0.27300873 -0.010708034 0.14244244 0.0454033 0.23122491 -0.12779187 -0.16964498
-0.08317171 0.13767892 0.009489347 0.10972299 -0.17802566 -0.20902072 -0.07143746 0.17576228
-0.14719169 -0.05951559 0.07461762 -0.054234486 -0.101475105 -0.0077598584 -0.09358674 -0.1680117
-0.12259816 0.08115007 0.07755043 -0.07690352 0.07377181 -0.1376774 0.031418227 0.044696275
0.02034345 -0.1208704 0.04843731 0.035169955 -0.11718086 0.26908472 0.08306204 -0.04281222
0.12870553 0.06688611 -0.07168391 0.18413141 0.038287148 -0.08202017 0.50942016 0.03701579
00000000: 28c8 063c a799 873b 70b8 0e3d 776c c2bd
00000010: 0f81 a63c 58e5 10be d1fc 59be c6f6 cfbd
00000020: 07ac 39be 6764 d5bd c2f8 75bd 6b9e d8bd
00000030: 14ed 86bd 1c9e 9d3d 0710 e2bc 12d1 52be
00000040: 7efb 37be bf8a 353d 1c33 79bd 0b00 823d
00000050: e4ec dbbd bafa b7be 5fc8 06be 1aab 7cbe
00000060: 70ef a4bc 1f77 a3bd 1cf3 733d 534a 88bd
00000070: b283 b7bd 9cf4 89be 9e23 b7bd 1aca 503e
00000080: 70e9 193d eb22 73bb d002 04bd feae 26be
00000090: a06f ad3d fecb 24bd 448a 0bbd f0d9 f2bd
000000a0: 651a 30be 8806 dc3c eb8d f63c 0786 3abe
000000b0: e307 c73c 6a26 183d 6fee a83d 8c0c 23be
000000c0: a7ca 273e 0811 fdbd 3c54 1cbe bea8 c23b
000000d0: 3227 c5bd cb7e d73d 60ae e53c 0817 10be
000000e0: 93cb d93c 90bc a9bc 5773 3abe 393c 13be
000000f0: b2ee ffbd 6de8 fabd 065d 393e 4698 bd3b
00000100: b04c 44bd a10c 6f3c bc64 8dbe 6ce9 afbe
00000110: b8dd 0abe 344b b0be dcc0 aabe db5a ed3c
00000120: 9351 19be ee3d bdbe 9901 c3be abe9 a1be
00000130: 709d f0bd 384d 663d fd77 90be c79d 85be
00000140: ffba 4ebe 3c3d 95bd 90d3 7a3d 08bf 9fbe
00000150: 18c2 f0bc b745 3dbe 8f81 aebe 26b5 49be
00000160: 3618 803d 66bb cbbc d995 e63c 2476 18bd
00000170: 1765 bbbd 1680 82bd a0c5 db3c 2265 8fbe
00000180: 20e5 78be 0fc7 033a 9804 03be 9cb2 a4be
00000190: 282e 85bc 76ea bfbe 4f25 7fbd baf0 43be
000001a0: 2fcf 8ebe 6c0d 033d df22 1bbd 0c85 a1be
000001b0: b5cc 84be df9a 8d3c ef21 6f3d f8de 94be
000001c0: b5d4 94bc 8c05 c33d 40a9 adbe a81d a6be
000001d0: 8a2e b7be 2320 3ebe 005e 2abb f4a6 a73c
000001e0: 03d3 18bd 5d93 223c 9528 a7be 8c7c a6be
000001f0: e01a 0c3d 1c72 b3be 61a9 9abe 23a8 19be
00000200: 7537 253c d4fd 823c a0e6 9ebd 4d66 11bd
00000210: a507 71bd cc83 1dbe 8373 9fbd 8c39 593d
00000220: 99b1 a8bd 3a3e f1bd cfbc 36be 78b3 09be
00000230: c830 f83d ea5c 983d 89f3 a23c 1663 b53d
00000240: 92cd 89bd 3f4e 893c 585c c93c 4f27 81be
00000250: 7039 a0bd e056 133c 92c5 dbbc 001f 85bd
00000260: acfd 70bd d128 943c 664b 04bd ec42 733d
00000270: 605a d5bc bda4 a0bd 405d 10bb 8ccf 12be
00000280: 593e 99bd 63a8 873d 798e 5e3c 68b8 32b9
00000290: 5dcd 75bd 8977 ffbd e4e2 95bd 9c83 acbc
000002a0: 2bbc 97bc 6a56 d63d 9c49 83bd da69 66bc
000002b0: 8496 40be fa3f ae3d c9be b2bd 667b d0bd
000002c0: 4d1a 183d beb7 c33d 805b cbbd 9669 13be
000002d0: fe45 31be 4cad abbe 707e 6d3c 6fff 113d
000002e0: 700c c2ba 5b04 bc3c 11a6 5ebd 442a 16be
000002f0: 2467 cb3d 9afd 5e3b a13e c7bd d83a 823d
00000300: d9de 7cbc b4a8 cdbd ef99 06bc 92a1 293d
00000310: 6187 4e3d a0d8 843d 63d9 fbbd 96ed 3abd
00000320: 8dca 29be 15db e8bd d464 a2bd 1093 46bd
00000330: d0da dcbd 6430 e43d 6d71 d9bc 0207 e2bd
00000340: 64c3 983c cdc7 8bbe c070 2fbc 6edc 113e
00000350: d0f8 393d 39c6 6c3e dfdb 02be 6ab7 2dbe
00000360: ee55 aabd b4fb 0c3e 3579 1b3c 72b6 e03d
00000370: 5c4c 36be 8709 56be ce4d 92bd 07fb 333e
00000380: 6bb9 16be 9fc6 73bd 1fd1 983d fb24 5ebd
00000390: 2ed2 cfbd 6946 febb 68aa bfbd 420b 2cbe
000003a0: be14 fbbd 0232 a63d c3d2 9e3d 987f 9dbd
000003b0: ad15 973d 4efb 0cbe 66b0 003d 7113 373d
000003c0: 4fa7 a63c e68a f7bd 3366 463d 5f0e 103d
000003d0: 85fc efbd 79c5 893e 6e1c aa3d de5b 2fbd
000003e0: 62cb 033e 96fb 883d 04cf 92bd f28c 3c3e
000003f0: fcd2 1c3d 31fa a7bd 5c69 023f de9d 173d

bias f4 [4]
-0.20806332 -0.3181109 0.0021067064 0.2040462
00000000: 8d0e 55be 6fdf a2be ab10 0a3b 7df1 503e
