saves/kevin/kevin_nn_2025-02-22_16-25-48.pt (torch, 17468 bytes, 8 tensors)

weight f4 [16, 16]
00000000: 17a1 dd3d 77c0 623e 7f98 c5bd 1162 43bd
00000010: c7f8 78be dad3 9fbd d46e 633e c3a1 4d3e
00000020: e60e 2cbe cd1c 6bbd f8d1 6b3e 4ce2 95be
00000030: bc04 92be 093d 31be 0b71 16be a1e9 d1bd
00000040: 21af 6d3d c4e4 15bc 7ea8 503e 43db 90bd
00000050: 826d 9dbd 5f94 ab3e e526 0f3e 7f30 c5bd
00000060: 76fc 603e 4b34 693c ec14 fe3c 485c cf3e
00000070: 1b4a 203e b0d1 d7bc aa4c 093e 9a08 a33e
00000080: f9e3 5c3d ce67 13be 2efe bb3e c20d a63e
00000090: f45d 4ebe 07af de3c bd77 32be dbe9 98bc
000000a0: 36e9 60be 5b4e a5be 12d8 b33e 9c08 10be
000000b0: 81f0 7e3d a850 a7bc 0b51 80be bc4a 8c3d
000000c0: b6c9 5c3e 288f 313e 6896 f53d 743b 9dbd
000000d0: 5810 8f3e ed74 15bd 97aa bc3d d050 4f3e
000000e0: 3887 ddbd bc90 663d 96fb 4abe fd08 c43e
000000f0: 875e 7d3e 9a5e 55bd bd3c 73bd a30e 013e
00000100: 3668 7abe 8d08 10ba 4b0a e13c e60c a13d
00000110: 70a1 eebd 38d8 3f3d da92 e33e 0c31 943e
00000120: eb05 65bd 7859 453e a7a9 9b3d 3356 25be
00000130: ebb5 2d3e 8260 e43a 4857 d43d 8589 b33d
00000140: 6ac3 a7bd b1d7 3dbe 6f31 3a3e f266 ee3d
00000150: abef 063d c85e 8fbe 4b15 cc3e 67b3 5a3c
00000160: b90b e2bd 8497 86be 7af1 0ebe 6e33 a5bd
00000170: 2bdd 60be 6b43 49be ed26 b0bc 8a8d 973d
00000180: 41aa 33be 0071 4ebe 886f a5be afd1 a2bd
00000190: 4f8a c83d eb34 c33e f906 5f3d b6ad 763e
000001a0: 8185 933e 5aae 463e 0f0f 803e e9c8 9a3e
000001b0: 070d 603e 5c8e f73c d396 c83e 9309 1cbe
000001c0: fda6 6bbe 04bb 31bd d65b d23d 297c 31be
000001d0: 6d19 afbe 1562 2abd 5c00 ebba e7eb 173e
000001e0: 4e93 36be 51ac 20be ec3d b2be 217d 903d
000001f0: 0249 213e 10cd 463e 87a4 6b3e af00 403e
00000200: ede3 32be 8881 c4be dbf4 0a3e 060c 8fbd
00000210: 20d9 6fbe df73 93be a372 8e3e 08de 0e3e
00000220: 9924 e63c d4ca fcbd 58d0 72be 3c33 163e
00000230: 1c0b 81bd 2942 cc3e e677 26be 71c0 afbd
00000240: f5b7 b03d 9284 29be ca7e 913e a142 bd3d
00000250: a170 053d 3482 3d3d b2fe 663e 4339 c8bc
00000260: 2a36 af3c 15bb 913c 2984 d9bd 6ea2 373e
00000270: 8d2f 743e b345 4bbd d80a 12be 3301 3f3e
00000280: 74a9 663e 14d7 81be fc8a ec3c 3a2f 0dbe
00000290: 15ed 30be 2bf9 093e dc8a 0fbe 13be 56be
000002a0: ac78 66be 0d86 98be 2d45 783e f3e8 d03d
000002b0: 3b4a 3dbd 8e25 e9bd c7b5 093e ef17 28be
000002c0: 2dd0 c33d 4d31 333d 5c0e 5b3e e978 993e
000002d0: b489 6f3d 22c4 523e 7685 973e 6d7b 0c3e
000002e0: 64e5 2a3e 5a03 80bd bb23 12bd fddb 77bc
000002f0: 98b4 2fbe 9482 7c3e 169a 043e 4b9f ee3d
00000300: 1495 b4bd e504 b2bd 0723 9b3e db2e 623e
00000310: 1e54 9abe 2149 94bb 50ad 1c3e 43f8 c4bd
00000320: 4a88 5fbb a87f a9be 1f6f 253e d0f4 56bd
00000330: 6988 843e f5f0 abbd 2e5a 8cbe b787 863e
00000340: 4308 29bd c027 0e3e 1a04 b13c a9bd d03c
00000350: 4e6c 2dbe 9722 2c3d 424e cd3e 8c7c 1d3e
00000360: 8b61 5dbe be45 ccbe 10a7 763e fea5 2bbe
00000370: 413a 92bd 3179 d93d 5c62 85be 9cc5 953e
00000380: deb0 21bd d249 693e cffb d2be 7e70 683e
00000390: d44b 6cbd 56c6 5f3e 53a5 b33e e4ec c23d
000003a0: 387c 35be ccf4 923d 7028 5dbd f233 a13e
000003b0: 27d1 283d 5bd3 db3d 031f a23e ced2 ddbd
000003c0: 3c34 853e 66f8 95bc a1b0 833c 1217 49be
000003d0: 3f7d 95be 490f 8c3d c6eb b93e e689 a43e
000003e0: 20f3 8f3e d47c 0e3d da42 0e3d 4220 00be
000003f0: 4a67 6abe 204b 42be 9c3c 833c ef57 80bd
0.10821741 0.22143732 -0.09648227 -0.047700945 -0.24313651 -0.07804079 0.22210246 0.20081238
-0.16802558 -0.057400513 0.23029315 -0.29274213 -0.28519237 -0.1730844 -0.1469156 -0.10249639
0.058028344 -0.00914878 0.20376775 -0.07073071 -0.076869026 0.33511636 0.13979681 -0.096283905
0.21971306 0.014233659 0.031015836 0.40500093 0.15653269 -0.026345104 0.13408151 0.318425
0.05392835 -0.14395067 0.3671736 0.3243237 -0.20153028 0.027183069 -0.17428489 -0.018666198
-0.21963963 -0.32286343 0.35125786 -0.14065784 0.06224108 -0.020424202 -0.2506183 0.06850192
0.21561322 0.17339766 0.11991578 -0.076773554 0.27942157 -0.036488462 0.09212225 0.20245671
-0.108168066 0.056290373 -0.19822535 0.38288108 0.2474309 -0.052092172 -0.059384096 0.1260324
-0.24453816 -0.0005494438 0.027470728 0.07863788 -0.116518855 0.04683706 0.44447976 0.2894367
-0.055913847 0.19272411 0.07600718 -0.16146164 0.16963927 0.0017423781 0.1036821 0.08766464
-0.08191569 -0.18539311 0.1818292 0.11640729 0.03294341 -0.28002 0.39859995 0.013348437
-0.11037392 -0.26287472 -0.13959303 -0.0806645 -0.21959369 -0.19654624 -0.021502936 0.07400043
-0.17545415 -0.20160294 -0.32311654 -0.0795015 0.09792005 0.3812631 0.05445001 0.24089703
0.28812793 0.19402447 0.2501149 0.30231407 0.2187997 0.03021925 0.3917757 -0.15238027
-0.2301292 -0.043391243 0.102714226 -0.1733252 -0.34199086 -0.041597445 -0.0017929184 0.14836083
-0.1782963 -0.15690733 -0.34812868 0.070551164 0.15750507 0.19414163 0.23011981 0.18750261
-0.1746976 -0.38380075 0.13569967 -0.06984715 -0.2342267 -0.2879934 0.27821836 0.13951886
0.028093623 -0.12343374 -0.2371229 0.14667982 -0.06300947 0.39894226 -0.16256675 -0.08581627
0.08628837 -0.16554478 0.28417045 0.09241224 0.032578114 0.04626675 0.22558096 -0.024441367
0.021388132 0.017789403 -0.10620911 0.17933056 0.23846264 -0.049627017 -0.14261949 0.18652801
0.22525579 -0.25359404 0.028874867 -0.13787547 -0.1727794 0.13473956 -0.14017814 -0.20970945
-0.2250697 -0.29789773 0.24245138 0.102006815 -0.04621337 -0.11384116 0.13448249 -0.1641538
0.09561191 0.04374819 0.21392196 0.2997506 0.058480933 0.20582631 0.2959401 0.13718958
0.16689068 -0.06250639 -0.035678606 -0.015128133 -0.17158735 0.24659187 0.12949404 0.116514765
-0.08817497 -0.0869234 0.3030016 0.22088186 -0.301423 -0.004525319 0.15300488 -0.09617665
-0.0034108334 -0.33105206 0.1615567 -0.052479565 0.25885323 -0.08395568 -0.27412552 0.26275417
-0.041267645 0.13882351 0.021608401 0.025481062 -0.16935846 0.042025175 0.40098768 0.15379542
-0.21619241 -0.3989696 0.24087167 -0.1676254 -0.07140017 0.106188186 -0.26051605 0.29252326
-0.039475314 0.22782066 -0.4120774 0.22699162 -0.057689503 0.21853003 0.3508707 0.095178396
-0.17723167 0.071755975 -0.053993642 0.31484944 0.04121509 0.10733672 0.31664285 -0.108312234
0.26016414 -0.018306922 0.016075434 -0.19637707 -0.29197118 0.06838853 0.36312693 0.32136458
0.28115177 0.034787014 0.034731723 -0.12512305 -0.22890964 -0.1897397 0.016020112 -0.06266772

bias f4 [16]
00000000: 59fb 33bd dd7d 55bc 6d39 203e eeb6 663e
00000010: 3cdb 9a3e 5de2 4bbe d63a 943e 94e6 de3c
00000020: ee31 f83a fd2b e23c b703 e73c 13ec d43d
00000030: cee2 263e 56d3 b23e 1435 d33d c85c dfbd
-0.043940876 -0.013030496 0.15646906 0.2253072 0.30245388 -0.1991057 0.28951138 0.027209558
0.0018935779 0.027608866 0.028200014 0.1039659 0.16297457 0.34926862 0.10312858 -0.109063685

weight f4 [32, 16]
00000000: 609f 223c ab11 dabc 3ae1 c2bd 89f5 013e
00000010: 1176 943e e9a2 813e c30a 083e 0f1d 16be
00000020: 06e4 5abe 773f bdba 6f5a 613e 2e3e 8b3e
00000030: 839e 6c3c 75b1 b03e 0f21 653e 4b98 313d
00000040: 92c4 fc3c 3ef0 74bd b456 943e 8e1f 313e
00000050: 145b c13d 5e0f ef3d ac9f 753e caa3 6cbd
00000060: 03c3 6c3e 8367 953e bd45 26be e3b2 0cbe
00000070: f8b7 ba3e 44d5 913e d4bf d33d fafe 123e
00000080: dc03 60bd 8865 d93d 1db9 813e a10e 4f3e
00000090: 29de 7b3e bae3 3c3e ec14 0ebe ca79 e4bd
000000a0: 427a aa3e 1b9d 033e fb6b b23e 9736 863e
000000b0: 9e47 b9bc a45c 88bd 8b18 20be f60e 163e
000000c0: 4529 653e 85e0 0d3e 4869 dd3e 163e 7cbe
000000d0: 12f2 593e afa1 783c 3bba 6ebe 37f1 4cbe
000000e0: d45a 1bbb 174d af3d dd09 41be 6f9e 693e
000000f0: 3f5e e23d 3912 3d3e 4fb3 12be 4897 99be
00000100: af9a c43d 4d31 2a3e 7522 9d3d b019 ce3c
00000110: b791 563e 0f4b 77be c8b2 bb3e f564 693e
00000120: 9f65 c63e 2493 49bd 6bdd 65bd 2e03 8bbd
00000130: 418f 3dbd 642d 3cbe c22d dfbc cb40 183e
00000140: ae86 69bd 200d 5ebd 70de 2b3e 238b 483e
00000150: d321 8dbd aa71 8a3e a0fd 5e3e b5ec 9e3e
00000160: abe9 b23e f5c6 123e 9d7d 34be 5f38 423b
00000170: e2b8 083e 5121 7cbd ae67 aebd 59db a33e
00000180: 336a e1bc 001f 3b3b e26c 27be fc5b 04be
00000190: 19fa 263e b21f 933e 0604 b33e bdac 26be
000001a0: 26a7 2abd 96d4 bf3e e88c 04be 1c3c 753e
000001b0: c551 693e 0d84 48bc 6648 9f3e 8c5e cf3d
000001c0: 0cb7 573e 04af 12be 8f7a bd3e e0a2 5c3d
000001d0: c8cc 103d fd1a 753e 9d71 4dbc e468 f23d
000001e0: 9109 d4bd 6e13 3d3e 43a0 a93e 3195 70bd
000001f0: ae51 873e f93c 913e fa6c e7bd 0eb2 be3e
00000200: ce17 313e f8c1 31be 1b44 173e bccb d9bd
00000210: 8af8 4abd 4326 ab3c e375 ac3d ce4d 35be
00000220: 34e2 1ebe 7d9c b73d e051 263e ea11 073e
00000230: e59c 79be f639 dbbd c4ac 98be 0478 2d3e
00000240: b80b 673e aa60 6c3d 60af c1bd 8f6c 4a3d
00000250: 07aa f6bd 4013 d53b 9a4a 78be 05e1 1dbe
00000260: f954 053c edbf 073e ab07 68be af70 4a3d
00000270: a9d7 5bbe 9fbc 4abe 8473 87be 70aa cbbd
00000280: 96a2 523c 719b 0e3e 19bd 97bd 42ba 823e
00000290: b462 f73d 1bcc 463e b298 33bd 11c4 603e
000002a0: db68 ac3c ccfa 803e 4a24 363d 1e9a 4e3c
000002b0: 1385 803e 558d 653c a89c 653e 0373 b93e
000002c0: 5378 fb3d f787 9d3e ad2b 62be e382 bd3e
000002d0: 3e79 393d e9f6 a2bc 437b fd3d 53ef 89bb
000002e0: 3b7b d23e 3bf1 913e 29eb 27be c693 163e
000002f0: dded 1a3e 8100 0abe c64b 2c3d 268c 123e
00000300: 0b97 55be e37f 703d 1542 ea3e f25b 0dbd
00000310: 2e7b 873e 5369 553c 1ca8 a4be 6910 8bbe
00000320: 456f 383e c0ea 593e 6405 573e 4757 0e3e
00000330: 7f24 4d3e 3f3e b23d 9f01 403d 19f1 8fbe
00000340: b487 49be 9d6e 25bd fb55 1dbd e4bf 02be
00000350: 1075 adbc 95cd 07bc cf61 5fbd 264d cf3e
00000360: 7a4d 4c3e 6228 153e ca0c 08be 0add 8c3e
00000370: 2e9c 2a3e 1e29 c2bd eca6 ddbc c17e b5bc
00000380: 26f3 553e ebcc 8b3d 7a14 623e d6d3 933e
00000390: 0f36 b13d 2c2f 1ebe 1a0a 703e d9a2 0dbe
000003a0: e2ff 12be 3a7d 97bc 746f b23e 5e85 eebc
000003b0: e172 213e fb09 2a3e 754d e3bd b39d 253e
000003c0: d0f5 a8bc f0fa 63be 0844 f2bd eab1 59be
000003d0: 68a0 a13d c0f6 edbc a0d0 143c 0c53 2e3e
000003e0: 60d3 0abc dc26 d33d e49d dfbd dc2d 6ebe
000003f0: a47d d4bd 6e06 343e f65f 02be 088e b2bd
0.009925693 -0.026619753 -0.09515615 0.1269132 0.28996328 0.25319603 0.13285355 -0.14659522
-0.21376047 -0.001443847 0.22007154 0.27195877 0.014442089 0.3451039 0.22375892 0.04335813
0.03085545 -0.059799425 0.289724 0.17297193 0.094412 0.11672853 0.23986691 -0.05777339
0.23121266 0.29180536 -0.1623754 -0.13740115 0.36468482 0.2848302 0.10339323 0.14355078
-0.05469118 0.10615069 0.25336543 0.20220424 0.24596466 0.18446246 -0.13875169 -0.11156042
0.332964 0.128529 0.34848008 0.26213524 -0.022617158 -0.06658295 -0.15634362 0.14654145
0.22379024 0.13855179 0.43244386 -0.24633059 0.21283749 0.015175267 -0.23313229 -0.20013891
-0.002370526 0.085596256 -0.18851419 0.22814344 0.11053132 0.18463983 -0.14326213 -0.2999823
0.09599816 0.1662037 0.07672588 0.025158733 0.20954023 -0.24149726 0.36659837 0.22792418
0.38749406 -0.04921259 -0.056119364 -0.06787716 -0.046279196 -0.1837669 -0.027243499 0.14868467
-0.057013206 -0.054211736 0.16784072 0.19584326 -0.06891217 0.27039844 0.21776438 0.31039968
0.349439 0.14333709 -0.17626043 0.002963565 0.13351777 -0.06155521 -0.08515869 0.32003286
-0.02751646 0.0028552413 -0.16350129 -0.12925714 0.16306342 0.2873512 0.34964007 -0.16276832
-0.04166331 0.37466878 -0.12944376 0.23948711 0.22785099 -0.012238515 0.31109923 0.10125455
0.2106592 -0.14324576 0.37007567 0.053866267 0.035351545 0.23936076 -0.012539295 0.118364125
-0.10353387 0.18464443 0.33130082 -0.05873603 0.26429504 0.2836683 -0.113000825 0.3724522
0.17294237 -0.1735915 0.14772074 -0.106345624 -0.04955343 0.020892268 0.084209226 -0.17705461
-0.15515977 0.08965395 0.1624217 0.13190427 -0.24376257 -0.107044145 -0.2981931 0.16940314
0.22563064 0.057709374 -0.09457278 0.049419936 -0.12044149 0.006502539 -0.24247208 -0.1541787
0.008137935 0.13256808 -0.22659175 0.04942387 -0.21468987 -0.19798516 -0.2645532 -0.09944618
0.012856146 0.13926484 -0.074091144 0.25532728 0.12079373 0.19413798 -0.043846793 0.21949793
0.021046093 0.25191343 0.0444682 0.012609987 0.25101528 0.014010747 0.22423041 0.3622056
0.122788094 0.30767795 -0.22086973 0.3701392 0.04528164 -0.019893127 0.12377026 -0.004209438
0.41109642 0.28504357 -0.163983 0.14704809 0.151298 -0.13476755 0.04206445 0.14311275
-0.208584 0.058715712 0.45753542 -0.034511514 0.26461166 0.0130255995 -0.32159507 -0.27160957
0.18011196 0.21280956 0.2099815 0.13900481 0.20033453 0.08703279 0.046876546 -0.2811363
-0.19680673 -0.040388692 -0.038412075 -0.12768513 -0.021173984 -0.008288761 -0.054536637 0.40488547
0.1995143 0.14566186 -0.13286129 0.2751239 0.1666114 -0.09480499 -0.027057134 -0.022155168
0.20893535 0.068261944 0.22078124 0.28872555 0.08652889 -0.15447682 0.23441353 -0.13831653
-0.14355424 -0.01849233 0.34850657 -0.029116329 0.15766479 0.1660537 -0.11098758 0.16173439
-0.020625025 -0.22263694 -0.11829382 -0.21259275 0.07891923 -0.029048324 0.009082943 0.17023867
-0.008473247 0.10310146 -0.10918787 -0.23259681 -0.103755265 0.17580578 -0.12731919 -0.087184966

bias f4 [32]
00000000: d167 6d3e 2f27 9e3e 637c 5d3d 4dbd 813e
00000010: df56 033e 2aaf 9f3e a896 ac3e c9a2 7e3e
00000020: 1e4d 08be 63b0 01be cbc9 89bd e118 803e
00000030: dae3 5a3c 7a76 1c3e 5416 e1bc 80a7 c5bc
00000040: 358f ba3e 2aa5 4c3e 1533 4f3e 86ee 493e
00000050: ef0e 153e 80c8 e8bc b0dd 083e 1254 913e
00000060: 0946 a1bd c89f 263d 1729 9fbd 4ad8 c63e
00000070: 2358 9d3e 486f d83d 7c38 5f3e a071 89bd
0.23184134 0.3088927 0.054073703 0.25339738 0.12826107 0.31188327 0.33708692 0.24866785
-0.13310668 -0.12664942 -0.06727942 0.2501898 0.013359988 0.1527957 -0.027476467 -0.024127722
0.36437383 0.1998488 0.2023433 0.19719896 0.14556478 -0.028415918 0.13365817 0.28384453
-0.07874686 0.040679723 -0.07771509 0.3883689 0.30731305 0.105681 0.21798891 -0.067111254

weight f4 [64, 32]
00000000: cf15 ecbd 2e9e 29be fa9b c73d ca23 08bc
00000010: d575 9abd 6c53 9fbd 2d8f bc3b 61d8 a3bc
00000020: 2cbc 1dbe c177 db3d 1ac9 7d3d aa19 0d3c
00000030: fe41 0dbd 27c9 b03d af2e cb3c 7eb9 ab3c
00000040: f87b 233d e11b aa3c c60d b6bd 6d3c e13d
00000050: d578 d83d 2677 4a3d 22dd f5bd 8713 1d3d
00000060: 9ddf 06be 7492 19be ac84 283e eabf e5bd
00000070: 7313 acbd d6e0 be3d e358 13be 9071 de3d
00000080: c366 1b3e 50bd 973d a32f 19be 8808 0f3e
00000090: e8c8 f43c 16c1 eabd a130 85bd 2046 67bd
000000a0: d2a1 493e 48cd 9a3d accc 2abe 3246 bfbd
000000b0: 4970 89bd 9208 193d af00 eebd 7bbd 963d
000000c0: 55b6 4abe 2363 44be c566 d13b 2dff 86bd
000000d0: 0d63 f03d 897b eb3d ad94 0c3e e86d 46be
000000e0: 2822 ab3d 326c e63d 0bad e7bd 18e8 113e
000000f0: f82d 4e3d cb13 143e d7cd 12be b55a b73d
00000100: 0270 3cbe 9765 57bd 23d0 2ebd 2a68 003e
00000110: ee3a adbb 6d5e 08be 7078 05be a0e7 043e
00000120: 77b2 2e3e ee39 d33d 350c 3fbe b033 69bc
00000130: 0b31 33bd d021 913d f0c9 77bd 73c1 4cbd
00000140: e2a4 8abd 2623 0ebd 0015 c1bd 2e84 073e
00000150: d06e 633d e30d caba 8168 13be 7e07 093c
00000160: 4b88 043e 40aa 1cbe 674a 39bc a8cf 01be
00000170: b0da 473d 1388 073e 7028 81bb cb1d d93d
00000180: 834a b0bd ed87 37be 1848 633d 4f01 febd
00000190: 7ea4 86bd 11ad f03d af5c 27be af7f 26be
000001a0: 45d7 0fbd 1220 a7bd c451 c6bd fada a0bd
000001b0: 7845 90bd 4c45 50bd d782 46be 663a e8bc
000001c0: c25f 67be 78c5 ecbd e35d cfbd 139a 83bc
000001d0: 4c77 2cbe aec7 05be 01d1 93bd 20b0 a63d
000001e0: 0215 c03d d595 ddbd f4f5 d03c 04bc 56be
000001f0: 78e0 513d ff55 823d 3570 18be 344e 24be
00000200: 4fc6 81bd 7d3d 653c 8323 a83d 727e 09be
00000210: 9b30 0bbe 4ddf 00bc 2997 08be b885 04be
00000220: df89 873d dc3e 033e b169 b7bd 7c52 78bd
00000230: fce1 7d3d 3020 9f3d 1362 443d 3f61 1bbe
00000240: 4a67 bb3d 2403 0abd 118c 8d3b 2dbc 8ebc
00000250: b1a4 6bb9 f613 28bd 25a5 2ebd 194f 04be
00000260: ca85 773d 9aa8 e0bd a79d 10be 6847 13be
00000270: aa14 a0bd 22e1 62bd 2350 c5bd 3572 1c3d
00000280: 3c48 723e 92e9 bbbd 128c 8fbd d17a 253d
00000290: 331c 70bd 601b 5b3e 86fc 7a3e 489b 3bbe
000002a0: 7124 2abe 5250 34bd 813c 483e 7eed 23bd
000002b0: d9fd 00be 6b79 993d 296d 66bd 68c9 e53c
000002c0: 592e 583e ae4b 983d b852 9b3d 0c18 18be
000002d0: 6354 ccbd fd74 debd 5859 993e 9bef 4f3e
000002e0: fe9a d53d 3238 a93d ab40 973a f371 aabd
000002f0: e40f e03c 4b85 4d3d 71e7 1f3e 8e19 433e
00000300: 2c55 95bd 7850 973e 931c 943c 056a 2b3e
00000310: 20ad 233e 55eb 223e 4a47 913e 3707 143e
00000320: 4186 d33d 1a64 c7bd b1e9 9c3d 4656 583e
00000330: b065 28bd 5cea 883d 6a0d dc3d 1bfd 1dbe
00000340: cbca a13b d6e5 4c3e b2e9 873e ecbc 6a3e
00000350: 3ea7 24be 048e fc3d 8a05 8fbe 70a3 093c
00000360: c0c1 8c3c bde7 933d e26d e13d 6f3d 903e
00000370: c9b1 3c3e c985 ae3c c44b dbbc 418f 463e
00000380: 3aa6 5c3e 02a3 d43d 3906 0f3b a14a 66be
00000390: b385 423e 7b67 173d e891 9ebd 838f 45be
000003a0: 058a e13d fca3 a63d 8409 c53d 9bdd 4abc
000003b0: 0626 00be dc01 f6bc 93fc 8ebd c31e c5bd
000003c0: 4c53 573e c67d 8abd dbd4 cd3b 53fd 29be
000003d0: 70fc d6bd caa1 093e 1442 313e e424 dd3c
000003e0: c2de 8ebd 4299 06be d942 7c3d 9c90 52bd
000003f0: a8ab 363d 297c dcba 2b3d 193e 495d e03d
-0.11527597 -0.16564247 0.09746547 -0.008309314 -0.07542006 -0.07779583 0.0057543726 -0.020000638
-0.15403813 0.107162006 0.061959364 0.008612076 -0.034486763 0.08632117 0.024802534 0.020962473
0.039913148 0.020765247 -0.08889346 0.109978534 0.10569922 0.049430035 -0.12005068 0.0383487
-0.13171239 -0.14997274 0.1645686 -0.11218245 -0.08402147 0.09320228 -0.14389376 0.10861504
0.15175919 0.07409155 -0.14959578 0.13968098 0.029880956 -0.114626095 -0.06503416 -0.05646336
0.19690636 0.075586855 -0.16679639 -0.093395606 -0.0671087 0.03736169 -0.11621224 0.07360359
-0.19796117 -0.19178443 0.006390425 -0.0659164 0.117376424 0.11498172 0.1372859 -0.19377863
0.08356124 0.11251105 -0.11312302 0.14248693 0.050336808 0.14460675 -0.14336334 0.08952848
-0.18402103 -0.052587118 -0.042678963 0.12539735 -0.005286566 -0.1331727 -0.13034225 0.12978983
0.17060266 0.103137836 -0.18657 -0.014233515 -0.043747943 0.07086527 -0.060495317 -0.049989175
-0.0676973 -0.03470149 -0.094278336 0.13234016 0.0555256 -0.0015415516 -0.14395334 0.008363603
0.12942617 -0.1529932 -0.011309243 -0.12676871 0.04879254 0.13235502 -0.003941588 0.10601386
-0.08607962 -0.17922945 0.055488676 -0.12402593 -0.06574343 0.1175176 -0.1634395 -0.16259645
-0.035117406 -0.08160414 -0.09683564 -0.078542665 -0.070445 -0.050847337 -0.19385849 -0.028348159
-0.22595122 -0.11561102 -0.10125329 -0.01606468 -0.16842383 -0.13064453 -0.07217599 0.08139062
0.09379007 -0.10819594 0.025507905 -0.2097016 0.05123946 0.06364059 -0.14886554 -0.16045457
-0.063366525 0.013991711 0.08209898 -0.13427141 -0.1359276 -0.007865739 -0.13338913 -0.12941635
0.06618094 0.12816948 -0.08955706 -0.06062554 0.061983094 0.07769811 0.047945093 -0.15173815
0.0915056 -0.0336944 0.0043196757 -0.017423714 -0.00022472699 -0.04103466 -0.042637963 -0.12920798
0.060430326 -0.10969658 -0.1412264 -0.14382708 -0.07816441 -0.055390485 -0.096344255 0.038194854
0.23660368 -0.091754094 -0.07009138 0.04040033 -0.058620643 0.21397161 0.24510393 -0.18320954
-0.16615464 -0.044021912 0.1955433 -0.040021412 -0.12596835 0.07493862 -0.056256447 0.02805014
0.2111143 0.0743631 0.07584137 -0.14852923 -0.09977033 -0.108621575 0.29950976 0.20306246
0.10429953 0.082626715 0.0011539658 -0.08322515 0.027351327 0.050175946 0.15615632 0.19052717
-0.07291636 0.2955358 0.018080031 0.16739662 0.1598401 0.15910085 0.28374702 0.14455877
0.10328341 -0.0973589 0.076617606 0.2112666 -0.0411126 0.066853255 0.10744746 -0.15428583
0.004937505 0.2000955 0.26545483 0.2292363 -0.16079423 0.12331775 -0.27933913 0.008400783
0.017182231 0.07221935 0.110072866 0.2817187 0.18427195 0.021304028 -0.026769526 0.19390585
0.21547785 0.10382654 0.0021823777 -0.22489406 0.18996315 0.03696392 -0.07742673 -0.19293027
0.11012653 0.08136746 0.096209556 -0.012381936 -0.12514505 -0.030030183 -0.069817685 -0.09625008
0.21027869 -0.06762271 0.006281478 -0.16600542 -0.104973674 0.13440624 0.17310363 0.02699513
-0.069760814 -0.131444 0.06158719 -0.05140744 0.044597298 -0.001682167 0.1496474 0.10955293

bias f4 [64]
00000000: e57e d2bd 1529 48be 3e0a bd3d 1373 95bd
00000010: 1684 253d 257f 7c3e 7cf2 d03d 7b84 333e
00000020: a0bd 87bc 9776 e6bd 062d 9f3d 6302 08be
00000030: e883 703e a8f5 2a3c 991f ea3b 641f 7f3e
00000040: 1d27 d53d cd88 443e 0556 a23d c1b6 983e
00000050: 9fbe b63d 45cf 413e 2cc9 7a3d 72fd ee3d
00000060: 4ad9 0b3c d7ba 5b3e 9324 67be f573 f33d
00000070: c973 5f3e 3e95 d23d c8d9 4abe d6e7 0bbe
00000080: ce32 a23d 6b9d 803e 084f 18be 4304 073d
00000090: 32f7 753d b9bc 63be dd67 d13d 9877 33bb
000000a0: 7e19 623d 0a53 ce3d 7fe1 b83c 828e 293e
000000b0: e176 83bd 0e74 40be c29e 8b3d b19e 243e
000000c0: 2858 e03d af1c 2fbe 3416 da3d 4558 edb9
000000d0: d8c9 c53c bb2c 683c 62f5 423e 5f4e d2bd
000000e0: c68c 093d 66e4 06be 8931 8cbd 9226 543c
000000f0: 6409 1d3d e9ae 3b3e 2dbf 263d d959 d3bc
-0.102781095 -0.19546922 0.09230469 -0.07297339 0.04040917 0.24657877 0.102025 0.17531006
-0.016569912 -0.11253088 0.077722594 -0.1328216 0.23487818 0.010434546 0.00714488 0.24914318
0.10407851 0.1919281 0.07926563 0.2982693 0.08923077 0.18926723 0.06122701 0.116694346
0.0085356925 0.21457992 -0.22572546 0.118873514 0.21821512 0.10282372 -0.1980964 -0.13662657
0.079198465 0.251201 -0.14873898 0.03296305 0.060050197 -0.2223996 0.102248885 -0.0027384516
0.055200092 0.10074432 0.022568462 0.16558269 -0.06419159 -0.18794271 0.0681739 0.16076161
0.109543145 -0.17100786 0.10648766 -0.00045269929 0.024144098 0.014170821 0.19038919 -0.10268854
0.033581518 -0.13173065 -0.068453856 0.012948649 0.038339034 0.18328442 0.040709663 -0.025799679

weight f4 [4, 64]
00000000: b0db 8abd 58b0 7e3d 1c61 c4bd c8c6 ad3b
00000010: 0883 7a3d f0f0 c23b ffe7 4fbe 9409 9f3d
00000020: 01ff 41be 40fe 8ebc ddbd 1cbe a002 c93d
00000030: 9958 2ebe 3a26 9e3d a20f 4a3d f063 85bd
00000040: 47c1 57be a92e ee3c 12b5 433d f351 b7bd
00000050: 5737 863b e5e6 18be 9d94 7abd 0f31 aebd
00000060: 4251 d5bc 9e87 943d 1c35 cbbd b1b1 04be
00000070: 76f3 26bd 7205 dcbd d296 26bc b4e9 4f3c
00000080: 5114 0dbe 820b 21be 6440 babd 980d c0bc
00000090: 8d13 adbd ef69 8d3c ea33 cdbc a7ea b6bd
000000a0: 0c41 6dbd 3869 2ebe 058d a93d fd80 0f3d
000000b0: 7841 77bd 80fa 613d 8835 fdbd 9ce3 223d
000000c0: e77a acbd 9c81 dd3d d98b 17bc b4da 0a3d
000000d0: 6ec4 aa3d 0200 8ebd 743d 2ebe a96a 29bd
000000e0: 9c35 fcbb 8e67 b53c be08 813c 313f 9bbb
000000f0: 6470 2bbe 01a3 7dbd bfba 7bbc d8b8 1cbd
00000100: 9642 b3bd 7ccd c03d 5408 3bbd 613c 913a
00000110: d109 b3bc 8ddf 07be a474 4bbe 5443 17be
00000120: db89 3cbd 9014 fd3d d269 5fbe e0b9 98bc
00000130: 5646 f0bd 2ad6 613d ae82 1ebd 404e afbd
00000140: f24a 91bd 3633 63be d281 2bbe 7a20 54be
00000150: 2240 843b 79af 25be 0e98 93bd dc06 d9bd
00000160: ca3e 2fbd 5059 83be b8a3 543d 2b81 86be
00000170: 9ac9 60be 1741 9fbd b015 6a3d 1eae 6bbd
00000180: ea9f 64bd 8077 45be 1851 f73c e65e bb3d
00000190: 219b f7bd 0f43 cf3c ea9d 20be ee0a fcbc
000001a0: 5117 2d3d 844b 46bd 1299 893d a7e5 34bd
000001b0: 2ac1 e63d c5c0 453d b0f8 84be d6e1 f6bd
000001c0: 64a6 5fbd 6894 00bd fe42 5d3d f6ad de3d
000001d0: 5a59 9b3d 54e9 8abd 7263 0abe bf07 ee3b
000001e0: 5857 d83c 2c7d b0bb 7a88 153d a46c 273d
000001f0: d211 66be 2ecd 62be b5be c4bd a54d e9bd
00000200: 5677 893d 37f2 b5bc 5e5f fe3c 045e fbbc
00000210: b4fb 873d 3c66 21bd b1ac 043d 7d7c 8abb
00000220: 1386 e8bd 40b6 583c 2540 6e39 3ae7 a93d
00000230: f1f5 0bbe 456a 4dbd 90aa 18bd f7a2 d4bd
00000240: 5610 a738 aef6 f53c 8952 8f3c a42d 983c
00000250: b9d3 25bd 37dd b1bd 2813 80bd 6971 08be
00000260: 0069 003c ce95 b03d 4001 2a3c 9cd2 6d3d
00000270: 78d8 8b3c b21e b93d 5861 053d 846a 79bd
00000280: af59 04be 4e96 513c 3a2f a63d 2646 f03d
00000290: 2875 2abe f65a 44bc 5bdd c5bd 36b0 e33c
000002a0: e6fc a23d ebeb 89bd 0909 41bb deeb 4bbe
000002b0: 3096 c9bd 3eb0 9c3d 3719 e03d b8af 1e3d
000002c0: 46a1 963e bdd0 983d be5a 803d b212 b63d
000002d0: 1e06 e93c c181 08be d06b 86bd 4d21 38bd
000002e0: 5648 3e3d 705c c9bd ee23 01be df11 243d
000002f0: bdbe 2c3c 5869 05bc c7d0 c23c 32a1 cebd
00000300: fa63 923d 081c f9bc f8e1 b23d 26e7 203d
00000310: cea5 2cbd cf46 11be 1801 2dbd 0a33 b3bd
00000320: a65e b4bd 00bf a3ba 103b 973d f86c afbd
00000330: 039d 153e a4b2 bcbd 8eb7 4d3d deb7 1dbe
00000340: 8063 703e 29b5 30be ee98 333d 7835 bebd
00000350: e81f 1d3d e234 e63d 975b da3c bfb2 c33d
00000360: 721d 52bd b460 2bbe e56a c4bb 5aee 5bbd
00000370: 730a 20be 16e0 33be 80f6 ab3c cfa7 0e3c
00000380: d8fa 89bd cb0c 1ebe 1e23 91bd f6f5 c4bd
00000390: 2517 183e c39b a0bd ac12 dabd c4ef aebd
000003a0: 1e00 b43d 48fb 94bd 4a57 b33d a2a4 2fbe
000003b0: 9491 f93d 1cf1 f63c dfab cb3c bcd2 35bd
000003c0: ecb2 e4bd 3e5b f7bd b2c1 f4bc b049 9a3c
000003d0: 36eb 0fbe 7a88 2abe f073 9d3d 3a4b ac3d
000003e0: 1ed3 dabd 8a4e c6bd a5a6 7fbd c5bd 13be
000003f0: 6c6a 45bc d5a5 d4bd a974 7e3a 01fe 293d
-0.06780183 0.062179893 -0.09588835 0.0053032376 0.061160117 0.005949132 -0.20303343 0.07765499
-0.18944933 -0.01745522 -0.15306802 0.09814954 -0.17025985 0.07722135 0.049331315 -0.06513202
-0.21069823 0.029074984 0.047780104 -0.089511774 0.0040959525 -0.1493183 -0.061176885 -0.08505451
-0.026039723 0.072524294 -0.09922239 -0.12958409 -0.040759526 -0.10743226 -0.010167794 0.0126899965
-0.13777281 -0.15727046 -0.09094313 -0.023443982 -0.08450995 0.017262427 -0.025049169 -0.08931475
-0.05792336 -0.17032325 0.082788505 0.035035122 -0.06036517 0.055170536 -0.12363726 0.039767846
-0.08421879 0.10815737 -0.009249651 0.033899978 0.08338247 -0.06933595 -0.1701563 -0.041361485
-0.0076968204 0.022144105 0.015751239 -0.0047377576 -0.16742092 -0.06192303 -0.015364348 -0.03826222
-0.08752935 0.09414193 -0.04566224 0.0011080616 -0.021855267 -0.13268872 -0.19868714 -0.14771777
-0.046029907 0.123574376 -0.21817711 -0.01864332 -0.117321655 0.055135883 -0.038698845 -0.08559847
-0.07094373 -0.22187504 -0.16748741 -0.20715514 0.0040359655 -0.16180219 -0.072067365 -0.105970114
-0.04278449 -0.25654078 0.051913947 -0.26270422 -0.21951905 -0.07776087 0.05714959 -0.057539098
-0.05581657 -0.19283867 0.030190036 0.0914896 -0.12090135 0.02530053 -0.1568524 -0.03076693
0.042258564 -0.04841186 0.06718649 -0.044164326 0.11267312 0.048279542 -0.25970984 -0.120547935
-0.05460204 -0.03139153 0.054018967 0.10873024 0.07585402 -0.06782785 -0.13514498 0.007264107
0.026408836 -0.0053860154 0.036507107 0.040875092 -0.22467735 -0.22148582 -0.09606687 -0.11391763
0.06712215 -0.022210224 0.031051334 -0.030684479 0.066398054 -0.03940414 0.032391254 -0.004226266
-0.11353698 0.013227046 0.00022721344 0.08296056 -0.13668038 -0.050150175 -0.037272036 -0.103826456
7.966223e-05 0.030024853 0.01749541 0.01857645 -0.040485118 -0.086847715 -0.06253654 -0.13324513
0.007837534 0.08622323 0.010376275 0.05806218 0.017070994 0.09039058 0.032563537 -0.060892597
-0.12924837 0.012792183 0.081144765 0.1173213 -0.16646254 -0.011984577 -0.09661361 0.027793985
0.07958393 -0.06734451 -0.0029454848 -0.19914195 -0.09843099 0.07650803 0.10942309 0.038741797
0.29419917 0.07461689 0.06267308 0.088902846 0.0284453 -0.13330747 -0.06563532 -0.044953633
0.046455704 -0.09832084 -0.12611362 0.040056106 0.010543522 -0.008142792 0.023781193 -0.10089339
0.07147975 -0.030408874 0.08734506 0.03928294 -0.04215031 -0.14187168 -0.04223737 -0.08749969
-0.08807115 -0.0012492836 0.07384312 -0.08565706 0.14610676 -0.092137605 0.05022388 -0.15402171
0.23475456 -0.17256607 0.043847017 -0.09287542 0.038360506 0.11240555 0.026655002 0.095555775
-0.051297612 -0.16736108 -0.005994188 -0.053694107 -0.15628986 -0.17565951 0.020991564 0.008707001
-0.06737298 -0.15434568 -0.07086776 -0.09617226 0.14852579 -0.07842209 -0.10648093 -0.085418254
0.08789085 -0.072744906 0.087568834 -0.17152646 0.1218597 0.030144267 0.024862228 -0.044390425
-0.11166939 -0.1207795 -0.029877517 0.018833965 -0.1405457 -0.16653624 0.07688129 0.08412786
-0.10684799 -0.09682949 -0.062414784 -0.1442786 -0.012049299 -0.103831924 0.0009706715 0.041502003

bias f4 [4]
00000000: 190a 233d 78cf 9fbd 8e31 0dbd 0233 3f3d
0.03980455 -0.078032434 -0.034471087 0.046679504
