models/kevin_10K_epoch_still_shit.pt (torch, 84455 bytes, 12 tensors)

weight f4 [32, 16]
00000000: f2d4 e6bd 11a7 14bd e989 8e3e d735 02bf
00000010: b281 50bc 60aa 1ebd aeb9 b73e fecc 93be
00000020: b4b8 8ebd 0180 f7bc 382b fbbf 93c7 f1be
00000030: 2c1d 5fbe 612d 773d 0a94 5ebf b39e b8be
00000040: 9858 ccbc 99c6 04bf 886d 24bf af7c 20be
00000050: a708 d0be ff75 75bd 8f73 54bf fee2 323e
00000060: 1c8f 02ba 659e 81bd 8558 25bf 7724 01be
00000070: e138 fabe e73b 20bf bf0e 18bf 613d 5cbf
00000080: 0d0c 013d fae0 a23f 2741 863f 9f43 383f
00000090: ced0 6e3d 36e3 a3c0 b823 a93f bd5f ce3c
000000a0: 6818 cf3c 32e9 073d f4f1 a7be 866d 2e3f
000000b0: f79d 00be b7b2 59bd f254 963e ca0f 613e
000000c0: 6fe2 dbbd b408 14be 7249 d5bf 79fc 0abf
000000d0: 3cc7 353d 1299 35bf 5010 8c3e 6a6e bfbe
000000e0: bb75 1fbe 788f a2bf 9d0b 613d 1252 6dbf
000000f0: 036d d2be 84e1 1abf f953 f8bf 79d5 0dbc
00000100: 963a c5bd af06 51bf c1ea 18bf 9071 00bf
00000110: 1782 18be a2f1 a4be 2f06 1bbe f3a2 763e
00000120: 8712 a1be a951 88be 1af5 51bf 1460 c4bd
00000130: d91e a4be 081b 03bf 4515 9ebe 35d0 68bf
00000140: 0976 443f 2224 25c0 3199 4d40 ba02 a3be
00000150: 343d 303f 53fa 73bf 3560 1640 95ad 3b3f
00000160: b92f aebe 9381 a23f 8cae d2c0 340d 693f
00000170: f314 8d3d b5ec e73e a05e 28c0 812b 293f
00000180: 3eb8 6fbe b0ac e9bd b2f4 e1bd 57dd 51be
00000190: bc98 ec3d 30b1 24be 206d 13be 52c6 6ebe
000001a0: 4c9f eabd 68ae 4ebd 9c81 33be 5972 52be
000001b0: ba8b b1bd 6fc4 4f3d caff 51be a78a 64be
000001c0: 74d6 883d 5f7f 8339 282c 363e 871a 98be
000001d0: f9bd 1d3e a5d3 e73d 7cb2 23be 1605 67be
000001e0: 8c30 f1bd 2d41 1e3e 2dfd 7c3e b356 2abe
000001f0: 9c32 97bd 9c05 46bd 242b cf3c bc7f ccbd
00000200: f53c 373e 9dfb 7cbe 8e2d 4fbe eeb6 a1be
00000210: 3501 273e 5387 b5bc 17fe 55be 9241 96be
00000220: d86f a83d 9021 28be a607 3a3e 3c6a 56be
00000230: 8d17 023e d2f6 e2bd 7644 94bd e831 a1be
00000240: 485b 733e 7ff1 58be 6aa4 1cbf a5c0 38bf
00000250: 59f8 12bd 56c1 2cbe a744 01bf b0aa 11be
00000260: 0394 38be 5953 a8bc 8ffe 42bf f93b 453e
00000270: 0a25 80bd db62 5abb 3404 17bf 3d30 a1bd
00000280: a647 8ebe 99db 98be cd7b 0dbf 251f 22bf
00000290: 3c63 55be 8263 a4be e88d 8fbe c5bc d7bd
000002a0: 8257 903b 837b 09bd ce13 0abf ebcb 263e
000002b0: e874 1bbd 588a 7fbe eafb c2be 201c 9ebd
000002c0: 0714 8bbe e5e2 d9be f4df 0ebf cb22 45bf
000002d0: 68e9 b93c 3d8d 26be 39d1 3fbc 805e b6be
000002e0: ee2e 44be b1c6 21be b9e3 8bbf 2d21 0e3e
000002f0: d152 87be 2d44 433c bcba eebd a45d 69bd
00000300: 8419 44be cfb9 3fbc 26dd ed3d 93f0 8a3d
00000310: 5447 99bd 6233 2ebe c183 f93d 7f69 71be
00000320: a430 443e 64bb 95bd 44ae 18be 1fd1 0bbe
00000330: 14b8 a63d 208e e9bd bead 1f3e e58d 75be
00000340: fa36 c4be 52fd 903f 86d8 84c0 ad88 f73e
00000350: 0bc5 2dbd a661 b6be 6f3d 9f3f 9f68 e4be
00000360: da67 15bf 1118 03bf 17da c9c0 75bd d1be
00000370: 39b4 9ebf ab44 3ebe 0bff 07c0 a49d 93bf
00000380: 2771 cebe 0a92 81be e214 c5be bd43 02bf
00000390: f9ab b93d 014f 4fbd 4d5f 99be 0769 cebe
000003a0: 96c2 e2bd d417 2ebe 636e b1bf e70c 26bc
000003b0: cfd7 a1bd 9bfd e4bd fc40 80bd 6815 093e
000003c0: b5f1 3f3d bdc3 68be c4cd 59be d242 18be
000003d0: 5d5a 12be 598c 3c3e 03b0 a83e 3cc9 13bd
000003e0: b732 c7bd 7576 ddbd d5d0 7bbf a277 dfbd
000003f0: bf5b babe 7e9c 82bd b9a9 5a3c 78ef bfbe
-0.11271085 -0.03629214 0.27839592 -0.50863403 -0.012726234 -0.0387367 0.3588385 -0.28867334
-0.06968823 -0.030212404 -1.9622564 -0.47222576 -0.21788472 0.06034601 -0.8694464 -0.36058578
-0.024944589 -0.51865536 -0.6422963 -0.15672563 -0.406316 -0.059926983 -0.8298883 0.17469403
-0.00049804314 -0.063290395 -0.64588195 -0.12611566 -0.4887152 -0.62591404 -0.593975 -0.86031157
0.031505633 1.2724907 1.0488633 0.7197818 0.0583046 -5.1214857 1.3214025 0.025192136
0.025280192 0.033181377 -0.32801783 0.6813587 -0.12560259 -0.05314895 0.29361683 0.2197868
-0.10736548 -0.14456445 -1.6663039 -0.5429149 0.044379458 -0.7093669 0.27356195 -0.37388927
-0.15572254 -1.2700033 0.054942716 -0.92703354 -0.41098794 -0.6050036 -1.9400626 -0.008656853
-0.09630315 -0.81650823 -0.59733206 -0.5017328 -0.14893375 -0.322156 -0.15139078 0.24085598
-0.31459448 -0.26624802 -0.8201462 -0.09588638 -0.32054785 -0.5121312 -0.30875602 -0.909427
0.7674261 -2.5803304 3.212475 -0.31838018 0.6884339 -0.9530384 2.349622 0.7331174
-0.34020784 1.2695793 -6.583807 0.9103577 0.06888761 0.4529778 -2.6307755 0.66082007
-0.23410127 -0.11409891 -0.11033 -0.2049459 0.11552569 -0.16083217 -0.14397097 -0.2331784
-0.11456165 -0.050459296 -0.17529911 -0.20551433 -0.08669229 0.050724443 -0.20507732 -0.22318517
0.06681529 0.00025081166 0.17790282 -0.2970774 0.154045 0.11319665 -0.15986055 -0.22560534
-0.11776838 0.1545455 0.24705954 -0.16634636 -0.073827 -0.048345193 0.025289126 -0.09985301
0.17894347 -0.24705358 -0.20232221 -0.31584877 0.16309054 -0.022159254 -0.20897709 -0.293469
0.082244575 -0.16419053 0.1816698 -0.20938963 0.12704296 -0.110822335 -0.072396204 -0.31483388
0.2376529 -0.21185873 -0.61188376 -0.7216895 -0.035881374 -0.16870627 -0.5049538 -0.14225268
-0.18025212 -0.020547556 -0.76169676 0.19261159 -0.06257065 -0.0033323083 -0.5899079 -0.07870529
-0.27789038 -0.2985504 -0.5526703 -0.6332877 -0.20838636 -0.32107168 -0.28037953 -0.10534052
0.004404963 -0.033565056 -0.5393647 0.16288726 -0.037953287 -0.24955118 -0.3808282 -0.07720208
-0.27163717 -0.4255592 -0.55810475 -0.77006215 0.022694305 -0.16264816 -0.011707597 -0.35618973
-0.19158527 -0.15798451 -1.092887 0.13879843 -0.2643037 0.01191811 -0.116567105 -0.05697407
-0.19150358 -0.011702015 0.11614446 0.06784167 -0.07484308 -0.17011788 0.12183333 -0.235754
0.1915918 -0.073111326 -0.14910227 -0.13653992 0.08140579 -0.11404061 0.15593621 -0.2397991
-0.38323194 1.1327307 -4.151431 0.48346463 -0.042424243 -0.35621375 1.2440623 -0.4461107
-0.5836159 -0.512086 -6.3078723 -0.40964857 -1.239875 -0.18580882 -2.1249416 -1.1532483
-0.40320703 -0.2530673 -0.38492495 -0.5088461 0.09066004 -0.050612453 -0.2995552 -0.40314505
-0.110722706 -0.17001277 -1.3861812 -0.010134912 -0.0790249 -0.11181184 -0.06262395 0.13387072
0.04686137 -0.22730918 -0.212699 -0.1486924 -0.14292283 0.18412913 0.32946786 -0.036080584
-0.0972647 -0.108136095 -0.9836553 -0.1091149 -0.36398122 -0.06377505 0.013346129 -0.37487388

bias f4 [32]
00000000: 5c04 50bf 83ad aebd 69f7 ff3c 51df 1abf
00000010: 7e5e 45be 88c5 a0be ca73 9bbe 69ad 92be
00000020: 1c24 80bd cccf 95be 7ec7 65be d22b 373e
00000030: 482d 7ebd 31f4 ffbe d635 aabe 762d 32be
00000040: 6802 f03e 938b 4ebb 7f0a e9be 471c cbbe
00000050: 24fd 963d 3b33 e93d 462a 48bf 726b 2dbe
00000060: 6701 2bbe 3282 f03c 0402 2cbe 5bba e7be
00000070: 3907 23bf 4a21 c1be 3746 34bd 2289 50be
-0.8125665 -0.085291885 0.031245904 -0.60497004 -0.19274327 -0.31400704 -0.30361778 -0.28647926
-0.06256887 -0.292601 -0.22439381 0.1788781 -0.062054902 -0.4999099 -0.332442 -0.17400154
0.46876836 -0.0031516298 -0.4551582 -0.3967001 0.073725015 0.113867246 -0.78189504 -0.16935518
-0.16699754 0.029358957 -0.16797644 -0.45259365 -0.63682896 -0.3772071 -0.044012275 -0.20364812

weight f4 [64, 32]
00000000: 3028 42be 4ceb a9bd b8d2 06be 6d86 a13d
00000010: 6248 0bbe 3399 0abf b902 9f3c 1d33 7cbd
00000020: 5442 30be 0f01 19be 48f2 873d cfe7 d7bc
00000030: e075 85bb 4bab b83c 7e00 b0bd d6f3 de3d
00000040: 5188 f2be 3a9b 313e 5aed 1ebf b808 cbbc
00000050: 9f44 20bd bebe abbd a1d6 f2be 60d3 b6bd
00000060: 8b0d 48be 7b9e 0ebe 6d2b 003e b760 20be
00000070: 7eed 25be e18f 96be 1e82 92be 5053 243d
00000080: 8ae6 8bbd 58c1 943d 5a40 14bd 9c57 73bd
00000090: 203c b1bc ea37 25be 28b1 41ba bc44 f63d
000000a0: 9053 54bc 4975 33be 7052 32be 79c6 d93d
000000b0: 16f5 c43d 4c89 c0bd 0260 ff3d 8486 23be
000000c0: 0228 72bc 451a 423d 8994 86be a378 b33d
000000d0: 1acf 86bd 5513 a93d b3a6 8bbc 04cb fabd
000000e0: 95f4 15be e9bf 98bd f75c cebc a8c6 32be
000000f0: f8a2 f6bd 9c0d 35be 2a96 efbd b2c3 cbbd
00000100: a734 12be 45be 5dbd 293e 43bd c222 a4bb
00000110: bae1 f1bc 65b8 53bc 3839 40bd e3d0 283e
00000120: 6907 50be e395 243c d2b0 3ebd 8dcf 8e3d
00000130: 7457 f1bd 8621 34be 6ed9 40be 7e8e 163d
00000140: bcac 4dbe 9037 b3bd a464 a1be 2b8f b1bd
00000150: 5c69 f93c dc0e 72bd efee a9bd edb4 cdbd
00000160: 9986 163d f9b0 f63d 2812 bb3d 4d66 4c3d
00000170: 2d41 17be 78ed 33bd e83a 72bd 6755 91bd
00000180: fb54 8fbd 80c5 ca3d 3af8 febc 7e44 90bd
00000190: 6b53 3dbe 05e8 f9be 73b2 2f3e 8c52 26be
000001a0: 2c20 f8bd 2db2 abbe e756 c7be 7eaf 483e
000001b0: 5791 0dbe 7f7a 4f3c 3eb3 753e 01e5 273e
000001c0: b0db fabe 4e26 523e 46a5 09bf 5dc8 96be
000001d0: b737 76be 0484 3ebd 916e 12be f293 d1bf
000001e0: 6b28 8abf 298e 3c3e 6a55 53bd 695a b63f
000001f0: c917 5dbe 4258 a8bc cc78 723e 71c5 9f3e
00000200: 5dbd 7ebd 36f1 f03d 21bd 0ebe 01e7 06be
00000210: eee4 b03d 451a 42be 966a 00be 069d 6bbd
00000220: 579c 0a3e 0c37 9f3c 836c a3bd c111 c4bd
00000230: 9fb0 a63d 0e9a c7bd 4298 afbd 6d76 66bc
00000240: 5ad9 c5bb 9bfc 3fbd 426d f6bd a752 2e3e
00000250: cadd 01be c9f3 373d 36b5 f4bd e5ad c13d
00000260: f659 23be ca51 103e 23f9 b43d 3cbc fabc
00000270: 826a 8abe 73d5 a4be 1aa7 06bb c1fe fb3d
00000280: ebaa 763e 331b 9abe 696d cfbf e391 093e
00000290: 76af 603e 68cd 54bf 8696 b93c f9e9 e93d
000002a0: da41 2f3d 152d e13e 3232 de3e a037 803e
000002b0: 8727 cabd edd4 7a3e f7b1 143d 972a c83d
000002c0: 0ea4 3bbf a284 76bd f682 dcbe f333 cbbc
000002d0: f8e9 123e 661d 8c3c e9d3 17bf 9e6a f43f
000002e0: 1eb4 3d3e 8709 0d3f 3f78 c0bd 8fba e83e
000002f0: 0314 dd3b 869b a23d 2348 b13e 5cfd 03be
00000300: b7ad ac3d 974d 2bbf 3869 26bd f286 8bbd
00000310: 2e8e 4bbe 419d e7be 123f a23d 8c38 1e3e
00000320: 02dd 553d f4ff d9be fc27 1bbf f505 823e
00000330: 6b83 293e 8fa1 c3bd b3e5 a83e db07 babb
00000340: dcee 8bbe 7cf8 c43d 373b 56bf f2b1 abbe
00000350: c6f9 d2bc 24c1 cbbd 4870 27bc 3810 a8bf
00000360: cb42 f3bf f6da ca3d 2deb 15be 60df 453f
00000370: 4b9a 44be 3eda fd3e e09b 8f3d 8ef7 b93d
00000380: 7677 cfbe e8da 15bb 1ec6 3abe 9acf d6bd
00000390: e08e 72be 2a8d 4cbe 5eb7 253e 83f3 13bd
000003a0: 76dd c5bd d0b5 acbc 3bc1 9ebe 9be5 233d
000003b0: 463f 053c 89cc 14bf 716b b6bb 1fcd 0c3d
000003c0: d615 8bbe 18f5 3f3b b490 b9be 375b 963d
000003d0: e296 98be f357 d83d 3fe4 a0be 6141 d8bc
000003e0: a60b d0be 0e41 5f3c f8e0 dbbd 9a8e 79be
000003f0: 2c01 c4be b7f5 b8be eef3 23be f5c4 e6bd
-0.18960643 -0.082968324 -0.1316632 0.07886968 -0.1360183 -0.54140013 0.019410478 -0.061572183
-0.17212802 -0.1494181 0.06638008 -0.026355652 -0.0040728897 0.022542616 -0.08593844 0.10886352
-0.47369626 0.1734437 -0.6208092 -0.02478443 -0.039127942 -0.083859906 -0.47429374 -0.08927035
-0.19536416 -0.13927643 0.12516566 -0.15661894 -0.16203877 -0.29406646 -0.28614897 0.040118515
-0.06831081 0.0726344 -0.036194183 -0.059409723 -0.021635115 -0.16134611 -0.0007388764 0.12024829
-0.012959376 -0.1752521 -0.1741426 0.10633559 0.09617059 -0.09401187 0.12469484 -0.15969282
-0.014780046 0.047388334 -0.26285198 0.08763244 -0.0658247 0.082556404 -0.017047262 -0.122457534
-0.14644082 -0.07458479 -0.025190813 -0.17458594 -0.120428026 -0.17680973 -0.116985634 -0.09949435
-0.14277898 -0.054136533 -0.047666702 -0.0050090263 -0.02952658 -0.012922381 -0.046929568 0.16485934
-0.20315327 0.010045501 -0.046555348 0.06973181 -0.117842585 -0.17590913 -0.18832943 0.036756985
-0.20085424 -0.08750832 -0.31522095 -0.08669885 0.030445747 -0.059096202 -0.08297526 -0.100442745
0.036749456 0.120454736 0.091343224 0.04990225 -0.14770956 -0.04392764 -0.05913821 -0.07096367
-0.069986306 0.099009514 -0.031124223 -0.07044314 -0.18488853 -0.4880983 0.17157917 -0.16242427
-0.12115511 -0.33534375 -0.3893349 0.19598195 -0.13824974 0.012663483 0.23994157 0.16395952
-0.48995733 0.20522425 -0.5376781 -0.2944974 -0.24044691 -0.04651262 -0.1429999 -1.6373274
-1.0793585 0.18413605 -0.05159513 1.4246341 -0.21591105 -0.020549897 0.23678893 0.31205323
-0.06219231 0.11764757 -0.13939334 -0.13174058 0.08637415 -0.18955334 -0.1254066 -0.057522796
0.13536201 0.019435428 -0.07979681 -0.09573699 0.081391566 -0.097461805 -0.08573963 -0.014066321
-0.006037873 -0.046871763 -0.12032558 0.17023717 -0.12682262 0.044910226 -0.11948626 0.09456996
-0.15952286 0.140937 0.088365816 -0.030607335 -0.27034384 -0.321941 -0.0020546378 0.1230445
0.24088638 -0.30098876 -1.6205264 0.13434558 0.21941933 -0.83125925 0.022654783 0.1142158
0.04278741 0.43979707 0.4339767 0.25042439 -0.098708205 0.24495287 0.036302533 0.09773748
-0.732972 -0.060185082 -0.43068665 -0.024805045 0.14347064 0.017103862 -0.59307724 1.9095037
0.1852574 0.5509266 -0.09397935 0.45454833 0.0067467703 0.0793982 0.34625348 -0.12889618
0.08431571 -0.6691527 -0.04062769 -0.06812848 -0.19878456 -0.45237163 0.07922186 0.15451258
0.052212723 -0.4257809 -0.60607886 0.2539517 0.16554038 -0.09552299 0.32987747 -0.005677206
-0.27330673 0.09617707 -0.83684105 -0.335342 -0.025753867 -0.09948948 -0.010219641 -1.312995
-1.9004759 0.09905045 -0.14640494 0.7729397 -0.19199483 0.49580568 0.07012153 0.090804204
-0.4052083 -0.0022866074 -0.18239638 -0.104888156 -0.23687315 -0.19975725 0.1618323 -0.036120903
-0.09661381 -0.021082789 -0.31006798 0.04001389 0.008132761 -0.58124596 -0.005567007 0.034375306
-0.27165097 0.0029290374 -0.36243212 0.073416166 -0.29802614 0.1056365 -0.31424138 -0.026398363
-0.40633887 0.01362635 -0.10736269 -0.24370804 -0.38282144 -0.36124966 -0.1601102 -0.11268035

bias f4 [64]
00000000: 5413 c4be a2e2 96bc 4415 bbbe ae12 97be
00000010: a36c 56be a019 e5bd f404 6abf 3dff 25bf
00000020: 772a fcbe 49b6 c5bd 0f90 45bf f94d d6be
00000030: af5d babe f434 f3be 84b3 82bf f54d 98be
00000040: aae2 7dbf f541 d2be f8b7 b0be 9372 6ebd
00000050: 69c1 89be 3d2a 62bc d0a4 03bf 1e7e d1be
00000060: 129d 3e3e c6ff 08bf 0c99 2dbf 928c 1dbe
00000070: 80ff 11bf 468f e9bd ea95 d7be ff0d 0cbd
00000080: 8b7b 4cbd 9767 013f e007 0fbf 3e07 8fbe
00000090: bbbd e8be 407f a5bf 651c e1be 1962 64be
000000a0: f8d4 14bf 81b1 db3e 74eb 47be d282 00be
000000b0: 1590 4ebf 202d e7be 85ea 94be dc11 10be
000000c0: 9a63 e7be 8ac9 a1bf 29f2 a83e cfbf 21bf
000000d0: 4582 9cbd 12ab 70bf 41e0 2abf 7990 edbf
000000e0: 181e debe 7bb1 99bc 54ff 70bf be5d b3be
000000f0: 4d39 d7be 289f a1be c2da a0bc 6b3f 6fbe
-0.38295996 -0.018418614 -0.36539662 -0.2950644 -0.20939879 -0.11186528 -0.9141381 -0.6484259
-0.49251148 -0.09653909 -0.7717294 -0.41856363 -0.363996 -0.47501338 -1.0211034 -0.29746976
-0.99173987 -0.41065946 -0.34515357 -0.058214735 -0.26905373 -0.013804016 -0.5142336 -0.40916532
0.18614605 -0.5351528 -0.67811656 -0.15385655 -0.5703049 -0.1140428 -0.42106563 -0.034193035
-0.049922507 0.5054869 -0.5587139 -0.27935213 -0.45457253 -1.2929459 -0.43966976 -0.22303046
-0.58137465 0.42908862 -0.19523412 -0.12549904 -0.806886 -0.45151615 -0.29085174 -0.14069313
-0.45193177 -1.263963 0.32997254 -0.631833 -0.076420344 -0.9401103 -0.66748434 -1.8559715
-0.43382335 -0.018761387 -0.941396 -0.35032457 -0.42035905 -0.3156674 -0.019635562 -0.23364036

weight f4 [64, 64]
00000000: 455a 14be 68bd 36bd c302 b13d 28ab 95bd
00000010: 2c5a 953d 777d 78bd 10b5 8a3d d69b 923d
00000020: c14e 1c3d a29a f8bd 442b c7be 4f32 25bd
00000030: acc8 d3bd f64b 15be c5ea 053c c5a4 1abe
00000040: a9a5 91bd 42e1 ddbd 2187 2dbd da4b 1ebe
00000050: f2f8 7c3d 15b1 a3bd f0dd 89ba 0601 7fbe
00000060: a221 b7bc b732 fcbd 72b0 06be 78cd 3ebd
00000070: f01d 20be b057 49bd 849b 0bbd a461 50bd
00000080: fa6d afbd 40c2 55be 9c87 a83a 8d19 c1bd
00000090: 21c1 b93c 331c 1bbe 74b6 153d 49dc b33c
000000a0: a7be 98be 50b3 45be 14a7 d13d e29e d1be
000000b0: 3b28 76be fb99 7cbd 1684 b5bd 7fdc 713c
000000c0: afc2 023d bf96 24bd a67a b3bd e7d8 91be
000000d0: 849f 1c3d ce3b 86bd a315 92be 59d0 b9bd
000000e0: 6f4f 19be 4ab8 b7bd 3381 10be 87bb fcbd
000000f0: 9d7a e1bd 9d91 5d3b b395 fbbd f52e 2ebd
00000100: 97b8 1cbe f4cd 05bd 1b37 593d a922 45be
00000110: 48a6 89bc 08d4 b1bd 45b8 abbd 625e 49be
00000120: f66c c8bd 87e6 13be 55b8 93be 19ea 083d
00000130: cc9a 1abe 1e58 123c 0cd4 28bc 6f1a 73bd
00000140: b8ad d2bd 2ee3 ad3d 7384 08be 0517 29be
00000150: 4a9d 133e 2a10 a0bd e512 1ebe af9b 38bd
00000160: dcf6 113d 1b94 d8be 422e ccbd 722d ffbd
00000170: 72a2 09bd 7b0c 66be fb7d 16be 688f 963c
00000180: 2fd5 b8be 8fe4 ddbe dec7 343d 1a9c 9bbe
00000190: 94b8 15bf 08cc a5bd 5ab9 a03d 0e7a 30bd
000001a0: 2965 2fbd a6ec 7ebe 81ad 20bc 1f76 cebd
000001b0: 1c53 b2bd 2282 02bf 2479 cbbb 842e a03d
000001c0: 4897 4a3d fdea 4dbe efac 0dbe 409e fbbe
000001d0: d130 90bd 6c24 4dbe 2976 1a3d e072 7fbe
000001e0: 5b66 b1bd 70f4 a5bd e590 66be f572 6d3d
000001f0: 6f62 a3be 7f63 99be 7c0c 84bc 1d6b 4bbe
00000200: 0067 a43b 403c 8cbd e443 acbd ead9 5f3b
00000210: 54bd 48bd 3f6d 5dbe 8ccc 3bbd b05f 583c
00000220: 266a 82bd 7c02 59be 147d 23be 509c f0bc
00000230: 6c0d 88bd b399 b1bd b6de 6ebd 7db4 f6bd
00000240: 16ab ebbd 501d 923d b37f 6dbd 3ead edbd
00000250: b89a 9b3c 3625 04be 6482 d1bd ec64 29bd
00000260: bcfd c8bd 7110 02bd b02a 38bd 9c6c 983d
00000270: 8aee e73d fb81 8fbd 47c7 63be 4226 e03d
00000280: 1a76 3cbe 8519 69be f943 5dbe dc3c 84bd
00000290: 7b0b 46bd 88dc 9d3a 0053 1cbc d0d8 c2bd
000002a0: 2085 78bc 7c4d 1abd 9892 bfbd 428c 77bb
000002b0: 619a 8dbd c0d4 b9bb 4244 69bd a0c8 c73d
000002c0: 0058 8d3c 13f6 3bbe 24e8 0abe 471f 01be
000002d0: 501d 053c 70f0 683d 4c68 5fbd 6655 52be
000002e0: a20d 3abe 8280 b3bd b678 05be f48d c1bd
000002f0: ceb2 bebd fa8f 2cbc 2127 1abe f4ad 333d
00000300: 7599 03be 3e9e a93d 802e ce3c db1c 2dbe
00000310: a84d bbbc 1742 36be 8191 cabd d48e 913d
00000320: 9da8 9dbd 72c3 02bf a54d 5cbe ad21 ffbc
00000330: f0b9 8dbd c137 17be 27d5 9abe c217 ccbd
00000340: a3d0 81be c82e 68bc 1860 11be f99d 633c
00000350: 0c59 003c 5140 a2bd 5359 f1bc 328c 50bd
00000360: 5434 babd 955b 8bbe 98db 09bf b248 91bd
00000370: 8e7a c5bc 7beb 7cbe c6c2 c33d 7cba d4bd
00000380: fd84 56bd 434a 78be fbad b4bd fb3f e5bd
00000390: c99c 73bc 08a2 95bd 0461 4ebd 9e43 02be
000003a0: 874a 3cbe 4c68 16be f0bf 09bc 33a1 edbe
000003b0: c37a b03c 2915 ad3c e9a8 95be 56c7 5abc
000003c0: 1c22 4b3d 737b 2fbe 6b75 31be caf4 1a3b
000003d0: 54c6 b23d 8289 1bbd 9da3 2b3d f649 1f3d
000003e0: 8335 35bc 4c92 11bd 684e 7dbe 180d a03d
000003f0: 66c6 0dbc 9b51 5cbd 16fe bdbd 1edb 4c3d
-0.1448756 -0.044614226 0.08643105 -0.07308036 0.072925895 -0.060666528 0.06772816 0.071586296
0.038161043 -0.12138869 -0.38900197 -0.04033118 -0.103410095 -0.14579758 0.008173649 -0.15101917
-0.07111675 -0.1083398 -0.042365197 -0.15458623 0.06176085 -0.0799276 -0.0010518413 -0.24902734
-0.022354905 -0.123143606 -0.13153246 -0.04658267 -0.1563642 -0.04915589 -0.034083858 -0.050874367
-0.08565898 -0.20874882 0.0012857798 -0.094287015 0.022675099 -0.15147476 0.036550954 0.021955626
-0.29832956 -0.19306684 0.10236946 -0.4094153 -0.24038784 -0.061670285 -0.08863084 0.014762043
0.031923946 -0.040182825 -0.08763628 -0.28485796 0.038238063 -0.065543756 -0.28532133 -0.09072942
-0.14971708 -0.08970697 -0.14111786 -0.123404555 -0.11009715 0.0033808716 -0.12284412 -0.04252525
-0.1530479 -0.032667115 0.05303107 -0.19251503 -0.016802922 -0.0868302 -0.08384756 -0.1966491
-0.09786408 -0.14443408 -0.28851572 0.033426378 -0.15098113 0.008932142 -0.010304462 -0.05935138
-0.102870405 0.08490597 -0.13331775 -0.16512688 0.1441547 -0.07815583 -0.15436895 -0.045070346
0.035635814 -0.42300496 -0.099697605 -0.1245984 -0.033602186 -0.22465698 -0.14696495 0.018378928
-0.36100146 -0.4333844 0.04413592 -0.30392534 -0.5848477 -0.080955565 0.07847853 -0.04308515
-0.042821083 -0.24894962 -0.009806992 -0.100811236 -0.08707258 -0.50979817 -0.0062095094 0.07821372
0.04946068 -0.20109172 -0.138355 -0.49144173 -0.07040561 -0.20033425 0.037710343 -0.24946165
-0.08662101 -0.081032634 -0.2251621 0.05797096 -0.31911036 -0.29958722 -0.016119234 -0.19865079
0.0050171614 -0.06847429 -0.084113866 0.0034156987 -0.049008682 -0.21623705 -0.045849368 0.013206407
-0.063679025 -0.21192354 -0.15965682 -0.02937141 -0.06643185 -0.08671894 -0.058317862 -0.12046144
-0.115072414 0.07134497 -0.05798311 -0.11605309 0.018994674 -0.1290482 -0.10229948 -0.041356012
-0.09814021 -0.03175396 -0.044962585 0.074425906 0.113247946 -0.07007214 -0.22243987 0.10944797
-0.18404427 -0.22763641 -0.21607961 -0.064569205 -0.048350792 0.0012043873 -0.009541273 -0.0951401
-0.015168458 -0.03767155 -0.093541324 -0.003777281 -0.06914211 -0.0056711137 -0.05694986 0.09755063
0.017253876 -0.18355589 -0.13565117 -0.12609588 0.008124664 0.056869924 -0.054542825 -0.2054039
-0.18169263 -0.08764745 -0.13034329 -0.094509035 -0.09311448 -0.010532374 -0.15053989 0.043867067
-0.12851508 0.082821354 0.025168657 -0.16905539 -0.022864178 -0.17798649 -0.09891034 0.071073204
-0.07698176 -0.51079476 -0.21513994 -0.031143988 -0.069202304 -0.14767362 -0.30240747 -0.09965469
-0.2535449 -0.01417131 -0.14196813 0.013892644 0.00783373 -0.07922424 -0.029461538 -0.05091495
-0.09092012 -0.2721831 -0.538507 -0.07093944 -0.02410629 -0.24699204 0.095586345 -0.103871316
-0.05237292 -0.24247079 -0.08822247 -0.11193844 -0.014868923 -0.07306296 -0.05038549 -0.12721106
-0.18387805 -0.14688224 -0.008407578 -0.46412048 0.021542912 0.021128254 -0.2923043 -0.013353189
0.049593076 -0.17136936 -0.17329948 0.002364444 0.08729234 -0.037972935 0.04190408 0.038888894
-0.0110601215 -0.03553991 -0.24736941 0.078149974 -0.008653259 -0.053788763 -0.09276979 0.050013654

bias f4 [64]
00000000: cd75 adbe 538d 2fbf aad1 babe 3954 e8be
00000010: cafc 0fbf 5dec 0bbf 95e8 bbbe 3490 8bbe
00000020: 20b0 00bf 6910 31be d021 94be 264b bebe
00000030: 2d4e 20bf cfca f3be 44ac 17bf ba1d cb3f
00000040: a700 8ebd 9f84 a1be a44a b3be c02a adbe
00000050: 1ca9 b0be 512e ffbe a0ca 23bf 5404 a2be
00000060: ce35 563e 89b7 19bf a254 dcbe f33e 0cbf
00000070: f8d7 81be e269 80bf 1079 dabd 70e6 17bf
00000080: b2c0 09be 5b6d 22bf 0b7b bdbe f6ff 28be
00000090: c4d4 83bf 73d7 b8be 4357 c7be 9625 5ebf
000000a0: 2363 a3bb d9e3 d4be 7b1b 9dbe 0311 4b3f
000000b0: 9144 433f 587a 8a3e ab2f 98be da31 2abf
000000c0: 63df 76be 0d92 ccbe cb09 603f 2b39 973f
000000d0: 29d3 32bf d18b 1abf d493 8abf a114 9abf
000000e0: 906a 26bd 1a16 9cbf a1b4 85be e127 fabe
000000f0: 562f 05bf 617e 9f3e 57a4 e7be a0b9 44be
-0.33878937 -0.6857502 -0.36488086 -0.45376757 -0.562451 -0.54657537 -0.36700884 -0.27258456
-0.50268745 -0.17291416 -0.28932047 -0.3716671 -0.62619287 -0.47615668 -0.5924723 1.5868447
-0.06933718 -0.31546494 -0.35017884 -0.33821678 -0.3450402 -0.49840024 -0.63981056 -0.31643927
0.20918962 -0.6004568 -0.4303332 -0.5478355 -0.25360084 -1.0032313 -0.10667622 -0.59335995
-0.13452414 -0.63448113 -0.37007937 -0.16503891 -1.0299306 -0.36101875 -0.38933763 -0.867761
-0.0049861833 -0.41580084 -0.30685028 0.7932283 0.762765 0.27046466 -0.29723868 -0.6648232
-0.24108653 -0.39955178 0.8751494 1.1814321 -0.69853455 -0.6036959 -1.0826364 -1.2037545
-0.04062897 -1.2194245 -0.2611437 -0.4885855 -0.52025354 0.31151107 -0.4524257 -0.19211435

weight f4 [64, 64]
00000000: 306e ac3c 3c9c 953d 385e f63d 133f a6bd
00000010: 78d5 af3c 5433 9cbd bc84 6c3c 5262 3ebb
00000020: 9811 abbd 9dc0 09be 32ba 89be 4ec9 60be
00000030: eee0 d83c 3f71 803b d6d0 12bd abae 80be
00000040: 3606 d63d 3c98 03bc 2c3a c8bd 9039 693d
00000050: a03d 143c db0c bc3d dadc d8bc bc44 98bd
00000060: 17d7 1cbe 3e79 12be d7df b4be 8b6a 963d
00000070: 02fb ebbd 5619 293c 9623 7b3d 624a ab3d
00000080: ddfe d1bd bb2c 1a3d e279 28bd 866e 0cbc
00000090: 5c7e 81be 1f71 36bd 3022 1ebe 7851 ca3b
000000a0: f1ac 033d e002 083c 179c 02be 5005 5639
000000b0: 131f 75be 5e4a c93d 6bcd e5bc 6485 34be
000000c0: f568 22be db14 b03c 821a 733a 78d1 36bd
000000d0: f2e2 353d 6531 4abd 4312 cabc da7c e9bd
000000e0: a023 3e3c be76 c63d b14f 343d 7057 c9bc
000000f0: 13f7 bf3d de94 15be c8cf fcbd bb5e eebd
00000100: c240 c1be bc0f 57be d02e 30be 030a 363e
00000110: 9ab0 14be 25e8 22bb 9cc0 59be d364 ca3d
00000120: 53a4 8fbd fad3 83bb 6970 a33e 3bb4 e53e
00000130: 1112 9c3d 10f5 333d 2237 f8bf 75ba 58bc
00000140: 7be0 d5bc 6831 473c 5075 ae3c 3134 d2be
00000150: 1022 173c 60f6 9fbc d2c0 5a3b 4274 ea3e
00000160: 35cd 44c0 fa7b 923e 5b51 87bf 2dc0 b03d
00000170: 663c e2be 7192 58be e4b8 2c3d 9bbb e63e
00000180: 69e4 cb3e c704 83be 5e0d 273f fe34 d0bb
00000190: 02d3 4fbf 2cea 80bd b046 5abe b7a7 3a3f
000001a0: c459 86bd 59ef b43c db7f 23bf ec64 b3bf
000001b0: bbd1 a23b 2af5 983e 160b 063e 4845 4fbf
000001c0: 6221 fbbf 1c43 71bd 5ac3 fdbe 8c5b 00be
000001d0: bd9c 253c 6836 d33d a7da f8be 5ccb b8bc
000001e0: cb8b 8abe 64a3 0e3e 6772 24be 8836 3cbd
000001f0: a0cb 8dbe 2a09 8abd 6231 cb3d 5f94 72bf
00000200: 06b0 bfbd 487a be3c 08c5 a0bc 481f 533d
00000210: 7cd6 723d c05b dcbc 8ca3 aabd c411 c0bd
00000220: 4ce6 3e3d cca7 953d 33db eebd 1bdc 14be
00000230: c0f3 50bc e0fd 1a3c 37c3 a1be 22f8 01be
00000240: 9866 a03d cea9 b63d d276 963d a8ca fa3d
00000250: 2c38 933d d8e7 c7bc eabe f0bd 1507 c3bd
00000260: 371f 08be 004d 82be 1abf 82be 0808 d83d
00000270: 8955 babe 29d5 17be 9ea1 fabd a072 a1bd
00000280: 4adc 7ebe 78c1 e6bd 3425 49be 94ee c1bd
00000290: edeb f9be d881 f5bc 687c e43d 9138 b3be
000002a0: 6c12 993d 6074 cf3c f76c d1be 21ff 47be
000002b0: 2948 5bbe a0d5 d5be e0ed fabc 58db 06bc
000002c0: be22 d8bd 20c6 8c3d d044 a4bc 1023 42be
000002d0: 6854 4f3d 34fd 36be 8690 61be 18be 47bd
000002e0: 6815 df3c ccd9 b5bc 443b a1bd 307b f73c
000002f0: fe30 a83d 6a7b cdbe 982a 9b3c 27c5 1cbe
00000300: 606f 85bc 04ab 163d 308a 40bc b674 d7bc
00000310: e0b5 cb3d a068 0abe 0946 cfbd a800 393d
00000320: f4b1 85bd 6c54 123c cd3f b2bc d832 52be
00000330: 480d cd3c f35f a7bd cc6c 9ebf 6763 bcbd
00000340: 209a f03b 3f36 b7bd 0059 0f3c ad6e 20bd
00000350: daae a93d 0218 c2bd 11b2 b63d e6ad 02be
00000360: bb6d 22bf d617 45be 562c 06bf 864e bd3d
00000370: 6e1e 3e3d 7a9c bebb 85ca 61bc de39 9d3d
00000380: 0699 53be d48b 123d 2343 cdbc a99d 6fbd
00000390: c0a3 123e 4894 793d eea0 713d a723 253c
000003a0: 32d2 d6bd c8de 183d 7823 81bf 5f90 43be
000003b0: fe10 79bf f555 1fbf f654 4f3e c00b 3b3d
000003c0: cba6 6dbe 7e17 8a3d 8f2a afbc fed4 71bd
000003d0: 48db 1dbd ad05 b83d 41d7 2ebd 3e30 83be
000003e0: 08de 6fbf a2fc 0ebf a015 943c 72d1 4f3d
000003f0: 1e13 dc3d 941f aabe 80ec 11bc ceaa 68bf
0.021048635 0.0730519 0.120296896 -0.08117499 0.021464095 -0.076269776 0.014435943 -0.0029050303
-0.08352965 -0.13452382 -0.26899868 -0.21951792 0.026474442 0.00391975 -0.035843693 -0.2513326
0.104504034 -0.008031901 -0.097767204 0.05693966 0.009047896 0.091821395 -0.026472498 -0.07434985
-0.15316425 -0.14304063 -0.35327026 0.0734454 -0.11522485 0.010320982 0.061313234 0.08363797
-0.102536894 0.037640315 -0.04113186 -0.008571273 -0.25291717 -0.044541474 -0.15442729 0.0061742626
0.03214735 0.008301467 -0.12754856 0.0002041061 -0.23937635 0.098286375 -0.028052052 -0.1762901
-0.1586035 0.02149432 0.00092736643 -0.04463336 0.044405885 -0.049363513 -0.024666911 -0.11400767
0.011605173 0.09690617 0.044021312 -0.024577826 0.093732975 -0.1460757 -0.12344319 -0.11639162
-0.3774472 -0.21002096 -0.17205358 0.17777257 -0.14520493 -0.0024857607 -0.21264881 0.09882512
-0.07013764 -0.0040230723 0.319217 0.44864067 0.076206334 0.04393488 -1.9391825 -0.013228049
-0.026108017 0.012157775 0.021296173 -0.41055444 0.00922443 -0.01952666 0.003337909 0.45791823
-3.0750248 0.28610212 -1.0571703 0.086304046 -0.44186705 -0.21149613 0.042168513 0.45065007
0.398227 -0.25589582 0.6525477 -0.0063539734 -0.8118135 -0.06294665 -0.21316028 0.7291216
-0.0656009 0.022086786 -0.63866967 -1.4015174 0.0049688495 0.29874545 0.13090166 -0.8096509
-1.9619563 -0.05890189 -0.49563104 -0.12534922 0.01010817 0.103131115 -0.48604318 -0.022557907
-0.2705978 0.13929516 -0.16059266 -0.045950443 -0.27694416 -0.06740029 0.099215284 -0.94757646
-0.09359746 0.023251668 -0.019625202 0.051543504 0.05928658 -0.026899219 -0.08331975 -0.093783885
0.046606347 0.07307395 -0.11662903 -0.14537089 -0.012753427 0.009459943 -0.3159425 -0.12692311
0.07832068 0.089191064 0.07346882 0.12245685 0.07188448 -0.024402544 -0.11755164 -0.09522835
-0.13293158 -0.2544937 -0.25536424 0.10548407 -0.36393383 -0.14827408 -0.12237857 -0.07883191
-0.24888721 -0.1126737 -0.19643098 -0.09469333 -0.4881281 -0.02996914 0.11156541 -0.35004094
0.07474217 0.025324047 -0.40903446 -0.19530918 -0.21414246 -0.41764545 -0.030631006 -0.008231007
-0.105535015 0.06873727 -0.020052344 -0.18958688 0.050617605 -0.17870027 -0.22027788 -0.048765272
0.027231887 -0.02219858 -0.07872632 0.030210108 0.082124695 -0.4013322 0.018941209 -0.15309583
-0.01628846 0.036784187 -0.0117516965 -0.02630077 0.09946799 -0.13516474 -0.1012078 0.04516664
-0.065280825 0.008931261 -0.021758938 -0.20527208 0.025030747 -0.08172598 -1.2376952 -0.09198647
0.007342592 -0.089458935 0.008749247 -0.03916805 0.082853034 -0.094772354 0.08920682 -0.1276165
-0.63448685 -0.19247374 -0.524114 0.09243493 0.04641574 -0.0058169933 -0.013781195 0.07677053
-0.20663843 0.03577788 -0.025056427 -0.058499966 0.14320278 0.060932428 0.058991365 0.010079301
-0.1048931 0.037321836 -1.0088949 -0.19098042 -0.97291553 -0.62240535 0.20247254 0.045665503
-0.23208158 0.06742762 -0.021382598 -0.059041016 -0.0385392 0.089854576 -0.04268575 -0.25622743
-0.9369817 -0.5585424 0.018076718 0.050736852 0.10745834 -0.33227217 -0.008906484 -0.9088563

bias f4 [64]
00000000: 7781 69be a8e2 313f 5964 17bf afed 27bf
00000010: 226c b93e c1c3 a9be fca5 57be a784 963f
00000020: cff2 44be 1d21 f0be 9c3f d2bd 5749 ecbe
00000030: 169d a9be a7ac 0ebf a37a f2be 46b2 a3be
00000040: 7e27 9d3e 7f59 02bf de89 d9be a78b 5b3f
00000050: d553 c7be 3d02 903d 40c5 5e3f e9db 1d3f
00000060: 6d26 a4be 03c0 f73f 7a2f d93d 97b6 48bf
00000070: f32f 7fbc e790 0abf 96a8 b5be 0233 f83f
00000080: c754 21be bb42 aabe f42e 19be a152 5abe
00000090: 09e2 30be 3462 6fbe 02ad 53bf 4545 f6be
000000a0: c10f 37bf 4631 8ebe be9b 903e 0683 983e
000000b0: 0515 0abf 3818 9d3e 3544 d6be 3941 0dbf
000000c0: 2a3f 0fbf 29d9 65be 7b4b d7be 82ff c2be
000000d0: fec6 80be 9ba5 05bf 6e54 343e 9f5b 3dbf
000000e0: 91f3 1c3e 7083 fa3e dda4 3040 fa43 e8be
000000f0: d55b c0be d794 443f b028 0dbf a691 b8be
-0.22803293 0.69486475 -0.59137493 -0.6559705 0.3621531 -0.3315716 -0.21059412 1.1759232
-0.19233249 -0.46900263 -0.10266039 -0.46149704 -0.3312766 -0.55732197 -0.4735919 -0.3197195
0.30694193 -0.5091781 -0.42487997 0.8575997 -0.38931146 0.07031677 0.8701973 0.6166368
-0.32060567 1.9355472 0.106047586 -0.7840361 -0.015575397 -0.54127353 -0.35480183 1.9390566
-0.15754996 -0.33254036 -0.14959317 -0.21320583 -0.17273726 -0.23377305 -0.82685864 -0.48099723
-0.71508414 -0.27771968 0.28243822 0.29787463 -0.53938323 0.3068254 -0.41848913 -0.55177647
-0.55955756 -0.22446121 -0.42049775 -0.38085562 -0.2515182 -0.5220582 0.17610332 -0.7396793
0.15327288 0.48928404 2.7600625 -0.45364362 -0.37570062 0.7678961 -0.5514021 -0.3604862

weight f4 [128, 64]
00000000: a049 833c 97f5 bc3e 77b2 e5bd 3d5b ecbe
00000010: 07ea 96bf 7712 fd3e fd10 8e3e 677c 09be
00000020: 4b68 8ebf 9cb6 d3bd 9e9a 2d3e 0e89 d0bc
00000030: 5659 aabe 186d 2dbe dc53 32bf cf3d eb3d
00000040: a750 373e cd50 a93e e5ec be3d 973b 503e
00000050: 77cb 59bc ad87 27bf f66b babf 32f7 553f
00000060: 2adf 59bd 2acd 9abf f56e 52bf dc15 25bf
00000070: 1f91 5dbf 8c88 22bd 87bb 833e bd6e 5cbf
00000080: 3b29 b3bf f124 efbd 2e07 9fbe b0c9 22be
00000090: 9c94 cf3d 2f4e 8b3d 5273 cf3d 8106 0ebe
000000a0: 9115 b93e b537 2b3d af77 a3bf c283 2bc0
000000b0: a865 9f3d 381f 5ebf 9906 903f 1126 d1bd
000000c0: 852e 253d f3f2 24bf 07aa 3fbe 7d76 463d
000000d0: e07b e7bd c5e0 e13c c039 19bc b157 253e
000000e0: 8e6b 003f 4ff2 f3bd bf56 11c0 8ab8 4ebe
000000f0: 76c4 5e3c 0408 eebf a52a e63e 37d9 2ebe
00000100: ad67 e4bc 6179 693d d6d8 8dbd a4af 55bd
00000110: 2eee 9abf 7066 20be 7b0e 02bf cae4 3c3f
00000120: a529 afbf c26f fbbc 306c b13d f810 45bd
00000130: 1a28 1bbd e961 25be b2b2 72bf ea26 993d
00000140: f21a d3bd e1f6 d1be 88ba d1be 0d8c 34bf
00000150: 3b0d e33d 0391 1abe 8a2d 9a3e 0d25 69bf
00000160: af5f b0bd e183 3abf 8744 8ebf d823 c9be
00000170: 197b d23e 9963 dabd c2af e1bd 5ae2 7bbf
00000180: cea1 9bbf 1e42 493d 7973 16bc 0c1f 48bd
00000190: d7d4 f0bd e6ee 0c3d c84d 063d ee77 093e
000001a0: 61f4 37bd 6f97 e7bc 0be2 1cbf 65ab 6fbf
000001b0: 830e b63c 88d9 00be e753 30bf 9a59 37be
000001c0: e249 eebe 4e3c 6a3e 006d c93d aaed 853e
000001d0: 6a4f 843e 8db3 5ebe cdab bcbf b2bb 153e
000001e0: 0119 143f dc1e f9be 67c3 9cbf c619 d93d
000001f0: 4b47 dc3c a7fa d5bf 4da8 123e d5be 203e
00000200: 10ef 633e e9cc 67be 040b 7dbd 7676 d1bd
00000210: 9790 e7bf 2524 d5bf 0cbc 6bbe 7052 a6be
00000220: 566b d3be 08ee 14bd 0c35 dabc 7353 46be
00000230: 57ef 93be e64f 8ebe 498c c9be bf93 3fbd
00000240: 3d55 7cbe fde8 a4bf a65d cdbd 7557 96bf
00000250: 36d6 8b3d 92b3 47bf 5ff1 08bf 2db5 2a3f
00000260: 5ca9 53bd 640b 87be f50b dfbe c638 48bc
00000270: 8171 d4be ba7a adbd c0e5 823d 7448 94be
00000280: ac02 17bf 2a6d 943d aedc ab3d 0040 63bb
00000290: 3bd5 2fbe 0764 61bf 87f6 72bf 929c 90be
000002a0: 5480 93bf 4976 bebd 5181 4dbe 739d e7bc
000002b0: 5b40 5e3d 89c7 843e aa09 8fbf 58ad eb3c
000002c0: 8c6d cbbe 5261 38bf 89fc 72bc ca99 853d
000002d0: bb7d b1bd 200a b23d 0120 0ac0 6a1d 8bbf
000002e0: c7e0 8bbf 42eb e0bf 9e34 4bbc b2de eebc
000002f0: 23aa 36be 310f acbd 892e 76bf d6b8 23be
00000300: 14c5 c2bd a42a 463f e96f 923e 8027 69be
00000310: 8e4f 33c0 ebca 033e 0cfe 973e 2645 9dbf
00000320: 46b4 67bf 9636 d2bd 7e02 283e 78ab 2c3d
00000330: 0ad8 78be b757 3b3e ad48 433e 055a b2be
00000340: 010e babe 18a5 913e 6aa4 cb3d 3cde a7bf
00000350: 653b 1c3d 2ae7 7a3f d577 1e3f 10f5 a9bd
00000360: abc8 76be 1302 303f 16b1 84bf f198 a53e
00000370: 8d4e 083f 4c25 973e f51d c7be ddb0 d1be
00000380: d970 873e 386a 043d 1766 863d 0154 0bbe
00000390: 3e86 65be d195 2c3f 7b47 963e 5e94 c23d
000003a0: 5ffb a13e 0f1e f53c 8b66 3b3f e746 42bf
000003b0: df58 b4bd d4ba 9b3f 2ce3 15bd aab6 babe
000003c0: 14b1 7a3f 7c6a bebe 04f6 853c 9936 b63d
000003d0: bb25 d0be a64c 213e 0e9b 9f3f dc72 3fbc
000003e0: 8869 c83e 317a febe b529 18bf b6e9 683e
000003f0: add5 14bd e5c4 7c3d 6fd3 fc3e f477 683e
0.016026318 0.3690612 -0.1121568 -0.4616336 -1.179017 0.4942815 0.27747336 -0.13426362
-1.1125578 -0.10337564 0.16953513 -0.025455978 -0.33271283 -0.16936147 -0.6965921 0.114863984
0.1790186 0.3306946 0.09322528 0.20335232 -0.013293139 -0.654414 -1.4564197 0.83580315
-0.05319134 -1.2093861 -0.82200557 -0.6448648 -0.8654956 -0.039681002 0.2572901 -0.86106473
-1.3996958 -0.11676968 -0.31060165 -0.1589725 0.10135767 0.06802022 0.101294175 -0.13869669
0.36149266 0.041801173 -1.27709 -2.6799169 0.07783061 -0.86766386 1.1252013 -0.10212339
0.040327568 -0.6443321 -0.18717204 0.048452843 -0.11302924 0.027572999 -0.009352148 0.16146733
0.50164115 -0.11911451 -2.2709196 -0.20187584 0.013596645 -1.8596196 0.4495441 -0.17075048
-0.027881468 0.05700052 -0.06926124 -0.052169457 -1.2103937 -0.15664077 -0.50803345 0.73786604
-1.3684584 -0.030692939 0.08663213 -0.048111886 -0.03788004 -0.16150631 -0.9480392 0.074781254
-0.10307874 -0.41008666 -0.40962625 -0.705262 0.11086508 -0.1509438 0.3011287 -0.9107216
-0.08612 -0.7285748 -1.1114663 -0.3928516 0.4110954 -0.10663528 -0.11019851 -0.9839226
-1.2158754 0.04913532 -0.009182804 -0.048857734 -0.11759346 0.03440752 0.03278902 0.13424656
-0.044910792 -0.028270451 -0.61282414 -0.936209 0.022223717 -0.12582982 -0.68878025 -0.17905274
-0.46540743 0.22874567 0.09835243 0.26157886 0.25841838 -0.2174818 -1.473993 0.14622381
0.5785065 -0.48656356 -1.2247132 0.10600619 0.026889464 -1.6717118 0.14322014 0.15697797
0.22259164 -0.22636761 -0.061778083 -0.10227673 -1.8091 -1.6651655 -0.23020953 -0.3248477
-0.41292828 -0.036359817 -0.026636623 -0.19367771 -0.2889354 -0.27795333 -0.39364842 -0.04677176
-0.24641891 -1.2883602 -0.10027628 -1.174544 0.06827967 -0.7800838 -0.53493303 0.666827
-0.051675186 -0.26375878 -0.4356381 -0.012220567 -0.41492847 -0.08470674 0.063914776 -0.28961527
-0.5898845 0.07247384 0.08391701 -0.0034675598 -0.17171185 -0.88043255 -0.9490742 -0.28244454
-1.1523538 -0.09299905 -0.20068862 -0.02827332 0.054260593 0.25933483 -1.1174824 0.02876918
-0.39732015 -0.720235 -0.014830717 0.065234736 -0.08666559 0.086933374 -2.1582034 -1.0868351
-1.0927972 -1.7571795 -0.012402682 -0.029158924 -0.1783834 -0.08401335 -0.96164757 -0.15988478
-0.09510246 0.77408814 0.28601006 -0.22768974 -2.8017306 0.12870376 0.2968601 -1.2286727
-0.9050945 -0.10264318 0.164072 0.042155713 -0.24301162 0.1829518 0.19070692 -0.34834304
-0.3633881 0.2844627 0.09943469 -1.3114696 0.03814258 0.9800898 0.619016 -0.08298695
-0.24099986 0.68753165 -1.0366542 0.32343248 0.5324486 0.29520643 -0.38890043 -0.40955248
0.26453283 0.03232786 0.06562441 -0.13606264 -0.2241449 0.674161 0.2935141 0.09500955
0.31637093 0.02992156 0.73203343 -0.7588944 -0.08806013 1.216639 -0.0365936 -0.36467487
0.9792645 -0.37190616 0.016352661 0.088971324 -0.40653786 0.15751895 1.2469194 -0.011685099
0.39143014 -0.497026 -0.5943864 0.22745404 -0.03633659 0.06171121 0.4938006 0.22702008

bias f4 [128]
00000000: 9569 81bd 9dc0 39bf b808 13bf 1cae 3fbe
00000010: a0c4 82bf a41e 24bf 6437 94bf 2378 66bf
00000020: beef 32bf c24b 33bf 05fc d6bf 8645 c2be
00000030: 496a c6be 2717 3ebf 891a d7be 06ed a0be
00000040: 222b c7be 72d8 2cbf ae8d 5bbf faae 2bc0
00000050: 76a8 583f 5a73 bbbf aa47 7b40 3b70 e5bf
00000060: a8d9 5bbf b39f 243f 5306 d7be e888 af3e
00000070: b380 3ebf 133b 02c0 a4f8 1dbf 65ac 92be
00000080: 4350 51bf d6bf efbf c302 f6be 029d bbbe
00000090: e22e 0abf 1b9d 5dbd a570 18be 5fbf 3f3f
000000a0: ccf2 83bf 0994 d0be 7229 76bd 12d8 e2be
000000b0: 93c0 a0be 8588 6dbf a605 f7be 3876 d9be
000000c0: a33b 9140 1da2 db3f 57b1 3e40 a576 5d3f
000000d0: 9fb6 84bf 1d2f 8abe 40e7 3dbf ad75 22be
000000e0: ec09 38bf dc11 2cbf 3ac4 6abf 2ba8 c3bf
000000f0: 472a 75bf 1e1b c9bf 5267 a93e a88a 38bf
00000100: a513 45bf b8ae 1fbf 8f23 ed3e 420f 96bf
00000110: 3fbf 5e40 3bd2 3a40 5eef af3f 0ade 35bf
00000120: 0ec4 bcbe 1275 42bf 8bde 69bf 2fb5 9c3f
00000130: e913 a7be 2e14 65bd 949d 3abf 310b 6ebf
00000140: ca82 07bf 38fd abbf ac5f 2cbf 2d5b 8bbf
00000150: 1354 80bf f833 d4be 9047 6bbf 99b5 3740
00000160: 7e19 10bf ae9b c7be 7017 1340 8120 c3be
00000170: 90ac 69be 3e19 e1be 16cb d8be 95a1 efbd
00000180: 6b47 2cbf b32c d6be 369a 303e 9d19 8dbf
00000190: c214 533f 6a02 6bbf 07ce 0a40 2322 e5be
000001a0: e51f 12bd c3c9 19bf 6460 15bf 9d0b a23f
000001b0: 1b9a 9abf f514 f73f 5d71 05bf 7c7e cbbe
000001c0: d973 27be edf1 5140 f932 133f 3c43 9f3f
000001d0: 9cb8 10bf c860 29bf deb7 76bf c906 ecbe
000001e0: 500d 3bbf 873e f6be 8baf 0bbf 4330 6640
000001f0: eb33 1fbf 3f5a bbbf 4815 1abf 221d 23bf
-0.06318966 -0.7255953 -0.5743518 -0.18718761 -1.0216255 -0.64109254 -1.1579404 -0.90027064
-0.6989707 -0.7003747 -1.679566 -0.37943667 -0.38752964 -0.7425408 -0.42012432 -0.31430835
-0.38900095 -0.6751777 -0.8576306 -2.6825547 0.8463205 -1.4644578 3.926249 -1.7924875
-0.8587899 0.6430618 -0.41997012 0.3428414 -0.7441513 -2.0348556 -0.6170752 -0.28647152
-0.81763095 -1.8730419 -0.48048982 -0.36643225 -0.5397779 -0.054104906 -0.1488672 0.74901384
-1.0308471 -0.40737942 -0.06009812 -0.44305474 -0.31396922 -0.9278644 -0.48246497 -0.42473006
4.53853 1.7158848 2.979574 0.8650916 -1.0368232 -0.2698907 -0.74180984 -0.15865202
-0.7189014 -0.6721475 -0.9170567 -1.5285696 -0.95767635 -1.57114 0.3308664 -0.7208657
-0.769831 -0.62375975 0.46316192 -1.1723406 3.4804227 2.9190814 1.3744924 -0.7104193
-0.36868328 -0.75959885 -0.913552 1.2242793 -0.32632378 -0.055927448 -0.72896695 -0.92985827
-0.52933943 -1.3436651 -0.67333484 -1.08872 -1.0025657 -0.414459 -0.9190607 2.8704588
-0.562889 -0.38985962 2.2983055 -0.38110736 -0.22819734 -0.4396457 -0.42342442 -0.11700741
-0.67296475 -0.41830978 0.17246327 -1.1023442 0.8245355 -0.9180056 2.168825 -0.44752607
-0.03567495 -0.6007349 -0.58350205 1.2659794 -1.2078279 1.930327 -0.52126104 -0.39744937
-0.16352786 3.280391 0.57499653 1.2442393 -0.5653169 -0.661633 -0.9637431 -0.46098927
-0.7306719 -0.4809458 -0.5456473 3.5966957 -0.62188596 -1.4636916 -0.6018872 -0.6371633

weight f4 [4, 128]
00000000: 161c b73e cf84 87bf 0090 0abe 455a 4d3e
00000010: e47c aa3e 47ce 3a3f 2b6f 303e f86a ba39
00000020: 0548 89bd 31eb 17be d43e f7bd 3b25 1540
00000030: e0c8 d9bd 8522 513c 6396 873d 684f 273e
00000040: 2551 3ebe be13 a63e c1da 1d3e eff8 95be
00000050: df85 c4be cee2 3fbe 0218 9fc0 9d23 f23e
00000060: 216a b83e 59bc 643f 948c 0fbe 46de a8c0
00000070: 575c 1d3f f092 f83e 46fe 12be 1087 b73f
00000080: d06f efbf b497 463f 0690 e9ba 1784 4e3d
00000090: 0a60 03be 1795 ddbc 201a af3f a831 11bf
000000a0: 1062 e9bf b26d 1f3e bdf1 75c0 21fb aebe
000000b0: 7248 7b3e f8a3 c4bd 1886 a33e ca74 2e3e
000000c0: 4b89 0dc0 5673 f3bf 3e62 5fc0 64e9 7abf
000000d0: 2699 303e 4640 173e f089 263d 6e75 a33e
000000e0: 4dba 2f3e 9ca2 f0bf 187f dbbf b1a4 83bf
000000f0: 50db 09c0 e227 753f bc62 2cc0 8194 193d
00000100: 3b39 3e3f af13 483e dea4 1a3f ef27 63bc
00000110: c3fc 4cc0 03a3 1ec0 561d a8bf 057d 50be
00000120: ca1f 9e3d 89af 8a3f 0489 8d3c 2269 153c
00000130: 5b8d 053f be05 5340 ff4f 72bd de42 c2be
00000140: 8c28 7b3f 4f44 84bd f77c 6c3e fdfc 693f
00000150: b5e6 8cbd 178f b0bd 9c12 3ebc 2cd6 a9c0
00000160: c766 37be 23b2 53c0 2121 4cc0 b6a8 1ebd
00000170: c00a 0bbf 5ffb 983e 1d2c 013c d681 5cbf
00000180: 38b2 98be 32b1 29be 2f04 20bf 6a90 8b3e
00000190: eaaa 023f 0b28 05bf 0281 85c0 5ad8 87bf
000001a0: c070 63bf 91b4 473e 5140 e93e 6409 f83e
000001b0: 062e 4bbf 012a 2fbf 70fc 8e3e 3b76 3b3d
000001c0: fb9f bebe 92c6 29bf 9b06 91bf 706e 33c0
000001d0: 857c b5be d842 98be 854f 12bf 3cbd 42c0
000001e0: 24b3 a43d f52a 17be 5bb6 b5bc 22ca 67bf
000001f0: 65ec 553d 5396 b93e b0cd 1c3e c5f9 0c3d
00000200: 07ed 70c0 fc4e f03d 5e33 663e 2a9e 41bf
00000210: af6d 8bbd 6b0b 943e 7d85 8f3e bb2b c63e
00000220: 72d0 5fbe 4cc3 0bbe 3fa6 0440 afcc bf3e
00000230: 27d4 1d3e b888 1b3e 4845 ab3e ab8e 1b3e
00000240: b5a8 c0bc 984a be3e 6b6e eebd 03b1 8a3e
00000250: 328a 113f f512 6a3e f5a6 8ebf 84b6 a1bf
00000260: 627e 91bf 9b87 babc d678 76c0 11c0 ccbf
00000270: c774 c1be 1fd5 ff3f e786 993e 7804 823f
00000280: 291d b43d c777 b13c a66b b4be 23dc c5bd
00000290: 4b75 81bd 7adb ef3d 8b21 87c0 fff6 053f
000002a0: b372 d03e f9f3 57bd 7b0b fb3d 5975 0f3e
000002b0: 7842 8bc0 2fbd 193e d46e 403e d2f2 d03d
000002c0: 8cd9 04bf ceab 0c3f 9f62 1f3f d816 4ebf
000002d0: 53b5 ffbc 3161 91be 0d5a 22be 8352 85be
000002e0: e33d 043f 0ef3 7d3e df7b 973f 8b6c fb3e
000002f0: d1a6 0ebf b5ba 58be 0c0e bd3e d99d 3bbe
00000300: 56c8 263f 4d43 603c 672c cbbf 198d d23d
00000310: cffc f2bd b64a adbe d674 27bf f273 7f3e
00000320: 9097 18be f7f9 fb3e e202 b3bd 293a b5bf
00000330: eec4 93bf d5a7 0fc0 eada c4bc 08e1 113f
00000340: e217 1bbf a5b3 4dbf 874e 653d 32c3 603f
00000350: ab63 183e cc05 033d 4134 4abe c881 b9bf
00000360: 5cdc a13d 64cf 56bf 3074 9dbd f51b 86be
00000370: 6a35 9ebf 30af b5bd a4b9 b2bd ea02 95bf
00000380: fc17 413f 619e 3ac0 10f6 8ebf efbb 093e
00000390: ef0d 743e 996e b43d a414 e4bf 7f32 a83d
000003a0: 1930 11bf 9ffa e63d 3b75 4e3f 4cf4 51bf
000003b0: 5877 8d3f 0455 5fbe 481e f33e 7847 80be
000003c0: d552 46bf a1a5 4c3f 2683 b6be d6f0 04bf
000003d0: 9f7c 343d fa31 35bf 8ea0 c13e 0ce9 7c3b
000003e0: 3ef3 d3bc c860 19bb cacb 29be 3761 d3be
000003f0: 107a ce3d 2c3b 2fbf b8b2 2dc0 16f0 37bd
0.35763615 -1.0587405 -0.13531494 0.20053966 0.3329841 0.72971004 0.17229907 0.00035556382
-0.0670319 -0.14835812 -0.120725304 2.3303974 -0.10634017 0.012764578 0.06620481 0.16338885
-0.18585642 0.32436937 0.15415479 -0.29291484 -0.38383386 -0.18738863 -4.9716806 0.47292796
0.3601847 0.89349896 -0.1401847 -5.277133 0.61469024 0.48549604 -0.1435481 1.4338093
-1.8705997 0.7757523 -0.0017819412 0.05041894 -0.12829605 -0.02704863 1.3679848 -0.56716394
-1.8233051 0.15569189 -3.8428795 -0.3417597 0.24539354 -0.09601587 0.31938243 0.17036739
-2.2115047 -1.9019573 -3.4903712 -0.98012376 0.17245921 0.14770612 0.04065889 0.3192553
0.17160912 -1.8799624 -1.7148161 -1.0284635 -2.1540108 0.9576398 -2.6935263 0.03749514
0.74306077 0.19538759 0.6040782 -0.013864501 -3.2029274 -2.4786994 -1.3133953 -0.20360191
0.07720907 1.0834819 0.017277248 0.009119304 0.52168816 3.2972255 -0.05915832 -0.3794164
0.98108745 -0.06458341 0.23094545 0.91401654 -0.068799414 -0.08621042 -0.0116011165 -5.307394
-0.179103 -3.3077476 -3.189522 -0.038735114 -0.5431328 0.2987928 0.007884053 -0.86135614
-0.2982347 -0.16571501 -0.62506384 0.27258617 0.51042044 -0.52014226 -4.171998 -1.06129
-0.8884392 0.19502474 0.45556882 0.48444664 -0.793671 -0.6842347 0.2792697 0.04576705
-0.3723143 -0.6631862 -1.1330141 -2.8036156 -0.35446563 -0.29738498 -0.5715259 -3.0428
0.08041981 -0.1476248 -0.02218168 -0.90542805 0.052227397 0.362475 0.15312839 0.034417886
-3.764467 0.11733815 0.22480533 -0.75631964 -0.0680803 0.2891496 0.2803153 0.3870524
-0.2185686 -0.13648719 2.0726469 0.3746085 0.15412961 0.15188873 0.33451295 0.15191142
-0.023517946 0.37166286 -0.11642154 0.27088174 0.56851494 0.22858794 -1.1144701 -1.2633824
-1.1366694 -0.02276974 -3.8511252 -1.5996114 -0.37784407 1.9986914 0.29985735 1.0157614
0.08794624 0.02166356 -0.3523838 -0.09661128 -0.063212 0.11711784 -4.2228446 0.5233001
0.4071251 -0.052722905 0.12258049 0.14009608 -4.351864 0.15013574 0.18792278 0.10202564
-0.5189445 0.54949653 0.6225986 -0.80503607 -0.031214392 -0.28394464 -0.15854664 -0.26039514
0.5165693 0.2479975 1.1834677 0.4910625 -0.5572329 -0.21164973 0.3692478 -0.18321933
0.6514944 0.013687921 -1.5872926 0.102808185 -0.11864626 -0.33846062 -0.6541265 0.24946573
-0.14901567 0.49214146 -0.08740784 -1.4158374 -1.1544473 -2.2446187 -0.024030168 0.56983995
-0.6058332 -0.8035224 0.055983093 0.87797844 0.1488177 0.03198795 -0.19746496 -1.4492731
0.07903358 -0.839102 -0.07688177 -0.26193205 -1.2360051 -0.08871305 -0.087268144 -1.1641514
0.7542722 -2.9159167 -1.1168842 0.13450597 0.2383344 0.08810157 -1.7818799 0.08212756
-0.56714016 0.11278271 0.8064763 -0.8201339 1.1052046 -0.21809775 0.4748404 -0.25054526
-0.7747014 0.7994023 -0.35646933 -0.51929986 0.04406416 -0.70779383 0.37817806 0.0038591055
-0.025872823 -0.0023403633 -0.16581646 -0.41285107 0.10081875 -0.68449664 -2.7140331 -0.0449067

bias f4 [4]
00000000: 05f1 b8bf 5458 7bbf 9c1a fcbf c3ac 20c0
-1.4448553 -0.98181653 -1.969562 -2.5105445
